examples/submissions/SoftComputing2023/data/ACAS XU/Networks/ACAS_XU_5_3.onnx (onnx, 108361 bytes, 14 tensors)

FC0_bias f8 [50]
0	0xbfd7c764adff822c	-0.371545
1	0x3fe50f55de58e64b	0.658122
2	0xbfcc902de00d1b71	-0.22315
3	0x3fe0a5aab4741073	0.520223
4	0x3f91ca628f415103	0.0173736
5	0xbfa1a579a1ac8d92	-0.0344656
6	0x3fc433482be8bc17	0.157815
7	0xbfd323a29c779a6b	-0.29905
8	0xbfe58728e92d55a4	-0.672749
9	0xbfe4c88e79aae6c9	-0.649482
10	0xbfe04165907d9125	-0.507983
11	0xbfe62d3415b1422d	-0.693018
12	0x3faec18c26ea4f95	0.0600704
13	0xbfbfd8cf398e9707	-0.124402
14	0xbfd8d106ee30caa3	-0.387758
15	0xbf7ce02010c1993d	-0.00704968
16	0x3fd8a24cc6822ff1	0.384906
17	0xbfaef2deaf4d6005	-0.0604467
18	0xbfead1d4738a3b58	-0.838114
19	0x3fc7713ad5bee3d6	0.183143
20	0x3f862a94284090ea	0.0108234
21	0xbfdf59ea57214f05	-0.489863
22	0xbfec306a2b1704ff	-0.88091
23	0x3fdaf1d81f106680	0.421011
24	0x3f42f6c7f2f3521d	0.000578735
25	0xbfd694812be48a59	-0.352814
26	0xbfabdfb78b1c2855	-0.0544412
27	0x3f913de0355f5d5e	0.0168376
28	0xbf93cdf845f75b16	-0.0193404
29	0x3fd289b52007dd44	0.289655
30	0xbfdee82949a56580	-0.48292
31	0xbfe2794c87980f56	-0.577307
32	0xbf923ce3b61d5ddf	-0.0178104
33	0xbfe532f449129889	-0.66247
34	0xbfa1692e97c2ffc4	-0.0340056
35	0xbfcc728e92d55a3a	-0.222246
36	0xbfc02ed352220bc4	-0.126429
37	0xbfdae414e7ee9143	-0.420171
38	0x3fce268900c521de	0.235551
39	0x3f9f85e4b0ef20b5	0.0307842
40	0x3fcb5831f03d145e	0.213629
41	0xbf996bef3c635d9d	-0.0248258
42	0x3fb726e978d4fdf4	0.0904375
43	0x3fd01465e8922531	0.251245
44	0x3fd38dbcec84f8f9	0.305526
45	0xbfbfc31df761cbcd	-0.124071
46	0xbf97119b32f6cd51	-0.0225281
47	0xbfcd63cb81733227	-0.229608
48	0x3fbfb65668c26139	0.123876
49	0x3fc290f733a8a3f9	0.145049

FC0_weight f8 [5, 50]
0	0xc0019a5657fb6998	-2.20036
1	0x3ffe4193b3a68b1a	1.89101
2	0x3f8d052934acaff7	0.01417
3	0x3f757847646d92d6	0.00524166
4	0xbfad9ff4fd6d7e89	-0.057861
5	0xbfccaae297396d09	-0.223965
6	0xbfc90014f8b588e3	-0.195315
7	0xbfe53d188f42fe82	-0.663708
8	0x3fa48bab9a4d1dc0	0.0401281
9	0xbf85c52106e0c4d1	-0.0106299
10	0xbf7077fd11b91001	-0.00402068
11	0xbf6eb8cd667ab34f	-0.00375023
12	0x3fb818b1a7ad5893	0.0941268
13	0xbfaae0c82c541be1	-0.0524962
14	0xbf691bd5738f6ec8	-0.00306503
15	0xbfb1343df52e14e6	-0.0672034
16	0xbf83e59acef8cc04	-0.00971528
17	0x3f431fde52ed48ff	0.000583633
18	0x3fb7affe5feccfa2	0.0925292
19	0x3f905993194cd820	0.0159667
20	0x3f820630c69c5c17	0.00880087
21	0xbf852794997f9867	-0.0103294
22	0x3fb50aa5756feea5	0.0821937
23	0x3f76be932332dffc	0.00555284
24	0xbf7dc4ef5dc659c1	-0.00726789
25	0x3f40ccfb5fa11426	0.000512717
26	0xbfdd07b784662bae	-0.453596
27	0x3f962b719dd20d7e	0.0216501
28	0x3fa6f4b47262f3eb	0.0448357
29	0xbf83fe9648814e1e	-0.00976293
30	0xbffac3fe5c91d14e	-1.67285
31	0x3fad367bbd0fc067	0.0570563
32	0x3f70410dbc563211	0.00396829
33	0xc00420d4562e09ff	-2.51603
34	0x3fc53c9abb01c92e	0.165912
35	0xbff10826aa8eb463	-1.06449
36	0x3f6940e3f5de3e0e	0.0030827
37	0xbf9e3d816aceaaf3	-0.0295315
38	0x3fa439e1a31da6da	0.0395041
39	0x3f82ffecb4c9a0c8	0.0092772
40	0x3f64c274af2978ca	0.00253413
41	0x3fa4e142a596fdde	0.0407811
42	0x3fe0368cef672b88	0.506659
43	0x3f9eeb04c6385e15	0.0301934
44	0x3fb4678f5b52362e	0.0797052
45	0xbfcd5e9e1b089a02	-0.22945
46	0xbfece887a8d64d7f	-0.903385
47	0x3fc1f61240746456	0.140322
48	0xbfd8396d0917d6b6	-0.378505
49	0x3fb66a6c8564586f	0.0875614
50	0x3f9d44c886eceeab	0.0285827
51	0xbf745c5b1fb653ba	-0.00497089
52	0x3fe92979e16d6dc2	0.786313
53	0x3fc6f123c42a66dc	0.179234
54	0xbfd6248d7e02645e	-0.345981
55	0xbfe262da554b8bf0	-0.574567
56	0xbfea5d701d9f4d38	-0.823906
57	0x3fe27d9dba908a26	0.577834
58	0x3ff5d6eac8605682	1.36497
59	0x3fd4240fa9c12f0a	0.314701
60	0xbfe5377186551937	-0.663018
61	0x3fb58e721e2a8d72	0.0842048
62	0xbfe976a7264a16a5	-0.795734
63	0x3fefb61fe21d96ea	0.990982
64	0xc00015ca6ca03c4b	-2.01064
65	0x3fceb7564302b40f	0.23997
66	0xbfc784d338f79852	-0.183741
67	0xbfe383cafb3b7521	-0.609838
68	0xbf79ef7fd5225bcb	-0.00633192
69	0x40000053e2d6238e	2.00016
70	0xbfb1961d0d570098	-0.0686968
71	0xbfc7f5f91600f345	-0.187194
72	0x3fa3b6be6d8e78d4	0.0385036
73	0x3fd0c9f2fdb8fde3	0.262326
74	0xbfc354c985f06f69	-0.151025
75	0x3fcd219220ff5409	0.227587
76	0x3fd24f3fd933e35c	0.286087
77	0xbfa5d3316adc16ed	-0.0426269
78	0x3fe9f4623d0bfa09	0.811082
79	0xbfa618a5e93334e1	-0.0431568
80	0x3f92c0ee72390280	0.0183141
81	0xbff34d9e83e425af	-1.20645
82	0x3f7786948430fca2	0.00574358
83	0xbf7cecafec166923	-0.00706166
84	0x4002160956c0d6f5	2.26076
85	0x3f9dde73be3dbdd1	0.0291689
86	0xbff96d1394317acc	-1.58913
87	0x3fcc08398a654930	0.219001
88	0x3fe77e06961c3697	0.734134
89	0xbf897d06bbdbe3c1	-0.0124455
90	0x3fbe4628027d88c2	0.118258
91	0x4004015a07b352a8	2.50066
92	0xbfb6eac505582e95	-0.0895198
93	0xbfd5db4cc2507208	-0.34151
94	0xc001814f8b588e37	-2.18814
95	0x3fe299652bd3c361	0.581225
96	0xbf70a4f394e2a5a7	-0.00406356
97	0xc0033e0370cdc875	-2.40528
98	0xbfe2e963dc486ad3	-0.59099
99	0x3fe63e0589acbc8c	0.695071
100	0x3f8b01506218230c	0.0131861
101	0xbf7fa52ece1eb171	-0.00772589
102	0xbfebc388ebcc6c55	-0.867619
103	0xbfca901d19157abc	-0.207523
104	0xbfe1c94d50ebaade	-0.555823
105	0x3fd0a72a7bd48cb5	0.260203
106	0x3fe785942917507f	0.735056
107	0x3f73586ca89fc6da	0.004723
108	0xbff4d657fb69984a	-1.30233
109	0xbfd02bd7f51efb6e	-0.252676
110	0x3ff95f6555c52e73	1.58579
111	0xbfa1d165b8c17d0d	-0.0348007
112	0xbfed33edd8b60f1b	-0.912589
113	0xbfef482e019b0ab3	-0.977561
114	0x3fffbcb3e5753a3f	1.98357
115	0x3ff1a58f7121ab4b	1.10292
116	0x3fcdbc558644523f	0.23231
117	0x3fe2c39de481f538	0.586379
118	0xbf9418068702be20	-0.0196229
119	0xbfa866757fdedd71	-0.0476567
120	0x3fc887ca643cc07b	0.191644
121	0x3fd0403148776816	0.253918
122	0x3f67c4b80061fa9c	0.00290142
123	0xbfd45c63ae2541d9	-0.318139
124	0x3fcf3dfb0d51f81a	0.244079
125	0xbfcff676ea422899	-0.249709
126	0xbf9e1ec18c26ea50	-0.0294142
127	0xbff7d8793dd97f63	-1.49035
128	0x3fe6b3636f3b213e	0.709398
129	0x3fabe1d06a103f12	0.0544572
130	0x3f750dbe599775fe	0.00514006
131	0x3ff4d379fa97e133	1.30163
132	0x3f6baa8b2e71d85f	0.00337722
133	0xbf862357f3dcdc0f	-0.0108096
134	0xc000e839042d8c2a	-2.11339
135	0xbfb17be121ee6751	-0.0682965
136	0xbfe379b56323bbc7	-0.608607
137	0xbfc6326e115592da	-0.173414
138	0xbfe94faacd9e83e4	-0.790975
139	0x3ff564b87bdcf030	1.33709
140	0xbfd528672756861f	-0.330591
141	0xbf73a33828e65331	-0.00479433
142	0xbfc09717df19d66b	-0.129611
143	0x3fe1f4bc6a7ef9db	0.561125
144	0x3faab8b9f0513653	0.0521906
145	0xbff45b2d4d4024b3	-1.27226
146	0x3f8b4e7d3b950184	0.0133333
147	0x3fed6fb4c3c18b50	0.919886
148	0x3ff7ad4d4024b33e	1.47981
149	0x3fe412684cf0739b	0.627247
150	0x3f701d064b1db59e	0.00393393
151	0xbfc7d35653c9abb0	-0.186137
152	0xbfdb43fa2ad3e921	-0.426024
153	0x3fe8d10d38cda6e7	0.775519
154	0xbfd19e4d5d80e497	-0.275287
155	0xbfdf54434e3369ba	-0.489518
156	0x3fd3e1c15097c808	0.310654
157	0x3fc3182a9930be0e	0.149175
158	0xbfe045f5ad96a6a0	-0.50854
159	0xbfe8b800218def41	-0.772461
160	0xbfb6ad0734a7a779	-0.0885777
161	0xc0008b6d86ec17ec	-2.06808
162	0xbfa6d54cce0eec2c	-0.0445961
163	0x3fae15c05ba54244	0.0587597
164	0xbfd84c3c18b502ac	-0.379653
165	0x3fb69b936edd2d6d	0.0883114
166	0x3fd74a90470a808d	0.363926
167	0xbfdf325d4a5df224	-0.487449
168	0xbfe1f57928e0c9da	-0.561215
169	0x3fd0f8ca8198f1d4	0.265185
170	0xbfed1cd8127b2cc7	-0.909771
171	0xbfd3ff8ec0f88334	-0.312473
172	0xbfe84b89d6adf71f	-0.759221
173	0x3fe4f459d99029ae	0.654828
174	0xbff04b6848beb5b3	-1.01841
175	0xbff2a95e9e1b089a	-1.16635
176	0xbfcd33b96af038e3	-0.228141
177	0x3fb600dd75917c95	0.0859507
178	0xbfdf1908e581cf78	-0.485903
179	0x3fef4c55432873bd	0.978068
180	0x3f955cd268ee0023	0.0208619
181	0xbfd8765ba6efc372	-0.382224
182	0xbf8f7d665d2c2b01	-0.0153759
183	0x3f744df2d21a13a7	0.00495715
184	0x3fb5d41a9ee7b734	0.0852677
185	0x3f9f2b9c65fcb41b	0.0304398
186	0x3fe45338f7985272	0.635159
187	0xbfee9ffb480a5acd	-0.957029
188	0x3fdbf33ca31e7d9a	0.436721
189	0xbfa91baa8071aa67	-0.0490392
190	0xbfd9c4d22c881e47	-0.402638
191	0x3f84a92cb493f0e3	0.0100883
192	0x3fe54e5929670197	0.665814
193	0x3fcbe13b18dac259	0.217811
194	0xbfc5e7e1fc08fa7b	-0.171139
195	0xbfcf54a7f8012dfd	-0.244771
196	0xbf5d0a7cdb9dcb02	-0.00177252
197	0x3fbab8c75c4a83b2	0.104382
198	0xbf93e4b29c9fde57	-0.0194271
199	0xbfda436fc158fb44	-0.410366
200	0xbf7d7c29f216de3e	-0.00719849
201	0x3fd1cf52b90a7829	0.278279
202	0xbfe594855da27286	-0.67438
203	0xbfe60ef99806f263	-0.689328
204	0x3fb701358a258850	0.0898622
205	0xbfc4273929ed3954	-0.157447
206	0xbfe392ea52ef911d	-0.611684
207	0xbfe6d45c78a6dacb	-0.713423
208	0x3fc6f57f737da61e	0.179367
209	0xbff9e809d495182b	-1.61915
210	0xbfec5c28f5c28f5c	-0.88625
211	0xbfab3fd933e35c5b	-0.0532215
212	0x3fa2271af6fc4b40	0.0354546
213	0xbfe6f3c70c996b76	-0.717258
214	0x3fe6dfbd6a593a2e	0.714812
215	0xbfb359a9bf818aaf	-0.0755869
216	0xbffe993b3a68b19a	-1.91241
217	0xbff465e892253112	-1.27488
218	0xbff84d6a161e4f76	-1.5189
219	0xbfae89e4f0b000e4	-0.0596458
220	0x3ff5858793dd97f6	1.3451
221	0xbffee924f227d029	-1.93192
222	0xbffa859210385c68	-1.65761
223	0x3fed24a6a875d56f	0.910724
224	0x3fd444998d045fe1	0.316687
225	0xbff760c9d9d3458d	-1.46113
226	0xbfc97564302b40f6	-0.198895
227	0xbfb6a6f7502e15bd	-0.0884852
228	0x3fd0e6106ab14ec2	0.264042
229	0xbfe822ca9ac36545	-0.754247
230	0xbfd8b7ed41b75a75	-0.386226
231	0x3fdd91819d2391d5	0.462006
232	0xbf6aee17f615f159	-0.00328736
233	0x3f9c539c5f46b774	0.0276627
234	0x3fc69fa54c554328	0.176747
235	0xbfd4b7739f340d4e	-0.323697
236	0xbfee1a027525460b	-0.940675
237	0xbff15fd8adab9f56	-1.0859
238	0xbff83c2b94d94079	-1.51469
239	0x3fa7648c7192ea53	0.045689
240	0x3fec8b75ea67e847	0.892024
241	0x3f67beb88cf9ce0d	0.00289856
242	0xbff287f23cc8de2b	-1.15819
243	0x3ff861c58255b036	1.52387
244	0x3fba102795703f2d	0.101809
245	0x3fe162ae4b018612	0.543296
246	0xbfa02afdda8bd231	-0.031578
247	0xbfd6638433d6c722	-0.349824
248	0x3fca9dcf893faf42	0.207941
249	0x3fba778140dd3fe2	0.103386

FC1_bias f8 [50]
0	0xbfc576a2f48c2e77	-0.167683
1	0x3fd3e0e736049ecb	0.310602
2	0xbfef0780fdc1615f	-0.969666
3	0xbfa548ba83f4eca7	-0.0415705
4	0xbfdecb9a9da597d5	-0.481177
5	0xbfe5060780fdc161	-0.656986
6	0xbfb04202030f7ef9	-0.0635072
7	0x3fa969354dbfa674	0.0496308
8	0x3ff7ba7daa4fca43	1.48303
9	0xbfd6441bb8c32a8d	-0.347907
10	0xbf7dd47ef2cf3fef	-0.00728273
11	0x3fd3bdf8f4730404	0.30847
12	0x3ff5578811b1d92b	1.33387
13	0x3fddd6f544bb1af4	0.466245
14	0xbf8f3e3920b2fdef	-0.0152554
15	0xbfe0297396d0917d	-0.50506
16	0xbfdc1ee2435696e6	-0.439385
17	0xbfe7a5d6bebe1651	-0.738994
18	0x3fe4f65fd8adab9f	0.655075
19	0xbfc501a79fec99f2	-0.164113
20	0xbfadae66b0384190	-0.0579712
21	0x3ff72cd9e83e425b	1.44845
22	0x3f94aa5ab1fd3dae	0.0201811
23	0xbfda2b841248d7e0	-0.408906
24	0xbfd84d2f5dbb9cfa	-0.379711
25	0xbfe6b72c5197a249	-0.70986
26	0xbfee799a1fd1569f	-0.952344
27	0xbf92207fd24836d0	-0.0177021
28	0xbffdec764adff823	-1.87023
29	0xbf81392aeeec0679	-0.00840982
30	0x3f96f66c028799bd	0.0224244
31	0xbfe5cef459d9902a	-0.681513
32	0xbfe14c0379314446	-0.540529
33	0x3fc973eab367a0f9	0.19885
34	0x3fa2ea7e8e7b5866	0.0369453
35	0xbfdf8c32a8c9b845	-0.492932
36	0xbf8b3ab939721195	-0.0132956
37	0xbf8772a0308c8fc6	-0.0114491
38	0x3fecc5e2cdc011d3	0.899156
39	0xbfc46950fc71d606	-0.159464
40	0xbff8016f0068db8c	-1.50035
41	0x3fe23fa0945f9df5	0.570267
42	0xbff556777079e59f	-1.33361
43	0xbfd1d93c46d82ba6	-0.278884
44	0xbfda0807357e670e	-0.40674
45	0xbfe804ad794a6eb9	-0.750571
46	0x3fe415d0b73d188f	0.627663
47	0x3fe1df202107b784	0.558487
48	0xbf99c19a69a331c9	-0.0251526
49	0xbfaf2eb7a36fdc31	-0.0609033

FC1_weight f8 [50, 50]
0	0xbfd841aef6f8f041	-0.379009
1	0x3fe8ed6ba8c58687	0.778982
2	0x3ff139eadd590c0b	1.07664
3	0x3f9fcc83d1b1381c	0.0310536
4	0xbfd103bc4d22c882	-0.265853
5	0xbf7c5bf9251a6bbc	-0.00692365
6	0x3fbc83558a761028	0.111379
7	0x3fddbcdfefbf401c	0.464653
8	0x3fce60242d05f288	0.237309
9	0xbfeb8b780346dc5d	-0.860775
10	0x4000109bf9c62a1b	2.00811
11	0x3f97d354a64a8204	0.0232671
12	0xbfe072d3c792d128	-0.514017
13	0x400a7c6fbd273d5c	3.31076
14	0x3f9d06507c195612	0.0283444
15	0x3f8a9ff426ade9b3	0.0130004
16	0xbff2129888f861a6	-1.12954
17	0x3fce11904b3c3e75	0.234911
18	0x3fdd9f2fdb8fde2f	0.462841
19	0xbfce12839042d8c3	-0.23494
20	0x3fb9118a6bff2c9b	0.0979239
21	0xbfb5f65c124f8ddd	-0.0857904
22	0x3fe90e27e0ef9980	0.782978
23	0xbfcc554b8bef8ceb	-0.221353
24	0xbfb617382ae9b896	-0.0862918
25	0x3fc2e0b0af5fd47c	0.147482
26	0x3fe17dc7abfb9bed	0.546604
27	0xbf6749bde426b099	-0.00284278
28	0x3fb2baa3d55cbe47	0.0731604
29	0xbfa698061ba2f3b5	-0.0441286
30	0x3fe3cb48d3ae685e	0.618565
31	0x3fd6ef77f27fe4bd	0.358366
32	0x3fe4bc07ee0b0af6	0.647953
33	0xbfe7a9307af20ea6	-0.739403
34	0xbfac377ef24e6695	-0.0551109
35	0xbfb0be7afa722186	-0.0654065
36	0xbf8c409afac2a95d	-0.0137951
37	0xbf9c3c6286ddd533	-0.0275741
38	0xbfdc5d851654d61b	-0.443208
39	0xbfb7968009a59b30	-0.0921402
40	0x3fe27cce1c58255b	0.577735
41	0xbfe30c0ad03d9a95	-0.59522
42	0xbfe5639f77292c49	-0.668411
43	0x3fe64dd0d8cb07d1	0.696999
44	0x3f9f166e008e9b39	0.030359
45	0xbfd87d9dba908a26	-0.382667
46	0x3fb0b74a8488905d	0.0652968
47	0xbfcbb3fa6defc7a4	-0.21643
48	0xbfab53210f4440a2	-0.0533686
49	0x3f8d4bd5c16814bc	0.0143048
50	0x3fcb3c1ce6c093d9	0.212772
51	0x3fa5f0c6a718de1d	0.0428526
52	0xbfe7a8112ba16e7a	-0.739266
53	0xbfc61f18c9fb6135	-0.172824
54	0xc0040562e09fe868	-2.50263
55	0x3fdd8387df5cf249	0.461153
56	0xbfdbd79d0a67620f	-0.435035
57	0xbfdac77574f722e2	-0.418424
58	0x3fc058eeae9ee45c	0.127714
59	0x3f928367feecda89	0.0180794
60	0xbfc7e9fadafd1138	-0.186828
61	0x3fd083be6601bc99	0.258041
62	0x3fe961fc08fa7a85	0.793211
63	0xbffc4db37c99ae92	-1.76897
64	0xbf9dedff4c7bd995	-0.0292282
65	0xbfba17b0f6ad70e7	-0.101924
66	0xbfffb66516db0dd8	-1.98203
67	0xbfa77740a93d7b8c	-0.0458317
68	0x3fa8c6adcedac406	0.0483908
69	0x3fa11dc35f65c125	0.0334302
70	0xbfc21da7b0b39192	-0.14153
71	0x3fa28f9be9d5f20f	0.0362519
72	0xbff4fff583a53b8e	-1.31249
73	0x3f633073e62bc37d	0.00234244
74	0x3fd3411c2a023209	0.300849
75	0x3fcb5989df1172ef	0.21367
76	0x3fa41f49716319ab	0.0393012
77	0xbf98065ebed23847	-0.0234618
78	0xbfb643102008b404	-0.0869608
79	0xbf7661e97f0a2141	-0.00546447
80	0xbfe82bc2fc69728a	-0.755342
81	0xbffba1d53cddd6e0	-1.72701
82	0xc004b02b40f66a55	-2.58602
83	0xbf757a0fbb89d95d	-0.00524336
84	0xbfbd8ba40d90e23b	-0.115412
85	0x3fa6d022c2a2a75f	0.0445567
86	0xbfa60677e945a957	-0.0430181
87	0xbfa04e17bb07a86b	-0.0318458
88	0x3fc2d4562e09fe87	0.147105
89	0x3fc434d26fa3fcca	0.157862
90	0x3fd634330d73860a	0.346936
91	0x3fe3ef7e3d1cc101	0.622985
92	0x3fc738ac18f81e8a	0.181417
93	0xbfe177e5eaab0425	-0.545886
94	0x3fd1b9e492bc2fc7	0.276971
95	0x3fd242d8c2a454de	0.28533
96	0x3fc1bc664d3bf2f5	0.138562
97	0xbfcfd63886594af5	-0.248725
98	0x3f94d18b786ea6a7	0.0203306
99	0xbfc642b734b51373	-0.173911
100	0x3fc7b95a294141ea	0.185344
101	0xbfd1b44e50c5eb31	-0.27663
102	0xbfcd30b5aa715832	-0.228049
103	0x3fa260659b654bb4	0.0358917
104	0x3feaa25529fe004b	0.832316
105	0x3fe33912dba4d6e4	0.600717
106	0x3fc2e2e2b8c75c4b	0.147549
107	0x3fec0c34c1a8ac5c	0.87649
108	0xbfdaa786c226809d	-0.416475
109	0xbfa7af78282fc9f2	-0.0462606
110	0xbfd3041461b6d43d	-0.297124
111	0xbfd48a86d71f3626	-0.320955
112	0xbfc939fba450acc1	-0.197082
113	0xbfcd92b7fe08aefb	-0.23104
114	0xbf792c3bc82d2adb	-0.0061457
115	0x3fe98eb8950763a2	0.798672
116	0x3fe5ccc6822ff089	0.681247
117	0x3fe0debfa8f7db6e	0.527191
118	0xbfcb8d2e514c22ee	-0.215246
119	0x3fe28f1b25f633ce	0.579969
120	0x3fabe7c724165fbe	0.0545027
121	0x3fe9a702a3486f05	0.801637
122	0x3fdf7f90d9d7774b	0.492161
123	0x3fa8ff469c9c8359	0.0488226
124	0x3fe50854cdb7ae58	0.657267
125	0x3fbaf71a7e308787	0.105333
126	0x3fdb3da2f8bdec5f	0.425637
127	0xbf7d35f6311f31c9	-0.00713154
128	0x3feaa70d1fa33376	0.832892
129	0xbf98a4cf57c187f5	-0.0240662
130	0x3fb76d52e9b1dfe1	0.0915119
131	0x3fd24e618ce2d1f2	0.286034
132	0x3fd100713f077ccc	0.265652
133	0xbfe1adab9f559b3d	-0.55245
134	0xbfaab63c678f5b52	-0.0521716
135	0x3fe1031055b89939	0.531624
136	0xbf7e3a47fa6a94c9	-0.0073798
137	0x3fa28cd48f38ed87	0.0362307
138	0xbf9805f35f07cd54	-0.0234602
139	0xbf923041106b880e	-0.0177622
140	0xbfdcd113836a832c	-0.450261
141	0x3fc1c43b2dd377e2	0.138801
142	0xbfde23fee2c98e54	-0.470947
143	0x3fb3dfeb8d823422	0.0776355
144	0xbfb085c5a73e9dcb	-0.0645412
145	0x3fc3b6a1e81cb46c	0.154011
146	0x3feedb4edb2f661f	0.964271
147	0xbfb222da1f9ba6ba	-0.0708443
148	0xbfad7f1c3fd1a727	-0.0576104
149	0x3fabca99eca5b028	0.0542801
150	0xbfc6954a7f8012e0	-0.176431
151	0xbfdaff583a53b8e5	-0.421835
152	0xbfab3f19f142cddb	-0.0532158
153	0xbfc021d10b1feeb3	-0.126032
154	0xbfdac621b7e0ac7e	-0.418343
155	0xbfdec6e6d9be4cd7	-0.48089
156	0x3fe32b27cbf6e3f8	0.599018
157	0xbfb03e5321e603d5	-0.063451
158	0xbff4d657fb69984a	-1.30233
159	0x3fdafdb8fde2ef4e	0.421736
160	0xbfdf783dff3f0fe0	-0.491714
161	0xbfd2601bc98a222d	-0.287116
162	0x3fdfaccd530489d2	0.494922
163	0xbfd122ccb3a2595c	-0.267749
164	0x3f720a49042adcf8	0.00440434
165	0xbff4719f7f8ca81a	-1.27774
166	0xbff01e7967caea74	-1.00744
167	0x3fcdf86e3b46fdeb	0.234144
168	0x3fc9694467381d7e	0.198525
169	0xbfe4b0142f61ed5b	-0.646494
170	0xbfc3ccc89b0ee49f	-0.154687
171	0x3fb7a489b7a4469c	0.0923544
172	0xbfc056f75d9a0f0a	-0.127654
173	0xbfeefaf640639d5e	-0.968135
174	0x3fa3f741eb5cdacc	0.0389958
175	0xbfbb54f3775b8130	-0.106765
176	0xbfdcff2a172abef0	-0.453074
177	0x3f7d18dfcad65288	0.0071038
178	0xbfd834d6a161e4f7	-0.378225
179	0x3f51376aa56554c3	0.00105081
180	0xbfd063497b7414a5	-0.25606
181	0xbfd445996744b2b7	-0.316748
182	0xbfde625204af9229	-0.474751
183	0xbfe3535c9e6687f4	-0.603926
184	0xbf906d86155856d9	-0.0160428
185	0xbfdb847f562174c5	-0.429962
186	0xbfa41e28dff31a3e	-0.0392926
187	0xbfa0e0eec2c0da50	-0.0329661
188	0xbfb474f7f9a1412e	-0.0799098
189	0x3fa7f935e1635cc7	0.0468232
190	0xbff140ebedfa43fe	-1.07835
191	0x3fc58c197e564734	0.168338
192	0x3ff121dfb9389b52	1.07077
193	0xbfb8359d70beaefd	-0.0945681
194	0xbfeffa11a975afb0	-0.999276
195	0xbfda0685553ef6b6	-0.406648
196	0x3fe546a7ef9db22d	0.664875
197	0xbfb71871100d943d	-0.0902167
198	0xbfa9d4d4d90ac8b1	-0.0504519
199	0xbfb7fe0db778a7b2	-0.0937203
200	0xbfd9ead9274e22a3	-0.404959
201	0xbffb29888f861a61	-1.69764
202	0x3fccf68be2f7b17d	0.226274
203	0x3fb3ba89d429b860	0.0770651
204	0x3fcaa62aa19439de	0.208196
205	0xbfb11213feba85a2	-0.0666821
206	0x3fea42ce4649906d	0.820655
207	0x3fdaa38327674d16	0.41623
208	0x3ff9abb44e50c5eb	1.60442
209	0x3fe44b4aec8d5c74	0.634191
210	0xbfdae004b7f5a533	-0.419923
211	0xbfe372c7325918a0	-0.607761
212	0x3fcf9e9d0e991ff7	0.247028
213	0xbfe79363f572de44	-0.736742
214	0xbf98654427773d4e	-0.0238238
215	0x3fdf6390c9107faa	0.490452
216	0x3f89a712fee04550	0.0125257
217	0x3fc5349385836220	0.165667
218	0x3fe53504c48adeec	0.662722
219	0xbfc1e310dbf0563f	-0.139742
220	0x3fb379ed2be7e557	0.0760792
221	0x3fb97cf7a2636cb7	0.0995631
222	0x3fdcb2074ea8da7f	0.448366
223	0x3fe89b0ab2e1693c	0.768926
224	0x3fe72d666a98244f	0.724292
225	0x3fee50e560418937	0.947375
226	0x3fd3b18548a9bcfd	0.30771
227	0x3f970563ed0f6274	0.0224815
228	0x3fd2a005c4651f3f	0.291017
229	0xbfa6091049fa1f15	-0.0430379
230	0xbfa5319ede7cf879	-0.0413942
231	0xbfd05cd91eeaa6d2	-0.255667
232	0x3fda83e8576cce5f	0.414301
233	0xbfe5220ff540895d	-0.660408
234	0x3ff000fba8826aa9	1.00024
235	0x3ff4f46887a8d64d	1.30967
236	0x3fa07f13059641f6	0.0322195
237	0xbf9137a9ba790d32	-0.0168139
238	0x3fe2d410f94c8798	0.588387
239	0xbff6398c7e28240b	-1.38905
240	0xbfb8051c9f72f76e	-0.093828
241	0xbfb16a436ab8db7e	-0.0680277
242	0x3fedf852f7f498c4	0.936563
243	0x3fd65f138bcdfefc	0.349553
244	0xbfdbedaec4a4095f	-0.436382
245	0x3fc06b69db65ecc4	0.128278
246	0x3fec17c3d68405b4	0.877901
247	0x3fde4c3c18b502ac	0.473403
248	0xbfa3ca5d86c3d400	-0.0386533
249	0x3f97f3c2041bee73	0.0233908
250	0xbfc13d9ec7000432	-0.134693
251	0xbfe0dbd2fa0d77b8	-0.526834
252	0x3fb95fa72f84520a	0.0991158
253	0x3fa2bacf7446f9ba	0.0365815
254	0x3fe1d75e2046c765	0.55754
255	0xbfc354eb13dfb0d5	-0.151029

FC2_bias f8 [50]
0	0x3fc3542a23bff8a9	0.151006
1	0x3fe93e4cd7492791	0.788855
2	0xbff32bc947064ecf	-1.19819
3	0xbfe2d7c914b167ec	-0.588841
4	0xbfd96a8fc0d2c387	-0.397129
5	0xbfd1f5e84f09528f	-0.280634
6	0x3ffaf65fd8adab9f	1.68515
7	0xbfe342cc2d6a9c56	-0.601904
8	0xbffa44bb1af3a14d	-1.64178
9	0xc000ec322291fb40	-2.11533
10	0xbfa61071674b68b4	-0.0430942
11	0xbfe842ce4649906d	-0.758155
12	0xbfb41c292b727492	-0.0785547
13	0x3ff599ae924f227d	1.35002
14	0xbffd3adc0980b242	-1.82687
15	0xbff0b2378ab0c88a	-1.04351
16	0xbfe1a350d2806af4	-0.551186
17	0xc0014eee0f3cb3e5	-2.16354
18	0xbfeafab324851a87	-0.843103
19	0xbfcb8255b035bd51	-0.214915
20	0xbfe9f891e215336e	-0.811593
21	0x3fe1cf1a1986b9c3	0.556531
22	0x3fe1b0a0b1bbcf4f	0.552811
23	0x3fbb4f3fd933e35c	0.106678
24	0x3fdf0620ab713272	0.484749
25	0x3fd61b71758e2196	0.345425
26	0x3ff2060fe47991bc	1.12648
27	0xbff0c00fba8826ab	-1.04689
28	0xbffc45ac471b4784	-1.76701
29	0xbfc22c77574f722e	-0.141982
30	0x3fea333764f11b61	0.818752
31	0xbff6d7fb69984a0e	-1.42773
32	0xbfec442c7fbacb43	-0.883322
33	0xbfe2d7ecbb7f9d6f	-0.588858
34	0x3ff00d8ec95bff04	1.00331
35	0x3fd4b5ed8d36b4c8	0.323604
36	0xc00155df6555c52e	-2.16693
37	0x3fd640d90e23af32	0.347708
38	0xbfe3a14f0520d131	-0.613441
39	0xc00b09906cca2db6	-3.37967
40	0xbfd45d78811b1d93	-0.318205
41	0xbfb0dda993e2a074	-0.0658823
42	0x3fcdfc5cdd50a88f	0.234264
43	0xbff0e50c5eb313be	-1.05592
44	0x3fe8c5953586ca8a	0.774119
45	0x3fdca8d21bc126a6	0.447804
46	0xbfe1bd8e0008637c	-0.554389
47	0xbfeac3f5f91600f3	-0.836421
48	0x3ff39f36262cba73	1.22637
49	0x3fcff687b139c94f	0.249711

FC2_weight f8 [50, 50]
0	0x3fa1c574e9b6e85f	0.0347096
1	0xbfd6a0d349be8ff3	-0.353566
2	0xbfe1236c15d2d01c	-0.535574
3	0x3fd639f340d4dc66	0.347287
4	0xbfb10147fe9c52b1	-0.0664258
5	0xbfe22f8df7a4e7ab	-0.568305
6	0xbff26dbb59ddc1e8	-1.15179
7	0x3fea43d46b26bf87	0.82078
8	0x3ff3cacaff6d3309	1.23701
9	0x3fd5e496ededaec5	0.342077
10	0x3fe4e1932d6ece14	0.652536
11	0x3fc0dbf8b9baa151	0.131713
12	0x3fd2b9c7368ad688	0.292589
13	0xbfe6d8cf398e9707	-0.713966
14	0x3ffbff1950331e3a	1.74978
15	0xbfc09fd7a13c254a	-0.129878
16	0x3f929de8b3b32053	0.0181805
17	0xbfe34864883fd502	-0.602587
18	0x3fe817a67a52ac75	0.752887
19	0x3fe9a253111f0c35	0.801065
20	0x3fd1b178b3700475	0.276457
21	0x3fe234fc610f0e91	0.568968
22	0x3fe8abe0589acbc9	0.770981
23	0xbfef6c8f75536934	-0.982002
24	0xbfd467be553ac4f8	-0.318832
25	0x3fd27b30f8c64fdb	0.288769
26	0xbfd9675147f13059	-0.396931
27	0x3ffb930164840e17	1.72339
28	0x3fc0deb0fadf2ecf	0.131796
29	0x3fb3d359aec7ff08	0.0774437
30	0xbfd8c144028e4fb9	-0.386796
31	0x3feeb13165d39970	0.95913
32	0xbffb47e28240b780	-1.70505
33	0x3fd68d25edd05293	0.352365
34	0x3fdc9edbf8b9baa1	0.447196
35	0xbfb278a1d24d3f4e	-0.0721532
36	0x3fe474adbc664d3c	0.639243
37	0x3ff98e0221426fe7	1.59717
38	0x3fb0294b52e4a962	0.0631301
39	0xbff75edd052934ad	-1.46066
40	0xbfd510b1feeb2d0a	-0.329144
41	0xbfd479420b3d4ae4	-0.319901
42	0x3ff4cb1ee2435697	1.29959
43	0x400617a786c22681	2.76155
44	0x3fe920791c4b9021	0.785214
45	0xbfd5c47a17f4128c	-0.340117
46	0xbfb2921b2016f6bd	-0.0725419
47	0xbfddf10ecb74ddf8	-0.467838
48	0x3fe9541fa7653437	0.791519
49	0xbfc42b1f687b139d	-0.157566
50	0x3ff7f86c226809d5	1.49815
51	0x3fd5b3f63c31df76	0.339109
52	0x3fb305f0dac90ed2	0.0743094
53	0x3fcb6f3b213e3e29	0.214332
54	0x3fe97034b0e1b4bb	0.794947
55	0x3fc6bd987c6327ee	0.177661
56	0xbfe18a222d5171e3	-0.548112
57	0x3fa9d67ba237cdcd	0.0504645
58	0xbff03a92a3055326	-1.0143
59	0xbfd1b7457c0b1359	-0.276811
60	0xbfda7b677f6b1a2a	-0.413782
61	0x3fbb33fc86cebbba	0.106262
62	0xbfc20f345069a4df	-0.141089
63	0x3fd81676640a6b94	0.376371
64	0x3fe6dda48b652370	0.714556
65	0xbfe9548ecd8dbced	-0.791572
66	0xbfd4d5ed06fef7c2	-0.325557
67	0x3fe51b54195cc858	0.659586
68	0xbfde9f44d4456712	-0.478471
69	0x3fe46032db1e9f27	0.636743
70	0x3ff9ea400fba8827	1.61969
71	0x3fe7b0ad46f587d7	0.740317
72	0x3fb791da88773267	0.0920693
73	0x3fd386bdf4c2b51c	0.305099
74	0x3fb8f68be2f7b17d	0.097512
75	0xbf8998a8021228f7	-0.0124982
76	0xbf9c68ec52a411c3	-0.027744
77	0xbfa026966cbe6f3c	-0.0315444
78	0x3fe6056e696a26e5	0.688163
79	0x3f8e2ce96d1683d0	0.0147341
80	0xbfc1fba450acc0be	-0.140492
81	0x3fcb016ce789e775	0.210981
82	0xbfe4d7c0b1359792	-0.651337
83	0xbfc9a3fcc9ea9a3d	-0.200317
84	0xbfe27ce3150dae3e	-0.577745
85	0xbfda7d955714b9cb	-0.413915
86	0x3fd186338b47c73f	0.273816
87	0x3fbe60e51d25aab4	0.118666
88	0xbfdcafa2f05a708f	-0.44822
89	0x3fee15b9a5a89b95	0.940152
90	0xbf9c2bca8925ae0f	-0.0275108
91	0x3fed5e4e69f05ea2	0.917762
92	0x3fa8272a1074c24a	0.0471738
93	0xbfb3afa8cf978268	-0.0768991
94	0xbfc8a5d6bebe1651	-0.192561
95	0xbfd6516db0dd82fd	-0.34872
96	0x3fbe7b0b39192642	0.119065
97	0x3fc5d63022dd7a9a	0.170599
98	0x3fcca0ba1f4b1ee2	0.223655
99	0x3fb949293ebdaaf1	0.0987726
100	0xbfe799ef954eb13e	-0.737541
101	0x3f8a698859d6352b	0.0128966
102	0xbff70c154c985f07	-1.44045
103	0xbfdff7b5aea3161a	-0.499494
104	0xbfdfcf355cd91eeb	-0.497022
105	0x3fd0d2135daad602	0.262822
106	0xbfcaf8bdec5f394b	-0.210716
107	0xbfea4d4cb9ecf638	-0.821936
108	0x400a1bca9691a75d	3.26357
109	0x3fef192ea52ef912	0.971824
110	0xbf79d9b30f367ec2	-0.00631113
111	0x3fdbead4f5903a75	0.436208
112	0x3feddff3f0fe047d	0.933588
113	0x3fe0d6f32bdc26dd	0.526239
114	0x3ffaa0f9096bb98c	1.6643
115	0x3ff62f78feef5ec8	1.38659
116	0x3fb1b852c244b38e	0.0692188
117	0xbfdcff04577d9557	-0.453065
118	0x3ff666277c45cbbc	1.39994
119	0xbfc0c8f75536933a	-0.131133
120	0xbff2e5753a3ec02f	-1.18102
121	0xbfe2c5ef62f9ca5c	-0.586662
122	0x3fc36db0dd82fd76	0.151785
123	0xbff22272862f598a	-1.13341
124	0xbfdec3c9eecbfb16	-0.4807
125	0x3fed82f0e0a84be4	0.922234
126	0xbfd72a2c2374794f	-0.361949
127	0x3fe175dbb9cf9a07	0.545637
128	0xbfd60dbf0563ed0f	-0.344589
129	0x3f98a53ab78bf2e8	0.0240678
130	0xbfc0f312b1b36bd3	-0.132418
131	0x3fcbd07c84b5dcc6	0.2173
132	0x3fed8f2e05ccc89b	0.923728
133	0xc00fabd9018e7579	-3.95891
134	0x3fdfdb50f40e5a36	0.497761
135	0xbfdac165907d9125	-0.418054
136	0xbfea6514c22ee419	-0.824839
137	0xbff7a91fb3fa6df0	-1.47879
138	0x3ff8d5b035bd512f	1.55217
139	0x3fe08a8f3a9b0681	0.516914
140	0x3fda363b256ffc11	0.40956
141	0x3fd48986fcdee350	0.320894
142	0xbfe411f0c34c1a8b	-0.62719
143	0x3fd915e7c8d19589	0.391962
144	0x3fe271d606317269	0.576396
145	0xbfc714013ec460ee	-0.180298
146	0x3fbdac14c660a201	0.115907
147	0x3fe45955714b9cb7	0.635905
148	0x3fb32ef764500bb1	0.0749354
149	0xbfec7cce1c58255b	-0.890235
150	0xbfaabc43e88d1cb4	-0.0522176
151	0x3faa44f34f179548	0.0513073
152	0x3fa79c0b63e150e8	0.0461124
153	0xbf911a90a4fe51aa	-0.0167029
154	0x3f9a393179f58f64	0.0256088
155	0x3fbc2d9cf13cee9e	0.110071
156	0x3fa272d6b7315a15	0.0360324
157	0xbfa8e5710880d802	-0.0486255
158	0x3fa144a39dff59e8	0.0337268
159	0x3fb8b7e83939dd71	0.0965562
160	0x3fbcc5004fb1183b	0.112381
161	0x3fa48a5f69f2e2e1	0.0401182
162	0x3f927e7a596271e5	0.0180606
163	0x3faa054690de0935	0.0508215
164	0x3fb065e53726ddba	0.0640548
165	0x3faf4afd5454152b	0.061119
166	0x3fbc382a12f90108	0.110232
167	0x3fa989374bc6a7f0	0.049875
168	0x3fb9ebd9018e7579	0.101255
169	0xbf8a4624a77f356a	-0.0128291
170	0x3f9d9245e8419d59	0.0288783
171	0x3faaa7afdcd1fd8e	0.0520606
172	0x3fb3ab141560ba55	0.0768292
173	0xbf9da906f4e6c74a	-0.0289651
174	0x3f7920ddf10c7229	0.00613486
175	0x3f6f5eeaf1fbdb58	0.00382944
176	0xbfa5e060fe47991c	-0.0427275
177	0x3fb39d55e6bc621b	0.0766195
178	0x3fb41974454c3a6b	0.0785134
179	0x3f97eefca27d6dea	0.0233726
180	0x3fbb43419e300150	0.106495
181	0x3fb5fe12bff624b5	0.0859081
182	0x3fbd052934acaff7	0.11336
183	0x3fa79cb9df8a3eb3	0.0461176
184	0x3f8f8b9baa1511e0	0.015403
185	0x3fa1dcd0500f0c0c	0.0348878
186	0x3faf56eac8605682	0.06121
187	0xbfa1b37c99ae924f	-0.0345725
188	0x3fb55f4c96b187cd	0.0834854
189	0x3faa17b451abc43f	0.0509621
190	0xbfa32016f6bc8a5f	-0.0373542
191	0x3fa895cd5c3ec538	0.0480179
192	0x3fb3ef39085f4a12	0.077869
193	0x3f96c6ca544c886f	0.0222427
194	0xbf9e485bb9643a3c	-0.0295729
195	0xbfa0abf40f30f56b	-0.0325619
196	0x3f94cae2e7c144d9	0.0203052
197	0x3fb4acba07ce2a9b	0.0807606
198	0x3fb70db9fce6700c	0.0900532
199	0xbf9907d912556d1a	-0.024444
200	0x3ff380b242070b8d	1.21892
201	0x3fb97a24894c447c	0.09952
202	0x3fa7793eb03ef78d	0.0458469
203	0xbff660221426fe72	-1.39847
204	0xbfece71cda2b5a21	-0.903212
205	0xbfd7bf7f06705c89	-0.371063
206	0x3ff3e11dbca9691a	1.24246
207	0xbff440e1719f7f8d	-1.26584
208	0xc01713abc947064f	-5.76921
209	0xbfcea90470a808c8	-0.239533
210	0x3fe2bac0c62e4d1a	0.585297
211	0x3fafcf30545ba1e7	0.0621276
212	0xc010353f7ced9168	-4.052
213	0x3fc4486ad2dcb146	0.15846
214	0x3fecd91eeaa6d267	0.901504
215	0x3fd1110e453d20f3	0.266666
216	0xc000f80346dc5d64	-2.1211
217	0x3fec679ee02a77a3	0.887649
218	0x3fbf0a5efe931876	0.121252
219	0xbfe09bdc69f8c21e	-0.519026
220	0x3fe7ccb5bb384fd3	0.743739
221	0x3fd29bfdf7e8038a	0.290771
222	0xbfe8f09741d084e8	-0.779369
223	0xbff43fc6540cc78f	-1.26557
224	0xbf991fe2f4567e92	-0.0245357
225	0x3ff760221426fe72	1.46097
226	0x3fe703fd50225743	0.719237
227	0xc0038d4aa10e0221	-2.44399
228	0x3fd446455eaee200	0.316789
229	0x3f9f7ab324851a87	0.0307415
230	0x3fc4f29d40ee06d9	0.163654
231	0x3fd8b90a7829068a	0.386294
232	0xbff08029f16b11c7	-1.03129
233	0x3fa431d20a236f71	0.0394426
234	0xbfcd4e4c942d490e	-0.228952
235	0xbfea286940357a35	-0.817433
236	0x3fe0412ad81adea9	0.507955
237	0xbff1b606b7aa25d9	-1.10694
238	0x3fd5d6e04c059210	0.34124
239	0x3fd3313be22e5de1	0.29988
240	0x3fdbe518f3eccc47	0.435858
241	0xbff12bfdb4cc2507	-1.07324
242	0x3fec32bba98eda23	0.881193
243	0x3ff0e15ca6ca03c5	1.05502
244	0x3feb3e553ac4f7ec	0.851359
245	0xbfa341cd29e9de56	-0.0376114
246	0x3fc510880d801b43	0.164567
247	0xbfc8ed2cbea4ebdd	-0.194738
248	0xbff39b4784230fd0	-1.22541
249	0xbfdbc886162f166e	-0.434114
250	0x3fd1670196d8f4f9	0.271912
251	0x3fdbfa5093964a5a	0.437153
252	0x3fd6fb3b7521144d	0.359084
253	0x3fb9f18c9fb6134d	0.101342
254	0xbf9f80d57d7576a5	-0.0307649
255	0x3fd17a89331a08c0	0.273104

FC3_bias f8 [50]
0	0x3fe7148ba83f4eca	0.721258
1	0x3fe17b5f1bef49cf	0.54631
2	0x3ff1d31b9b66f933	1.11404
3	0xbfdc57f3061c79b3	-0.442868
4	0x3fd4f7f498c3b0c4	0.327634
5	0x3fb64539c5f46b77	0.0869938
6	0xbfeea0ff540895d1	-0.957153
7	0x3fcba7a85015c209	0.216054
8	0xc010012599ed7c70	-4.00112
9	0xbfd4e6ea854477ff	-0.326594
10	0xbfe4e34b945308bc	-0.652746
11	0xbf985fd7002c75aa	-0.0238031
12	0xbfe80270f3882279	-0.750298
13	0x3fb1de9dafa8cf98	0.0698031
14	0xbfc48cc575c0767d	-0.160546
15	0xbfcb864cb5bb3850	-0.215036
16	0x3fe12d0e56041893	0.53675
17	0x3fdfc9a34ca0c283	0.496682
18	0xbff66ef5ec80c73b	-1.40209
19	0x3fd2192a737110e4	0.282786
20	0x3fd38cd63cb81733	0.305471
21	0xbfe68b28522ea0fd	-0.704487
22	0xbfe9c2fe82517e78	-0.805053
23	0x3ff49d5e4a383276	1.28842
24	0x3fca447c30d306a3	0.205215
25	0xbfe3922d948dc11e	-0.611594
26	0xbfc86eb0b7c3504c	-0.190878
27	0xbff40917d6b65a9b	-1.25222
28	0xbfe50c5eb313be23	-0.65776
29	0x3f9742a7447d0793	0.0227152
30	0x3fe9377186551937	0.788018
31	0x3fefaeafab53d641	0.990074
32	0x3fb7b267c6b8b695	0.092566
33	0x3fd0bdbe3c105187	0.261581
34	0xbfde362a5e785b5b	-0.472056
35	0xbfda42f61ed5ae1d	-0.410337
36	0xbfd072085b18548b	-0.25696
37	0x3fe0bb384fd2a62b	0.522854
38	0x3fd3b5b70691ea79	0.307966
39	0xc0005672324c8366	-2.04221
40	0x3fc296d4c33b5393	0.145228
41	0x3fe24304ccee5abc	0.570681
42	0xbff0f43e963dc487	-1.05963
43	0xbfe4abd3c3611340	-0.645975
44	0x3fec3bb1f255f352	0.882287
45	0xbf882b6284599674	-0.0118015
46	0xbfc49363f572de44	-0.160748
47	0xbfe0916ebd4cfd09	-0.517753
48	0xc00934cc25072086	-3.15078
49	0x3fd362a1b5c7cd8a	0.302895

FC3_weight f8 [50, 50]
0	0xbf8220233610075f	-0.00885036
1	0x3fdcc5e6ff7dfa01	0.449579
2	0xbfad495eeea2e06a	-0.0572004
3	0xbfcf18655193708b	-0.242932
4	0x3fc37e889c1b5419	0.152299
5	0xbfb9e94ab1d4f9c2	-0.101216
6	0xbfc567dbb16c1e36	-0.167232
7	0x3f8d50077f504238	0.0143128
8	0x3fca76ea4228997c	0.206754
9	0x3f794c6203554a09	0.00617636
10	0xbfdfd0e12e83a10a	-0.497124
11	0xbfa31c75818c5c9a	-0.0373265
12	0xbfbde01de2691644	-0.116701
13	0xbfe5ee957470eb25	-0.685374
14	0xbfc2cf0f9d2bf551	-0.146944
15	0x3fc6333764f11b61	0.173438
16	0x3fdaca70d1fa3337	0.418606
17	0x3fb34f15e7c8d196	0.0754255
18	0x3fa2e91ae12cd622	0.0369347
19	0xbf9c2e1262025397	-0.0275195
20	0x3fe2b32ce89656ef	0.584372
21	0x3fdf8a6dacabc515	0.492824
22	0x3fb9841c59d2da2d	0.0996721
23	0xbfced698fe69270b	-0.240924
24	0x3fc2b3c3e74afd54	0.146111
25	0x3fd375a74c09c3ce	0.304056
26	0xbfc952977c88e79b	-0.197833
27	0xbf72ba5cb2b37106	-0.00457226
28	0xbfc7d08d4bad7d7c	-0.186052
29	0xbfa0af01e0aad023	-0.0325852
30	0xbfade1d2178f68be	-0.0583635
31	0x3f88612d4181aa90	0.0119041
32	0x3fbc4c8bc9cd3e0c	0.110543
33	0x3fa5cf1ddfe4d786	0.0425958
34	0x3fc6111ada76d97b	0.172397
35	0x3fbcee17a02fb5d0	0.113008
36	0xbfd6cfe9b7bf1e8e	-0.35644
37	0x3fd90ff972474539	0.3916
38	0xbfc1d3d4280ae105	-0.139277
39	0x3fa232060c897b3e	0.0355379
40	0x3fabbbd45704c993	0.0541674
41	0xbfdcb61fe21d96ea	-0.448616
42	0x3fdbb499d0203e64	0.432898
43	0xbf9c72efe1a4cb26	-0.0277822
44	0xbfaf5f5bb029fed7	-0.0612744
45	0x3fa6d10da42d7152	0.0445637
46	0x3fc114f483cafb3b	0.133452
47	0xbfc8a5375c8d9f90	-0.192542
48	0x3f6c69f363ba6495	0.00346849
49	0xbfa85993194cd820	-0.0475584
50	0xbfe4f7fae3608d09	-0.655271
51	0xbfc542b302f72b45	-0.166098
52	0x3fd6b484d76ab580	0.354768
53	0x3fdc6e978d4fdf3b	0.44425
54	0xbfc02f8bdec5f395	-0.126451
55	0x3fe6e9057d1782d4	0.715945
56	0xbfc46573215fcc18	-0.159346
57	0xbfa80a17b0f6ad71	-0.046952
58	0xbff334245f5ad96a	-1.20023
59	0x3fce786c226809d5	0.23805
60	0xbfcc54690de09353	-0.221326
61	0xbfa053990448641d	-0.0318878
62	0x3fd7fbf83382e44b	0.374754
63	0xbff0f8b588e368f1	-1.06072
64	0xbfa508f9a3c56c86	-0.0410841
65	0xbfd1b5568e820e63	-0.276693
66	0x3fb1d320a3e47637	0.0696278
67	0x3fdcabe6a337a80d	0.447992
68	0xbfedeb00ffda4053	-0.934937
69	0x3fd4bb384fd2a62b	0.323927
70	0xbfca9e7fb267c6b9	-0.207962
71	0xbfdf88b11409a240	-0.492718
72	0xbfc06eb0b7c3504c	-0.128378
73	0xbfd7b81f969e3c97	-0.370613
74	0xbfd0e008e9b38d61	-0.263674
75	0xbf88c7192ea52ef9	-0.0120985
76	0x3fdd9e5e2478854d	0.462791
77	0xbfda69014b599aa6	-0.412659
78	0xbfd7fa7a85015c21	-0.374663
79	0x3fd35de15ca6ca04	0.302605
80	0xbfcd93e5fb71fbc6	-0.231076
81	0x3fcafcb4f1e4b44a	0.210837
82	0xbfcf33ebbfd71b04	-0.243772
83	0xbfa37040dabba2d9	-0.0379658
84	0xbfa8499f8642a4c0	-0.0474367
85	0x3fb1b83134557222	0.0692168
86	0x3faad0e560418937	0.052375
87	0xbfc0a6c1a048e044	-0.130089
88	0xbfccf7121ab4b72c	-0.22629
89	0x3fb438590ce18fd2	0.0789848
90	0xbff8a5aee631f8a1	-1.54045
91	0xbfed75f6fd21ff2e	-0.92065
92	0xbfc5988d2a1f8e3b	-0.168718
93	0x3fb98f945d19b68a	0.0998471
94	0xbfd14f0520d130e0	-0.270448
95	0xbf91ca983f26867d	-0.0173744
96	0xbfbf20d9945b6c37	-0.121595
97	0xbfcc1719f7f8ca82	-0.219455
98	0x3fd113122b7baecd	0.266789
99	0x3fdb2839042d8c2a	0.42433
100	0xbfe916c61522a6f4	-0.78403
101	0x3ff0f8ab0c88a47f	1.06071
102	0x3fc84345cfede97d	0.189553
103	0x3ffb5a858793dd98	1.7096
104	0x3f9db48fbf25445d	0.0290091
105	0xbfd32b7fe08aefb3	-0.29953
106	0x3fc170bd017dae82	0.136253
107	0x3fdf26394face67d	0.486708
108	0x3fe0d28f190d1740	0.525703
109	0x3fc3c9cd3e0bd44a	0.154596
110	0x3fcb70de8f6cefed	0.214382
111	0x3fa3af42784a9479	0.0384465
112	0xbfd98900c521dda0	-0.398987
113	0xbff40995aaf78fef	-1.25234
114	0x3fbcc804102ff8ec	0.112427
115	0x3fe26a4441787054	0.575472
116	0x3fe1eac215b9a5a9	0.559907
117	0xbfcbe79ee02a77a3	-0.218006
118	0x3fffe94467381d7e	1.99445
119	0x3f7aa85fb013d97c	0.00650823
120	0xbfb3a5c1c6088d6d	-0.076748
121	0x3ff182363b256ffc	1.09429
122	0xbfd7b30b5aa71583	-0.370303
123	0x4002e1c58255b036	2.36024
124	0xbfc256798958d9b6	-0.143264
125	0x3fe111cd1c7de508	0.533423
126	0xbfd49e774eebf65e	-0.322172
127	0xbfd55b078d92fb1a	-0.333681
128	0x3fe15807fed20297	0.541996
129	0x3fc33ffac1d29dc7	0.15039
130	0xbfeb67ddca4b124d	-0.856429
131	0xbf7ee984e95e52f2	-0.00754692
132	0xbfec599029ae4f33	-0.885933
133	0x3fbd668c26139000	0.114846
134	0xbfd545132f87ad08	-0.332341
135	0xbf9d7be9856a37ac	-0.028793
136	0xbff3bbd7b2031ceb	-1.23336
137	0x3fce4c9c90c4dec2	0.236713
138	0xbfd3cb74ddf86e3b	-0.309293
139	0x3fd4c297bfa4c61e	0.324377
140	0xbfd8612839042d8c	-0.38093
141	0xbfe8b3fc86cebbba	-0.771971
142	0x3fd55f0f5a1016ce	0.333927
143	0x3f9dcd7060bb2bbb	0.029104
144	0xbfe26e04c0592104	-0.57593
145	0xbfa8d51570aa8d07	-0.0485007
146	0xbf9e05ccc89b0ee5	-0.029319
147	0xc00310331e3a7daa	-2.38291
148	0x3fdc0f6f08cc575c	0.438442
149	0xbf85eecf561408cc	-0.0107094
150	0xbfeba413db7f1737	-0.863779
151	0x3ff05d8d79d0a676	1.02284
152	0x3fd20d8cb07d0aee	0.282077
153	0xbff107fcb923a29c	-1.06445
154	0xbfb7e39a6eabaf46	-0.0933167
155	0xbfa67eacae495407	-0.0439352
156	0x3fed0b0079a2834d	0.907593
157	0xbfe4f42fe82517e7	-0.654808
158	0x3fe259d99029ae4f	0.573468
159	0xbfbf39f340d4dc66	-0.121978
160	0x3fe5feed45e9185d	0.687369
161	0x3f929cd58e3c6e45	0.0181764
162	0x3fbb06e5cd4ed2cc	0.105574
163	0x3ff57c8f32378ab1	1.34291
164	0x3fd4caf709b738e7	0.324888
165	0xbfe0d441355475a3	-0.52591
166	0xbfd19cd3e0bd449a	-0.275197
167	0xbfc7f540895d0b74	-0.187172
168	0x3ff79042d8c2a455	1.47272
169	0xbfb29db1564ec12e	-0.0727187
170	0xbfc5121ab4b72c52	-0.164615
171	0x3fe55d9a0f0a5eff	0.667676
172	0xbfd3aa821f2990f3	-0.307282
173	0xbfd315ad106ee30d	-0.298198
174	0xc00079f01b866e44	-2.05954
175	0x3fe4aaed1394317b	0.645865
176	0xbfc47e846a5d6bec	-0.160111
177	0x40085f505d0fa58f	3.04654
178	0x3fca3b2dd377e1b9	0.204931
179	0x3fd7afc47e49b1fb	0.370103
180	0x3fd3276fb09203a3	0.299282
181	0xbfa93ad5bee3d5fe	-0.049277
182	0x3fe172f123c42a67	0.545281
183	0x3fdf38327674d163	0.487805
184	0xbfd4bfd71b046845	-0.324209
185	0x3fd8514c22ee4192	0.379962
186	0xbfd2395810624dd3	-0.28475
187	0xbfee86e9ff0cbaf9	-0.953969
188	0x3fb52fd17ee334ee	0.0827609
189	0x3f9b3b172d432f2a	0.0265926
190	0xbff3604c05921038	-1.21101
191	0x4002b9abf3387161	2.34066
192	0x3ff60d9945b6c376	1.37832
193	0xbfb89ec629449ce8	-0.0961727
194	0xbfdc5a9eb2074ea9	-0.443031
195	0xbfa1cb0043f29e18	-0.0347519
196	0xbfc8cf398e970718	-0.193824
197	0x3fbff93ff25e56cd	0.124897
198	0x3fe6794855da2728	0.702305
199	0xbff0b66516db0dd8	-1.04453
200	0xbffb6d4801f75105	-1.71418
201	0x3fe33198288051ca	0.599804
202	0x3fdccf9e3864cb5c	0.450172
203	0xbfe284f8f8a4c1ec	-0.578732
204	0xbfb9cb35f3d7d391	-0.100757
205	0xbff40cd20afa2f06	-1.25313
206	0x3fdb54a3c64345d0	0.427041
207	0x3fd9856a37ac3eb8	0.398768
208	0x3fe4b422467be554	0.646989
209	0x3fffb07f23cc8de3	1.98059
210	0x3fdfb24a6a875d57	0.495257
211	0xbfa916d0fcdd35d1	-0.0490022
212	0xbfe59fb6134ce3de	-0.675746
213	0xbf1127920ca9d3f1	-6.54395e-05
214	0xbfe3ae2328f9f44d	-0.615007
215	0x3ff0608aefb2aae3	1.02357
216	0x3feb8d60a6330510	0.861008
217	0xbfce80e8c8abd5dc	-0.238309
218	0x3fba6e75ff609dd0	0.103248
219	0xbfc5a4052d666a98	-0.169068
220	0x3fc6f9f44d445671	0.179503
221	0xbfe6f449129888f8	-0.71732
222	0x3fec71cfbb949625	0.888893
223	0xbfb897452b833b89	-0.0960582
224	0x3fe773e681a9b8cc	0.732898
225	0x3ff0eda661283904	1.05802
226	0x3fd9d5bab21815a0	0.40367
227	0xbfd90f2389720429	-0.391549
228	0x3fe5616f86a09891	0.668144
229	0x3fe5355043e5321e	0.662758
230	0x3fc91ec0b567557a	0.196251
231	0xbf98ed585d8f2750	-0.0243429
232	0x3fed440d0aaa7ded	0.914557
233	0x3f9c06408be14a32	0.0273676
234	0x3fe2082cf52b90a8	0.563498
235	0xbfd43e5321e603d5	-0.316304
236	0x3fc3062d40aaeafb	0.148626
237	0xbfc0817763e4abe7	-0.128951
238	0xbfd951ac9afe1da8	-0.39561
239	0xbfa7d728706191eb	-0.0465634
240	0xc0183c21187e7c07	-6.05872
241	0xbfe2ea055757d5aa	-0.591067
242	0x3fec4b1465e89225	0.884165
243	0xbf93fe98f7b32a64	-0.0195259
244	0x3fc8c6bce8533b10	0.193565
245	0xbfab2ef40951b859	-0.0530926
246	0xbfc746fdeb52c9d1	-0.181854
247	0x3ff5b30941c8216c	1.35621
248	0x3fc3aeab7995ee13	0.153768
249	0xbfc2ef8055fbb518	-0.147934
250	0xbfe0adbe7f2c300a	-0.521209
251	0x3fc5d69d30270f39	0.170612
252	0xbfd9b6f19934efcc	-0.401791
253	0x3fe7d5a3a08398a6	0.744829
254	0x3fa4d6cd00cf32d9	0.0407013
255	0xbfb70a65b48fbf25	-0.0900024

FC4_bias f8 [50]
0	0x3fde3ed0f627392a	0.472584
1	0x3ff3fcd898b2e9cd	1.24923
2	0xc0121a8ac5c13fd1	-4.52592
3	0xbfe509edbf8b9baa	-0.657462
4	0xbf9cc1e5123df026	-0.0280834
5	0xbfc9dcdf69878317	-0.202053
6	0x3fe6728a6117720d	0.701482
7	0x3fe59c75818c5c9a	0.675349
8	0x3fe82324c8366517	0.75429
9	0xbfcf7ac3eb7cbb3d	-0.245934
10	0x3fb257986d49af76	0.0716491
11	0x3fcc78c0053e2d62	0.222435
12	0xbfea8aeb80ecfa6a	-0.829458
13	0xbfd464b662fdfc1a	-0.318647
14	0xbf7fce1678e8492a	-0.0077649
15	0x3fee3dddb1209edc	0.945052
16	0xc011c887a8d64d7f	-4.44583
17	0x3ff0e58a32f44913	1.05604
18	0x3ffa83afb7e90ff9	1.65715
19	0xbfe9a734f82f5126	-0.801661
20	0x3ff93a493c89f40a	1.57673
21	0x3ff06b1c432ca57a	1.02615
22	0x3fa953982d88cf47	0.0494659
23	0x3ff7f6d330941c82	1.49776
24	0x3fcff85510d38cda	0.249766
25	0xbff67df3b645a1cb	-1.40575
26	0xbfef534373f316e3	-0.978914
27	0xbff1ca2db61bb060	-1.11186
28	0x3fe4665bea0ba1f5	0.637495
29	0x3fed8793dd97f62b	0.9228
30	0x3fe8b57603925bb8	0.772151
31	0x3ff31888f861a60d	1.19349
32	0x3ff64a38327674d1	1.39312
33	0x3fdf05b7cfe58601	0.484724
34	0xbfff458cd20afa2f	-1.95448
35	0x3ff0ed1e108c3f3e	1.05789
36	0x3fff48fd9fd36f7e	1.95532
37	0xbfeb3cf0b6b6e0d2	-0.851189
38	0x3ff7cadff822bbed	1.48703
39	0xbfdb5d41fa765343	-0.427567
40	0x3fe33f034b0e1b4c	0.601442
41	0x3fd8dcb1465e8922	0.38847
42	0xbff514f8b588e369	-1.31762
43	0x3fdd15054ac29bf1	0.454408
44	0xbf913ec460ed80a1	-0.016841
45	0xbfe248ecd8dbcec8	-0.571402
46	0xbffd777079e59f2c	-1.84166
47	0x3ff39fbe76c8b439	1.2265
48	0x3fe03201040bfe3b	0.506104
49	0xbfe8d43f1c75818c	-0.775909

FC4_weight f8 [50, 50]
0	0xbfd77c5ef62f9ca6	-0.366966
1	0xbff74e26d4801f75	-1.45658
2	0xbfdb90c4dec1c1d7	-0.430711
3	0x3fd32a2c2374794f	0.299449
4	0xbf8e56c00035afe5	-0.0148139
5	0x3fd32b4d8ba40d91	0.299518
6	0xbfabbe5f4bbff1f3	-0.0541868
7	0xbff3292a30553261	-1.19755
8	0xbfdc36199780baa6	-0.440802
9	0xbfd7e939eadd590c	-0.37361
10	0x3fd5a737110e453d	0.338331
11	0xc0224827fa1a0cf2	-9.14093
12	0xbfcdaad601ffb481	-0.231776
13	0xbfad97ef756e4126	-0.0577998
14	0x3fa33f1696447a83	0.0375907
15	0xbfe30852b4d8ba41	-0.594766
16	0x3f5ae5898727d201	0.00164164
17	0x3ff654562e09fe87	1.39559
18	0x3ff0782d38476f2a	1.02934
19	0x3fbef6837f7be122	0.120949
20	0xbfc5b23571d1d474	-0.169501
21	0xbfee33a68b19a416	-0.943805
22	0xbfbcc8abd5dc4007	-0.112437
23	0x3fd4f954eb13dfb1	0.327718
24	0xbfd911409a240315	-0.391678
25	0x3fd8b4bf8fcd67fd	0.386032
26	0xbf6a87656488c0ae	-0.00323839
27	0xbfc173b85e80bed7	-0.136344
28	0xbfc528bf3bea91da	-0.165306
29	0x3fbca159817b95a3	0.111837
30	0xbfc83c3a42f1ed18	-0.189338
31	0xbfd13b60285ec3db	-0.269249
32	0xbfba78af3e468cac	-0.103404
33	0xbfc82dbe7f2c300a	-0.188896
34	0xbfc4c9d16fc9bc77	-0.162409
35	0xbfb5666a98244e94	-0.083594
36	0x3fa7ebd7540f4bcd	0.0467212
37	0xbfd17824d4cb9ecf	-0.272958
38	0xbfb378e7726a80a7	-0.0760636
39	0xbfc70a6fc58ab92c	-0.180006
40	0xbfd7e4b44a1f0803	-0.373334
41	0x3fddfaeff5c6c11a	0.468441
42	0xbfe3e61ae70c1334	-0.621839
43	0xbfb008bc6723fb88	-0.0626333
44	0x3fa1e92c7ee40bae	0.0349821
45	0x3fcb0ba6266fd652	0.211293
46	0xbf86a30f642111c8	-0.0110532
47	0xc00428ac5c13fd0d	-2.51986
48	0xbf9cb72c5197a249	-0.0280425
49	0xc007cd2b2bfdb4cc	-2.97518
50	0xbfcbeabbcb1cc964	-0.218101
51	0xbfc1bb6aa4b9884c	-0.138532
52	0x3fd27064ece9a2c6	0.28811
53	0xbff1fdf3b645a1cb	-1.1245
54	0xbfa7626cdca22ce6	-0.0456728
55	0x3f944c08ed0e8bb4	0.0198213
56	0xbfa54fb6f7787202	-0.0416238
57	0xbfe37227d028a1e0	-0.607685
58	0xbfd0927913e81451	-0.25894
59	0xbfdb845996744b2b	-0.429953
60	0xbfc0593a2df9378f	-0.127723
61	0xbfc351ac9afe1da8	-0.15093
62	0xbfc8534373f316e3	-0.190041
63	0x3facdeaa44e28820	0.0563863
64	0xbfaadf38e01b5e2a	-0.0524843
65	0xbfa9b52362db976b	-0.0502101
66	0x3fd2113404ea4a8c	0.2823
67	0x3fc6b702602c9082	0.17746
68	0xbfe687f23cc8de2b	-0.704095
69	0xbfda6c3760bf5d79	-0.412855
70	0x3fdcb7995ee136e7	0.448706
71	0xbfebeb3354c12275	-0.872461
72	0xbfa3ce95faa8a82a	-0.0386855
73	0xbfc32f01754b05b8	-0.149872
74	0xbfda4f2f123c42a6	-0.411083
75	0xbfd260913a4f8727	-0.287144
76	0xbfd4f85942917508	-0.327658
77	0xbfb3f6e5a50ae6e4	-0.0779861
78	0xbfc03d25247cb70b	-0.126866
79	0xbfd1ea8112ba16e8	-0.279938
80	0xbfbdeeaa6d267408	-0.116923
81	0xbfaae75ff609dcf9	-0.0525465
82	0xbfb9b6c3760bf5d8	-0.100445
83	0xbfe033bd9cae2110	-0.506316
84	0xbfd49ab29e4d5d81	-0.321942
85	0x3fa9e33fd5d8e509	0.0505619
86	0xbfce563ed0f62739	-0.237007
87	0xbfd12d2bb23571d2	-0.268382
88	0xbfc63e39f77292c5	-0.173774
89	0xbfc9db1a6d698fe7	-0.201999
90	0xbfb96e4b3735f733	-0.0993392
91	0x3fcbb4784230fcf8	0.216445
92	0xbfd7ae429e0a41a2	-0.370011
93	0xbfa206a3882fe4ca	-0.0352069
94	0xbfa9a0b79b0c6061	-0.0500543
95	0x3fcbe34330d73861	0.217873
96	0x3f8873797460242d	0.011939
97	0xbfa453dc2026e6f5	-0.0397023
98	0xbfad04816f0068dc	-0.056675
99	0xbfde85be1a826245	-0.476913
100	0x3fc55b3e1437c569	0.166847
101	0x3ff186c226809d49	1.0954
102	0x3fe58372e6a76966	0.672296
103	0xbfd94e11dbca9692	-0.39539
104	0x3f8796546abb5fbd	0.0115172
105	0xbfb3344d0ea68bf0	-0.0750168
106	0x3fd95475a31a4bdc	0.39578
107	0xbfb121d38f5ead35	-0.0669224
108	0x3fe672170931012a	0.701427
109	0x3fde256bca5375c9	0.471034
110	0xbfe65097c80841ee	-0.697338
111	0x3fae9775d2eaf3ff	0.0597493
112	0x3fdae4e26d4801f7	0.42022
113	0xbfbd437c5692b3cc	-0.114311
114	0x3fa55b218ec60101	0.0417109
115	0x3fdd90214ad362e9	0.461922
116	0xbfca67be553ac4f8	-0.206291
117	0xbfc0935b91f70de9	-0.129497
118	0xbfe428b4bf8fcd68	-0.629969
119	0xbff6c38088509bfa	-1.42273
120	0xbff2714b9cb6848c	-1.15266
121	0x3fd1eb5f5f0b2852	0.279991
122	0xbfcdc182ecaeea64	-0.232468
123	0xbff50385c67dfe33	-1.31336
124	0xbfd60daa0cae642c	-0.344584
125	0xbfe9f01322f27350	-0.810556
126	0x3fc7eb4202d9cf14	0.186867
127	0x3faeac13efa10d2b	0.0599066
128	0x3fc9a0a5269595ff	0.200215
129	0x3fd65f88fc9363f5	0.349581
130	0x3fe187ce95faa8a8	0.547828
131	0x3ff4132b55ef1fde	1.25468
132	0x3fd261a60d4562e1	0.28721
133	0x3f9371e7a3e8a7f5	0.0189892
134	0xbfe86d06fef7c244	-0.763309
135	0xbfc0228134480629	-0.126053
136	0x3fa6aa7081725b67	0.0442691
137	0x3fd02f661f18c9fb	0.252893
138	0xbfce54ef459d9903	-0.236967
139	0x3fc46ab14ec204f3	0.159506
140	0x3fd912f4cf4a558f	0.391782
141	0xbfebdeefe4ffc979	-0.870964
142	0xbfd5fbdad7518b0d	-0.343497
143	0xbfc9c18b502ababf	-0.201219
144	0xbfab336c3e16bc04	-0.0531267
145	0xbfac9ca841d30927	-0.0558827
146	0x3fccefc371da37ef	0.226067
147	0x3fd262b6ae7d566d	0.287275
148	0x3fa4b3a2595bbbe8	0.040433
149	0xbfebd0507a6bd6e9	-0.869179
150	0xbfd4017dae81882b	-0.312591
151	0xbfff954c985f06f7	-1.97395
152	0x3fe2d2220bc382a1	0.588151
153	0xbfc0e1719f7f8ca8	-0.13188
154	0xbf8e06f41007b500	-0.0146617
155	0x3fbd5ebfa8f7db6e	0.114727
156	0x3fb658636e6461a9	0.0872862
157	0xbfe3263b688bda94	-0.598417
158	0xc004686833c6002a	-2.55098
159	0x3f921b26ccf3633a	0.0176817
160	0x3fb4657d325ac61f	0.0796736
161	0x3fcf7e889c1b5419	0.246049
162	0xbfc4fc2eba27ae9b	-0.163946
163	0xbfbc18a43bb40b35	-0.109751
164	0x3fa4a530a690f8e1	0.0403228
165	0xbfd3c8754f3775b8	-0.30911
166	0x3fa53590db84f674	0.0414243
167	0xbfd8e72da122fad7	-0.38911
168	0x3ff1357e670e2c13	1.07556
169	0xbfed9b0ee49f5169	-0.925178
170	0x400593996fa82e88	2.69707
171	0xbff4f102363b2570	-1.30884
172	0x3ff0584f4c6e6d9c	1.02156
173	0x3fe76b6390c91080	0.731859
174	0xbfb86dcfe7338060	-0.0954256
175	0xbfa8530c168eb7be	-0.0475086
176	0x3f9c74e732a9a078	0.0277897
177	0xbf887d8a6f5a2aef	-0.0119582
178	0xbfb10e2dc02cab5a	-0.0666226
179	0xbfc132df505d0fa6	-0.134365
180	0xbfb7f9e45d0c4a91	-0.0936568
181	0xbff835c7cd898b2f	-1.51313
182	0xbfadd14ae0cee251	-0.0582374
183	0xbfd9bc903ea704bc	-0.402134
184	0xc003cb630a91537a	-2.47431
185	0xbfca76c050bd87b5	-0.206749
186	0x3fdc3e3193f6c26a	0.441296
187	0xbfbe3033a4723ab0	-0.117923
188	0xbfc513c68661ae71	-0.164666
189	0x3fc59b6f5caf2d80	0.168806
190	0xc00a209aaa3ad18d	-3.26592
191	0xbfdfad2999567dbb	-0.494944
192	0xbfc41dc0db2702a3	-0.157158
193	0xbfc5edd8b60f1b26	-0.171321
194	0xbf8a5fc7e6b3fea0	-0.012878
195	0x3fbd57de0d66f0d0	0.114622
196	0x3fa4d87a7ff8dea4	0.0407141
197	0xbfe28e219652bd3c	-0.57985
198	0x3fb4d0ef713c833e	0.0813131
199	0x3fde75c8d9f9053a	0.475939
200	0x3fd5dbb59ddc1e79	0.341535
201	0x3fe163736cdf266c	0.54339
202	0xbfec965d3996fa83	-0.893355
203	0x400131c432ca57a8	2.1493
204	0x3f6ca3ca4a109a57	0.00349607
205	0x3fcaa265f0f5a101	0.208081
206	0x3fb7bbb97f122ed7	0.0927082
207	0x3ff70feef5ec80c7	1.44139
208	0x3ffe7d60e94ee393	1.90561
209	0x3fe95f3d7d3910c3	0.792876
210	0x3fe174128bf3bea9	0.545419
211	0xbfb93aaa1ff99a8b	-0.0985514
212	0x3fe0420f6f08cc57	0.508064
213	0x3fd15e4e69f05ea2	0.271381
214	0xbf803a8ac062dc18	-0.00792416
215	0x3fe46f6b5d462c34	0.638601
216	0x3fd66195464dc22b	0.349706
217	0xbfcc5f84cad57bc8	-0.221665
218	0x3fd08ff759685122	0.258787
219	0xbff44b09e98dcdb3	-1.26832
220	0xbffcb0be0ded288d	-1.79315
221	0x3fc6d573647baa9b	0.178389
222	0x3fd3fa05143bf727	0.312135
223	0xbfef4712e40852b5	-0.977426
224	0x3fea1cda2b5a20de	0.816022
225	0x3fdcc1e7967caea7	0.449335
226	0x3fe024a6a875d56f	0.504474
227	0x3fbae978d4fdf3b6	0.105125
228	0x3fdfb44e50c5eb31	0.49538
229	0x3fe5ff6d330941c8	0.68743
230	0x3fd80d173fb7a5f4	0.375799
231	0x3fcde0ac7da1ec4e	0.233419
232	0xbfb6107ed344b612	-0.0861892
233	0x3fc8f39085f4a127	0.194933
234	0x3ffae12839042d8c	1.67997
235	0x3fd14af4f0d844d0	0.2702
236	0xbfe1fae7924af0bf	-0.561878
237	0x3ff2d96a6a01259a	1.17808
238	0xbfa309528f190d17	-0.0371805
239	0x3fd2a187a4a48f97	0.291109
240	0x3fd70ed80a17b0f7	0.360281
241	0xbffe928e0c9d9d34	-1.91078
242	0x3fd95d4e8fb00bcc	0.39632
243	0x3fbdabb01c92ddbe	0.115901
244	0xbfae1e8bdc41b4d6	-0.0588268
245	0xbfd12938de6ddf01	-0.268141
246	0x3fd5eca686e7e62e	0.342569
247	0x3ff6beff1950331e	1.42163
248	0x3fe8ef6512a94ff0	0.779223
249	0x3ff2987e7c06e19c	1.16223
250	0x3fcbe7a743a647fe	0.218007
251	0x3fdfb2cc70867ad9	0.495288
252	0x3fbe8b5cbff47736	0.119314
253	0xc012892ccf6be37e	-4.63396
254	0xbfa4c6f0eab946de	-0.0405803
255	0x3fe5947f13059642	0.674377
