examples/submissions/SoftComputing2023/data/ACAS XU/Networks/ACAS_XU_2_6.onnx (onnx, 108361 bytes, 14 tensors)

FC0_bias f8 [50]
-0.0668922 -0.409326 0.031944 0.0125502 -0.459266 -0.0239384 -0.0221231 -0.377511
0.199316 0.0657762 -0.252787 -0.0672243 0.523135 -0.273511 -0.112342 -0.295882
0.0841729 0.0104884 -0.727435 0.0377782 0.0888377 -0.171831 -0.0184902 -0.204209
-0.00886104 -0.398774 0.252219 0.152533 -0.416878 0.0189606 0.340818 -0.0976962
0.0314572 -0.376325 -0.14495 -0.38984 0.0163685 -0.34058 -0.179003 -0.0213323
0.194897 -0.0740009 -0.1606 -0.362099 0.184241 -0.205093 -0.0325462 -0.129706
0.040953 -0.40916
00000000: 8b84 5be3 d81f b1bf 7fc2 d9ad 6532 dabf
00000010: 645a 9bc6 f65a a03f 9950 7754 ebb3 893f
00000020: 098b 8a38 9d64 ddbf 7869 79d4 4e83 98bf
00000030: 0ece f11b 70a7 96bf 1d56 b8e5 2329 d8bf
00000040: 8ee6 c8ca 2f83 c93f 74eb da83 b5d6 b03f
00000050: 26a7 7686 a92d d0bf 271a ff99 9c35 b1bf
00000060: 2193 8c9c 85bd e03f 0f29 0648 3481 d1bf
00000070: 849c f7ff 71c2 bcbf 9467 5e0e bbef d2bf
00000080: 60a0 b5ec 5a8c b53f 5b20 e637 f17a 853f
00000090: 82e7 dec3 2547 e7bf 02e5 000b aa57 a33f
000000a0: 3fe0 2648 11be b63f 5e30 b8e6 8efe c5bf
000000b0: 7c9d 2f51 18ef 92bf 2d41 4640 8523 cabf
000000c0: 8881 11a8 bc25 82bf c9af 1f62 8385 d9bf
000000d0: 3d82 1b29 5b24 d03f 3fc7 478b 3386 c33f
000000e0: 3700 1b10 21ae dabf 4270 a653 686a 933f
000000f0: 17d7 f84c f6cf d53f 9787 f13f 9e02 b9bf
00000100: e58c 727a 281b a03f 68b3 ea73 b515 d8bf
00000110: cb10 c7ba b88d c2bf 890c ab78 23f3 d8bf
00000120: 7e01 bd70 e7c2 903f cefc 6a0e 10cc d5bf
00000130: c764 71ff 91e9 c6bf e8d2 646b 22d8 95bf
00000140: 5c54 8b88 62f2 c83f 95e3 5f15 b9f1 b2bf
00000150: ad69 de71 8a8e c4bf f583 ba48 a12c d7bf
00000160: fc89 ca86 3595 c73f 49bb d1c7 7c40 cabf
00000170: b4d8 3741 e5a9 a0bf 2c28 0cca 349a c0bf
00000180: fe9e 58a7 caf7 a43f 0135 b56c ad2f dabf

FC0_weight f8 [5, 50]
-0.895784 0.0110094 0.00213975 -0.0960103 0.0612875 -0.00573822 0.110875 0.105936
0.176205 -0.023655 0.844319 -0.112112 1.90241 0.312654 0.18182 -0.0366355
-0.0331947 0.0175323 -0.00831482 -0.026837 0.0631457 -0.0359761 -0.0189808 -0.1818
-0.0101935 0.00591414 0.0675836 0.0290985 0.00115224 0.229465 -0.0697015 -0.868832
0.0110578 -1.09728 -0.165609 0.0903586 -0.0413223 0.027952 -0.0256716 -0.0328567
0.0706488 0.0647136 0.0952984 -1.74342 0.0215355 0.0566816 0.112668 -0.164721
0.0938894 0.0148835 -0.102832 0.914232 0.146461 -0.0534514 -1.76523 -0.013549
1.64518 -0.786577 0.448633 0.170206 0.544194 0.0609144 0.00235429 -0.996426
-0.503256 -0.626784 0.148802 0.0180255 0.00100685 -0.401882 1.64091 0.105867
0.0148337 -2.24261 0.00549757 2.24343 -0.267528 -0.98417 0.0830073 -0.917404
1.44685 -0.0355858 -0.404356 -0.250084 -0.670325 1.24856 0.128343 0.659713
-1.52832 -0.000820316 0.57983 -0.598384 0.685785 0.00917657 0.208036 0.496322
0.938543 1.32479 -1.05636 1.08011 0.124089 -0.988422 0.0152106 -0.0296321
1.84375 -0.019505 -0.0121329 0.738094 -0.742816 -0.12225 0.0246567 -0.0343063
-0.00309476 0.00280556 0.254189 0.634752 -0.364332 0.342591 0.0252603 0.400824
0.415308 0.757543 0.00385569 -0.39507 0.000342351 0.178893 0.24695 -2.64731
-0.141176 0.0689062 0.430654 -0.0187316 -0.499043 -0.0595028 1.1059 -1.7765
-0.146869 -0.684304 -1.26523 -0.00625579 -0.216987 -1.56519 -0.778314 -0.0111761
-0.539494 -0.145635 -1.87013 -1.41054 -0.0025072 -1.20359 -0.240706 0.00993494
0.0654574 0.0197449 0.324224 0.00158684 0.286875 -0.116213 -0.140772 0.489839
-0.850392 -0.867714 -0.00730186 0.242235 -0.0622577 -0.0267379 -0.134369 0.0984987
0.0980467 0.423047 0.626537 -0.487495 0.00245953 0.791459 -0.000411193 -0.540442
0.80423 0.349721 -1.43344 0.0723641 0.195314 0.0462115 -0.342988 0.414579
-0.137566 0.0503126 -0.147882 -0.0329358 0.935582 -0.00798535 -0.223157 0.476354
0.169433 0.000894777 0.4818 0.229806 -0.0333543 0.0403356 -0.389867 0.0672776
-0.0841967 0.100107 -0.00125424 0.0623921 -0.140332 -0.000286448 -0.257447 0.203092
0.128103 -0.789976 -0.069509 0.822331 0.00741607 -0.759177 0.0418811 0.0226909
0.0818884 0.224484 -2.05813 -0.536806 -0.4578 0.116966 -0.0022458 -1.35236
0.000847522 0.226154 -0.697122 -0.222547 -0.510889 -0.0500293 -0.0805788 0.0258832
0.0603282 -0.868129 0.156973 0.192821 0.363496 0.0512486 -0.38556 0.000484559
-0.0634279 -0.313388 -0.348787 0.0433005 -0.642204 -0.676112 0.309386 -0.262986
-0.105207 0.131542
00000000: 49f6 0835 43aa ecbf 5fb2 96a7 188c 863f
00000010: 0a14 b188 6187 613f 1943 948a 2194 b8bf
00000020: a9a4 4e40 1361 af3f edc9 cbb3 f580 77bf
00000030: fca9 f1d2 4d62 bc3f 0e14 7827 9f1e bb3f
00000040: 9222 32ac e28d c63f 452a 8c2d 0439 98bf
00000050: 8c86 8c47 a904 eb3f 1139 7d3d 5fb3 bcbf
00000060: 7155 d977 4570 fe3f 5cab 3dec 8502 d43f
00000070: bd1d e1b4 e045 c73f 7ac6 be64 e3c1 a2bf
00000080: 6d12 cd4d e5fe a0bf f0a0 7ebc fcf3 913f
00000090: 60ea c63f 5c07 81bf 807f 4a95 287b 9bbf
000000a0: 120e 620c 512a b03f 7610 e099 756b a2bf
000000b0: 7af6 01ed b36f 93bf a1d6 34ef 3845 c7bf
000000c0: 93e0 0d69 54e0 84bf f2b8 24de 6c39 783f
000000d0: 4af6 bea7 284d b13f 185c 7347 ffcb 9d3f
000000e0: 8545 7f47 d8e0 523f 57cf 49ef 1b5f cd3f
000000f0: ca6d fb1e f5d7 b1bf 16fc 36c4 78cd ebbf
00000100: bcf8 ecca 78a5 863f cae0 2879 758e f1bf
00000110: 842d 76fb ac32 c5bf 7b8f e9bf bd21 b73f
00000120: 7be5 304e 3228 a5bf 0761 6ef7 729f 9c3f
00000130: 1b75 bee9 a749 9abf 06b2 e8e7 97d2 a0bf
00000140: cb6b 802d 0a16 b23f b53e 9b0b 1291 b03f
00000150: c872 5cd7 7965 b83f be13 b35e 0ce5 fbbf
00000160: 54e1 cff0 660d 963f 70e5 91e4 5e05 ad3f
00000170: 3144 4e5f cfd7 bc3f fc71 fbe5 9315 c5bf
00000180: 77e9 70be 2209 b83f 6308 008e 3d7b 8e3f
00000190: 2e76 fbac 3253 babf 0f9d 9e77 6341 ed3f
000001a0: b2d9 91ea 3bbf c23f ebcf d95d fb5d abbf
000001b0: 75b0 fecf 613e fcbf 6de5 25ff 93bf 8bbf
000001c0: 5188 8043 a852 fa3f 3525 5987 a32b e9bf
000001d0: ef01 ba2f 67b6 dc3f f59e ca69 4fc9 c53f
000001e0: d7bd 1589 096a e13f 2bff b517 2c30 af3f
000001f0: 2c04 c5d1 4d49 633f 844a 5cc7 b8e2 efbf
00000200: 3d81 b053 ac1a e0bf 7afe b451 9d0e e4bf
00000210: 8429 caa5 f10b c33f b8e7 f9d3 4675 923f
00000220: f047 9bf4 087f 503f f777 b647 6fb8 d9bf
00000230: a9de 1ad8 2a41 fa3f 05c3 b986 191a bb3f
00000240: dd86 0783 2161 8e3f e275 fd82 ddf0 01c0
00000250: 3833 b8b5 9e84 763f 18ec 866d 8bf2 0140
00000260: 18ea b0c2 2d1f d1bf ca89 7615 527e efbf
00000270: 704a d466 f73f b53f d506 27a2 5f5b edbf
00000280: 4a7b 832f 4c26 f73f 206c 674e 4d38 a2bf
00000290: 813f fcfc f7e0 d9bf ec2e 5052 6001 d0bf
000002a0: 4f1e 166a 4d73 e5bf 0a80 f10c 1afa f33f
000002b0: ddd3 d51d 8b6d c03f a0df f76f 5e1c e53f
000002c0: dc29 1dac ff73 f8bf 72b0 3932 4fe1 4abf
000002d0: 75ab e7a4 f78d e23f a663 ce33 f625 e3bf
000002e0: a7cb 6262 f3f1 e53f a3cd 5060 2acb 823f
000002f0: 0401 3274 eca0 ca3f 8d42 9259 bdc3 df3f
00000300: a778 5c54 8b08 ee3f df15 c1ff 5632 f53f
00000310: 49d7 4cbe d9e6 f0bf 2a52 616c 2148 f13f
00000320: 9818 cbf4 4bc4 bf3f 81b3 942c 27a1 efbf
00000330: d598 6b2c bc26 8f3f 52af a591 e057 9ebf
00000340: 0000 0000 0080 fd3f 6215 6f64 1ef9 93bf
00000350: bf25 a545 22d9 88bf 5ef6 eb4e 779e e73f
00000360: d541 5e0f 26c5 e7bf b29d efa7 c64b bfbf
00000370: 8756 8220 9b3f 993f 8ef1 1769 9890 a1bf
00000380: 3ba2 a59f 2e5a 69bf 238b 4d8e affb 663f
00000390: 3c30 80f0 a144 d03f 4a42 226d e34f e43f
000003a0: aeb8 382a 3751 d7bf 16da 39cd 02ed d53f
000003b0: bc70 8c09 d6dd 993f ffeb dcb4 19a7 d93f
000003c0: 4819 7101 6894 da3f 0f0a 4ad1 ca3d e83f
000003d0: 4c30 83ce f795 6f3f b75d 68ae d348 d9bf
000003e0: abde 4759 b26f 363f b1dd 3d40 f7e5 c63f
000003f0: 40a4 dfbe 0e9c cf3f 76fd 82dd b02d 05c0
00000400: c973 7d1f 0e12 c2bf cedb 7d33 d6a3 b13f
00000410: b60f 79cb d58f db3f 4c65 9b65 602e 93bf
00000420: fa0d 130d 52f0 dfbf a575 0aa8 2677 aebf
00000430: a857 ca32 c4b1 f13f 0681 9543 8b6c fcbf
00000440: abea e577 9acc c2bf 18b4 9080 d1e5 e5bf
00000450: 75b0 fecf 613e f4bf 13cc 5ed7 ab9f 79bf
00000460: 8f1d 54e2 3ac6 cbbf 7b6b 60ab 040b f9bf
00000470: 309b 00c3 f2e7 e8bf b37f f9bf 7ee3 86bf
00000480: 556c cceb 8843 e1bf 3194 13ed 2aa4 c2bf
00000490: b24b 546f 0dec fdbf 8b32 1b64 9291 f6bf
000004a0: 9d1e 25c0 fa89 64bf a7ae 7c96 e741 f3bf
000004b0: 95b9 f946 74cf cebf 1e0e 1a13 c558 843f
000004c0: 18fc 47f0 d0c1 b03f ed18 0dcf 0138 943f
000004d0: ef02 2505 16c0 d43f 64e2 da79 b0ff 593f
000004e0: 5c8f c2f5 285c d23f 77bb 5e9a 22c0 bdbf
000004f0: 3ca4 1820 d104 c2bf c28a 53ad 8559 df3f
00000500: 06f6 9848 6936 ebbf c500 8926 50c4 ebbf
00000510: 8847 661e 8ee8 7dbf e128 7975 8e01 cf3f
00000520: 042e d9c2 3de0 afbf 653f 4118 2e61 9bbf
00000530: 1151 4cde 0033 c1bf e4d1 32f7 3537 b93f
00000540: ad10 fba9 9619 b93f 39f0 6ab9 3313 db3f
00000550: 897c 9752 970c e43f 50aa 7d3a 1e33 dfbf
00000560: 1da5 3b1d 0226 643f e3fe 23d3 a153 e93f
00000570: b495 c27c acf2 3abf 8b50 6c05 4d4b e1bf
00000580: 5cc9 8e8d 40bc e93f d55c 6e30 d461 d63f
00000590: ac73 0cc8 5eef f6bf 958b e722 7486 b23f
000005a0: 88b8 3995 0c00 c93f f6f0 65a2 08a9 a73f
000005b0: 9fe8 baf0 83f3 d5bf c3ef a65b 7688 da3f
000005c0: 0d51 853f c39b c1bf 1a49 27b7 92c2 a93f
000005d0: 9e62 d520 cced c2bf a635 bc0f f6dc a0bf
000005e0: 9f3d 97a9 49f0 ed3f 7fe3 c688 9f5a 80bf
000005f0: eecd 6f98 6890 ccbf f566 d47c 957c de3f
00000600: 4a7c ee04 fbaf c53f 861d e2f9 ee51 4d3f
00000610: 849e cdaa cfd5 de3f 8258 3673 486a cd3f
00000620: 78a8 5c97 d013 a1bf aca4 ba25 dea6 a43f
00000630: 5589 b2b7 94f3 d8bf d5dc c0d3 1a39 b13f
00000640: 175e ee38 ea8d b5bf a4c5 19c3 9ca0 b93f
00000650: af64 01f2 a98c 54bf d7b9 0e7a dbf1 af3f
00000660: e487 4a23 66f6 c1bf 62d0 c0ca ccc5 32bf
00000670: 1003 5dfb 027a d0bf 4624 0a2d ebfe c93f
00000680: 957e c2d9 ad65 c03f 26ff 93bf 7b47 e9bf
00000690: fd14 c781 57cb b1bf 4f95 ef19 8950 ea3f
000006a0: 8469 d621 5060 7e3f 3603 5c90 2d4b e8bf
000006b0: 4f19 a485 7071 a53f 4ccf aa85 483c 973f
000006c0: e2f8 eb5f a3f6 b43f 73d5 3c47 e4bb cc3f
000006d0: f354 87dc 0c77 00c0 8d7d c9c6 832d e1bf
000006e0: 94f6 065f 984c ddbf 9772 bed8 7bf1 bd3f
000006f0: 5219 b5b1 c865 62bf 6cb2 463d 44a3 f5bf
00000700: 61e2 e5a2 87c5 4b3f d906 ee40 9df2 cc3f
00000710: be4e eacb d24e e6bf 2e55 698b 6b7c ccbf
00000720: 4b5b 5ce3 3359 e0bf d8fc aebe 709d a9bf
00000730: 9c3c c0ee cfa0 b4bf 0135 1026 2081 9a3f
00000740: 9897 0d7c 56e3 ae3f a3b1 f677 b6c7 ebbf
00000750: e770 adf6 b017 c43f b3b2 7dc8 5bae c83f
00000760: 2784 0eba 8443 d73f 737b eea9 413d aa3f
00000770: 2254 a9d9 03ad d8bf 53f0 d70e 8dc1 3f3f
00000780: d169 2794 cf3c b0bf c45d bd8a 8c0e d4bf
00000790: e546 91b5 8652 d6bf 8507 cdae 7b2b a63f
000007a0: 4488 2b67 ef8c e4bf 62dc 0da2 b5a2 e5bf
000007b0: c1c6 f5ef facc d33f 2593 533b c3d4 d0bf
000007c0: fc6d 4f90 d8ee babf 8e74 0646 5ed6 c03f

FC1_bias f8 [50]
-0.0267395 1.20242 0.070051 -0.00306442 1.19266 -1.01009 -0.829429 -0.0322584
-0.320886 0.888365 -0.0128079 -0.574808 -0.0156566 0.382275 1.2656 -0.341955
-0.062569 -1.09515 1.03871 0.671155 0.0329799 -0.265936 -1.64422 0.405765
-0.0159609 0.459052 1.26648 -0.00600839 0.276619 0.126483 0.289594 0.924411
-0.0208601 0.452886 0.371752 -0.0334339 0.132803 0.225761 0.884222 -0.274564
-0.314372 -0.343855 0.0109792 -0.149266 0.238543 -0.115826 -0.988616 -0.122591
-0.614924 -0.0313874
00000000: 58aa 0b78 9961 9bbf b0e6 00c1 1c3d f33f
00000010: 2a56 0dc2 dcee b13f 6475 ccf5 8d1a 69bf
00000020: 30f5 f3a6 2215 f33f 2844 c021 5429 f0bf
00000030: d653 abaf ae8a eabf 0de6 0a4a 2c84 a0bf
00000040: e4a1 ef6e 6589 d4bf 3d27 bd6f 7c6d ec3f
00000050: 4a23 0b3d 073b 8abf 5855 2fbf d364 e2bf
00000060: 3ac0 dda3 4808 90bf 8104 c58f 3177 d83f
00000070: e414 1dc9 e53f f43f 1809 6d39 97e2 d5bf
00000080: 0951 bea0 8504 b0bf 2f6e a301 bc85 f1bf
00000090: 5873 8060 8e9e f03f 0a80 f10c 1a7a e53f
000000a0: 87c7 d9cf bde2 a03f 410f b56d 1805 d1bf
000000b0: addd 76a1 b94e fabf d521 37c3 0df8 d93f
000000c0: 7014 0fde 0d58 90bf 0475 caa3 1b61 dd3f
000000d0: fa9b 5088 8043 f43f 9d68 d3e8 409c 78bf
000000e0: 3df1 9c2d 20b4 d13f f4fe 3f4e 9830 c03f
000000f0: 6e8a c745 b588 d23f 4701 a260 c694 ed3f
00000100: d247 2a9d 595c 95bf 8a3d b48f 15fc dc3f
00000110: f33e 8ee6 c8ca d73f cecc 2786 3f1e a1bf
00000120: a0c4 e74e b0ff c03f 342b db87 bce5 cc3f
00000130: 35eb 8cef 8b4b ec3f 232c 2ae2 7492 d1bf
00000140: 96cc b1bc ab1e d4bf a83a e466 b801 d6bf
00000150: 136d 7d47 437c 863f 64ce 33f6 251b c3bf
00000160: 0249 d8b7 9388 ce3f 71c8 06d2 c5a6 bdbf
00000170: bdac 8905 bea2 efbf 08b0 c8af 1f62 bfbf
00000180: eed0 b018 75ad e3bf 1750 0361 0212 a0bf

FC1_weight f8 [50, 50]
0.00264399 -1.63051 -1.1123 0.139851 0.576622 -0.167313 -0.184032 -0.0267027
-0.328395 0.47823 -0.0299004 0.115887 -0.000738375 -0.178902 0.198473 -0.201468
-0.0541564 1.42128 -0.305957 -0.161965 0.0983768 -0.364571 0.458049 0.110974
0.0159769 -0.608725 0.244234 0.0158768 -0.404407 0.707354 1.18527 -0.240149
-0.0429024 0.899107 0.0415919 0.269701 -0.940016 0.195523 0.0695869 0.50378
-0.384531 -0.0515364 0.365622 0.537775 0.684814 -0.199452 0.377454 -0.0680676
1.0738 -0.0617196 -0.0169062 -5.82032 0.013585 0.37782 -2.241 -0.0807266
-0.0147561 -0.015481 2.13293 -2.41146 0.0062622 0.0121355 0.0044767 0.242636
-2.90997 -1.25629 -0.0366576 2.07582 1.74324 -3.31574 -1.83601 1.07867
1.90467 -0.305118 0.0412256 0.287313 0.456646 -0.0340421 1.61026 0.273331
-0.208072 2.44868 0.0285324 -0.0811857 0.948761 0.435487 -0.0755451 0.0163916
-2.9885 2.24796 -1.63193 -1.99483 -0.135808 0.412984 -0.293604 -0.510149
-0.508311 -0.129005 -0.472993 -0.034453 0.0188988 0.449624 -1.91777 0.151038
-0.41395 0.545637 -3.75864 0.0257502 0.257288 0.493197 0.000910114 0.0399776
0.0280065 -0.965284 0.50646 -0.0170828 -0.115246 0.32843 0.528597 -0.660896
-1.81492 0.143533 -0.384191 0.238219 -0.0161718 -0.0231372 0.572817 0.0171204
0.502464 0.522059 -0.398297 -0.553394 0.0100268 0.848259 0.510005 -0.553566
0.571968 -0.0486661 0.287756 0.095033 -0.907598 0.484743 -2.0336 0.0290572
0.364768 0.197727 0.64644 -0.0896845 -0.197267 -0.0540568 -0.0544332 -0.659405
0.483591 0.374052 -1.31729 0.757099 -1.39629 0.0195366 -1.12279 -0.738204
-0.017709 0.921458 -0.0512062 -2.1456 1.09854 -0.952314 -0.702181 0.914123
0.127505 -1.49007 -2.40098 0.508511 0.684038 -0.211188 0.0408085 -0.036211
-0.537863 0.00128108 1.95792 0.540649 -1.0799 -0.822728 0.000444346 1.0492
0.35511 1.27046 -0.527028 -0.0726248 -0.589146 -2.91552 -1.16509 1.3067
-1.74504 -0.116073 -0.873662 0.25527 -0.491668 -0.158092 0.521776 -0.0279337
0.0385715 -2.63796 2.69416 -0.0170861 -0.618679 -0.658667 3.43318 -0.0423553
-0.861204 -0.0316873 -0.0229966 0.415381 -0.0368575 0.391643 -0.78335 1.30751
-0.49661 0.326482 -1.14609 0.331369 -0.0121259 -0.370684 1.27206 -0.299923
-0.0428876 0.0254985 -1.53017 0.0153035 0.137523 -0.272404 -0.257006 -2.71914
0.0186855 1.28963 -0.208828 -0.158263 -0.226001 0.0199313 -3.79596 0.221786
0.672859 -0.239305 0.990792 0.112333 -1.13387 -0.140625 -0.450941 0.0486553
0.043055 -0.0100093 0.0115819 -0.00319385 0.0170786 0.0113704 0.0635427 0.0370158
00000000: a326 9752 d9a8 653f bbd0 5ca7 9116 fabf
00000010: eb73 b515 fbcb f1bf fa0c a837 a3e6 c13f
00000020: 7cee 04fb af73 e23f fe0a 992b 836a c5bf
00000030: b96f b54e 5c8e c7bf 890e dcdc f357 9bbf
00000040: f8df 4a76 6c04 d5bf 41d4 7d00 529b de3f
00000050: 329d 8ce0 359e 9ebf cb13 083b c5aa bd3f
00000060: 855d 143d f031 48bf e430 98bf 42e6 c6bf
00000070: 04cb 1132 9067 c93f 3963 9813 b4c9 c9bf
00000080: f1f9 bc3d 63ba abbf 9357 e718 90bd f63f
00000090: 8bdd 3eab cc94 d3bf b35e 0ce5 44bb c4bf
000000a0: dd64 afd2 382f b93f 247b 849a 2155 d7bf
000000b0: d1ca bdc0 ac50 dd3f 57d0 b4c4 ca68 bc3f
000000c0: eb41 f79b 3f5c 903f 423e e8d9 ac7a e3bf
000000d0: 2e1f 4949 0f43 cf3f f97e 0f03 0242 903f
000000e0: 9180 d1e5 cde1 d9bf ac3b 16db a4a2 e63f
000000f0: f4e0 eeac ddf6 f23f aa63 95d2 33bd cebf
00000100: 7ffe d6a9 4df7 a5bf 7959 130b 7cc5 ec3f
00000110: de97 8e94 884b a53f 29b4 acfb c742 d13f
00000120: 80ef 366f 9c14 eebf ccd2 4ecd e506 c93f
00000130: bfe2 ba73 72d0 b13f c91f 0c3c f71e e03f
00000140: 5115 53e9 279c d8bf 1b6e 1ba1 fa62 aabf
00000150: dead 2cd1 5966 d73f a167 b3ea 7335 e13f
00000160: 66f9 ba0c ffe9 e53f e196 8fa4 a487 c9bf
00000170: fda3 6fd2 3428 d83f 40ce ead3 e06c b1bf
00000180: e71d a7e8 482e f13f 025e 0b1f b699 afbf
00000190: c506 66e0 db4f 91bf d504 51f7 0148 17c0
000001a0: 18b2 bad5 73d2 8b3f 0395 f1ef 332e d83f
000001b0: 21b0 7268 91ed 01c0 71d2 ea9a 7faa b4bf
000001c0: e300 5537 7238 8ebf 53cd aca5 80b4 8fbf
000001d0: 1c42 959a 3d10 0140 b4e5 5c8a ab4a 03c0
000001e0: 8557 3783 64a6 793f 5401 f73c 7fda 883f
000001f0: 8009 8101 2956 723f 5d87 6a4a b20e cf3f
00000200: 9dba f259 9e47 07c0 60ab 048b c319 f4bf
00000210: 16b9 4cf2 c8c4 a2bf d00f 2384 479b 0040
00000220: bf43 51a0 4fe4 fb3f f44f 70b1 a286 0ac0
00000230: 3810 9205 4c60 fdbf 35d2 5279 3b42 f13f
00000240: d3c1 fa3f 8779 fe3f 7cf0 daa5 0d87 d3bf
00000250: a415 8497 851b a53f 2dcd ad10 5663 d23f
00000260: 8e59 f624 b039 dd3f a5d3 5f54 f76d a1bf
00000270: 4fe9 60fd 9fc3 f93f 14e9 7e4e 417e d13f
00000280: cf4d 9b71 1aa2 cabf 49f4 328a e596 0340
00000290: 7c6c 81f3 9837 9d3f 4e22 6706 96c8 b4bf
000002a0: 560c 5707 405c ee3f 5d52 b5dd 04df db3f
000002b0: 2e80 df75 ec56 b3bf 8e69 b7a7 f5c8 903f
000002c0: 9cc4 20b0 72e8 07c0 b2ba d573 d2fb 0140
000002d0: cec7 b5a1 621c fabf 5f46 b1dc d2ea ffbf
000002e0: 6380 4413 2862 c1bf 645c 7171 546e da3f
000002f0: dc62 7e6e 68ca d2bf 8ec9 e2fe 2353 e0bf
00000300: 484e 266e 1544 e0bf 179f 0260 3c83 c0bf
00000310: d429 8f6e 8445 debf 7688 7fd8 d2a3 a1bf
00000320: 620d bcff 345a 933f 00ca dfbd a3c6 dc3f
00000330: acff 7398 2faf febf 0804 3a93 3655 c33f
00000340: 0378 0b24 287e dabf 079a cfb9 db75 e13f
00000350: e17f 2bd9 b111 0ec0 f03a 76ab 425e 9a3f
00000360: d1ce 6916 6877 d03f 5a0f 5f26 8a90 df3f
00000370: 5f05 cdee 96d2 4d3f d827 25a9 f177 a43f
00000380: f33b 4d66 bcad 9c3f 1c44 6b45 9be3 eebf
00000390: db6d 179a eb34 e03f 2de3 4b4d 277e 91bf
000003a0: 43ac fe08 c380 bdbf 309e 4143 ff04 d53f
000003b0: 5470 7841 44ea e03f b7d4 415e 0f26 e5bf
000003c0: 7db3 cd8d e909 fdbf 4bc9 7212 4a5f c23f
000003d0: e9b8 1ad9 9596 d8bf e195 24cf f57d ce3f
000003e0: 8c45 7820 578f 90bf 29b7 4835 47b1 97bf
000003f0: 7bf8 3251 8454 e23f 76b4 6098 0288 913f
00000400: e25a ed61 2f14 e03f 8ca3 7213 b5b4 e03f
00000410: 0a13 46b3 b27d d9bf 19af 7955 67b5 e1bf
00000420: 3f13 ab50 ee88 843f 8b34 f10e f024 eb3f
00000430: c47c 7901 f651 e03f 60ae 450b d0b6 e1bf
00000440: 1079 cbd5 8f4d e23f e904 d957 c3ea a8bf
00000450: e293 4e24 986a d23f c66f 0a2b 1554 b83f
00000460: bf47 fdf5 0a0b edbf 61c1 fd80 0706 df3f
00000470: 302a a913 d044 00c0 7e73 daae 2bc1 9d3f
00000480: 2426 a8e1 5b58 d73f f1a1 444b 1e4f c93f
00000490: 8f70 5af0 a2af e43f d446 753a 90f5 b6bf
000004a0: 7d3e ca88 0b40 c9bf 2eb9 4038 55ad abbf
000004b0: f61c a21b abde abbf 4434 ba83 d819 e5bf
000004c0: b6f4 68aa 27f3 de3f 9337 c0cc 77f0 d73f
000004d0: c190 d5ad 9e13 f5bf 9eb2 9aae 273a e83f
000004e0: 9eb5 db2e 3457 f6bf 9cd5 4c08 6701 943f
000004f0: d769 a4a5 f2f6 f1bf 23d8 b8fe 5d9f e7bf
00000500: 0724 61df 4e22 92bf f566 d47c 957c ed3f
00000510: 6372 b4f4 b237 aabf 7c61 3255 302a 01c0
00000520: c190 d5ad 9e93 f13f f5bb b035 5b79 eebf
00000530: 25ec db49 4478 e6bf 60af b0e0 7e40 ed3f
00000540: 19ca 8976 1552 c03f f302 eca3 53d7 f7bf
00000550: f7cc 9200 3535 03c0 0d00 55dc b845 e03f
00000560: 7714 e7a8 a3e3 e53f 0261 a758 3508 cbbf
00000570: 9c31 cc09 dae4 a43f 21cb 8289 3f8a a2bf
00000580: 724f 5777 2c36 e1bf 2e1f 072d 3dfd 543f
00000590: faf2 02ec a353 ff3f efae b321 ff4c e13f
000005a0: d734 ef38 4547 f1bf 931c b0ab c953 eabf
000005b0: 2079 c189 e31e 3d3f 4469 6ff0 85c9 f03f
000005c0: 43e2 1e4b 1fba d63f c004 6edd cd53 f43f
000005d0: f470 02d3 69dd e0bf 0de8 e0f4 8997 b2bf
000005e0: 0437 52b6 48da e2bf deab 5626 fc52 07c0
000005f0: a358 6e69 35a4 f2bf 63ee 5a42 3ee8 f43f
00000600: b263 2310 afeb fbbf f9d7 f2ca f5b6 bdbf
00000610: 2541 b802 0af5 ebbf 4a98 69fb 5756 d03f
00000620: b457 1f0f 7d77 dfbf 842e e1d0 5b3c c4bf
00000630: 68ce fa94 63b2 e03f ce39 d3df a69a 9cbf
00000640: 2386 1dc6 a4bf a33f d13f c1c5 8a1a 05c0
00000650: e887 11c2 a38d 0540 c25f ddc2 047f 91bf
00000660: 7e1a f7e6 37cc e3bf b58a fed0 cc13 e5bf
00000670: 1040 6a13 2777 0b40 b2e1 9f08 98af a5bf
00000680: 79e6 e5b0 fb8e ebbf 24a7 655a 5139 a0bf
00000690: 1641 adb3 6b8c 97bf 404e 9830 9a95 da3f
000006a0: 0282 397a fcde a2bf dd44 2dcd ad10 d93f
000006b0: 8c4a ea04 3411 e9bf 5d16 139b 8feb f43f
000006c0: b875 374f 75c8 dfbf 19e4 2ec2 14e5 d43f
000006d0: bc5c c477 6256 f2bf 5820 7a52 2635 d53f
000006e0: f3fd 79bf 76d5 88bf 34a1 4962 49b9 d7bf
000006f0: d1cb 2896 5b5a f43f 855d 143d f031 d3bf
00000700: dccf ce0e 5df5 a5bf a662 635e 471c 9a3f
00000710: 0820 b589 937b f8bf 315c 1d00 7157 8f3f
00000720: c651 b989 5a9a c13f 622c d32f 116f d1bf
00000730: b70c 384b c972 d0bf a9f6 e978 ccc0 05c0
00000740: da3b a3ad 4a22 933f 350c 1f11 53a2 f43f
00000750: 709a 3e3b e0ba cabf 465b 9544 f641 c4bf
00000760: 7c80 eecb 99ed ccbf 64c4 aae6 de68 943f
00000770: ae64 c746 205e 0ec0 c7f6 5ad0 7b63 cc3f
00000780: 6937 fa98 0f88 e53f c477 62d6 8ba1 cebf
00000790: 096e a46c 91b4 ef3f 1ff6 4201 dbc1 bc3f
000007a0: f8a5 7ede 5424 f2bf 0000 0000 0000 c2bf
000007b0: fb3b dba3 37dc dcbf f6db 8df4 58e9 a83f
000007c0: 97ca db11 4e0b a63f c12f 3f81 c17f 84bf
000007d0: 2ce9 cd4d 40b8 873f 84ea 8b29 fd29 6abf
000007e0: 708a d871 0d7d 913f beb6 2341 5d49 873f
000007f0: 3348 669a 5544 b03f 9adc de24 bcf3 a23f

FC2_bias f8 [50]
0.337579 0.175831 -0.899855 -1.35526 0.637071 -1.42383 1.0673 -0.708474
-1.41747 -0.117795 1.26234 0.512683 -2.148 0.312718 -0.0480673 -0.875735
-0.218683 0.304079 -0.0136765 0.549789 0.330248 0.0674446 -2.19553 -0.519464
-0.24099 -1.51125 -0.31075 -0.170515 0.155848 -0.922395 -0.00433562 0.0231083
0.0904835 -1.09502 0.0511634 -0.0700029 -1.29148 -0.00603631 0.0667656 0.529394
0.294133 1.60803 -0.0911335 -1.53636 -2.32177 -0.276041 -0.0851574 -0.0897893
0.598596 0.187968
00000000: a33f 34f3 e49a d53f adbd 4f55 a181 c63f
00000010: eb8b 84b6 9ccb ecbf 3a3b 191c 25af f5bf
00000020: 4b5c c7b8 e262 e43f d504 51f7 01c8 f6bf
00000030: 3255 302a a913 f13f 2a1f 82aa d1ab e6bf
00000040: 59fa d005 f5ad f6bf b9df a128 d027 bebf
00000050: 18ec 866d 8b32 f43f a8e2 c62d e667 e03f
00000060: c976 be9f 1a2f 01c0 bbb6 b75b 9203 d43f
00000070: 3b98 03f3 469c a8bf 4bcd 1e68 0506 ecbf
00000080: 3178 98f6 cdfd cbbf e49f 19c4 0776 d33f
00000090: 4b3a cac1 6c02 8cbf db6a d619 df97 e13f
000000a0: 2e71 e481 c822 d53f 82b3 4a9f 0c44 b13f
000000b0: 5518 5b08 7290 01c0 0761 6ef7 729f e0bf
000000c0: 7fde 54a4 c2d8 cebf ae47 e17a 142e f8bf
000000d0: 17d9 cef7 53e3 d3bf c11c 3d7e 6fd3 c5bf
000000e0: 28d1 92c7 d3f2 c33f 31ce df84 4284 edbf
000000f0: 12e4 b921 3ac2 71bf 688b 10c3 b3a9 973f
00000100: a4de 5339 ed29 b73f 6974 07b1 3385 f1bf
00000110: f41b 81d3 1632 aa3f 620a 20c6 b5eb b1bf
00000120: 6002 b7ee e6a9 f4bf ccc4 9da0 87b9 78bf
00000130: f970 7fe4 8c17 b13f 215b 96af cbf0 e03f
00000140: d828 eb37 13d3 d23f 43ca 4faa 7dba f93f
00000150: 92ec 116a 8654 b7bf f71e 2e39 ee94 f8bf
00000160: deab 5626 fc92 02c0 8cba d6de a7aa d1bf
00000170: 042c 0318 e0cc b5bf 1bde 077b 6efc b6bf
00000180: 7b86 70cc b227 e33f 4be6 58de 550f c83f

FC2_weight f8 [50, 50]
-0.0217858 0.0393653 0.0413424 0.00612335 -0.0430536 -0.0375397 -0.0436357 -0.054954
-0.0315229 0.0125596 -0.0200057 0.0146549 0.00189074 0.0122617 -0.0282117 0.0118171
0.0400674 -0.00340092 -0.027021 0.0223064 0.00780563 0.0288921 0.00645307 -0.0457227
-0.0368071 0.00496906 0.00455304 -0.0527201 -0.0206743 0.000132045 0.0385628 0.0253569
-0.0178344 0.0326378 -0.0203773 -0.0110945 -0.0295315 0.034812 0.0134284 0.029898
0.0128122 0.0571229 0.0449557 0.0171901 0.0216224 0.00208035 -0.0279625 -0.0205975
-0.0218894 -0.0404689 0.685317 0.444614 1.37111 0.360399 -0.132401 0.640635
1.94692 0.560697 0.429032 0.0215146 -1.25491 0.171927 -0.2166 0.692864
0.277213 0.419124 0.24217 0.0999792 -0.0524437 -2.19204 0.0280491 -0.806014
1.27961 -0.366053 0.714213 0.890444 -0.468867 0.361854 0.209634 -0.133674
-0.0849717 -0.113379 -0.0887457 -0.684037 0.0446504 1.39397 0.307018 0.0113427
-0.875559 -2.02913 -0.358757 -0.0994692 0.131473 1.10916 -0.347493 1.07598
0.505588 1.63489 0.244188 -0.175901 -1.07524 -0.13683 0.42759 -0.155123
-0.237098 0.912603 1.43595 0.566095 -0.12908 -7.12152 2.14404 -0.885434
1.10126 -0.280427 0.0683264 -0.279034 -0.766708 0.44765 0.718813 1.13403
-0.197417 -1.05703 0.296715 0.1763 -0.475973 0.0127479 -0.783689 -0.170916
-1.33604 0.697551 -0.0137888 -0.107057 -0.273568 -0.0233085 -0.151127 0.189234
0.617108 0.0220841 -0.22101 0.263922 -0.993708 0.172669 0.402079 -0.140699
1.15463 -1.0836 -0.264586 0.688159 -9.2682 -0.359195 -0.909496 -1.00634
1.00667 0.25916 0.192945 0.907387 -0.7116 -1.90501 -0.345131 1.0271
0.178755 0.399216 0.871211 0.497853 0.633359 -1.00536 -0.47964 1.4852
2.34431 0.621102 -0.333798 1.32732 -0.239948 0.335394 -0.489277 -1.60521
-0.0272566 -1.26095 -1.29097 -1.45603 0.00166919 -0.827625 0.0695236 0.0275523
0.404979 0.510689 1.01538 0.00859878 -0.47672 -0.324839 1.51068 0.723314
0.117695 1.10636 0.425007 0.321552 1.06644 0.623865 -2.45738 -0.161449
0.0878772 0.133878 0.315153 0.240015 -0.0768304 -0.62468 1.17897 0.370242
0.502261 0.504609 -2.04896 -1.37322 -0.840269 -1.05264 0.177379 0.16801
0.0502034 -0.922224 0.882814 0.115807 -0.0776934 0.742639 -0.106889 0.732632
-0.163537 -1.39498 0.110129 0.168698 0.0383368 0.392998 -0.0595191 -0.122047
-0.236369 0.522117 -0.560346 0.360253 -0.299885 -0.0414484 -0.197425 0.307217
0.340856 0.57181 0.232545 1.54808 0.0859625 -0.618841 -0.168452 -0.1928
0.769554 -0.426156 -0.441917 1.1799 -0.626681 -0.0650178 -0.0927332 0.00977377
00000000: 0a9c 114a 044f 96bf f9c7 3148 b027 a43f
00000010: 4055 e0bf d42a a53f 2013 df3f cc14 793f
00000020: cc3b f317 1f0b a6bf 0772 9a4f 6738 a3bf
00000030: 584a e020 6b57 a6bf c89a 9141 ee22 acbf
00000040: ad70 2601 c523 a0bf 3eb9 01fa d8b8 893f
00000050: 7c31 efcc 5f7c 94bf f127 cf61 6303 8e3f
00000060: f779 c69d 56fa 5e3f 6868 f283 a91c 893f
00000070: 0e50 7523 87e3 9cbf f2bb 4450 9033 883f
00000080: 1481 45d9 b683 a43f bc59 a405 3fdc 6bbf
00000090: 8b8a 389d 64ab 9bbf 4f4a f729 7dd7 963f
000000a0: f7df 31d9 cbf8 7f3f c777 7302 e495 9d3f
000000b0: baa3 bdc9 886e 7a3f 9fa0 5e3a f768 a7bf
000000c0: 936d 8555 61d8 a2bf a3dd 11e3 6f5a 743f
000000d0: f7aa 5b5e 35a6 723f e906 af02 21fe aabf
000000e0: 7684 78c9 a42b 95bf 6384 c7e9 b14e 213f
000000f0: 5f33 afd9 80be a33f bc69 e9c0 28f7 993f
00000100: 18a2 f952 2e43 92bf 190e 3ad7 e6b5 a03f
00000110: 34b8 5274 c9dd 94bf fce2 5295 b6b8 86bf
00000120: f3aa ce6a 813d 9ebf b746 04e3 e0d2 a13f
00000130: fc6a b356 5980 8b3f c6fc dcd0 949d 9e3f
00000140: 2222 eb5f 483d 8a3f 4392 b476 363f ad3f
00000150: 7a9e 89fa 6e04 a73f 6487 4215 489a 913f
00000160: f4b1 71b3 2e24 963f 6c00 db66 cf0a 613f
00000170: e0be 0e9c 33a2 9cbf f376 84d3 8217 95bf
00000180: ef28 84c4 2c6a 96bf bc9b 02f4 56b8 a4bf
00000190: 1492 ccea 1dee e53f e7ff 5547 8e74 dc3f
000001a0: 397f 130a 11f0 f53f eeb5 a0f7 c610 d73f
000001b0: c895 7a16 84f2 c0bf e388 b5f8 1480 e43f
000001c0: 66da fe95 9526 ff3f d6e3 bed5 3af1 e13f
000001d0: 8bff 3ba2 4275 db3f 51cc 8b5d ec07 963f
000001e0: 15c6 1682 1c14 f4bf 7a52 2635 b401 c63f
000001f0: 0b24 287e 8cb9 cbbf 7f6c 921f f12b e63f
00000200: c5aa 4198 dbbd d13f 3fff 3d78 edd2 da3f
00000210: c841 0933 6dff ce3f 05be 47a2 3c98 b93f
00000220: 4331 c390 e6d9 aabf d330 7c44 4c89 01c0
00000230: 729b ba3c e7b8 9c3f d6c7 43df ddca e9bf
00000240: 2827 da55 4879 f43f 7192 e68f 696d d7bf
00000250: f818 ac38 d5da e63f ec6b 5d6a 847e ec3f
00000260: c91c cbbb ea01 debf 6e50 fbad 9d28 d73f
00000270: d498 1073 49d5 ca3f 1daa 29c9 3a1c c1bf
00000280: d9e4 9590 b4c0 b5bf 779d 0df9 6706 bdbf
00000290: dd1e 29c7 09b8 b6bf 6020 0890 a1e3 e5bf
000002a0: f3b2 81cf 6adc a63f 92ae 997c b34d f63f
000002b0: 0c22 52d3 2ea6 d33f aaff 626c d73a 873f
000002c0: a8fd d64e 9404 ecbf eba8 6a82 a83b 00c0
000002d0: 3482 8deb dff5 d6bf 9593 f540 d076 b9bf
000002e0: 0a4c a775 1bd4 c03f 7380 608e 1ebf f13f
000002f0: ffb0 a547 533d d6bf ba66 f2cd 3637 f13f
00000300: 6500 a8e2 c62d e03f 46eb a86a 8228 fa3f
00000310: d5ae 0969 8d41 cf3f 8db6 2a89 ec83 c6bf
00000320: dc9d b5db 2e34 f1bf 884b 8e3b a583 c1bf
00000330: 5a2f 8672 a25d db3f 8cbf ed09 12db c3bf
00000340: 8f37 f92d 3a59 cebf 5a68 e734 0b34 ed3f
00000350: 280f 0bb5 a6f9 f63f 5abb ed42 731d e23f
00000360: bda9 4885 b185 c0bf 5c3d 27bd 6f7c 1cc0
00000370: d786 8a71 fe26 0140 e086 18af 7955 ecbf
00000380: 9049 46ce c29e f13f c895 7a16 84f2 d1bf
00000390: f712 74c5 d67d b13f 4c36 1e6c b1db d1bf
000003a0: 349c 3237 df88 e8bf 4a7b 832f 4ca6 dc3f
000003b0: 9911 de1e 8400 e73f 14ed 2aa4 fc24 f23f
000003c0: ca53 56d3 f544 c9bf 0b41 0e4a 98e9 f0bf
000003d0: 93e3 4ee9 60fd d23f 5474 2497 ff90 c63f
000003e0: 44db 3175 5776 debf 2cce bd2c 921b 8a3f
000003f0: a984 27f4 fa13 e9bf 3e7b 2e53 93e0 c5bf
00000400: 8d5d a27a 6b60 f5bf da58 8979 5652 e63f
00000410: 269f 6868 4d3d 8cbf b3d0 ce69 1668 bbbf
00000420: 2fdb 4e5b 2382 d1bf 4d11 e0f4 2ede 97bf
00000430: a873 4529 2158 c3bf 2448 a5d8 d138 c83f
00000440: f032 c346 59bf e33f 31df 0bdd 369d 963f
00000450: 0b63 0b41 0e4a ccbf 7079 ac19 19e4 d03f
00000460: 12c1 38b8 74cc efbf 213a 048e 041a c63f
00000470: f722 da8e a9bb d93f 4b3a cac1 6c02 c2bf
00000480: 0cb0 8f4e 5d79 f23f 2d21 1ff4 6c56 f1bf
00000490: 68af 3e1e faee d0bf 8a56 ee05 6605 e63f
000004a0: 0c93 a982 5189 22c0 05c0 7806 0dfd d6bf
000004b0: 59f8 fa5a 971a edbf 9981 caf8 f719 f0bf
000004c0: 41d4 7d00 521b f03f 679b 1bd3 1396 d03f
000004d0: c39e 76f8 6bb2 c83f 0119 3a76 5009 ed3f
000004e0: daac fa5c 6dc5 e6bf edd8 08c4 eb7a febf
000004f0: 5b7d 7555 a016 d6bf ac8b db68 006f f03f
00000500: a88c 7f9f 71e1 c63f 508e 0244 c18c d93f
00000510: 6a4b 1de4 f5e0 eb3f 8eca 4dd4 d2dc df3f
00000520: 8c12 f417 7a44 e43f 124e 0b5e f415 f0bf
00000530: c39e 76f8 6bb2 debf a54e 4013 61c3 f73f
00000540: 707c ed99 25c1 0240 bc5d 2f4d 11e0 e33f
00000550: e317 5e49 f25c d5bf 3f3a 75e5 b33c f53f
00000560: 3ecc 5eb6 9db6 cebf 7193 5165 1877 d53f
00000570: e9d6 6b7a 5050 dfbf 0265 53ae f0ae f9bf
00000580: aa8e 6676 27e9 9bbf 5b42 3ee8 d92c f4bf
00000590: b9df a128 d0a7 f4bf 07eb ff1c e64b f7bf
000005a0: 3cea 7d1d 1759 5b3f 9643 8b6c e77b eabf
000005b0: f7d8 4c74 4ccc b13f 07e4 b78d ab36 9c3f
000005c0: 3046 240a 2deb d93f 86a9 2d75 9057 e03f
000005d0: 1e33 5019 ff3e f03f 7080 15b7 3c9c 813f
000005e0: fb57 569a 9482 debf 32c8 5d84 29ca d4bf
000005f0: 5d8a abca be2b f83f 6ea5 d766 6325 e73f
00000600: a818 e76f 4221 be3f 16a4 198b a6b3 f13f
00000610: 728c 648f 5033 db3f 37a8 fdd6 4e94 d43f
00000620: 0057 b263 2310 f13f 2dcf 83bb b3f6 e33f
00000630: 7fc1 6ed8 b6a8 03c0 5a67 7c5f 5caa c4bf
00000640: a965 10c4 1e7f b63f 9ab2 d30f ea22 c13f
00000650: 581f 0f7d 772b d43f 0d54 c6bf cfb8 ce3f
00000660: 62ae 5637 28ab b3bf 93e3 4ee9 60fd e3bf
00000670: 2271 8fa5 0fdd f23f adc2 6680 0bb2 d73f
00000680: d9cc 21a9 8512 e03f 6d8d 08c6 c125 e03f
00000690: 4e7f f623 4564 00c0 f168 e388 b5f8 f5bf
000006a0: c7f6 5ad0 7be3 eabf 0f62 670a 9dd7 f0bf
000006b0: baa3 ffe5 5ab4 c63f a852 b307 5a81 c53f
000006c0: 7fc7 4b92 42b4 a93f 01c3 f2e7 db82 edbf
000006d0: 226e 4e25 0340 ec3f f0da a50d 87a5 bd3f
000006e0: ae73 1df4 b6e3 b3bf 1c7e 37dd b2c3 e73f
000006f0: 4f59 4dd7 135d bbbf 2a19 00aa b871 e73f
00000700: 46cd 57c9 c7ee c4bf 6f2f 698c d651 f6bf
00000710: d657 5705 6a31 bc3f 1f47 7364 e597 c53f
00000720: 2772 778c e1a0 a33f 992d 5915 e126 d93f
00000730: 6986 f997 4979 aebf 6f2d 93e1 783e bfbf
00000740: 86e4 64e2 5641 cebf b3f0 f5b5 2eb5 e03f
00000750: a838 0ebc 5aee e1bf fd4b 5299 620e d73f
00000760: c5e6 e3da 5031 d3bf e96b f184 b938 a5bf
00000770: a1d6 34ef 3845 c9bf 679d f17d 71a9 d33f
00000780: d74d 29af 95d0 d53f 07d3 307c 444c e23f
00000790: c095 ecd8 08c4 cd3f 8577 b988 efc4 f83f
000007a0: c4b1 2e6e a301 b63f e290 0da4 8bcd e3bf
000007b0: b60f 79cb d58f c5bf 3d9b 559f abad c8bf
000007c0: 0531 d0b5 2fa0 e83f 94a0 bfd0 2346 dbbf
000007d0: bef8 a23d 5e48 dcbf 70ce 88d2 dee0 f23f
000007e0: 54c9 0050 c50d e4bf 176a a8ac 01a5 b0bf
000007f0: 9be0 40ed 5cbd b7bf 77aa 1134 4504 843f

FC3_bias f8 [50]
-1.8132 -1.32214 0.02289 -1.61071 1.39999 -1.44891 -0.684256 1.23363
0.20197 -0.842 2.57085 -0.20332 -0.888981 -0.488876 -0.999379 1.00561
-2.34909 1.94124 1.97009 -0.957709 -0.356291 -0.0570732 -0.722311 0.0423815
-0.0196525 0.617614 -0.292734 1.06879 -1.3587 -3.35961 -1.84281 -0.951059
0.216658 -1.53626 1.70057 -0.990288 -3.23705 -1.22172 0.203096 -0.501834
0.526787 0.529205 0.315236 -0.334826 -2.15232 2.3702 0.525368 -0.103901
0.25244 -0.0266399
00000000: 17b7 d100 de02 fdbf 2cbc cb45 7c27 f5bf
00000010: aa2b 9fe5 7970 973f 4c71 55d9 77c5 f9bf
00000020: f5a1 0bea 5b66 f63f c98e 8d40 bc2e f7bf
00000030: d4ef c2d6 6ce5 e5bf e9d4 95cf f2bc f33f
00000040: 99f5 6228 27da c93f 8b6c e7fb a9f1 eabf
00000050: 705f 07ce 1991 0440 4ab5 4fc7 6306 cabf
00000060: f67d 3848 8872 ecbf aa27 f38f be49 dfbf
00000070: d6e4 29ab e9fa efbf 2c7d e882 fa16 f03f
00000080: 97e2 aab2 efca 02c0 1efe 9aac 510f ff3f
00000090: 84d3 8217 7d85 ff3f 35b7 4258 8da5 eebf
000000a0: 16fc 36c4 78cd d6bf 39c5 f4ce b238 adbf
000000b0: 5550 51f5 2b1d e7bf 562d e928 07b3 a53f
000000c0: ab78 23f3 c81f 94bf e3a7 716f 7ec3 e33f
000000d0: 4b58 1b63 27bc d2bf 60ab 048b c319 f13f
000000e0: 0534 1136 3cbd f5bf 3884 2a35 7be0 0ac0
000000f0: 40de ab56 267c fdbf 7920 b248 136f eebf
00000100: a758 3508 73bb cb3f 8672 a25d 8594 f8bf
00000110: 84f0 68e3 8835 fb3f 43e1 b375 70b0 efbf
00000120: 6822 6c78 7ae5 09c0 eae7 4d45 2a8c f3bf
00000130: b265 f9ba 0cff c93f ebaa 402d 060f e0bf
00000140: 8ba7 1e69 70db e03f 5726 fc52 3fef e03f
00000150: 1766 a19d d32c d43f 876e f607 ca6d d5bf
00000160: b936 548c f337 01c0 67d5 e76a 2bf6 0240
00000170: 7dad 4b8d d0cf e03f de8d 0585 4199 babf
00000180: 80f1 0c1a fa27 d03f d228 136d 7d47 9bbf

FC3_weight f8 [50, 50]
-0.495591 0.41764 0.450341 0.0809711 0.43989 -0.299892 0.983121 -0.24781
4.32945 0.980591 -0.711535 0.606099 -0.329002 -0.580778 -0.0188418 -0.330665
-0.447155 -2.19719 -0.0477824 0.132678 -0.255229 -0.0297142 0.293461 -0.370717
0.551832 0.132155 -1.66535 0.702004 -1.2223 1.56022 0.0778204 0.376735
-0.0885912 0.337817 -0.523667 -0.628536 -0.609868 -0.391611 -0.29752 -0.106051
1.10886 1.47849 -0.0732376 -0.624575 -0.373103 0.0893933 0.194631 0.394458
-0.259556 -0.0179742 -0.533427 0.189074 -0.111654 0.557679 0.0988005 0.122065
-0.249094 0.330533 -0.819626 1.0814 -2.89502 -0.38816 0.244427 -0.189286
0.215689 1.10779 -0.358326 0.445121 0.881592 -0.0276187 0.307478 -0.0425822
-0.114647 0.101105 -0.068371 -0.218942 0.283259 0.279847 0.606138 0.633395
-0.652078 -0.0957807 0.547565 0.462656 0.37441 -0.563775 0.132724 -0.486651
0.0364556 -0.0621585 1.02007 0.129938 -0.207023 -0.099805 -0.096588 0.580547
0.0602912 0.233901 1.34213 -0.0461998 3.37163 0.858106 -0.436057 -3.45314
1.15539 -0.0558218 -0.290591 0.878118 1.55225 -0.767537 0.365457 -0.577829
0.343004 1.1618 0.339067 2.54432 -0.386155 1.21191 1.13271 -0.511173
-0.531085 -0.0192791 0.0109641 0.335894 1.42729 -0.232915 -1.5057 0.639814
-1.04204 1.55947 -0.176585 -1.24174 -1.38415 -0.551449 0.729367 -0.965046
0.424597 -1.21272 0.198481 0.0436479 3.61857 1.33685 0.16528 0.188575
-3.58475 0.983716 -0.459066 -0.107394 -1.87074 0.0408784 0.171791 0.438558
0.182323 1.62166 0.484147 0.97868 0.811788 0.409376 0.807531 1.49862
-0.929879 1.88786 -1.19192 -1.1513 0.782669 -1.99172 1.91106 0.738569
0.209287 0.725391 0.680846 0.00244264 -0.689861 -0.152601 0.927948 -1.00176
-2.56404 0.654391 0.309502 2.05137 0.6652 -1.63184 -0.0919233 0.381679
-0.444145 -0.915835 0.370327 1.26625 -0.0193265 -0.330192 0.497136 1.03968
0.134329 -0.722555 0.761568 -1.22759 0.62115 -0.124642 -0.626867 0.0366313
-0.244635 -0.400317 1.91555 -0.425558 2.3007 -0.134585 1.10498 2.35346
-0.0960354 2.81901 -0.148905 0.431603 0.223807 -0.0972065 0.037913 1.21922
0.0520262 1.03117 3.197 0.115452 0.534174 -0.0427346 -0.955946 -3.53864
0.202635 0.863025 -1.14811 0.743314 -0.182647 -2.58923 1.02164 -0.916268
0.137742 1.04433 2.33259 1.54269 0.42585 -0.418981 -0.621063 0.0933226
-1.07109 1.84929 -0.324596 -0.362013 0.407926 1.83782 -0.168174 -0.656282
-3.02008 -0.0194852 -0.444942 -0.350974 -0.0808931 -0.0769243 -0.556783 0.0179203
00000000: ae48 4c50 c3b7 dfbf 9817 601f 9dba da3f
00000010: 6211 c30e 63d2 dc3f 33d0 6ba2 85ba b43f
00000020: 9e98 f562 2827 dc3f 0340 1537 6e31 d3bf
00000030: 9b58 e02b ba75 ef3f d595 cff2 3cb8 cfbf
00000040: 36ab 3e57 5b51 1140 dc0f 7860 0061 ef3f
00000050: 14b3 5e0c e5c4 e6bf fd6c e4ba 2965 e33f
00000060: d063 9467 5e0e d5bf ac8f 87be bb95 e2bf
00000070: 5aeb 30cb 434b 93bf 44a3 3b88 9d29 d5bf
00000080: 598b 4f01 309e dcbf 32c9 c859 d893 01c0
00000090: 8016 a64a ef76 a8bf 3508 73bb 97fb c03f
000000a0: 0169 ff03 ac55 d0bf 193f e834 666d 9ebf
000000b0: 75b1 69a5 10c8 d23f 118f c4cb d3b9 d7bf
000000c0: 575c 1c95 9ba8 e13f 5f5e 807d 74ea c03f
000000d0: 304c a60a 46a5 fabf 6b28 b517 d176 e63f
000000e0: ad69 de71 8a8e f3bf bb0a 293f a9f6 f83f
000000f0: ef2d f6a8 09ec b33f 3f8c 101e 6d1c d83f
00000100: 11a1 b6b2 e9ad b6bf eb19 c231 cb9e d53f
00000110: 63d2 df4b e1c1 e0bf 1c7a 8b87 f71c e4bf
00000120: cb0f 5ce5 0984 e3bf 2d3f 7095 2710 d9bf
00000130: 98fa 7953 910a d3bf c845 b588 2826 bbbf
00000140: 207b bdfb e3bd f13f 9d68 5721 e5a7 f73f
00000150: 5768 d608 b3bf b2bf 3fc6 dcb5 84fc e3bf
00000160: f986 c267 ebe0 d7bf af44 fbb3 7ae2 b63f
00000170: d8d5 e429 abe9 c83f fc50 69c4 cc3e d93f
00000180: c2c1 dec4 909c d0bf b1e2 af24 d467 92bf
00000190: 63b5 f97f d511 e1bf 490f 43ab 9333 c83f
000001a0: 96b3 7746 5b95 bcbf be4f 55a1 81d8 e13f
000001b0: 2b15 5454 fd4a b93f 3a7a fcde a63f bf3f
000001c0: 139e d0eb 4fe2 cfbf d1eb 4fe2 7327 d53f
000001d0: 0471 1e4e 603a eabf 764f 1e16 6a4d f13f
000001e0: 9b20 ea3e 0029 07c0 0f62 670a 9dd7 d8bf
000001f0: c233 a149 6249 cf3f 9e9a cb0d 863a c8bf
00000200: 57b0 8d78 b29b cb3f 9a5f cd01 82b9 f13f
00000210: a19d d32c d0ee d6bf fad1 70ca dc7c dc3f
00000220: 9549 0d6d 0036 ec3f 613a 0895 1348 9cbf
00000230: c553 8f34 b8ad d33f fe90 c888 55cd a5bf
00000240: 94a2 957b 8159 bdbf e04a 766c 04e2 b93f
00000250: 43ac fe08 c380 b1bf 3944 dc9c 4a06 ccbf
00000260: ed0c 535b ea20 d23f bd8e 3864 03e9 d13f
00000270: 739c db84 7b65 e33f bf65 4e97 c544 e43f
00000280: 651d 8eae d2dd e4bf 5486 167e 1585 b8bf
00000290: 4be5 ed08 a785 e13f 5115 53e9 279c dd3f
000002a0: 2ee7 525c 55f6 d73f 43ad 69de 710a e2bf
000002b0: 8e78 b29b 19fd c03f 5d34 643c 4a25 dfbf
000002c0: fb19 83f3 4eaa a23f 9f3a 5629 3dd3 afbf
000002d0: 6e17 9aeb 3452 f03f 9cfa 40f2 cea1 c03f
000002e0: 1289 42cb ba7f cabf 062f fa0a d28c b9bf
000002f0: d7a0 2fbd fdb9 b8bf 274f 594d d793 e23f
00000300: 0223 79f8 7cde ae3f 9337 c0cc 77f0 cd3f
00000310: 0cb0 8f4e 5d79 f53f eed9 290c 80a7 a7bf
00000320: 29b3 4126 19f9 0a40 460b d0b6 9a75 eb3f
00000330: a147 8c9e 5be8 dbbf 5513 44dd 07a0 0bc0
00000340: cd01 8239 7a7c f23f cbc5 ceca ac94 acbf
00000350: 8fc3 60fe 0a99 d2bf faec 80eb 8a19 ec3f
00000360: bc74 9318 04d6 f83f d909 2fc1 a98f e8bf
00000370: 8d08 c6c1 a563 d73f b5c5 353e 937d e2bf
00000380: 766b 990c c7f3 d53f 82e2 c798 bb96 f23f
00000390: 00c8 0913 46b3 d53f 4278 b471 c45a 0440
000003a0: d8f5 0b76 c3b6 d8bf 3220 7bbd fb63 f33f
000003b0: 73a2 5d85 941f f23f 8524 b37a 875b e0bf
000003c0: 58ad 4cf8 a5fe e0bf a239 fc7f e6bd 93bf
000003d0: 6dca 7097 5874 863f 460c 3b8c 497f d53f
000003e0: 8386 fe09 2ed6 f63f 39b9 dfa1 28d0 cdbf
000003f0: 2c65 19e2 5817 f8bf f5bb b035 5b79 e43f
00000400: 40fb 9122 32ac f0bf 6b7d 91d0 96f3 f83f
00000410: 9869 fb57 569a c6bf 2029 22c3 2ade f3bf
00000420: 6822 6c78 7a25 f6bf 512e 8d5f 78a5 e1bf
00000430: 2103 7976 f956 e73f f756 2426 a8e1 eebf
00000440: 9ab3 3ee5 982c db3f 2c48 3316 4d67 f3bf
00000450: db4d f04d d367 c93f 1602 147e 0459 a63f
00000460: 344b 02d4 d4f2 0c40 8885 5ad3 bc63 f53f
00000470: 9d68 5721 e527 c53f faed ebc0 3923 c83f
00000480: 21b0 7268 91ad 0cc0 76a9 11fa 997a ef3f
00000490: 8027 2d5c 5661 ddbf 3160 c955 2c7e bbbf
000004a0: ca1a f510 8dee fdbf c3c1 397e 03ee a43f
000004b0: 27a2 5f5b 3ffd c53f f88b d992 5511 dc3f
000004c0: 7880 272d 5c56 c73f a7b3 93c1 51f2 f93f
000004d0: 7e37 ddb2 43fc de3f 1afa 27b8 5851 ef3f
000004e0: c020 e9d3 2afa e93f 611b f164 3733 da3f
000004f0: 9832 7040 4bd7 e93f b51a 12f7 58fa f73f
00000500: 0397 c79a 91c1 edbf 31d3 f6af ac34 fe3f
00000510: 522c b7b4 1a12 f3bf 2428 7e8c b96b f2bf
00000520: 0dfa d2db 9f0b e93f 3ca0 6cca 15de ffbf
00000530: a419 8ba6 b393 fe3f 90dc 9a74 5ba2 e73f
00000540: 882d 3d9a eac9 ca3f ef01 ba2f 6736 e73f
00000550: e998 f38c 7dc9 e53f 8910 4f5d 9602 643f
00000560: bb25 3960 5713 e6bf 681f 2bf8 6d88 c3bf
00000570: 7a6f 0c01 c0b1 ed3f 2c0e 677e 3507 f0bf
00000580: 3316 4d67 2783 04c0 dc7e f964 c5f0 e43f
00000590: 5dfb 027a e1ce d33f d3f6 afac 3469 0040
000005a0: 0c93 a982 5149 e53f cedf 8442 041c fabf
000005b0: a58a 3d0f 4988 b7bf 9e7a a4c1 6d6d d83f
000005c0: 94a4 6b26 df6c dcbf 7407 b133 854e edbf
000005d0: c7d9 7404 70b3 d73f c3f5 285c 8f42 f43f
000005e0: f9d9 c875 53ca 93bf 3ba7 59a0 dd21 d5bf
000005f0: 2c83 6a83 13d1 df3f 6de2 e47e 87a2 f03f
00000600: dbc2 f352 b131 c13f 01f6 d1a9 2b1f e7bf
00000610: 9cc3 b5da c35e e83f a358 6e69 35a4 f3bf
00000620: ff21 fdf6 75e0 e33f 9641 b5c1 89e8 bfbf
00000630: d921 fe61 4b0f e4bf 1b1a 0577 56c1 a23f
00000640: aa7d 3a1e 3350 cfbf eb19 c231 cb9e d9bf
00000650: 12a5 bdc1 17a6 fe3f 5646 239f 573c dbbf
00000660: f241 cf66 d567 0240 d21d c4ce 143a c1bf
00000670: cbbe 2b82 ffad f13f a48d 23d6 e2d3 0240
00000680: 891e 42a6 c695 b8bf 93c6 681d 558d 0640
00000690: 1efe 9aac 510f c3bf 51c0 7630 629f db3f
000006a0: e5d4 ce30 b5a5 cc3f 6268 7572 86e2 b8bf
000006b0: 34be 2f2e 5569 a33f e010 aad4 ec81 f33f
000006c0: ddff 1197 2da3 aa3f 72dc 291d ac7f f03f
000006d0: fa7e 6abc 7493 0940 a8fe 4124 438e bd3f
000006e0: bff3 8b12 f417 e13f 66b6 d03a 4fe1 a5bf
000006f0: 98be d710 1c97 eebf 1e8a 027d 224f 0cc0
00000700: e431 0395 f1ef c93f 3d2c d49a e69d eb3f
00000710: 745e 6397 a85e f2bf 1216 1571 3ac9 e73f
00000720: 9833 db15 fa60 c7bf 9f93 de37 beb6 04c0
00000730: 2a91 442f a358 f03f ebe1 cb44 1152 edbf
00000740: 978f a4a4 87a1 c13f f6b4 c35f 93b5 f03f
00000750: 29d0 27f2 24a9 0240 1edc 9db5 dbae f83f
00000760: 371a c05b 2041 db3f d74d 29af 95d0 dabf
00000770: 452e 3883 bfdf e3bf de49 fa6a fde3 b73f
00000780: 8929 9144 2f23 f1bf 111e 6d1c b196 fd3f
00000790: 0665 1a4d 2ec6 d4bf ad84 ee92 382b d7bf
000007a0: c409 4ca7 751b da3f 9df4 bef1 b567 fd3f
000007b0: eecc 04c3 b986 c5bf d882 de1b 4300 e5bf
000007c0: f06d fab3 1f29 08c0 e629 06a3 edf3 93bf
000007d0: 2d7a a702 ee79 dcbf 72c3 efa6 5b76 d6bf
000007e0: c4d8 f802 69b5 b4bf 8487 c498 4fb1 b3bf
000007f0: 2600 ff94 2ad1 e1bf e0ef bcf9 b259 923f

FC4_bias f8 [50]
1.95795 -0.393243 -0.0313322 -1.06177 -0.00688676 -0.0525315 -0.316557 0.845022
3.52186 -4.81907 2.24477 -4.23242 -1.5812 -0.730089 1.05293 2.82177
2.14583 2.6396 -0.855145 -0.0684579 0.291207 0.304571 -0.734173 1.54326
1.32474 -0.87106 0.68998 1.50339 0.742721 1.95581 -0.684173 0.0735594
-1.45272 2.88088 -0.249736 -0.606433 -0.0326845 0.892804 -0.14603 -0.0107662
-1.86672 -2.53966 -0.410648 4.34902 2.95758 -1.05907 -2.93874 2.45881
-0.978923 -1.71516
00000000: 4f40 1361 c353 ff3f 2061 18b0 e42a d9bf
00000010: 3b9b 9f2c c60a a0bf 94fb 1d8a 02fd f0bf
00000020: 093e 9b8f 4a35 7cbf a707 05a5 68e5 aabf
00000030: c878 944a 7842 d4bf ffd0 cc93 6b0a eb3f
00000040: 78b9 88ef c42c 0c40 f489 3c49 ba46 13c0
00000050: da55 48f9 49f5 0140 cbbe 2b82 ffed 10c0
00000060: 94f6 065f 984c f9bf 446b 459b e35c e7bf
00000070: f0a2 af20 cdd8 f03f deab 5626 fc92 0640
00000080: 9834 46eb a82a 0140 3d2c d49a e61d 0540
00000090: 3ed0 0a0c 595d ebbf 6b20 a7f9 7486 b1bf
000000a0: 0071 57af 22a3 d23f 4dd7 135d 177e d33f
000000b0: 0e66 1360 587e e7bf 7099 d365 31b1 f83f
000000c0: a73f fb91 2232 f53f 0052 9b38 b9df ebbf
000000d0: 4e9c dcef 5014 e63f 9222 32ac e20d f83f
000000e0: 64ad a1d4 5ec4 e73f 4209 336d ff4a ff3f
000000f0: 75cc 79c6 bee4 e5bf d439 50f1 c9d4 b23f
00000100: 03ec a353 573e f7bf 959a 3dd0 0a0c 0740
00000110: 3222 5168 59f7 cfbf a8e2 c62d e667 e3bf
00000120: df16 2cd5 05bc a0bf 919d b7b1 d991 ec3f
00000130: 8c10 1e6d 1cb1 c2bf 1eb2 37e7 960c 86bf
00000140: 3ca0 6cca 15de fdbf c5ac 1743 3951 04c0
00000150: 5ebd 8a8c 0e48 dabf 8599 b67f 6565 1140
00000160: f06d fab3 1fa9 0740 a7cb 6262 f3f1 f0bf
00000170: 8a93 fb1d 8a82 07c0 419f c893 a4ab 0340
00000180: b0ab c953 5653 efbf 8c84 b69c 4b71 fbbf
