examples/submissions/SoftComputing2023/data/ACAS XU/Networks/ACAS_XU_2_2.onnx (onnx, 108361 bytes, 14 tensors)

FC0_bias f8 [50]
000000 bf 0f 07 09 51 be e6 bf 90 ce 0a 56 e6 f7 97 bf
       -0.710732 -0.0234066
000010 a3 74 e9 5f 92 ca c2 bf d1 ad d7 f4 a0 a0 c8 3f
       -0.146807 0.192402
000020 9a 79 72 4d 81 cc d5 3f 90 ae 88 50 5b d9 b4 3f
       0.340607 0.0814416
000030 dc 4b 1a a3 75 54 cb bf b6 83 11 fb 04 50 c0 3f
       -0.213515 0.127442
000040 e8 d8 41 25 ae 63 c8 bf e7 8c 28 ed 0d be c4 bf
       -0.190542 -0.16205
000050 2c b9 8a c5 6f 0a b5 bf 3b fc 35 59 a3 9e e4 bf
       -0.0821905 -0.644365
000060 45 a0 fa 07 91 0c e1 bf 17 2e ab b0 19 60 e3 bf
       -0.532784 -0.605481
000070 5d ee dd 30 1b ae 97 bf 79 d4 f3 c9 e5 9a 9d bf
       -0.0231251 -0.0289112
000080 f4 e1 59 82 8c 80 d7 bf 5b 99 f0 4b fd bc d1 bf
       -0.367221 -0.27716
000090 1e c0 22 bf 7e 88 cf 3f 2d 01 9d ee e1 37 ae bf
       0.246353 -0.0590201
0000a0 bb 5e 9a 22 c0 e9 e2 bf c9 e3 69 f9 81 ab ca bf
       -0.591034 -0.208359
0000b0 40 4b 57 b0 8d 78 e5 bf 3f c6 dc b5 84 7c d3 3f
       -0.670966 0.304475
0000c0 fd 6b 79 e5 7a db c8 bf c6 e1 27 69 59 52 b5 bf
       -0.194198 -0.0832878
0000d0 3d 9a ea c9 fc 23 e0 bf f7 e8 0d f7 91 5b c3 3f
       -0.504393 0.151232
0000e0 36 20 42 5c 39 7b b7 3f b6 f8 14 00 e3 19 d9 bf
       0.091724 -0.392205
0000f0 9b ff 57 1d 39 d2 a1 3f b1 94 1b fb 48 00 9d bf
       0.034807 -0.0283214
000100 ec 84 97 e0 d4 07 be 3f 3e b2 b9 6a 9e 23 dd bf
       0.117307 -0.455299
000110 40 f8 50 a2 25 8f cf bf 2d 25 cb 49 28 7d bd 3f
       -0.246556 0.115191
000120 53 2f ae a7 0c d2 72 bf fd 88 5f b1 86 8b c8 3f
       -0.00459485 0.191758
000130 dc d5 ab c8 e8 80 e8 bf c8 ef 6d fa b3 1f ad bf
       -0.765736 -0.0568825
000140 82 72 db be 47 7d e3 bf 22 88 f3 70 02 d3 b5 3f
       -0.609043 0.085251
000150 14 3e 5b 07 07 7b d7 bf ad 8a 70 93 51 65 90 bf
       -0.366884 -0.0160115
000160 6d 58 53 59 14 76 c3 3f 73 66 bb 42 1f 2c e0 bf
       0.152041 -0.505386
000170 c5 ec c0 94 dc bc 9c 3f 93 e0 0d 69 54 e0 bc bf
       0.0280642 -0.112798
000180 f2 b5 67 96 04 28 e2 bf 2f e1 d0 5b 3c bc cf bf
       -0.567385 -0.247932

FC0_weight f8 [5, 50]
000000 eb 39 e9 7d e3 eb e1 bf 5a 5a 57 16 96 89 9c bf
       -0.560045 -0.0278686
000010 8b 87 f7 1c 58 8e df bf e3 17 5e 49 f2 5c d3 bf
       -0.493063 -0.302548
000020 77 73 a7 2a 23 e4 92 3f ef 01 ba 2f 67 b6 d0 3f
       0.0184484 0.261133
000030 c1 c8 cb 9a 58 60 e2 bf 70 e9 98 f3 8c 7d c9 bf
       -0.574261 -0.199144
000040 11 34 66 12 f5 82 bb bf e4 2d db 77 da 54 6c bf
       -0.107467 -0.00345843
000050 7c 9d d4 97 a5 9d be bf 99 9f 1b 9a b2 d3 cb bf
       -0.119593 -0.217398
000060 c9 b9 03 2b 3d 89 b4 bf 0a d9 79 1b 9b 1d bd 3f
       -0.0802191 0.113733
000070 44 10 ad 36 7b 77 66 bf 44 1f e2 d5 28 da 8b 3f
       -0.00274252 0.0135997
000080 18 16 92 82 5d 03 91 bf d2 04 e5 11 37 02 b2 3f
       -0.0166144 0.0703463
000090 79 b0 c5 6e 9f 55 c2 bf 97 ed 5c 7b 13 01 66 3f
       -0.143238 0.00268606
0000a0 51 34 6a 19 04 b1 97 bf 2a c8 cf 46 ae 9b c6 3f
       -0.0231362 0.176626
0000b0 01 13 b8 75 37 cf f1 bf 82 e2 34 35 ea d0 42 bf
       -1.11309 -0.000574221
0000c0 3f ad a2 3f 34 f3 db bf 6c 18 4f 4e fe 38 b5 bf
       -0.436719 -0.0829009
0000d0 96 ce 87 67 09 32 c4 bf 14 a8 0f 6e 7c 37 b1 bf
       -0.157777 -0.0672529
0000e0 30 77 77 ae 39 51 a0 bf 39 b9 df a1 28 50 fb bf
       -0.0318697 -1.70707
0000f0 b3 84 6b a4 5b 65 a4 3f d5 b0 df 13 eb 54 89 3f
       0.0398358 0.012369
000100 b2 19 96 f5 51 fc 8e 3f 39 d5 5a 98 85 76 be 3f
       0.0151297 0.118996
000110 85 b6 9c 4b 71 55 f7 bf ec 71 f8 07 3e c4 7e 3f
       -1.45836 0.00751137
000120 17 2a ff 5a 5e b9 d9 bf 32 2e 66 95 e3 5f 85 3f
       -0.401939 0.0104368
000130 e8 d7 39 7a ba c2 54 3f 8f c2 f5 28 5c 0f e1 3f
       0.00126713 0.533125
000140 c0 75 c5 8c f0 76 e5 3f 4f 21 57 ea 59 10 d3 bf
       0.670769 -0.297873
000150 98 a0 2b b6 ee 8b 90 bf 1e 58 e9 49 f4 8d 83 bf
       -0.0161588 -0.0095481
000160 c8 6b 14 48 3f d0 a4 3f 82 ca f8 f7 19 17 fd bf
       0.0406513 -1.81814
000170 66 f9 ba 0c ff 69 e6 bf ab c1 45 38 77 05 8c 3f
       -0.700439 0.0136823
000180 c0 04 6e dd cd 53 cb bf df c5 fb 71 fb e5 c1 bf
       -0.213495 -0.139831
000190 64 ab 4f 62 a5 bc 65 bf 36 23 83 dc 45 98 e1 bf
       -0.00265343 -0.549838
0001a0 d2 43 23 8e 2b e4 b0 bf a0 e0 62 45 0d 26 f3 bf
       -0.0659816 -1.19679
0001b0 bd fb e3 bd 6a e5 f4 bf 9b 8f 6b 43 c5 38 fb bf
       -1.30601 -1.70136
0001c0 c2 87 12 2d 79 3c cb bf 6b b7 5d 68 ae d3 c6 3f
       -0.212783 0.178335
0001d0 96 04 a8 a9 65 eb fa 3f 71 43 42 4a a2 4d 9c bf
       1.68247 -0.0276399
0001e0 d3 67 07 5c 57 cc 88 3f e5 25 ff 93 bf 7b cf bf
       0.0121085 -0.245964
0001f0 d6 71 fc 50 69 c4 c4 3f 42 60 e5 d0 22 5b fa bf
       0.162244 -1.64725
000200 bd 1c 13 b5 76 d3 74 3f dc fa 23 eb f4 ac 79 bf
       0.00508448 -0.00626846
000210 fc c6 d7 9e 59 12 c0 3f f3 5a 09 dd 25 71 d2 3f
       0.12556 0.288156
000220 23 12 85 96 75 ff d1 bf dd cd 53 1d 72 b3 e0 3f
       -0.281217 0.521905
000230 04 75 ca a3 1b 61 d0 3f 21 1f f4 6c 56 7d fb 3f
       0.255927 1.7181
000240 bd 21 76 6e 26 1b 39 3f 94 94 05 5d 0c 2f 92 bf
       0.000383088 -0.0177576
000250 15 d9 18 85 6e 40 a5 3f 1e 72 8e 95 f3 20 98 3f
       0.0415072 0.0235632
000260 e3 fc 4d 28 44 c0 f0 3f 11 76 e5 0e f6 81 7f bf
       1.04694 -0.0076923
000270 f5 bd 86 e0 b8 0c e0 bf 6e bd e8 23 d7 ea 7e 3f
       -0.501553 0.00754818
000280 63 f2 06 98 f9 0e 7e bf bb b4 86 f7 c1 9e 93 3f
       -0.0073385 0.0191603
000290 bd d5 e7 28 0f 24 62 3f 13 2c 0e 67 7e b5 f7 3f
       0.00221446 1.48181
0002a0 c9 7c 59 3d d4 74 75 3f 7a fc de a6 3f 7b f1 bf
       0.00523837 -1.09259
0002b0 2f 6d 38 2c 0d 7c e1 3f 50 36 e5 0a ef 72 e2 3f
       0.546393 0.57653
0002c0 ea fe 56 57 aa b0 a2 3f 93 fe 5e 0a 0f 9a dc bf
       0.0365041 -0.446903
0002d0 27 10 1b d1 e2 31 98 bf 16 16 dc 0f 78 60 e0 3f
       -0.0236278 0.511776
0002e0 e4 f9 0c a8 37 a3 ea bf 44 d9 21 1f 70 34 62 3f
       -0.832424 0.00222227
0002f0 23 f3 6d 66 99 ea 8e bf 8c 3f 9b 66 cb 03 92 3f
       -0.0150959 0.0175926
000300 0f 43 ab 93 33 14 e4 bf f1 b7 3d 41 62 bb cd 3f
       -0.627466 0.232281
000310 32 74 ec a0 12 d7 a9 bf 41 0b 09 18 5d de dd bf
       -0.050469 -0.466697
000320 37 fb 66 0f 72 e6 70 3f bf 63 78 ec 67 31 e8 bf
       0.00412602 -0.756031
000330 91 7f 66 10 1f 58 e6 bf a0 37 15 a9 30 b6 f2 3f
       -0.698257 1.16948
000340 83 f8 c0 8e ff 02 bd 3f 6a 67 98 da 52 07 bd 3f
       0.113327 0.113393
000350 41 f4 a4 4c 6a 68 c3 bf ea 9b 8f c6 fc 37 b4 bf
       -0.151624 -0.0789793
000360 26 df 6c 73 63 7a cc 3f c0 2b a5 0e c2 41 4a bf
       0.222485 -0.000801296
000370 e3 9c bf a6 5a 4d 7f bf 05 33 a6 60 8d b3 da 3f
       -0.00764213 0.417209
000380 70 7b 82 c4 76 f7 c0 bf 21 76 a6 d0 79 0d fa 3f
       -0.132552 1.62829
000390 00 67 52 d8 7f 7c 7d bf d8 66 63 25 e6 59 91 3f
       -0.00719881 0.0169445
0003a0 a2 9c 68 57 21 e5 bf bf af 22 a3 03 92 30 e4 bf
       -0.12459 -0.630929
0003b0 61 c5 a9 d6 c2 ac e0 bf 01 dd 97 33 db 15 db bf
       -0.521089 -0.423209
0003c0 10 06 9e 7b 0f 97 f0 bf 11 1b 2c 9c a4 f9 cd bf
       -1.03688 -0.234181
0003d0 e7 f2 72 1a 9a 99 76 3f 55 e8 72 39 14 f4 8d 3f
       0.00551758 0.0146257
0003e0 65 72 6a 67 98 da ce bf 43 dd ac 66 42 38 8b 3f
       -0.241046 0.0132909
0003f0 e6 e8 f1 7b 9b fe bc bf b7 5e d3 83 82 52 d8 3f
       -0.11326 0.380036
000400 c0 e9 5d bc 1f b7 cf 3f 60 89 0f 05 96 d0 5b 3f
       0.247776 0.00169768
000410 fb 3f 87 f9 f2 82 f5 bf b7 e6 54 53 0e 3d 64 3f
       -1.34447 0.00247052
000420 ab b0 19 e0 82 6c e6 bf 0c 02 2b 87 16 59 f9 bf
       -0.700746 -1.58425
000430 35 02 96 01 0c 70 76 3f b2 0f b2 2c 98 f8 bf bf
       0.00547795 -0.124887
000440 db e0 44 f4 6b eb ed bf 32 c8 5d 84 29 4a e1 bf
       -0.934988 -0.540303
000450 a7 24 88 46 b9 2c 7d bf 51 81 38 b4 6d bd a7 3f
       -0.00712273 0.0463671
000460 6d f8 82 bb 58 bd 90 bf f6 9b 89 e9 42 2c e5 bf
       -0.0163473 -0.661653
000470 3d 98 14 1f 9f 10 e2 bf 45 12 bd 8c 62 b9 85 bf
       -0.564529 -0.0106075
000480 71 a9 4a 5b 5c 63 ee bf 75 33 f7 1e 9b d5 3c bf
       -0.949629 -0.000439978
000490 33 c0 26 e7 9b 9f 78 bf e9 98 f3 8c 7d c9 d8 bf
       -0.00601159 -0.387298
0004a0 26 aa b7 06 b6 4a e6 3f f0 e0 27 0e a0 df d0 3f
       0.69662 0.263649
0004b0 a6 b7 3f 17 0d 19 ec bf 6e 51 66 83 4c 32 d6 3f
       -0.878058 0.34682
0004c0 cc c1 22 75 f1 6d a4 3f b9 39 95 0c 00 55 a4 3f
       0.0399013 0.039711
0004d0 99 9d 45 ef 54 c0 d5 bf 80 7a 1a cd 1d 3f 7c bf
       -0.339864 -0.00689613
0004e0 a9 68 ac fd 9d ed de 3f d3 d4 57 fc 4b f7 9f bf
       0.483253 -0.0312168
0004f0 1d e4 f5 60 52 7c d5 3f c5 ac 17 43 39 d1 f1 bf
       0.335713 -1.11358
000500 6b bb 09 be 69 fa a8 bf f1 9f 6e a0 c0 bb e2 bf
       -0.0487855 -0.585419
000510 d2 8c 45 d3 d9 c9 f1 bf cf 14 3a af b1 4b bc bf
       -1.11178 -0.11053
000520 4f d6 a0 16 20 5d 7e bf 48 9b f4 08 7f d0 84 bf
       -0.00741303 -0.0101633
000530 ef 1b 5f 7b 66 49 f2 bf c2 25 11 2b ed 1e aa bf
       -1.14292 -0.0510172
000540 28 80 62 64 c9 1c c3 bf 2d 79 3c 2d 3f 70 c1 3f
       -0.149316 0.136238
000550 eb e1 cb 44 11 52 d8 3f 16 32 57 06 d5 06 d0 3f
       0.380009 0.250417
000560 be 50 c0 76 30 62 da bf f4 70 02 d3 69 dd d9 bf
       -0.412243 -0.404139
000570 19 03 eb 38 7e a8 d8 bf eb f9 3f 2c 40 80 ad bf
       -0.385284 -0.0576191
000580 3c f5 48 83 db da aa 3f 87 1a 85 24 b3 7a da bf
       0.052451 -0.413739
000590 f4 89 3c 49 ba e6 e2 bf b1 4d 62 c4 c9 f3 3c bf
       -0.590665 -0.000441777
0005a0 fa 4e 82 ed 16 37 74 bf f7 fc 59 c1 a9 ee 65 3f
       -0.00493535 0.00267728
0005b0 11 8e 59 f6 24 b0 de bf 36 02 f1 ba 7e c1 d1 3f
       -0.479501 0.277435
0005c0 3b 15 b2 eb c5 ed 73 3f 97 8f a4 a4 87 a1 cf 3f
       0.00486543 0.247117
0005d0 87 8e 78 0d 55 8c 9e 3f 18 43 39 d1 ae 42 d2 bf
       0.0298322 -0.28532
0005e0 59 fc a6 b0 52 41 cd bf 59 52 ee 3e c7 47 db 3f
       -0.228556 0.426256
0005f0 2e 76 fb ac 32 d3 ec bf 24 75 a7 e0 95 c9 95 3f
       -0.900781 0.0212768
000600 a3 57 03 94 86 1a e1 bf 0a e8 53 01 d6 2e 66 3f
       -0.534488 0.00270788
000610 24 6f 6f 6d 97 ec aa bf de 04 a2 d1 64 99 4a bf
       -0.0525863 -0.000811743
000620 27 66 bd 18 ca 89 aa 3f b7 42 58 8d 25 ac da 3f
       0.0518325 0.416757
000630 c5 0d ae 6f 16 e5 90 3f a2 b7 78 78 cf 81 cf bf
       0.0164989 -0.246149
000640 fd 66 62 ba 10 ab db bf d3 44 44 d6 bf 90 6a bf
       -0.432316 -0.00324285
000650 1a 51 da 1b 7c 61 be 3f c0 ae 26 4f 59 4d e1 bf
       0.118675 -0.540692
000660 d1 cc 93 6b 0a 64 c8 3f 9b 00 c3 f2 e7 db c0 bf
       0.190553 -0.131711
000670 32 e6 ae 25 e4 03 ef bf 65 55 84 9b 8c aa e0 3f
       -0.969225 0.520819
000680 0e d8 d5 e4 29 ab d6 bf 9e 97 8a 8d 79 9d e7 3f
       -0.354197 0.737973
000690 11 97 d2 e9 2f aa 93 bf bc 22 f8 df 4a 76 f2 bf
       -0.0192039 -1.15388
0006a0 2f e1 d0 5b 3c bc cb bf 69 ac fd 9d ed d1 d6 3f
       -0.216682 0.356563
0006b0 09 f9 45 ae 40 99 93 3f 75 b0 7a 97 bd 32 60 3f
       0.0191393 0.00197732
0006c0 1a 1a 4f 04 71 1e d0 bf 89 25 e5 ee 73 7c e8 bf
       -0.251858 -0.765192
0006d0 a3 b1 f6 77 b6 47 d8 bf 59 f8 fa 5a 97 1a e7 bf
       -0.379377 -0.721996
0006e0 69 00 6f 81 04 c5 e8 bf f8 54 4e 7b 4a 4e e3 bf
       -0.77405 -0.603307
0006f0 9a 3f a6 b5 69 6c db bf d5 3d b2 b9 6a 9e dc bf
       -0.428492 -0.447169
000700 74 b3 3f 50 6e db c7 bf 7d 3d 5f b3 5c 36 92 bf
       -0.186384 -0.0177855
000710 6f 4b e4 82 33 f8 e3 bf 2e 04 39 28 61 a6 b9 3f
       -0.624048 0.100195
000720 37 e1 5e 99 b7 6a e5 3f 9f 8d bf 61 60 25 80 bf
       0.669277 -0.00788379
000730 75 50 2e 32 a6 05 a4 3f 8e 58 ee 79 bc 98 6f 3f
       0.0391056 0.00385701
000740 24 61 df 4e 22 c2 cf 3f 39 d5 5a 98 85 76 be bf
       0.248112 -0.118996
000750 1d 9e cd c6 24 05 21 bf 15 f1 8c 6c 9d 6e b9 bf
       -0.000129853 -0.0993441
000760 e2 9a f1 6c 45 51 b6 bf ad bf 25 00 ff 94 cc 3f
       -0.0871776 0.223297
000770 f8 36 fd d9 8f 14 fb bf 3d d5 21 37 c3 0d f0 bf
       -1.69252 -1.00336
000780 30 64 75 ab e7 a4 f2 bf b7 bc cd 76 e0 f7 b0 bf
       -1.16526 -0.0662823
000790 5e 40 79 69 d4 8d b1 3f e5 87 fb dc 91 30 4a 3f
       0.0685704 0.000799247
0007a0 d7 dc d1 ff 72 2d c0 3f ed 02 d2 bc eb 85 75 bf
       0.126387 -0.00525467
0007b0 50 57 d2 e5 28 9b a9 3f 6a 12 bc 21 8d 8a e6 bf
       0.0500119 -0.704413
0007c0 5d 8a ab ca be 2b f0 bf c9 ac de e1 76 68 e2 bf
       -1.01068 -0.575252

FC1_bias f8 [50]
000000 97 52 97 8c 63 24 bf bf 06 bd 37 86 00 e0 d1 bf
       -0.121649 -0.279297
000010 7d c0 4d 90 22 7c b9 bf 89 ce 32 8b 50 6c ec bf
       -0.0995504 -0.888222
000020 b2 68 3a 3b 19 9c ec 3f d8 b9 69 33 4e 43 eb bf
       0.894055 -0.851966
000030 02 12 4d a0 88 45 bc bf 3a 59 6a bd df 68 c9 bf
       -0.110436 -0.198513
000040 8e 22 6b 0d a5 f6 b2 bf 32 77 2d 21 1f 74 f2 bf
       -0.074076 -1.15335
000050 21 01 a3 cb 9b 43 e4 bf c7 d9 74 04 70 33 ee bf
       -0.633253 -0.943779
000060 d4 d6 88 60 1c 5c 92 bf 37 96 66 a9 ab f1 a4 3f
       -0.0179295 0.0409063
000070 06 66 85 22 dd cf c5 3f 1f 82 aa d1 ab 01 e6 bf
       0.170406 -0.687704
000080 24 d2 36 fe 44 65 d3 3f f3 03 57 79 02 61 d0 3f
       0.303056 0.255921
000090 c3 f5 28 5c 8f c2 ef bf 7d 22 4f 92 ae 99 c6 3f
       -0.9925 0.176565
0000a0 f4 4e 05 dc f3 fc e4 bf f4 c1 32 36 74 b3 e4 3f
       -0.655878 0.646906
0000b0 fd 87 f4 db d7 81 f6 3f 79 40 d9 94 2b bc d5 bf
       1.4067 -0.33961
0000c0 6c 42 5a 63 d0 89 e4 3f 42 5b ce a5 b8 aa f9 3f
       0.641823 1.60418
0000d0 5c 92 03 76 35 79 d7 3f 83 a7 90 2b f5 2c eb bf
       0.366773 -0.849238
0000e0 ba bb ce 86 fc 33 e7 bf 4a cc 9a f5 b5 70 81 bf
       -0.725096 -0.00851576
0000f0 9e ce 15 a5 84 60 e6 bf 85 d0 41 97 70 e8 bd bf
       -0.699282 -0.116828
000100 ef 1c ca 50 15 d3 e0 3f a2 e3 93 e3 88 94 7a bf
       0.525767 -0.00648931
000110 8c 64 8f 50 33 a4 cc bf d6 ad 9e 93 de 37 d8 bf
       -0.223761 -0.37841
000120 14 5a d6 fd 63 a1 e0 3f f6 f5 d7 86 e5 2a a9 3f
       0.519701 0.0491554
000130 4d dc 85 41 f4 ff a5 bf ad 6d 8a c7 45 35 e4 bf
       -0.0429684 -0.631503
000140 e3 8d cc 23 7f b0 f0 bf 91 4e b8 b2 9f 20 ac bf
       -1.04309 -0.0549364
000150 5e 62 d1 19 bd bf b8 bf c1 5b 7b fa 63 b5 b6 bf
       -0.0966757 -0.0887053
000160 76 54 35 41 d4 7d eb bf 4f e7 8a 52 42 b0 e3 bf
       -0.85911 -0.615266
000170 ce 52 b2 9c 84 d2 9f bf b4 8f 15 fc 36 44 ee bf
       -0.0310765 -0.945827
000180 35 7b a0 15 18 32 ed bf c0 22 bf 7e 88 0d d9 3f
       -0.912365 0.391451

FC1_weight f8 [50, 50]
000000 85 bf 15 3f 7c 4f a3 3f af 25 e4 83 9e cd 00 40
       0.0377158 2.1004
000010 6c e8 66 7f a0 dc d3 3f b7 ee e6 a9 0e 39 f2 3f
       0.310341 1.13893
000020 1c ec 4d 0c c9 49 eb 3f b6 82 a6 25 56 46 e2 bf
       0.852757 -0.571086
000030 20 e9 78 71 87 f2 b8 3f 03 09 8a 1f 63 6e f0 3f
       0.0974507 1.02695
000040 72 bf 43 51 a0 cf f2 bf 31 d0 b5 2f a0 17 d4 bf
       -1.17569 -0.313942
000050 1c 26 1a a4 e0 29 c4 3f 2b 4d 4a 41 b7 97 f9 3f
       0.157528 1.59954
000060 76 03 3f 89 53 d6 74 3f 04 e2 75 fd 82 dd 01 40
       0.00508721 2.23316
000070 df c3 25 c7 9d d2 cb bf 03 95 f1 ef 33 2e ec 3f
       -0.217365 0.88064
000080 8b 54 18 5b 08 f2 ee bf f8 38 2e 3e 60 79 93 3f
       -0.967045 0.0190177
000090 1e a3 3c f3 72 d8 dd bf 62 d8 61 4c fa 7b a5 bf
       -0.466336 -0.0419615
0000a0 73 63 7a c2 12 8f f0 3f b3 b2 7d c8 5b 2e e6 3f
       1.03493 0.693159
0000b0 fd bc a9 48 85 b1 e0 3f a6 b5 69 6c af 05 ec 3f
       0.52167 0.875694
0000c0 53 05 a3 92 3a 41 09 c0 dc d7 81 73 46 14 f6 bf
       -3.15685 -1.37995
0000d0 cc d4 24 78 43 9a ec 3f ef 8f f7 aa 95 89 f2 3f
       0.893831 1.15859
0000e0 f6 d5 b0 3a cd 5d 86 3f fe 32 ef a3 e0 4a 82 bf
       0.0109211 -0.00893188
0000f0 a7 92 01 a0 8a 1b c9 bf cc 97 17 60 1f 9d ca 3f
       -0.196153 0.20792
000100 28 27 da 55 48 f9 f2 bf 2b 22 16 73 08 03 84 3f
       -1.18586 0.00977141
000110 50 e4 49 d2 35 93 d8 bf f4 fd d4 78 e9 e6 07 40
       -0.383985 2.98775
000120 44 fd 2e 6c cd 56 ca 3f e8 ec ae fd ae 19 aa bf
       0.205774 -0.0509772
000130 58 56 9a 94 82 ee e3 bf 98 74 ef 3c 4c 56 ac 3f
       -0.622865 0.0553459
000140 1c 08 c9 02 26 f0 f0 3f 92 ea 3b bf 28 41 bf 3f
       1.05863 0.122088
000150 c3 9e 76 f8 6b b2 f2 bf 3a e6 3c 63 5f b2 cb 3f
       -1.16856 0.216381
000160 5b 60 8f 89 94 66 cd 3f 62 f3 71 6d a8 18 fb 3f
       0.229693 1.69352
000170 ac 8e 1c e9 0c 8c dd 3f 58 ad 4c f8 a5 7e f6 3f
       0.461673 1.40592
000180 13 b6 9f 8c f1 e1 e8 bf cd 3c b9 a6 40 66 c9 bf
       -0.777581 -0.198433
000190 60 5a d4 27 b9 c3 dd bf 1d 75 74 5c 8d ec d8 bf
       -0.465071 -0.389438
0001a0 9d ab 9c ac 07 82 86 bf 04 3b fe 0b 04 01 ce 3f
       -0.0109902 0.234406
0001b0 05 dc f3 fc 69 a3 e4 3f 05 6d 72 f8 a4 13 c7 bf
       0.644948 -0.180287
0001c0 78 0c 8f fd 2c 96 d2 3f ce 89 3d b4 8f 15 bc 3f
       0.290416 0.109704
0001d0 f5 2a 32 3a 20 09 c5 3f 4f 1f 81 3f fc fc d5 3f
       0.164341 0.343566
0001e0 b0 43 90 de cb d8 93 3f b5 c3 5f 93 35 6a fd bf
       0.0193817 -1.83843
0001f0 ad df a7 05 8a b3 95 3f d5 25 e3 18 c9 1e d9 bf
       0.0211927 -0.392504
000200 71 cb 68 60 bb e6 7b 3f 95 47 37 c2 a2 22 d3 bf
       0.00681184 -0.298989
000210 41 64 91 26 de 01 9e bf c4 7c 79 01 f6 d1 d7 bf
       -0.029304 -0.37219
000220 e0 da 89 92 90 48 d2 3f c7 47 8b 33 86 b9 e2 3f
       0.285679 0.585147
000230 b5 c6 a0 13 42 07 bd 3f 06 d4 9b 51 f3 55 d3 3f
       0.113392 0.302121
000240 f1 68 e3 88 b5 78 00 c0 3e 96 3e 74 41 7d c1 bf
       -2.05894 -0.136635
000250 98 fa 79 53 91 0a f4 bf e4 bf 40 10 20 c3 e5 bf
       -1.25258 -0.680069
000260 c2 4c db bf b2 d2 d0 bf 51 fa 42 c8 79 ff de 3f
       -0.26286 0.484343
000270 2a e7 e6 76 8a b0 b0 3f d2 5c 02 4b 09 1c 94 3f
       0.0651938 0.0196382
000280 6c ed 7d aa 0a 0d dc bf d1 57 90 66 2c 9a dd bf
       -0.438296 -0.462535
000290 d2 8c 45 d3 d9 c9 bc 3f 9c f3 f8 62 94 0c 85 3f
       0.112455 0.0102779
0002a0 25 22 fc 8b a0 31 cf 3f 6a f9 81 ab 3c 81 dd 3f
       0.243702 0.461013
0002b0 b5 a8 4f 72 87 4d d2 bf 2a 02 9c de c5 fb cd 3f
       -0.285982 0.234246
0002c0 d8 9b 18 92 93 89 e9 bf d7 34 ef 38 45 c7 ec 3f
       -0.798044 0.899325
0002d0 e7 c7 5f 5a d4 27 e7 bf 76 33 a3 1f 0d a7 ce bf
       -0.723612 -0.239473
0002e0 c5 c5 51 b9 89 5a c6 bf cb f6 21 6f b9 fa cd 3f
       -0.174638 0.234214
0002f0 bd 21 e8 c3 0e be af bf 6a c2 51 4d a4 8f a8 bf
       -0.0619969 -0.0479709
000300 5f 45 46 07 24 61 e3 bf 48 c2 be 9d 44 84 d5 bf
       -0.605608 -0.336198
000310 76 c6 f7 c5 a5 2a c7 bf c1 39 23 4a 7b 83 d3 bf
       -0.180989 -0.3049
000320 6c 5e d5 59 2d b0 e4 bf 5e d9 05 83 6b ee c2 3f
       -0.646506 0.147901
000330 c1 58 df c0 e4 46 d7 bf 28 f1 b9 13 ec bf d1 bf
       -0.363702 -0.277339
000340 72 c4 5a 7c 0a 00 f8 bf 71 e8 2d 1e de 73 c6 3f
       -1.50001 0.175411
000350 a6 b9 15 c2 6a 2c ec bf c2 24 4b 9c cb c3 a4 bf
       -0.880422 -0.0405563
000360 58 ab 76 4d 48 6b ce 3f 61 c2 68 56 b6 0f dc 3f
       0.237649 0.438459
000370 0c c7 98 60 dd 1d b6 bf 03 f1 15 38 34 c0 b8 bf
       -0.0863932 -0.0966828
000380 c0 37 f2 e5 aa 1e a5 bf 5f 7b 66 49 80 1a e5 3f
       -0.0412496 0.659485
000390 7d 91 d0 96 73 29 db bf 85 23 48 a5 d8 d1 ca 3f
       -0.424405 0.209529
0003a0 87 20 bd 97 b1 57 aa bf b8 67 a7 30 00 9e b4 bf
       -0.0514503 -0.0805359
0003b0 bd 56 42 77 49 1c e1 3f 3f a7 20 3f 1b b9 c8 bf
       0.534703 -0.193149
0003c0 03 60 3c 83 86 fe da bf 13 c2 59 00 09 79 b1 bf
       -0.421785 -0.0682531
0003d0 c4 77 62 d6 8b 21 10 c0 5c 1d 00 71 57 af cc 3f
       -4.03276 0.224101
0003e0 7e a7 c9 8c b7 95 eb bf 29 97 c6 2f bc 12 e5 bf
       -0.862026 -0.658537
0003f0 66 a0 32 fe 7d c6 f1 bf c0 e7 87 11 c2 a3 d6 3f
       -1.11096 0.353745
000400 fc 60 cf 8d 9f 7c ac 3f a8 7a e8 71 ce 3e 9d 3f
       0.0556383 0.0285599
000410 07 5c 57 cc 08 ef ef bf da 8f 14 91 61 95 e6 bf
       -0.997929 -0.705735
000420 d2 16 7c 3f da a4 9f 3f 8f 66 76 27 e9 ab 9d 3f
       0.0309023 0.0289761
000430 08 81 4b b6 70 0f a4 3f c5 ff 1d 51 a1 3a e9 bf
       0.0391803 -0.788407
000440 dc 10 e3 35 af ea d2 bf 20 ee ea 55 64 f4 e3 bf
       -0.295574 -0.623583
000450 04 e8 f7 fd 9b 17 dd bf b4 71 c4 5a 7c 0a f0 3f
       -0.454566 1.00256
000460 d3 68 72 31 06 d6 c9 bf a8 8f c0 1f 7e fe cb bf
       -0.201844 -0.218704
000470 99 65 4f 02 9b f3 e9 3f 39 0e bc 5a ee cc c0 bf
       0.810987 -0.131254
000480 d3 6b b3 b1 12 f3 e3 bf 08 59 16 4c fc 51 d5 3f
       -0.623422 0.333129
000490 ae d5 1e f6 42 01 c5 3f 46 3f 1a 4e 99 9b c3 bf
       0.164101 -0.153186
0004a0 44 a2 d0 b2 ee 1f c3 bf 99 66 ba d7 49 fd ea bf
       -0.149412 -0.843419
0004b0 2b 35 7b a0 15 18 d2 bf b4 90 80 d1 e5 cd d3 3f
       -0.28272 0.309442
0004c0 da 55 48 f9 49 b5 f7 bf 9f 36 4f 1a 0f 5b b1 bf
       -1.48176 -0.0677957
0004d0 d5 e7 6a 2b f6 97 f4 bf 79 cb d5 8f 4d f2 e4 bf
       -1.2871 -0.654578
0004e0 80 7d 74 ea ca 67 c5 3f dd 7a 4d 0f 0a 4a e1 3f
       0.16723 0.540288
0004f0 43 3b a7 59 a0 dd cd 3f bb 98 66 ba d7 49 db 3f
       0.233326 0.426382
000500 a3 05 68 5b cd 3a d1 bf 6c 04 e2 75 fd 82 f8 3f
       -0.269214 1.53198
000510 a6 72 48 5e e5 a6 10 3f 62 4c fa 7b 29 bc e9 3f
       6.35221e-05 0.804219
000520 e6 75 c4 21 1b 48 cb bf 96 26 a5 a0 db 8b 02 c0
       -0.213138 -2.31829
000530 a5 12 9e d0 eb 4f d3 bf c5 8c f0 f6 20 04 ea bf
       -0.301753 -0.813004
000540 4b af cd c6 4a cc e3 3f 4a d2 35 93 6f b6 d4 bf
       0.618688 -0.323635
000550 2f fa 0a d2 8c 45 dc bf 85 25 1e 50 36 e5 d8 3f
       -0.441745 0.38899
000560 57 7a 6d 36 56 e2 ef bf fe ba d3 9d 27 9e da 3f
       -0.996379 0.415903
000570 3c 86 c7 7e 16 4b dd bf a7 3e 90 bc 73 28 eb bf
       -0.457708 -0.848688
000580 b0 59 2e 1b 9d f3 c3 3f 34 5e 5f 90 99 b0 a6 bf
       0.155872 -0.0443161
000590 3f 72 6b d2 6d 89 94 3f 49 b9 fb 1c 1f 2d a2 bf
       0.0200555 -0.0355005
0005a0 77 82 fd d7 b9 69 e4 3f 6a 87 bf 26 6b d4 d7 bf
       0.637906 -0.37234
0005b0 b8 57 e6 ad ba 0e c5 3f 60 1d 6c 56 22 f5 93 bf
       0.164512 -0.0194898
0005c0 79 e8 bb 5b 59 22 e8 bf 7f 84 61 c0 92 ab d5 3f
       -0.754193 0.338597
0005d0 c6 be 64 e3 c1 96 e2 3f 35 3f a3 19 30 ed b4 bf
       0.580903 -0.0817442
0005e0 29 79 75 8e 01 d9 da 3f 55 88 47 e2 e5 e9 d5 bf
       0.419495 -0.342401
0005f0 21 03 79 76 f9 d6 e4 3f a8 56 5f 5d 15 a8 db bf
       0.651242 -0.432134
000600 f2 9a 57 75 56 0b c4 bf 2a ac 54 50 51 f5 e6 3f
       -0.156596 0.717446
000610 86 e7 a5 62 63 5e db bf 68 ca 4e 3f a8 8b cc bf
       -0.427636 -0.223012
000620 28 c0 66 6f df 59 b7 3f aa f1 d2 4d 62 10 db 3f
       0.0912151 0.422875
000630 4f a5 b0 9c ce 5f b2 3f e0 2e fb 75 a7 3b d5 bf
       0.0717744 -0.331766
000640 0c 01 c0 b1 67 cf d0 3f 50 c0 1b 77 ef 4d 98 bf
       0.262659 -0.0237348
000650 ff 05 82 00 19 3a de bf 5b 28 99 9c da 19 d7 bf
       -0.472296 -0.360953
000660 9f 9b ec 55 1a e7 b1 bf 17 82 1c 94 30 d3 be 3f
       -0.0699326 0.12041
000670 f3 03 57 79 02 61 c5 3f 0f 97 1c 77 4a 07 e3 3f
       0.167023 0.59464
000680 31 7c 44 4c 89 24 c6 bf 83 f8 c0 8e ff 02 c5 3f
       -0.17299 0.164154
000690 06 d6 71 fc 50 69 bc bf 90 4e 5d f9 2c 4f fb bf
       -0.110982 -1.70683
0006a0 04 13 c9 a1 8f 43 96 bf 17 7f db 13 24 b6 d5 3f
       -0.0217421 0.339242
0006b0 23 68 cc 24 ea 05 da 3f be 2d 58 aa 0b f8 e5 3f
       0.406611 0.686529
0006c0 f2 94 d5 74 3d d1 ed bf 93 19 6f 2b bd 36 d9 3f
       -0.931792 0.393966
0006d0 8b 89 cd c7 b5 a1 c0 bf 46 d0 98 49 d4 0b c8 bf
       -0.129935 -0.187861
0006e0 9d b9 87 84 ef fd cf bf f8 17 41 63 26 51 c1 bf
       -0.249937 -0.135289
0006f0 ca 1a f5 10 8d 6e 04 c0 72 53 03 cd e7 dc d1 bf
       -2.55398 -0.279108
000700 01 f6 d1 a9 2b 9f f8 bf 3a 8c ee c5 bc 33 a7 bf
       -1.53886 -0.0453166
000710 a3 06 d3 30 7c 44 bc bf 4a d3 a0 68 1e c0 da 3f
       -0.11042 0.417976
000720 63 2a fd 84 b3 5b d3 bf fa 61 84 f0 68 e3 88 bf
       -0.302472 -0.0121525
000730 1e fb 59 2c 45 72 e7 3f 39 b7 09 f7 ca bc cb 3f
       0.732699 0.216699
000740 b1 15 34 2d b1 32 dc bf 24 69 92 b3 0b 61 a0 bf
       -0.440594 -0.0319904
000750 4c e0 d6 dd 3c 55 e6 3f f9 9f fc dd 3b 6a cc 3f
       0.697905 0.221992
000760 47 e6 91 3f 18 78 f4 bf e6 cb 0b b0 8f 4e de bf
       -1.27932 -0.473545
000770 04 71 1e 4e 60 3a d7 3f d0 d0 3f c1 c5 0a e3 bf
       0.362938 -0.595065
000780 9c 86 a8 c2 9f e1 d8 3f d7 4d 29 af 95 d0 c3 bf
       0.388771 -0.154803
000790 0c 57 07 40 dc d5 9b 3f 3f 0a 8d 16 56 e0 b6 bf
       0.027183 -0.0893606
0007a0 ce de 19 6d 55 12 d6 3f 22 de 3a ff 76 59 e4 3f
       0.344869 0.635921
0007b0 0f d6 ff 39 cc 17 f2 bf 0c e9 f0 10 c6 4f e4 3f
       -1.13081 0.634738
0007c0 b5 e7 8d ee 7b 2f 89 bf f9 67 06 f1 81 1d bb 3f
       -0.0122976 0.105919
0007d0 96 04 a8 a9 65 6b e4 bf 6f 68 25 08 b2 f9 9b bf
       -0.63811 -0.0273197
0007e0 be f8 a2 3d 5e 48 d7 bf c6 32 fd 12 f1 d6 d6 3f
       -0.363792 0.356869
0007f0 88 4a 23 66 f6 79 d8 3f fa 7d ff e6 c5 89 cf bf
       0.382444 -0.246392

FC2_bias f8 [50]
000000 cb f4 4b c4 5b e7 d0 bf 72 bf 43 51 a0 4f f0 3f
       -0.264121 1.01944
000010 ea b2 98 d8 7c dc f5 3f 98 14 1f 9f 90 9d d9 3f
       1.36633 0.400242
000020 dc 66 2a c4 23 71 ed 3f 2a 00 c6 33 68 28 04 40
       0.920061 2.51973
000030 99 62 0e 82 8e 56 c5 bf e1 b4 e0 45 5f 41 fd bf
       -0.166704 -1.82846
000040 09 c3 80 25 57 31 e2 3f 1e 54 e2 3a c6 15 c9 3f
       0.568523 0.195977
000050 60 f8 d2 25 2d a6 a7 bf 3c e6 f2 d5 44 55 b0 3f
       -0.0461897 0.0638011
000060 8e ae d2 dd 75 36 d7 bf 42 93 c4 92 72 f7 dc bf
       -0.362699 -0.452603
000070 92 3f 18 78 ee bd e7 3f 6d e5 25 ff 93 3f e9 bf
       0.741935 -0.789011
000080 53 7a a6 97 18 cb bc bf 94 6b 0a 64 76 16 a5 bf
       -0.112474 -0.041187
000090 29 07 b3 09 30 2c db 3f 3b 72 a4 33 30 f2 c0 bf
       0.424572 -0.132391
0000a0 b9 c2 bb 5c c4 77 e6 bf d2 39 3f c5 71 e0 c3 bf
       -0.70212 -0.155287
0000b0 6a 99 f3 29 53 0e 7e 3f 48 4e 26 6e 15 c4 e2 bf
       0.00733788 -0.586436
0000c0 af 23 0e d9 40 ba b2 bf a3 b0 8b a2 07 3e de 3f
       -0.0731545 0.472536
0000d0 74 0c c8 5e ef 7e f2 bf ec be 63 78 ec 67 e3 bf
       -1.15599 -0.606436
0000e0 28 0a f4 89 3c c9 f4 3f 19 1e fb 59 2c c5 e9 3f
       1.29913 0.805319
0000f0 72 a7 74 b0 fe cf 02 40 85 96 75 ff 58 88 ea 3f
       2.35156 0.829144
000100 c6 36 a9 68 ac fd de bf 88 0e 81 23 81 06 ed bf
       -0.484233 -0.907044
000110 bd 01 66 be 83 9f a4 bf d9 69 5a 18 d8 19 a9 3f
       -0.0402795 0.0490253
000120 52 f2 ea 1c 03 b2 d4 bf b2 a1 9b fd 81 72 c9 3f
       -0.323365 0.198807
000130 55 41 56 01 08 69 87 3f 3c 88 9d 29 74 5e f6 bf
       0.0114308 -1.39806
000140 b4 71 c4 5a 7c 0a f6 bf ea b4 6e 83 da 6f d1 bf
       -1.37756 -0.272452
000150 ec a5 29 02 9c 5e e2 bf 77 2d 21 1f f4 6c f1 bf
       -0.574049 -1.0891
000160 d5 08 fd 4c bd 6e d6 3f 6b 9f 8e c7 0c 54 f5 bf
       0.350509 -1.33302
000170 a6 27 2c f1 80 32 f3 3f 17 0e 84 64 01 93 ff bf
       1.19983 -1.97339
000180 33 e1 97 fa 79 53 f0 3f 8a 3c 49 ba 66 72 fe 3f
       1.02038 1.90293

FC2_weight f8 [50, 50]
000000 d7 c0 56 09 16 07 f6 bf bb 7e c1 6e d8 b6 f4 3f
       -1.37673 1.29464
000010 71 d7 01 c6 e9 da 8d bf c5 56 d0 b4 c4 ca d0 bf
       -0.0145777 -0.262376
000020 94 d9 20 93 8c 9c f3 bf 7f 6a bc 74 93 18 ca 3f
       -1.22572 0.203875
000030 58 48 af bc 9a f2 b1 3f 11 e1 5f 04 8d 99 da 3f
       0.0701081 0.415622
000040 2a 19 00 aa b8 71 cf bf c4 e9 24 5b 5d 4e ec bf
       -0.245658 -0.884566
000050 c7 2c 7b 12 d8 9c d8 bf b9 fc 87 f4 db d7 cf 3f
       -0.384573 0.248775
000060 ef a9 9c f6 94 9c d2 3f 91 2c 60 02 b7 ae 05 c0
       0.290807 -2.71031
000070 8a 3c 49 ba 66 b2 02 c0 38 f4 16 0f ef b9 ed bf
       -2.33711 -0.928947
000080 a5 83 f5 7f 0e 73 e8 3f 10 c9 90 63 eb 19 de 3f
       0.764045 0.470332
000090 bf f0 4a 92 e7 fa c4 3f 1b 5a ae c8 f9 ac ac 3f
       0.163907 0.0560072
0000a0 86 03 21 59 c0 04 dd 3f 00 56 47 8e 74 06 e7 3f
       0.453415 0.719538
0000b0 f1 47 51 67 ee 21 c3 3f a0 8b 86 8c 47 a9 c4 bf
       0.149473 -0.161416
0000c0 2e 1d 73 9e b1 2f d2 bf e2 21 8c 9f c6 3d e1 3f
       -0.284161 0.538791
0000d0 e2 e9 95 b2 0c 31 00 c0 ae b6 62 7f d9 bd e6 bf
       -2.02395 -0.710675
0000e0 b5 17 d1 76 4c 5d e3 3f f6 eb 4e 77 9e f8 e9 3f
       0.605139 0.811599
0000f0 e6 77 9a cc 78 5b d5 3f 62 f8 88 98 12 c9 04 40
       0.333708 2.59818
000100 43 1c eb e2 36 9a 03 c0 11 01 87 50 a5 66 f2 3f
       -2.4503 1.15006
000110 0f d1 e8 0e 62 67 f1 3f 09 c4 eb fa 05 bb f3 3f
       1.08774 1.23316
000120 37 52 d7 56 c3 b0 81 bf 8e 76 dc f0 bb e9 e2 3f
       -0.00863793 0.591032
000130 75 72 86 e2 8e 37 c9 bf 3b 6f 63 b3 23 55 e8 bf
       -0.197008 -0.760393
000140 fa 61 84 f0 68 23 02 c0 68 e7 34 0b b4 bb e2 bf
       -2.26729 -0.585413
000150 b5 a5 0e f2 7a 30 e0 bf 5c ad 13 97 e3 15 d3 3f
       -0.505918 0.298211
000160 b7 42 58 8d 25 2c e1 3f 6e fa b3 1f 29 a2 0a c0
       0.536639 -3.32918
000170 d5 3e 1d 8f 19 28 e0 3f 90 f4 69 15 fd 21 eb bf
       0.504895 -0.847899
000180 4a b5 4f c7 63 86 e7 3f f8 36 fd d9 8f 94 f7 bf
       0.735155 -1.47377
000190 75 b1 69 a5 10 c8 db 3f c9 58 6d fe 5f f5 e4 bf
       0.434086 -0.654953
0001a0 3f c4 06 0b 27 69 be bf 92 58 52 ee 3e c7 e7 3f
       -0.118792 0.743072
0001b0 fa d2 db 9f 8b 06 e4 bf 76 6e da 8c d3 90 ed bf
       -0.625799 -0.923929
0001c0 a2 99 27 d7 14 48 e2 3f 87 dc 0c 37 e0 f3 d6 3f
       0.571299 0.358635
0001d0 c5 c7 27 64 e7 6d e4 bf 0f 0a 4a d1 ca bd e0 3f
       -0.638416 0.523168
0001e0 14 b4 c9 e1 93 4e e6 bf b5 89 93 fb 1d 0a e8 3f
       -0.697092 0.751235
0001f0 dc 4b 1a a3 75 54 db bf 59 50 18 94 69 34 d2 bf
       -0.42703 -0.284449
000200 5c af e9 41 41 29 c0 bf 44 c2 f7 fe 06 ed c5 bf
       -0.126259 -0.171296
000210 f4 4e 47 f8 c5 42 70 bf e0 65 86 8d b2 7e c5 bf
       -0.00396993 -0.167929
000220 37 55 f7 c8 e6 aa da bf 86 5e b9 bd 28 6a 6e bf
       -0.416681 -0.00371273
000230 08 e3 a7 71 6f 7e cd bf 60 c8 ea 56 cf 49 d2 3f
       -0.230421 0.285755
000240 5c 3a e6 3c 63 5f be 3f 68 76 dd 5b 91 98 db 3f
       0.118643 0.431187
000250 d7 69 a4 a5 f2 76 c4 bf 86 e7 a5 62 63 5e d7 bf
       -0.15988 -0.365136
000260 67 e2 67 6d 64 68 a6 3f c6 a6 95 42 20 97 90 3f
       0.0437652 0.0162015
000270 96 07 e9 29 72 08 ef bf 18 ee 5c 18 e9 c5 e4 bf
       -0.969781 -0.649159
000280 2c 45 f2 95 40 4a dd bf c8 43 df dd ca 92 e5 bf
       -0.457657 -0.674169
000290 50 a2 ca d5 34 94 a3 bf 7e a9 9f 37 15 a9 c6 bf
       -0.0382401 -0.177035
0002a0 4a d2 35 93 6f b6 b9 bf a0 90 f8 70 24 2b ae 3f
       -0.10044 0.0589229
0002b0 17 d4 b7 cc e9 b2 e2 3f b4 d8 dc 87 72 58 a0 3f
       0.58434 0.0319248
0002c0 56 d2 8a 6f 28 7c d2 bf e0 63 b0 e2 54 6b d4 3f
       -0.288828 0.319051
0002d0 ab ea e5 77 9a cc c0 3f 37 6f 9c 14 e6 bd e6 3f
       0.131244 0.710681
0002e0 a5 dd e8 63 3e 20 e1 bf e0 63 b0 e2 54 6b d2 3f
       -0.535186 0.287801
0002f0 e1 ef 17 b3 25 ab ee bf bb e6 9f 2a f0 5f b2 3f
       -0.958392 0.0717764
000300 ea 95 b2 0c 71 ac c5 3f 86 df f2 fd 79 bf a6 bf
       0.169325 -0.0444296
000310 25 95 29 e6 20 68 ef bf 5d a6 26 c1 1b d2 c6 3f
       -0.981461 0.178287
000320 7c 5f 5c aa d2 16 cb bf 81 cc ce a2 77 2a d1 bf
       -0.211634 -0.268217
000330 ad f6 b0 17 0a d8 e8 bf e7 fd 7f 9c 30 61 ca bf
       -0.776372 -0.206091
000340 b9 c5 fc dc d0 94 c9 bf a4 c7 ef 6d fa b3 b7 3f
       -0.199854 0.09259
000350 11 72 de ff c7 09 c3 bf 8c f7 e3 f6 cb a7 e4 bf
       -0.148736 -0.645483
000360 7a e4 0f 06 9e 7b f0 3f d3 f4 d9 01 d7 15 e1 3f
       1.03018 0.533916
000370 a6 d2 4f 38 bb b5 9c bf 94 42 6a 24 53 4f 90 bf
       -0.028037 -0.0159276
000380 b9 70 20 24 0b 98 d9 bf 77 f4 bf 5c 8b 16 c6 3f
       -0.399905 0.172563
000390 cf a1 0c 55 31 15 e1 3f 2a 74 5e 63 97 a8 eb 3f
       0.533837 0.86433
0003a0 fb 1f 60 ad da b5 ea bf bc 3f de ab 56 26 c4 bf
       -0.834699 -0.15742
0003b0 f2 5c df 87 83 84 c8 bf 2d dd 6e 93 9b f2 a2 3f
       -0.191544 0.0370072
0003c0 82 01 84 0f 25 5a e9 bf 59 fb 3b db a3 37 d0 3f
       -0.792254 0.253396
0003d0 6d ae 9a e7 88 7c c1 3f 17 e2 47 eb 5e dd 9f bf
       0.136613 -0.0311179
0003e0 a2 50 05 92 66 e2 8c bf 17 2b 6a 30 0d c3 eb bf
       -0.0141037 -0.86756
0003f0 85 fc 7d 10 13 1e 96 bf bb 49 67 bb 9d d8 b0 3f
       -0.0215991 0.0658053
000400 b6 68 01 da 56 b3 db bf 78 42 af 3f 89 cf dd bf
       -0.432821 -0.465792
000410 ae f0 2e 17 f1 5d 05 40 47 e4 bb 94 ba 64 eb bf
       2.67087 -0.856046
000420 56 2d e9 28 07 33 e5 bf 42 cd 90 2a 8a d7 ee bf
       -0.662479 -0.963811
000430 ba bf 7a dc b7 5a bb 3f e2 1f b6 f4 68 aa c5 3f
       0.106853 0.169263
000440 3a 3e 5a 9c 31 cc c3 3f b0 ca 85 ca bf 96 cf bf
       0.154669 -0.246788
000450 97 c9 70 3c 9f 01 c3 3f b7 d5 ac 33 be 2f d3 3f
       0.148487 0.299789
000460 3e 21 3b 6f 63 b3 dc bf 9f 4c ed 56 e0 75 a3 3f
       -0.448449 0.0380087
000470 5c 73 47 ff cb b5 dc 3f 08 11 ba 95 6f c7 a9 bf
       0.448596 -0.0503497
000480 35 d4 28 24 99 d5 c9 bf d9 ec 48 f5 9d 5f ce 3f
       -0.201831 0.237293
000490 e0 0e d4 29 8f 6e e3 bf c7 f3 19 50 6f 46 da bf
       -0.607246 -0.410549
0004a0 5a 8c 70 49 c4 4a 9b bf f0 e2 58 72 70 44 b6 bf
       -0.0266524 -0.0869818
0004b0 b8 1e 85 eb 51 b8 be bf 62 f9 f3 6d c1 52 d5 3f
       -0.12 0.333176
0004c0 ce a6 23 80 9b c5 e9 bf 5a 2f 86 72 a2 5d fc 3f
       -0.805372 1.77286
0004d0 19 ca 89 76 15 52 ff bf 29 92 af 04 52 62 e5 bf
       -1.95754 -0.668252
0004e0 13 f1 d6 f9 b7 cb ba 3f 69 8b 6b 7c 26 fb d5 3f
       0.104671 0.343454
0004f0 e9 ba f0 83 f3 a9 c3 3f 06 10 3e 94 68 49 e3 bf
       0.153624 -0.602711
000500 7d 09 15 1c 5e 10 d6 3f 65 ab cb 29 01 31 e2 3f
       0.344749 0.568482
000510 d3 6a 48 dc 63 29 1f c0 ab e7 a4 f7 8d 2f 02 c0
       -7.79042 -2.27322
000520 d6 36 c5 e3 a2 5a ec bf 27 c2 86 a7 57 4a f5 bf
       -0.886064 -1.33065
000530 f8 c6 10 00 1c 7b e3 3f 98 de fe 5c 34 64 c2 3f
       0.608778 0.143683
000540 63 b6 64 55 84 9b e7 bf d0 ed 25 8d d1 3a f0 3f
       -0.737734 1.01436
000550 21 78 7c 7b d7 a0 d8 3f a5 da a7 e3 31 83 fc bf
       0.384817 -1.78203
000560 f7 01 48 6d e2 a4 06 40 73 2e c5 55 65 df f4 bf
       2.83051 -1.30454
000570 a9 9f 37 15 a9 b0 f0 3f c5 8e c6 a1 7e 17 ef bf
       1.04313 -0.971618
000580 32 7d 0a db aa 7f b9 bf e7 c6 f4 84 25 1e fe bf
       -0.0996043 -1.88236
000590 3a 57 94 12 82 55 e8 bf f3 38 0c e6 af 90 de bf
       -0.760438 -0.477581
0005a0 08 e6 e8 f1 7b 1b f6 bf 95 66 f3 38 0c e6 d0 3f
       -1.38171 0.264041
0005b0 e1 7a 14 ae 47 a1 1d c0 d2 18 ad a3 aa 09 d0 3f
       -7.4075 0.25059
0005c0 b3 25 ab 22 dc 64 dd bf 11 19 56 f1 46 e6 f9 3f
       -0.459281 1.61872
0005d0 5e 80 7d 74 ea 4a fa 3f 6f d8 b6 28 b3 c1 fb 3f
       1.64329 1.73479
0005e0 57 21 e5 27 d5 be e3 3f c5 56 d0 b4 c4 ca e1 3f
       0.617045 0.556002
0005f0 c6 85 03 21 59 c0 d4 3f 54 74 24 97 ff 90 d5 bf
       0.32424 -0.336975
000600 68 91 ed 7c 3f 35 fd 3f 7e 1c cd 91 95 5f ba 3f
       1.8255 0.103021
000610 7d 95 7c ec 2e 50 c2 bf c0 84 c0 80 14 2b 89 bf
       -0.143072 -0.0122892
000620 12 6a 86 54 51 bc cc 3f 20 0d a7 cc cd 37 d0 3f
       0.224497 0.253406
000630 b6 b3 54 83 d5 fd b0 bf a3 92 3a 01 4d 04 e0 bf
       -0.0663732 -0.500525
000640 73 2c ef aa 07 cc df 3f 2a 8b 67 75 17 cd af 3f
       0.496828 0.0621116
000650 7c 44 4c 89 24 7a 89 bf 5b ec f6 59 65 a6 d7 3f
       -0.01244 0.369531
000660 ef 6f d0 5e 7d 3c b8 bf a8 e0 f0 82 88 d4 a4 3f
       -0.094673 0.040684
000670 de ab 56 26 fc 52 d3 3f 55 a4 c2 d8 42 90 af 3f
       0.30194 0.0616475
000680 a0 6c ca 15 de 65 f7 bf b5 a3 38 47 1d 9d ea 3f
       -1.46237 0.831679
000690 48 85 56 cc ad b5 9c 3f a5 a0 db 4b 1a a3 c3 3f
       0.0280368 0.153415
0006a0 ce e0 ef 17 b3 25 c5 bf 78 d0 ec ba b7 22 e2 3f
       -0.165213 0.566738
0006b0 01 13 b8 75 37 4f fa bf 1b f5 10 8d ee 20 ce bf
       -1.64434 -0.23538
0006c0 e6 75 c4 21 1b 48 e5 3f 62 39 f8 78 d7 8f a3 3f
       0.665052 0.0382068
0006d0 d7 00 6d f7 e7 ac 43 3f cb 2b d7 db 66 2a c6 bf
       0.000600446 -0.173169
0006e0 65 c3 9a ca a2 30 e6 3f 99 95 3c 8a b2 38 25 3f
       0.693437 0.000161907
0006f0 cc 61 f7 1d c3 e3 e5 bf 09 4f e8 f5 27 f1 d8 bf
       -0.684053 -0.389719
000700 8e ac fc 32 18 23 c6 bf 3f 74 41 7d cb 9c f4 3f
       -0.172946 1.28828
000710 5f cf d7 2c 97 8d ea bf 85 60 55 bd fc 4e d1 bf
       -0.829784 -0.270446
000720 2f a8 6f 99 d3 65 f3 3f 8a 3f 8a 3a 73 0f d1 bf
       1.21236 -0.266568
000730 63 b6 64 55 84 9b ef bf b6 21 10 f9 78 32 b3 3f
       -0.987734 0.0749889
000740 ee 7a 69 8a 00 a7 cf bf 6e a5 d7 66 63 25 df bf
       -0.247284 -0.486657
000750 1f bf b7 e9 cf 7e ca 3f 62 9d 2a df 33 12 db bf
       0.206995 -0.422986
000760 ef c9 c3 42 ad 69 d5 3f 69 55 09 1e f8 7b 66 bf
       0.334575 -0.00274466
000770 4b 20 25 76 6d 6f cf bf 95 9c 13 7b 68 1f db bf
       -0.245588 -0.423792
000780 4d bb 98 66 ba 57 e6 bf 56 bc 91 79 e4 0f c0 3f
       -0.698209 0.125485
000790 c1 51 97 31 aa b1 91 bf 66 32 1c cf 67 c0 e9 3f
       -0.0172793 0.804737
0007a0 63 b5 f9 7f d5 11 e1 3f 39 09 a5 2f 84 9c dc bf
       0.533427 -0.447053
0007b0 6b d2 6d 89 5c 70 d7 3f c5 f9 a3 c1 d0 97 6c 3f
       0.366233 0.00349036
0007c0 89 97 a7 73 45 29 d0 3f 0e da ab 8f 87 be c3 bf
       0.252519 -0.154252
0007d0 70 3f e0 81 01 84 a3 3f fd f4 9f 35 3f fe ba bf
       0.0381165 -0.105442
0007e0 b8 c8 3d 5d dd b1 ec 3f 4e 5f cf d7 2c 17 e1 bf
       0.896712 -0.534079
0007f0 2a 1e 17 d5 22 22 e1 bf a7 96 ad f5 45 42 9b 3f
       -0.535417 0.02662

FC3_bias f8 [50]
000000 0a 12 db dd 03 74 dc bf c2 17 26 53 05 a3 e3 bf
       -0.444581 -0.61365
000010 c2 17 26 53 05 a3 f8 3f 1e 12 63 3e c5 16 a3 3f
       1.5398 0.0372831
000020 02 d4 d4 b2 b5 3e f0 3f 30 46 24 0a 2d 6b e0 3f
       1.01531 0.513083
000030 01 a7 77 f1 7e dc d8 bf 42 7b f5 f1 d0 f7 e7 3f
       -0.388458 0.749001
000040 e8 4b 6f 7f 2e 9a ea bf 46 5f 41 9a b1 e8 f4 3f
       -0.831321 1.30681
000050 07 97 8e 39 cf d8 e6 bf fb 96 39 5d 16 93 f0 bf
       -0.713966 -1.03591
000060 02 f3 90 29 1f 02 e6 3f 66 6b 7d 91 d0 96 f9 bf
       0.687759 -1.59932
000070 b3 07 5a 81 21 2b f0 bf 1f c6 5a 32 7d 65 84 bf
       -1.01053 -0.0099592
000080 07 0c 92 3e ad a2 e4 3f ec 50 4d 49 d6 61 ea bf
       0.644858 -0.824443
000090 90 a0 f8 31 e6 ae d6 bf fc a9 f1 d2 4d 62 f4 3f
       -0.354425 1.274
0000a0 d2 8b da fd 2a c0 d0 bf 57 25 91 7d 90 65 c5 3f
       -0.261729 0.167162
0000b0 77 3c 77 cc 8a f2 96 bf c1 e4 46 91 b5 86 e4 bf
       -0.0224096 -0.641444
0000c0 11 c3 0e 63 d2 df df 3f 4b 3c a0 6c ca 15 07 c0
       0.498036 -2.88564
0000d0 93 1b 45 d6 1a 4a e3 bf f6 eb 4e 77 9e 78 eb 3f
       -0.602796 0.858474
0000e0 42 78 b4 71 c4 da 00 c0 9d 68 57 21 e5 a7 eb 3f
       -2.10682 0.864245
0000f0 34 4b 02 d4 d4 32 e4 3f 08 5a 81 21 ab 5b f2 3f
       0.631205 1.14738
000100 e8 d8 41 25 ae 63 ec 3f 7d 5d 86 ff 74 03 d3 bf
       0.887168 -0.297086
000110 fc 55 80 ef 36 6f c4 bf bf 0d 31 5e f3 aa c2 bf
       -0.159644 -0.145842
000120 97 e2 aa b2 ef 8a ca 3f 33 dc 80 cf 0f a3 f7 bf
       0.207365 -1.47731
000130 38 4a 5e 9d 63 40 f6 3f ac 56 26 fc 52 bf fc bf
       1.39072 -1.79671
000140 46 d3 d9 c9 e0 a8 f5 bf 8f aa 26 88 ba 0f ef 3f
       -1.35373 0.97067
000150 22 e1 7b 7f 83 f6 d8 3f 52 b8 1e 85 eb d1 f0 bf
       0.390046 -1.05125
000160 95 9d 7e 50 17 a9 e0 3f 84 b8 72 f6 ce 68 da bf
       0.520641 -0.412647
000170 af b1 4b 54 6f 8d f7 3f 76 c1 e0 9a 3b fa c7 bf
       1.47203 -0.187324
000180 4c 8a 8f 4f c8 4e eb bf e6 ae 25 e4 83 9e f2 bf
       -0.853367 -1.1637

FC3_weight f8 [50, 50]
000000 3d 65 35 5d 4f 74 cb 3f d2 72 a0 87 da 36 e1 bf
       0.214487 -0.537946
000010 ef 76 18 ee b7 d1 8b bf 23 f7 74 75 c7 62 d6 3f
       -0.0135836 0.349779
000020 41 61 50 a6 d1 e4 ba bf 23 dd cf 29 c8 cf d6 bf
       -0.105054 -0.356432
000030 34 65 a7 1f d4 45 d6 bf 90 4c 87 4e cf bb c1 3f
       -0.348012 0.138544
000040 c1 e3 db bb 06 7d d8 3f 4b 93 52 d0 ed 25 c1 bf
       0.382631 -0.13397
000050 26 70 eb 6e 9e ea f8 bf ab b3 5a 60 8f 89 c2 3f
       -1.55728 0.144823
000060 ea cf 7e a4 88 8c f2 3f ad 1e e6 81 7e 95 b4 bf
       1.15931 -0.0804061
000070 94 12 82 55 f5 72 e5 3f 43 1c eb e2 36 1a 80 3f
       0.670283 0.0078625
000080 57 b4 39 ce 6d c2 c1 bf ab eb 50 4d 49 d6 da 3f
       -0.138746 0.419329
000090 06 17 86 23 a3 5e 8b 3f 51 88 80 43 a8 52 e1 bf
       0.0133641 -0.54134
0000a0 b3 b4 53 73 b9 c1 e9 3f d5 40 f3 39 77 bb cc bf
       0.804898 -0.224471
0000b0 ba 4b 2e 3b ce b1 4f bf 88 f6 b1 82 df 86 dc 3f
       -0.000967241 0.445732
0000c0 df c3 25 c7 9d d2 d0 3f d8 bc aa b3 5a 60 e6 3f
       0.262855 0.699262
0000d0 0a 2f c1 a9 0f 24 c5 3f f9 6b 0d 00 b0 95 b9 bf
       0.165163 -0.0999403
0000e0 e9 9a c9 37 db dc e6 3f fd e9 50 97 d6 f0 96 bf
       0.71446 -0.0224031
0000f0 ca 36 70 07 ea 94 d7 3f ac 1e 30 0f 99 f2 d3 bf
       0.368464 -0.311682
000100 ef 53 55 68 20 96 c9 bf 9d 85 98 a6 63 29 ad bf
       -0.199894 -0.0569564
000110 00 74 98 2f 2f c0 de 3f 77 f8 c6 6b b9 8e a0 bf
       0.48048 -0.0323389
000120 fc fd 62 b6 64 55 d7 bf 07 99 64 e4 2c 6c f1 3f
       -0.364587 1.08891
000130 12 85 96 75 ff 58 c8 3f 50 01 30 9e 41 43 ec bf
       0.190216 -0.88321
000140 9a 0b 5c 1e 6b c6 e8 3f 61 aa 99 b5 14 90 c0 3f
       0.774221 0.129397
000150 27 dd 96 c8 05 67 d5 3f ed 9b fb ab c7 fd e2 bf
       0.334413 -0.593479
000160 e5 d3 63 5b 06 9c dc 3f 67 64 90 bb 08 d3 e6 3f
       0.447023 0.713261
000170 48 8a c8 b0 8a 37 f3 3f c3 b8 1b 44 6b 45 de 3f
       1.20106 0.472987
000180 bf b6 7e fa cf 9a db bf 8a 02 7d 22 4f 12 f1 3f
       -0.431324 1.06697
000190 d7 be 80 5e b8 73 db 3f d2 fc 31 ad 4d 63 c5 3f
       0.428938 0.167093
0001a0 1e 16 6a 4d f3 8e d7 3f c3 f3 52 b1 31 af c3 3f
       0.3681 0.153784
0001b0 bd 08 09 07 31 86 b8 3f f9 4a 20 25 76 ed ea 3f
       0.0957976 0.841487
0001c0 ad f8 86 c2 67 6b e1 3f 43 e2 1e 4b 1f ba c2 3f
       0.544361 0.146305
0001d0 ee 05 66 85 22 5d ec 3f 4c 3b 90 50 8e 5d 9d bf
       0.886369 -0.0286772
0001e0 53 05 a3 92 3a 01 d0 3f 8c 66 65 fb 90 b7 e0 3f
       0.250075 0.522408
0001f0 65 50 6d 70 22 fa d7 3f 7f da a8 4e 07 32 e3 3f
       0.374642 0.599857
000200 10 26 20 81 9a b5 b3 bf 0a 0d 69 f9 26 f2 a5 bf
       -0.0769898 -0.0428631
000210 48 fd f5 0a 0b ee d3 bf 1d c8 7a 6a f5 d5 c9 bf
       -0.311404 -0.201842
000220 47 c9 ab 73 0c c8 da bf fc de a6 3f fb 91 f2 3f
       -0.41846 1.16064
000230 30 13 45 48 dd ce ca bf 03 72 2e 6a 9c f2 8d bf
       -0.209438 -0.0146229
000240 33 a3 1f 0d a7 cc 9d bf 8d d4 7b 2a a7 3d d9 3f
       -0.029101 0.394388
000250 c8 9a 91 41 ee 22 e8 3f e7 28 51 40 24 8d 8b bf
       0.754264 -0.0134528
000260 91 43 c4 cd a9 64 d1 3f 66 c0 59 4a 96 13 e2 bf
       0.271769 -0.564891
000270 9e f6 4a 0f f9 1d b1 bf 60 23 49 10 ae 80 a2 bf
       -0.0668636 -0.036138
000280 8c d8 27 80 62 64 e2 3f 13 eb f9 3f 2c 40 a8 3f
       0.574754 0.0473646
000290 f5 12 63 99 7e 89 de 3f 2d 21 1f f4 6c 56 d9 3f
       0.477142 0.3959
0002a0 dd d0 94 9d 7e 50 87 3f f0 c4 ac 17 43 39 d6 bf
       0.011384 -0.347245
0002b0 c8 27 64 e7 6d 6c e2 bf 92 3e ad a2 3f 34 cf bf
       -0.575736 -0.243782
0002c0 29 3f a9 f6 e9 78 f6 3f a1 be 65 4e 97 c5 a0 3f
       1.40452 0.0327575
0002d0 e4 a1 ef 6e 65 89 d3 3f e4 31 5e 4e 64 41 b8 bf
       0.305261 -0.0947478
0002e0 74 c6 41 53 c0 87 9c bf 8f 35 23 83 dc 45 ac bf
       -0.0278616 -0.0552205
0002f0 e1 27 0e a0 df f7 c1 bf 6a 6d 1a db 6b 41 e1 3f
       -0.140377 0.539236
000300 1a bf f0 4a 92 67 e5 3f 3b ce c8 7b 30 84 87 3f
       0.668893 0.0114826
000310 79 3a 57 94 12 02 e7 bf 4b ab 21 71 8f 25 f1 bf
       -0.719003 -1.07167
000320 59 a2 58 13 b0 c2 b6 bf 78 90 85 85 e6 7c 81 bf
       -0.0889082 -0.00853901
000330 da b5 73 50 78 bf b6 3f 7f c1 6e d8 b6 28 cb bf
       0.0888591 -0.21218
000340 26 6e 15 c4 40 d7 c0 bf 11 70 08 55 6a f6 c8 bf
       -0.131569 -0.19502
000350 0a be 69 fa ec 80 c9 3f 86 23 a3 5e 4b 23 b5 3f
       0.199247 0.0825698
000360 89 af 1b 5b 74 57 7b bf 7d e7 17 25 e8 2f c2 3f
       -0.0066752 0.142087
000370 ad db a0 f6 5b bb ec bf fb 77 7d e6 ac 4f c5 3f
       -0.897871 0.166494
000380 e3 fb 45 7d 50 1f 6a 3f be 69 fa ec 80 6b ef bf
       0.00318876 -0.981873
000390 42 0a 9e 42 ae d4 cb bf de ee 9b b1 1e ad a8 bf
       -0.217428 -0.0481958
0003a0 80 28 98 31 05 6b a0 bf cb 20 eb 67 b9 85 71 bf
       -0.0320665 -0.00427792
0003b0 ce 9f 80 37 ee de b1 3f 41 80 0c 1d 3b a8 e7 bf
       0.0698079 -0.739286
0003c0 ce 1a bc af ca 85 e6 bf 7a df f8 da 33 4b c2 bf
       -0.703832 -0.14292
0003d0 f7 1e 91 63 a9 fd 7f 3f 5f 9a 22 c0 e9 5d c4 3f
       0.00781027 0.159116
0003e0 7b a2 eb c2 0f ce e4 3f 13 99 b9 c0 e5 31 ef bf
       0.650154 -0.974841
0003f0 e1 96 8f a4 a4 87 da bf 9b 1d a9 be f3 8b ef 3f
       -0.414529 0.985834
000400 28 2d 5c 56 61 b3 e4 3f 89 08 b8 4d dc 1d 4e bf
       0.646897 -0.000919087
000410 0c 56 9c 6a 2d cc ba 3f 40 54 75 ea 25 21 a4 3f
       0.104678 0.0393154
000420 a7 cb 62 62 f3 71 c1 3f 93 36 55 f7 c8 e6 c2 bf
       0.13629 -0.147668
000430 ff d0 cc 93 6b 8a e7 3f 00 ae 64 c7 46 20 d2 3f
       0.735647 0.28322
000440 70 09 c0 3f a5 ca e1 bf ee 96 e4 80 5d 4d c6 3f
       -0.555987 0.174236
000450 7c b8 e4 b8 53 3a fe bf fd c0 55 9e 40 58 e2 bf
       -1.88924 -0.573273
000460 a5 f4 4c 2f 31 96 c9 bf 1e fe 9a ac 51 8f f5 bf
       -0.199896 -1.34749
000470 3c c5 05 fb 0a 2d 86 3f f9 11 bf 62 0d 17 c3 bf
       0.0108281 -0.149141
000480 0b 97 55 d8 0c 70 bd bf e6 76 2f f7 c9 d1 e7 bf
       -0.114991 -0.744359
000490 fd 82 dd b0 6d 51 f5 bf f7 77 b6 47 6f b8 c9 3f
       -1.33238 0.200941
0004a0 67 b8 01 9f 1f 46 d0 bf f0 f8 f6 ae 41 5f c4 bf
       -0.25428 -0.159157
0004b0 02 b7 ee e6 a9 0e cb 3f 41 f3 39 77 bb 5e e6 bf
       0.211385 -0.699064
0004c0 97 43 41 df cc 9e 9a bf cb 0e f1 0f 5b 7a c2 bf
       -0.0259964 -0.144359
0004d0 ec 4b 36 1e 6c b1 e1 bf a4 c6 84 98 4b aa d3 3f
       -0.552908 0.307269
0004e0 b9 fa b1 49 7e c4 cd bf 9a ee 75 52 5f 96 ca bf
       -0.232559 -0.207714
0004f0 cf a4 4d d5 3d b2 d1 3f 56 7f 84 61 c0 12 e6 3f
       0.276504 0.689789
000500 13 65 6f 29 e7 8b d9 bf aa 9c f6 94 9c 93 e2 3f
       -0.399164 0.580519
000510 f4 7f 58 80 00 63 97 bf 9f 82 b2 df c9 5d b4 3f
       -0.0228386 0.0795561
000520 b3 0b 06 d7 dc d1 bf bf b4 3d 7a c3 7d e4 56 bf
       -0.124296 -0.00139725
000530 c7 80 ec f5 ee 8f dd 3f 4a 5d 32 8e 91 6c e1 bf
       0.46191 -0.544503
000540 05 f9 d9 c8 75 53 cc 3f 93 1d 1b 81 78 5d e8 bf
       0.221297 -0.76141
000550 ca 31 59 dc 7f 64 e2 3f 97 ff 90 7e fb 3a ea bf
       0.574768 -0.8197
000560 5b 61 fa 5e 43 70 a0 bf 2a 52 61 6c 21 48 f5 bf
       -0.0321065 -1.33011
000570 69 a8 51 48 32 ab cb bf 60 8f 89 94 66 f3 dd 3f
       -0.216162 0.467981
000580 89 c0 47 b3 68 f0 b7 3f 45 bd e0 d3 9c bc ce 3f
       0.0935121 0.240131
000590 9f 92 73 62 0f ed bf bf 39 63 98 13 b4 c9 dc bf
       -0.124711 -0.449811
0005a0 a1 bb 24 ce 8a a8 c5 3f ad 50 a4 fb 39 05 c1 bf
       0.169206 -0.132972
0005b0 40 6d 54 a7 03 59 e5 bf f3 dc 8c e4 3c ad b4 bf
       -0.667116 -0.0807684
0005c0 4d be d9 e6 c6 f4 e3 bf a0 4e 79 74 23 2c cc bf
       -0.62363 -0.220097
0005d0 54 c8 95 7a 16 84 c2 bf 22 fa b5 f5 d3 7f ce 3f
       -0.144656 0.238276
0005e0 15 91 61 15 6f 64 e6 bf 29 59 4e 42 e9 0b c7 3f
       -0.69976 0.180051
0005f0 1d d4 34 de 0c ed ae bf 20 5e d7 2f d8 8d e6 3f
       -0.0604023 0.704815
000600 f6 c8 8b f1 06 3d b8 bf b0 20 cd 58 34 1d f1 3f
       -0.0946812 1.06963
000610 4d 12 4b ca dd e7 c2 bf c9 ab 73 0c c8 5e d3 3f
       -0.147701 0.30266
000620 31 ef 71 a6 09 db da bf 84 5e 24 59 2c ea b6 bf
       -0.419619 -0.0895107
000630 4c 6b d3 d8 5e 0b de 3f 7a c7 29 3a 92 4b f6 bf
       0.469444 -1.39345
000640 0e 8a 41 bb 9e 43 94 bf c4 89 f9 03 2f 44 b0 3f
       -0.0197892 0.0635404
000650 49 da 8d 3e e6 03 c2 bf 28 9c dd 5a 26 43 e5 bf
       -0.140744 -0.664447
000660 e5 98 2c ee 3f 32 ec bf 02 0e a1 4a cd 1e d2 3f
       -0.881134 0.28313
000670 f9 bb 77 d4 98 10 c7 3f 67 0a 9d d7 d8 25 d6 bf
       0.180194 -0.34606
000680 47 af 06 28 0d 35 d7 bf 4b 1d e4 f5 60 52 bc 3f
       -0.362613 0.110632
000690 da 01 d7 15 33 c2 c9 3f 3c 15 70 cf f3 27 e8 3f
       0.201239 0.754877
0006a0 19 3d b7 d0 95 08 bc bf c8 98 bb 96 90 cf 06 c0
       -0.109506 -2.85135
0006b0 6a 30 0d c3 47 c4 d8 3f a7 63 84 a6 db c8 a3 3f
       0.38698 0.0386418
0006c0 50 a7 3c ba 11 16 c7 bf 19 39 0b 7b da 61 01 40
       -0.180361 2.17278
0006d0 d4 82 17 7d 05 69 c6 3f 96 42 20 97 38 f2 e0 3f
       0.17508 0.529568
0006e0 e7 a8 a3 e3 6a 64 bb bf 42 95 9a 3d d0 0a ec 3f
       -0.107001 0.87632
0006f0 3a 2a ed c3 30 16 9c bf 2e 71 e4 81 c8 22 d7 bf
       -0.0274284 -0.361498
000700 63 7f d9 3d 79 58 d1 bf 49 b8 35 8e fd d1 b2 3f
       -0.271025 0.0735167
000710 d3 13 96 78 40 d9 d3 3f 70 d1 c9 52 eb fd dc bf
       0.310135 -0.452998
000720 17 7e 70 3e 75 ac d9 bf 9a d2 fa 5b 02 f0 c9 bf
       -0.401151 -0.202637
000730 ed 4a cb 48 bd a7 c2 bf bf b6 7e fa cf 9a af bf
       -0.145744 -0.061728
000740 b4 01 d8 80 08 71 de 3f d8 f2 ca f5 b6 99 e8 3f
       0.475649 0.768764
000750 76 6c 04 e2 75 7d f2 3f 83 fb 01 0f 0c 20 e1 bf
       1.15563 -0.535162
000760 0a 4b 3c a0 6c 4a f6 bf c3 f5 28 5c 8f c2 fb bf
       -1.39317 -1.735
000770 93 c6 68 1d 55 4d f0 bf d3 4f 38 bb b5 4c e2 bf
       -1.01888 -0.571864
000780 45 0f 7c 0c 56 9c c2 3f d2 51 0e 66 13 60 df 3f
       0.145396 0.490239
000790 9d 18 ed 4c fc ac b1 3f 12 14 3f c6 dc b5 d6 bf
       0.0690458 -0.35485
0007a0 2d d1 59 66 11 8a d9 bf 1d 77 4a 07 eb ff d1 3f
       -0.399052 0.281245
0007b0 68 af 3e 1e fa ee d2 3f 88 80 43 a8 52 b3 c3 3f
       0.295836 0.15391
0007c0 89 d0 08 36 ae 7f e6 bf 5c ab 3d ec 85 02 d7 3f
       -0.703086 0.359529
0007d0 24 62 4a 24 d1 cb df bf 93 91 0e 6a 1a 6f b4 3f
       -0.496815 0.0798203
0007e0 5c 75 1d aa 29 c9 de bf a7 e7 dd 58 50 18 e6 bf
       -0.481028 -0.690468
0007f0 c8 eb c1 a4 f8 f8 d2 bf 09 ff 22 68 cc 24 d4 bf
       -0.296446 -0.314746
