examples/submissions/SoftComputing2023/data/ACAS XU/Networks/ACAS_XU_3_8.onnx (onnx, 108361 bytes, 14 tensors)

FC0_bias f8 [50]
000000 64 79 57 3d 60 1e 9a bf b4 5b 26 1e ab ef 9f bf
       -0.0255065 -0.0311877
000010 c8 e6 4f c0 1b 77 97 bf e0 d7 48 12 84 2b bc 3f
       -0.0229153 0.110039
000020 aa 7d 3a 1e 33 d0 e1 bf 94 42 6a 24 53 4f b8 3f
       -0.556665 0.0949604
000030 6f da e7 8c 83 a6 90 3f 48 a8 19 52 45 f1 c0 3f
       0.0162602 0.132363
000040 8c c2 89 43 91 49 b3 bf 9e 23 f2 5d 4a 5d df bf
       -0.0753413 -0.490069
000050 63 83 e0 4c a7 d0 a8 bf fe 69 dd e5 a6 f6 77 3f
       -0.0484669 0.00585046
000060 a0 53 90 9f 8d 5c bb 3f b2 81 74 b1 69 a5 bc 3f
       0.106881 0.111899
000070 33 e8 3a 43 27 3a a9 bf 70 ce 88 d2 de e0 d8 bf
       -0.0492718 -0.388725
000080 85 78 24 5e 9e ce c7 3f bb 2b 16 1a e3 1e 96 bf
       0.185993 -0.0216022
000090 68 5b cd 3a e3 fb cc bf 7f 67 7b f4 86 fb d0 bf
       -0.226437 -0.265352
0000a0 ed 0b e8 85 3b 17 c0 3f 43 6a 24 53 4f 30 8d bf
       0.125709 -0.0142523
0000b0 6b ba 9e e8 ba f0 bf bf 9a 25 01 6a 6a d9 d4 bf
       -0.124767 -0.32577
0000c0 7e 86 dc b1 7d 6d a2 bf 92 1f f1 2b d6 f0 e1 3f
       -0.0359916 0.560649
0000d0 1d c3 08 86 18 54 ac 3f 58 1e a4 a7 c8 21 ba 3f
       0.0553291 0.102078
0000e0 fb 23 0c 03 96 5c d8 bf 7c 48 f8 de df a0 cf bf
       -0.380651 -0.247097
0000f0 6c d7 3a 27 ac 43 94 bf 03 49 8e 2a 79 2b 99 bf
       -0.0197894 -0.0245799
000100 0b 7c 45 b7 5e d3 ab 3f 80 9d 9b 36 e3 34 d9 bf
       0.054347 -0.393853
000110 b1 0b 50 64 f7 2e 9f bf 8a 20 ce c3 09 4c d5 bf
       -0.0304526 -0.332766
000120 3d 0d 18 24 7d 5a c3 3f 22 8b 34 f1 0e f0 bc bf
       0.151199 -0.113038
000130 91 60 aa 99 b5 14 bc 3f 94 f9 47 df a4 69 c8 bf
       0.109691 -0.190724
000140 07 f5 e3 e5 9f cf 96 3f 4c 31 ac 87 d4 59 9a 3f
       0.0222764 0.0257333
000150 80 46 e9 d2 bf 24 d8 bf 13 0f 28 9b 72 85 bb bf
       -0.377243 -0.107505
000160 a2 10 5c 40 c3 f6 a2 3f d1 6c 68 14 dc 59 b5 bf
       0.0370389 -0.0834024
000170 21 1e 89 97 a7 f3 e1 bf f9 4e cc 7a 31 94 e7 bf
       -0.560993 -0.73684
000180 ef f8 bc 03 b8 30 6d bf 79 14 f8 d4 fb d7 b5 3f
       -0.00356327 0.0853269

FC0_weight f8 [5, 50]
000000 50 f9 7c 39 58 a4 7e 3f a6 d1 e4 62 0c 2c e8 bf
       0.00748095 -0.755377
000010 74 8d 01 9f 40 54 81 3f 3d 62 f4 dc 42 57 ef 3f
       0.00846148 0.979402
000020 1e d4 8f 97 7f 3e 8b 3f 19 83 98 95 37 d1 b2 3f
       0.0133028 0.0735049
000030 22 4a 20 ca bc fa 2d 3f ee c4 f6 a4 5d 96 a0 3f
       0.000228725 0.0323972
000040 4b e6 58 de 55 0f c0 3f ae 6e ab 0f da 61 92 bf
       0.125468 -0.0179514
000050 71 d8 c7 54 0b 36 97 bf 02 ee 1e 45 42 00 9d 3f
       -0.0226671 0.0283213
000060 bf cf 5d b7 ad d2 92 3f 41 88 bf 81 24 47 95 bf
       0.0183818 -0.0207792
000070 5e bd 8a 8c 0e 48 d5 bf 86 9e 62 0f cc 55 5c 3f
       -0.332523 0.00172944
000080 50 1c 40 bf ef df b6 3f 4a 21 35 92 a9 27 80 bf
       0.0893545 -0.00788815
000090 44 08 1b e0 7a fb 60 bf 1a a8 8c 7f 9f 71 c1 3f
       -0.00207304 0.13628
0000a0 6b 45 9b e3 dc 26 a0 3f 48 df c5 77 39 57 6a bf
       0.0315465 -0.00321542
0000b0 b1 8a 37 32 8f fc cd bf 53 26 90 6d 74 29 91 3f
       -0.23427 0.0167597
0000c0 ad 6b b4 1c e8 a1 be bf 50 c7 63 06 2a 23 00 40
       -0.119658 2.01717
0000d0 68 e6 c9 35 05 32 9b 3f 8b 17 0b 43 e4 f4 c1 3f
       0.026558 0.140286
0000e0 df 3c 30 db a9 14 86 bf de e5 22 be 13 33 f9 bf
       -0.0107816 -1.57497
0000f0 ee af 3f 05 97 f9 74 bf aa 93 7d a1 91 19 91 3f
       -0.00512084 0.0166991
000100 61 c4 3e 01 14 23 af 3f b3 c5 7f cb ad 5a b9 3f
       0.0608145 0.0990399
000110 43 c6 a3 54 c2 13 ba bf a5 2d ae f1 99 ec bb bf
       -0.101864 -0.109079
000120 b9 da 2f 44 f3 a5 b6 3f 3a a1 c6 73 6c f3 95 3f
       0.0884697 0.0214364
000130 e1 8e 81 86 48 97 98 bf 6f bf d7 6b d5 09 ab 3f
       -0.0240146 0.0528094
000140 03 df 7e 0a 91 1d ad 3f 8b af 2c 87 cc 4b 9c bf
       0.0568662 -0.0276329
000150 c5 a9 d6 c2 2c b4 c3 bf 79 58 a8 35 cd 3b e5 bf
       -0.153936 -0.66355
000160 40 07 4c 96 49 c3 b7 bf 25 6e 5f 51 5b 34 8e bf
       -0.0928236 -0.0147483
000170 03 09 8a 1f 63 ae 02 c0 d9 2b 87 71 92 41 89 3f
       -2.33515 0.0123321
000180 b9 4c f2 c8 c4 52 89 3f 86 d1 62 df 04 95 87 3f
       0.0123649 0.0115147
000190 8b ba 20 6c c2 07 70 3f e0 f5 99 b3 3e e5 98 bf
       0.00391365 -0.024312
0001a0 42 88 75 f4 09 ea 75 bf ad 88 9a e8 f3 51 b6 3f
       -0.00535015 0.087188
0001b0 6d 9e de 1d fd 55 4e bf 77 48 31 40 a2 09 e6 bf
       -0.000925778 -0.688676
0001c0 4a 79 ad 84 ee 92 c4 bf 84 f3 a9 63 95 52 e9 3f
       -0.160734 0.791331
0001d0 21 3d 45 0e 11 37 a3 3f 59 86 38 d6 c5 ed f5 3f
       0.0375295 1.37055
0001e0 fd f6 75 e0 9c 91 f5 bf 59 35 08 73 bb 97 d2 3f
       -1.34805 0.290511
0001f0 70 ee af 1e f7 ad ca bf 55 30 2a a9 13 d0 de bf
       -0.208434 -0.48145
000200 fd 31 ad 4d 63 7b cb 3f 97 a8 de 1a d8 2a e1 bf
       0.214703 -0.53648
000210 62 a3 ac df 4c 4c d0 bf c0 de 2f 2c a0 cc 76 bf
       -0.254657 -0.00556624
000220 37 4f 75 c8 cd 70 f4 bf f7 75 e0 9c 11 25 f4 3f
       -1.27754 1.25905
000230 7e c4 af 58 c3 c5 e9 bf 0f 1e 96 9b e2 50 73 3f
       -0.805391 0.00471581
000240 19 73 d7 12 f2 41 02 c0 a8 8d ea 74 20 6b e6 3f
       -2.2822 0.700577
000250 c5 fe b2 7b f2 b0 f3 3f c4 f4 18 40 53 0a ad bf
       1.2307 -0.0567194
000260 d4 9e 92 73 62 0f e7 3f e8 a4 f7 8d af 3d dc bf
       0.720628 -0.441265
000270 50 36 e5 0a ef f2 f5 3f 31 d8 26 78 b7 70 78 bf
       1.37181 -0.00596687
000280 b6 ed 20 1b ed 5d 88 3f 1d c8 7a 6a f5 d5 cd 3f
       0.0118979 0.233092
000290 08 03 cf bd 87 4b f5 bf 18 ec 86 6d 8b 32 f3 bf
       -1.33094 -1.19984
0002a0 46 5f 41 9a b1 68 da 3f ee b1 f4 a1 0b ea fb bf
       0.41264 -1.74464
0002b0 ce a8 f9 2a f9 58 e6 bf ec 17 ec 86 6d 0b ef 3f
       -0.698361 0.970145
0002c0 3b 51 12 12 69 9b e2 bf b8 01 9f 1f 46 88 fb bf
       -0.581471 -1.72077
0002d0 cf 87 c2 c2 a4 53 9a 3f 6c 04 e2 75 fd 82 f5 3f
       0.0257097 1.34448
0002e0 03 3e 3f 8c 10 9e f4 bf c6 46 28 cf 1f 47 81 3f
       -1.28859 0.00843644
0002f0 b2 b9 6a 9e 23 f2 b5 bf 54 19 c6 dd 20 5a d7 bf
       -0.085726 -0.364876
000300 08 55 8b 04 2a 4e 83 bf 00 8b fc fa 21 36 c0 bf
       -0.00942643 -0.126652
000310 59 35 08 73 bb 17 e0 3f ae 61 86 c6 13 c1 e2 3f
       0.502897 0.586069
000320 6b 27 ef 88 af 1b 8b bf 7d 4f f6 e0 ff d8 85 3f
       -0.0132364 0.0106678
000330 83 4d 9d 47 c5 ff 8d bf e7 b1 c1 1d 03 0d a1 3f
       -0.014648 0.0333024
000340 d6 72 67 26 18 ce b9 bf 65 54 19 c6 dd 20 ca 3f
       -0.100801 0.204128
000350 33 72 71 af 27 15 b6 3f 9b 39 24 b5 50 32 dd 3f
       0.0862603 0.456196
000360 df dc 5f 3d ee 5b c7 3f 7d ae b6 62 7f d9 f5 bf
       0.182493 -1.3656
000370 b0 55 82 c5 e1 cc f1 bf 9f 02 60 3c 83 86 c8 3f
       -1.11252 0.191605
000380 e8 87 11 c2 a3 0d f5 3f 97 1e 4d f5 64 fe df bf
       1.31583 -0.499902
000390 ec b8 86 be 60 dc 92 bf 58 38 49 f3 c7 34 ec 3f
       -0.0184188 0.881443
0003a0 fb cc 59 9f 72 4c c6 3f 2f f2 52 b4 e9 3d 42 bf
       0.174208 -0.000556697
0003b0 43 04 1c 42 95 9a f2 3f 51 f4 c0 c7 60 c5 c9 bf
       1.16274 -0.201336
0003c0 32 ac e2 8d cc 23 ef 3f 9e 87 c4 51 7a 25 27 bf
       0.97312 -0.000176593
0003d0 c6 8a 1a 4c c3 b0 02 40 69 8c d6 51 d5 84 e6 bf
       2.33631 -0.703715
0003e0 16 fb cb ee c9 c3 f3 bf 29 0f 66 6e 19 cb 97 3f
       -1.2353 0.0232357
0003f0 04 3a 93 36 55 f7 c2 bf b9 1c af 40 f4 a4 dc bf
       -0.148173 -0.447568
000400 da 03 ad c0 90 55 f8 bf 4a e9 5f b3 d8 fd 55 bf
       -1.52089 -0.00134226
000410 4c fc 51 d4 99 7b 90 3f fc df 11 15 aa 9b d7 3f
       0.0160965 0.368876
000420 97 ff 90 7e fb 3a d1 bf 0e f8 fc 30 42 78 f6 3f
       -0.269225 1.40436
000430 6d e7 fb a9 f1 52 f9 bf 72 33 dc 80 cf 0f ff 3f
       -1.58275 1.94136
000440 01 a9 a8 55 4f 41 89 bf d4 43 34 ba 83 d8 f7 3f
       -0.0123316 1.49036
000450 60 3c 83 86 fe 09 d0 bf ad c3 d1 55 ba bb a6 bf
       -0.25061 -0.044401
000460 41 49 81 05 30 65 d7 bf 13 0f 28 9b 72 85 cb 3f
       -0.365551 0.21501
000470 dc 2e 34 d7 69 24 f1 3f 91 12 16 70 2a ad a2 3f
       1.07139 0.0364774
000480 ad c2 03 56 50 49 84 bf 31 42 78 b4 71 c4 e1 bf
       -0.00990546 -0.55523
000490 37 3b ce 44 43 8c 68 3f 52 b8 1e 85 eb 51 a8 3f
       0.00299657 0.0475
0004a0 c8 98 bb 96 90 0f f7 3f 3d d5 21 37 c3 0d d4 3f
       1.4413 0.31334
0004b0 f6 e4 ab 2e f1 91 8e bf 8f 2d 15 65 80 55 97 bf
       -0.0149268 -0.0227871
0004c0 89 36 32 55 51 38 52 3f d0 64 5a f6 7f 69 b0 3f
       0.00111206 0.0641098
0004d0 4e 0b 5e f4 15 a4 f1 3f c3 9d 0b 23 bd 28 e6 bf
       1.10256 -0.692473
0004e0 ec 85 02 b6 83 11 d9 3f f7 78 21 1d 1e c2 d0 bf
       0.391694 -0.261848
0004f0 09 c4 eb fa 05 bb d0 3f b6 48 da 8d 3e e6 73 3f
       0.261415 0.00485825
000500 8d 7a 88 46 77 10 c1 3f 89 d9 26 70 46 28 b3 3f
       0.133315 0.0748333
000510 ac 28 14 d8 52 f6 b0 bf 6d c6 69 88 2a fc d1 bf
       -0.0662586 -0.281016
000520 cb d5 8f 4d f2 23 cc bf e0 49 0b 97 55 d8 c8 bf
       -0.219847 -0.194102
000530 f9 f8 84 ec bc 8d d9 bf d9 79 1b 9b 1d a9 7e bf
       -0.399276 -0.0074855
000540 d9 e9 07 75 91 42 e5 3f f3 56 5d 87 6a 4a e6 3f
       0.664376 0.696584
000550 cb 09 24 72 0b a7 aa 3f 01 c3 d1 d9 f2 5f 5a 3f
       0.0520557 0.00160979
000560 71 aa b5 30 0b ed c0 3f 2d 12 c9 46 d6 d0 a8 bf
       0.132234 -0.0484683
000570 78 e4 59 93 b8 d8 ae bf 36 ba 39 4b 7f e5 87 bf
       -0.0602472 -0.0116682
000580 7e aa 0a 0d c4 b2 e6 3f 13 99 b9 c0 e5 b1 de 3f
       0.709322 0.479608
000590 eb 38 7e a8 34 62 be bf 46 66 68 1b 03 db 56 3f
       -0.118686 0.00139499
0005a0 6b e8 d1 1a a4 5c 71 3f bc e9 96 1d e2 1f e6 bf
       0.00423874 -0.691392
0005b0 dc d8 ec 48 f5 9d cf 3f 5c 46 a0 b0 7a 76 af bf
       0.247008 -0.0614508
0005c0 a2 43 e0 48 a0 c1 d3 3f 1f 03 68 4a a1 e2 b8 bf
       0.308693 -0.0972081
0005d0 a9 6c 58 53 59 14 df bf 88 11 c2 a3 8d 23 db 3f
       -0.485617 0.424045
0005e0 bf 0e 39 09 e7 4b 76 3f 73 f7 39 3e 5a 9c e0 3f
       0.00544348 0.519086
0005f0 f3 55 f2 b1 bb 40 c9 bf 6f 62 48 4e 26 6e cb 3f
       -0.197288 0.214299
000600 cc 5d 4b c8 07 3d c1 bf 74 0b 5d 89 40 f5 c5 3f
       -0.134675 0.171547
000610 b6 21 10 f9 78 32 a1 3f 14 e9 7e 4e 41 7e e2 bf
       0.0335882 -0.577912
000620 8b 90 15 57 f0 36 8a bf 12 f9 2e a5 2e 19 d3 bf
       -0.0128001 -0.298412
000630 14 2e 9a 84 c1 eb 89 bf 67 b8 01 9f 1f 46 d6 3f
       -0.0126567 0.34803
000640 29 23 4f 0e 76 f5 70 3f 24 9b ab e6 39 22 a3 bf
       0.00414034 -0.0373705
000650 ab 42 03 b1 6c e6 80 bf c1 df d4 ac d8 04 8d 3f
       -0.008252 0.0141694
000660 48 16 30 81 5b 77 07 c0 2a c9 3a 1c 5d a5 cb bf
       -2.93328 -0.215984
000670 f3 04 c2 4e b1 6a dd bf 36 73 48 6a a1 64 cc 3f
       -0.459637 0.221821
000680 48 f9 49 b5 4f c7 d8 3f c5 e4 0d 30 f3 1d d4 3f
       0.387165 0.314328
000690 a9 be f3 8b 12 f4 bb bf 72 a5 9e 05 a1 bc c3 3f
       -0.109193 0.154194
0006a0 5b b0 54 17 f0 32 cf 3f 29 cb 10 c7 ba b8 c7 3f
       0.243742 0.185325
0006b0 74 29 ae 2a fb ae d0 3f b7 d5 ac 33 be 2f d2 3f
       0.26068 0.284164
0006c0 da a8 4e 07 b2 9e c4 bf f0 91 a4 d6 c1 e2 7c 3f
       -0.161093 0.00705219
0006d0 fa 7d ff e6 c5 09 e3 bf 60 c8 ea 56 cf c9 eb bf
       -0.594943 -0.868385
0006e0 0f 9c 33 a2 b4 37 d7 bf 59 21 59 7e e8 9b 67 3f
       -0.362775 0.00288196
0006f0 ba 4e 23 2d 95 b7 e9 bf 2d 5e 2c 0c 91 d3 bb 3f
       -0.80366 0.108697
000700 2d b1 32 1a f9 bc d4 bf 34 3e 9b 6e 3c 4c 69 3f
       -0.324034 0.00308811
000710 1c b4 57 1f 0f fd e8 bf 03 05 de c9 a7 c7 c2 3f
       -0.780891 0.146718
000720 20 2a 8d 98 d9 67 e3 3f d4 ef 46 0f 11 71 72 bf
       0.606427 -0.00450236
000730 99 fb 9a 9b 25 b7 5c bf 33 52 ef a9 9c 76 e4 3f
       -0.00175265 0.639479
000740 c2 50 87 15 6e f9 ca bf 69 e2 1d e0 49 0b dd 3f
       -0.210737 0.453814
000750 11 1c 97 71 53 03 d5 bf 8b a5 48 be 12 c8 e0 3f
       -0.328328 0.524423
000760 3a b0 1c 21 03 f9 e5 3f 9e b7 b1 d9 91 ea d7 bf
       0.686647 -0.373692
000770 ff 0d 35 65 02 d9 9e 3f 64 04 54 38 82 54 ee bf
       0.0301247 -0.947816
000780 bf ee 74 e7 89 e7 c8 3f 6b bb 09 be 69 fa d4 bf
       0.194566 -0.327784
000790 af b2 b6 29 1e 17 c5 3f df 17 97 aa b4 c5 cd 3f
       0.164768 0.232596
0007a0 cb bf 96 57 ae b7 b9 3f 5f ce 6c 57 e8 83 e3 3f
       0.100459 0.609852
0007b0 28 07 58 50 bd da 86 3f 1e 6d 1c b1 16 9f fb bf
       0.0111594 -1.72634
0007c0 6f 89 b7 29 79 d0 97 bf ad 33 be 2f 2e 55 c1 bf
       -0.0232562 -0.135412

FC1_bias f8 [50]
000000 fe 78 54 a1 26 9f b3 3f 86 ff 74 03 05 de d1 3f
       0.0766472 0.279176
000010 28 18 84 a8 b1 73 91 bf 59 51 83 69 18 3e f2 3f
       -0.0170429 1.14016
000020 b9 6d df a3 fe 7a a9 3f 21 88 3b b4 d2 9f 12 3f
       0.0497665 7.10461e-05
000030 97 8d ce f9 29 8e d8 bf af 8a 81 bf a9 59 91 bf
       -0.383677 -0.0169436
000040 1f 7b 07 89 fe 1a 8a bf 01 dc 2c 5e 2c 0c c1 bf
       -0.0127468 -0.133184
000050 5b e5 ae ca 2a 11 b1 bf ce 31 c5 c1 4a aa 93 bf
       -0.0666682 -0.0192043
000060 e1 f0 82 88 d4 b4 ef bf 78 ee 3d 5c 72 dc f0 3f
       -0.990824 1.05382
000070 6f b8 8f dc 9a 74 e8 bf 17 d4 b7 cc e9 32 f3 bf
       -0.764234 -1.19993
000080 c2 13 7a fd 49 7c ec 3f f9 f7 19 17 0e 84 f1 bf
       0.890172 -1.09474
000090 f5 83 ba 48 a1 2c ee 3f ed 95 1e f2 3b f2 8c bf
       0.942948 -0.0141339
0000a0 05 4c 85 1d 6b eb 7c bf d0 7b 08 4f 8d 3c a1 3f
       -0.00706045 0.0336651
0000b0 aa 7d 3a 1e 33 50 de bf 44 a7 e7 dd 58 50 e3 bf
       -0.473645 -0.603558
0000c0 8e 06 f0 16 48 50 bc 3f 83 a3 e4 d5 39 86 ea bf
       0.1106 -0.828885
0000d0 f7 e4 61 a1 d6 34 f0 bf f6 07 ca 6d fb 1e bd bf
       -1.0129 -0.113754
0000e0 d9 3f 4f 03 06 c9 e1 3f 1a 6e c0 e7 87 91 e5 3f
       0.555789 0.674015
0000f0 70 b2 0d dc 81 3a dd bf 63 7a c2 12 0f a8 f3 3f
       -0.456696 1.22853
000100 0a a2 cd f5 a6 b7 79 bf 74 e9 04 d9 57 c3 92 bf
       -0.00627866 -0.0183233
000110 df 47 7f 79 12 22 aa bf e9 b9 85 ae 44 a0 e4 3f
       -0.0510412 0.644564
000120 a8 57 ca 32 c4 31 ee bf 87 19 1a 4f 04 f1 e2 3f
       -0.943575 0.591921
000130 d5 e7 6a 2b f6 17 f3 3f fc 8a 35 5c e4 9e e5 3f
       1.19335 0.675646
000140 68 95 99 d2 fa 5b c0 bf 2b 6b 59 c6 9f 0b 67 bf
       -0.127807 -0.00281316
000150 9c 6d 6e 4c 4f d8 e6 bf fa 0e 7e e2 00 fa b9 3f
       -0.713905 0.101471
000160 d1 3f c1 c5 8a 1a c8 bf ca 87 c1 78 dd 8d 7b bf
       -0.18831 -0.00672709
000170 36 75 1e 15 ff 77 e4 3f 4e 9a 06 45 f3 00 ca 3f
       0.639648 0.203154
000180 60 77 ba f3 c4 73 d3 3f 97 11 28 ac 9e dd 93 bf
       0.303941 -0.0194001

FC1_weight f8 [50, 50]
000000 c1 23 85 0d aa 68 97 bf fc 9c cc 89 87 41 a2 bf
       -0.0228602 -0.0356562
000010 cd 7c 62 f8 e3 51 95 3f ea 0a 11 cb c1 c7 93 bf
       0.0208202 -0.0193167
000020 f5 43 32 05 e7 63 79 bf ed ea fa aa 01 ef 99 3f
       -0.00619879 0.0253258
000030 3f 0a cf 32 28 26 61 3f 08 c8 97 50 c1 e1 a5 bf
       0.00209339 -0.042738
000040 a0 6b 5f 40 2f dc a9 bf c2 92 61 cb e1 49 a5 3f
       -0.050508 0.0415793
000050 28 1b c5 28 be 90 a0 bf 37 3e ee b6 66 86 90 bf
       -0.0323543 -0.0161377
000060 24 a2 f3 75 74 b7 a2 3f 09 f3 c3 ad 27 5f 85 3f
       0.0365559 0.0104354
000070 dc b9 30 d2 8b da 95 3f bf d1 8e 1b 7e 37 9d 3f
       0.0213415 0.028532
000080 d7 f2 6f 3c 44 48 72 bf d5 7e c6 e0 bc 93 92 bf
       -0.00446345 -0.0181417
000090 8f 75 cc d4 7f 31 96 bf 36 39 21 19 17 b3 92 3f
       -0.0216732 0.0182613
0000a0 aa 03 07 51 4a 4a 82 3f da c7 0a 7e 1b 62 9c bf
       0.00893076 -0.027718
0000b0 28 49 b6 3e d5 b6 83 3f b3 bc 06 d8 a2 60 99 bf
       0.00962607 -0.0247827
0000c0 09 dd 25 71 56 44 a5 bf 70 51 77 af a4 26 ab bf
       -0.041537 -0.0530292
0000d0 1a 46 8b 7d 13 54 9e bf 7e 0d 77 e4 fe d9 a5 bf
       -0.0296176 -0.0426788
0000e0 ff 37 9b 33 47 fb 9c 3f 45 eb f2 f7 9c 05 93 bf
       0.0283023 -0.0185761
0000f0 59 4e 42 e9 0b 21 a7 3f 16 f3 18 8a e0 24 a2 bf
       0.045174 -0.0354376
000100 e4 29 2f 22 1f 2e 68 3f 30 07 e6 8d 38 09 9a bf
       0.00295168 -0.0254258
000110 c8 77 ce bb 56 e7 95 bf 23 34 dd 46 5e 31 a6 bf
       -0.0213903 -0.0433454
000120 b2 74 f4 ae 30 33 92 bf df b7 6b 53 86 bb 84 bf
       -0.0177734 -0.0101233
000130 88 5f 35 bf 2f 68 80 3f 3b 8f e5 b8 ae f3 92 bf
       0.00801122 -0.0185077
000140 e7 73 49 30 30 86 a5 3f 89 c8 d9 09 69 6c 63 bf
       0.0420394 -0.00237103
000150 33 59 37 39 d7 8b 9c bf 51 a9 6d 1e e2 7a 9f 3f
       -0.0278772 0.0307422
000160 d7 e5 4a f3 7d 27 8c 3f 0b a0 73 12 a5 18 93 3f
       0.0137472 0.0186487
000170 1b 28 95 95 cb eb 9d 3f aa c6 5c 63 e1 35 a1 3f
       0.0292198 0.0336142
000180 18 d5 7d 5b 0b 0e a6 bf 4f e0 e7 09 95 c9 8a 3f
       -0.0430759 0.0130798
000190 3a 76 50 89 eb 98 e7 bf 16 32 57 06 d5 06 da 3f
       -0.737417 0.406667
0001a0 d3 b0 29 a1 05 b2 a4 bf b4 71 c4 5a 7c 8a f0 bf
       -0.0404207 -1.03381
0001b0 5b 5c e3 33 d9 bf e4 3f e0 d7 48 12 84 2b da 3f
       0.648419 0.408906
0001c0 04 70 b3 78 b1 30 d5 3f 6f 2e 59 70 9a 99 84 3f
       0.331097 0.0100586
0001d0 42 90 28 59 f3 88 86 bf 0e 67 7e 35 07 88 f5 3f
       -0.0110034 1.34571
0001e0 26 aa b7 06 b6 4a f0 bf 71 a7 19 f7 8b 7e 99 3f
       -1.01824 0.0248968
0001f0 82 e5 08 19 c8 b3 c3 bf 93 18 04 56 0e 2d e3 bf
       -0.153924 -0.59925
000200 03 7d 22 4f 92 ae c5 3f ff 5b c9 8e 8d 40 dd bf
       0.16939 -0.457065
000210 fa d4 b1 4a e9 99 cc 3f 4e 60 3a ad db a0 d8 bf
       0.223447 -0.384818
000220 23 bb d2 32 52 ef e0 bf 55 f0 25 9e fd 92 aa bf
       -0.529214 -0.0519027
000230 4e fe 38 ab 4f 83 93 3f aa bb 0d c5 78 28 a1 3f
       0.0190556 0.0335119
000240 04 00 c7 9e 3d 97 d5 bf e8 4e b0 ff 3a b7 e5 bf
       -0.337356 -0.678617
000250 b5 fb 55 80 ef 36 d5 bf 35 27 2f 32 01 3f e3 bf
       -0.331478 -0.601441
000260 d2 1d c4 ce 14 ba e0 bf 8d b5 bf b3 3d fa e6 3f
       -0.522715 0.718047
000270 ec a3 53 57 3e cb 00 c0 7c 7e 18 21 3c da f9 bf
       -2.09924 -1.61578
000280 6b d2 6d 89 5c 70 ba 3f d8 0e 46 ec 13 40 e4 bf
       0.103277 -0.632822
000290 6b aa dd 65 75 61 6a 3f 12 da 72 2e c5 55 a1 3f
       0.0032203 0.0338575
0002a0 35 3e 38 44 81 e3 9f bf 68 09 32 02 2a 1c c9 3f
       -0.0311413 0.196172
0002b0 85 7a fa 08 fc e1 e1 bf f7 1e 2e 39 ee 94 df 3f
       -0.558836 0.493465
0002c0 ea b2 98 d8 7c 5c f0 bf 7c b6 0e 0e f6 26 d8 3f
       -1.02258 0.377378
0002d0 c6 14 ac 71 36 9d e3 3f cd 75 5c 85 7b 02 64 bf
       0.612941 -0.00244259
0002e0 92 40 83 4d 9d 47 dd bf 2f f9 9f fc dd bb ea bf
       -0.457496 -0.835433
0002f0 9d 10 3a e8 12 0e ed bf 97 11 28 ac 9e dd 8b 3f
       -0.907968 0.0136063
000300 e7 52 5c 55 f6 5d e6 3f a3 f4 3b 03 d9 a1 80 bf
       0.69897 -0.0081212
000310 68 d0 2b f9 33 17 b5 bf 39 59 0f 04 6d 17 a3 bf
       -0.0823853 -0.0372881
000320 33 8d 81 d0 d5 b1 9d 3f 81 81 d6 b2 6b 31 a2 bf
       0.0289987 -0.0355333
000330 c8 74 6c 2d 61 a7 77 bf 37 1f 32 40 fd c2 aa 3f
       -0.00577486 0.0522689
000340 bb 6c 6c 5d 07 5a 73 3f 95 72 08 66 96 4e a1 3f
       0.00472453 0.0338027
000350 06 f1 81 1d ff 05 a6 3f 7a 4d b4 50 d7 7f 82 bf
       0.0430145 -0.0090329
000360 64 b1 4d 2a 1a 6b 9f 3f 94 da 8b 68 3b a6 9e bf
       0.030682 -0.029931
000370 88 de fb 7e de 12 80 bf b0 3d 0e de b2 9e 85 bf
       -0.00784849 -0.0105566
000380 b9 ab 57 91 d1 01 99 3f b5 22 20 15 b5 ea 99 3f
       0.024421 0.0253094
000390 30 8b 3f 40 ad 58 92 3f ae 99 21 fa 5a 3c a1 bf
       0.0179164 -0.0336636
0003a0 a9 92 b7 12 70 be 87 bf 35 6c 4a 68 81 2c aa 3f
       -0.0115937 0.0511208
0003b0 9a de ee 7a a3 35 82 bf 5d 94 8f 93 78 2f a1 3f
       -0.00889137 0.0335653
0003c0 1e ae 30 d8 68 94 a9 3f fc e3 bd 6a 65 c2 8f bf
       0.0499604 -0.0155075
0003d0 94 cb 35 bb a4 20 96 3f 31 72 bb 3c 42 72 87 bf
       0.0216089 -0.0114484
0003e0 9d f9 30 d6 92 e9 8b bf 00 71 78 bd 0b c6 7e 3f
       -0.0136291 0.00751309
0003f0 93 e1 99 4c ec 0c 59 bf dc c7 c0 f0 00 05 8d bf
       -0.00152896 -0.0141697
000400 2c ab 9f ed 87 8e 93 3f cc 1e b2 92 a0 09 8e 3f
       0.0190984 0.0146668
000410 78 56 1c 18 8a 85 a7 bf 89 d2 de e0 0b 93 89 bf
       -0.0459407 -0.0124875
000420 59 35 e7 64 d2 74 80 bf 28 b7 50 a6 8f c8 80 3f
       -0.00803532 0.00819504
000430 43 c3 07 1b 43 a5 66 3f 04 5b 80 11 8f 1f a1 bf
       0.00276435 -0.0334439
000440 df 1f 6b 1d 87 87 61 3f 3a ed 84 f2 99 47 99 3f
       0.00213982 0.0246872
000450 32 47 45 52 c1 97 a8 bf 76 dc 11 ca d2 b9 78 3f
       -0.0480328 0.00603659
000460 4f 38 60 fc d9 34 9b 3f cb 6a 15 58 5b 0c a5 3f
       0.0265688 0.0411099
000470 94 65 2d aa ea 8a 9e 3f 23 2f 6b 62 81 af 98 bf
       0.0298268 -0.024107
000480 9d 42 53 1b 41 cf 9b bf 26 19 18 fd 91 b7 36 bf
       -0.0271578 -0.000346635
000490 f3 c7 b4 36 8d ed 9d 3f 80 0f 5e bb b4 e1 a8 bf
       0.0292265 -0.048597
0004a0 13 33 b1 af 2b 1c 87 bf 2b f2 90 ce 65 0f a1 bf
       -0.0112842 -0.0333206
0004b0 02 2b 87 16 d9 ce c3 bf 70 08 55 6a f6 40 fa bf
       -0.15475 -1.64086
0004c0 3d 54 64 be cd 2c a3 bf c5 fe b2 7b f2 30 08 c0
       -0.0374512 -3.0239
0004d0 9f 21 1c b3 ec 49 ec bf 13 45 48 dd ce be ca 3f
       -0.884024 0.208948
0004e0 6b 99 0c c7 f3 19 c2 3f ec 89 09 c5 b1 89 a3 bf
       0.141417 -0.0381599
0004f0 32 04 9d 9c e3 d4 65 bf 06 12 14 3f c6 dc f0 bf
       -0.00266499 -1.0539
000500 78 cc e5 ab 89 aa b8 bf 62 e8 85 f9 fa 73 84 bf
       -0.0963522 -0.00998684
000510 b7 63 ea ae ec 02 e0 3f 91 d3 d7 f3 35 cb e2 bf
       0.500357 -0.587306
000520 e7 61 b2 02 8d e3 b1 3f 7c 62 9d 2a df 33 d0 3f
       0.0698784 0.253166
000530 21 c8 41 09 33 6d 07 c0 3a 08 3a 5a d5 12 eb 3f
       -2.92832 0.846049
000540 8f 18 3d b7 d0 15 e9 bf e8 88 d7 50 c5 e8 a0 bf
       -0.783913 -0.0330259
000550 9d b1 79 66 93 0d 95 3f ea 5d bc 1f b7 5f c0 3f
       0.0205596 0.127921
000560 b5 c0 1e 13 29 cd d7 bf 14 af b2 b6 29 1e b9 bf
       -0.371897 -0.0981165
000570 78 d0 ec ba b7 22 cb bf de 9a 2a ce 07 ba b4 bf
       -0.211997 -0.0809636
000580 3f 6f 2a 52 61 6c d2 3f 09 fc e1 e7 bf 07 dc bf
       0.287865 -0.437973
000590 c8 b7 77 0d fa d2 c5 3f 9c 34 0d 8a e6 81 ed bf
       0.170501 -0.922107
0005a0 e3 49 77 7c 20 1e ae 3f 12 f6 ed 24 22 fc d1 bf
       0.0588236 -0.281014
0005b0 34 ae c9 64 82 2b aa bf 23 a2 98 bc 01 66 a6 bf
       -0.0511132 -0.043747
0005c0 b7 f5 2e 39 49 4e 99 bf dd ce be f2 20 bd e2 bf
       -0.0247127 -0.585587
0005d0 dc 63 e9 43 17 d4 f1 bf da 38 62 2d 3e 05 e0 bf
       -1.11428 -0.50064
0005e0 c4 34 1d 4b 69 47 b3 bf 35 5f 25 1f bb 8b e8 bf
       -0.0753084 -0.767057
0005f0 ac 37 6a 85 e9 7b e9 bf 6a 73 f7 94 f7 cc 9d 3f
       -0.796376 0.0291022
000600 fc ab c7 7d ab 75 d3 bf fa b4 8a fe d0 cc bb 3f
       -0.304057 0.108594
000610 4a 45 63 ed ef 6c c1 bf 17 a5 df 19 c8 0e 85 3f
       -0.136137 0.0102821
000620 21 20 5f 42 05 87 e0 bf 7c 47 8d 09 31 17 e3 3f
       -0.516482 0.596581
000630 90 fe f2 24 44 54 8c bf 40 41 73 e7 d3 74 ab bf
       -0.0138326 -0.0536257
000640 74 43 53 76 fa 41 e4 3f d7 32 19 8e e7 33 c0 3f
       0.633054 0.126584
000650 8d ff 4c ce 9a 69 a0 bf 8b 22 bd 0b 08 6b 7b 3f
       -0.0320557 0.00669387
000660 cb 14 73 10 74 b4 c8 bf c6 79 ee f3 ce 57 9f 3f
       -0.193007 0.0306084
000670 db 6e 82 6f 9a 3e cf 3f 38 89 9c 19 58 22 a7 bf
       0.244098 -0.0451839
000680 91 c4 81 46 9f 45 9d bf 7a 35 40 69 a8 51 c8 3f
       -0.0285859 0.189992
000690 cb d8 d0 cd fe 40 c9 bf a8 89 e3 65 f2 72 a1 bf
       -0.197296 -0.0340801
0006a0 b5 a5 0e f2 7a 30 da bf eb 02 5e 66 d8 28 cb bf
       -0.409209 -0.212184
0006b0 b4 91 eb a6 94 d7 a2 bf b0 56 ed 9a 90 d6 d5 3f
       -0.036801 0.341221
0006c0 28 45 2b f7 02 b3 c6 3f a2 5d 85 94 9f 54 bf 3f
       0.177338 0.122385
0006d0 4e 45 2a 8c 2d 04 10 c0 76 dd 5b 91 98 a0 aa bf
       -4.00408 -0.0520065
0006e0 91 fa a1 88 fb 7e 90 3f f5 f4 11 f8 c3 cf bf bf
       0.0161094 -0.124264
0006f0 43 1f 2c 63 43 37 d4 bf 00 e5 ef de 51 63 d6 3f
       -0.315873 0.349812
000700 29 b2 d6 50 6a 2f dc bf bd c4 58 a6 5f 22 dc 3f
       -0.440394 0.439598
000710 e9 b7 af 03 e7 0c fc bf 15 6e 9e 8f d7 28 a8 bf
       -1.75315 -0.0471866
000720 9c 18 92 93 89 5b cd bf dc 7e f9 64 c5 f0 e3 bf
       -0.229356 -0.623141
000730 13 9a 24 96 94 bb c3 bf bc de 47 7f 79 12 92 bf
       -0.154162 -0.0176486
000740 cf 54 3e ba c7 88 a2 bf 9c 77 52 15 09 5c a1 3f
       -0.0361998 0.0339053
000750 42 af 3f 89 cf 9d a0 3f ca fd 0e 45 81 3e c1 3f
       0.032454 0.13472
000760 7f b1 ad 55 71 99 b1 bf b5 19 a7 21 aa f0 d6 3f
       -0.0687476 0.358439
000770 fc a6 b0 52 41 45 a5 bf 6e 89 5c 70 06 7f db 3f
       -0.041544 0.429628
000780 d7 ce e6 27 8b b1 a6 bf f0 11 d6 6b 1f 97 5d bf
       -0.0443233 -0.00180605
000790 a6 2b 33 00 af 2a aa 3f 15 57 95 7d 57 04 dc bf
       0.0511069 -0.437765
0007a0 02 b8 59 bc 58 18 d9 3f 06 37 08 29 2e 7d a6 bf
       0.392111 -0.0439238
0007b0 ea d6 c6 33 c3 a1 aa 3f 14 af b2 b6 29 1e d0 3f
       0.0520154 0.251841
0007c0 38 48 88 f2 05 2d d4 bf d3 84 ed 27 63 7c 90 3f
       -0.315248 0.0160995
0007d0 ab 7a f9 9d 26 33 c0 3f e1 af 4d 53 99 9c 69 3f
       0.126561 0.00312643
0007e0 30 4d 6c 99 67 80 a2 bf 15 8c 4a ea 04 34 c9 bf
       -0.0361359 -0.1969
0007f0 e9 0b 21 e7 fd 7f c0 bf f0 ca e4 8a 41 16 88 bf
       -0.128906 -0.0117612

FC2_bias f8 [50]
000000 9e 07 77 67 ed 36 e0 bf 57 76 c1 e0 9a 3b c4 bf
       -0.506705 -0.158069
000010 84 f7 b0 72 c3 4a b8 bf 06 64 af 77 7f 3c f2 bf
       -0.0948908 -1.13977
000020 ab 77 b8 1d 1a 16 df bf 07 27 a2 5f 5b 3f e9 3f
       -0.485724 0.788984
000030 b0 e6 00 c1 1c bd fc bf 93 c6 68 1d 55 8d 04 c0
       -1.79617 -2.56901
000040 ce c2 9e 76 f8 6b f5 bf da 91 ea 3b bf 28 c3 bf
       -1.33886 -0.149681
000050 b9 55 10 03 5d fb e2 bf ec 88 43 36 90 ae e1 3f
       -0.593184 0.552559
000060 8a e5 96 56 43 e2 f6 bf e5 47 fc 8a 35 5c ec bf
       -1.43024 -0.886256
000070 80 2b d9 b1 11 c8 00 c0 c3 d8 42 90 83 92 f1 bf
       -2.09769 -1.09827
000080 78 96 41 31 89 e5 7c bf 72 18 cc 5f 21 f3 e7 bf
       -0.00705484 -0.748429
000090 57 21 e5 27 d5 3e d8 bf 90 b2 8f 5f 89 51 b3 bf
       -0.378835 -0.0754629
0000a0 d2 92 22 8d 65 55 af bf 8e b2 7e 33 31 5d ef bf
       -0.0611984 -0.980126
0000b0 5e d5 59 2d b0 c7 eb 3f 8a 3c 49 ba 66 f2 e6 bf
       0.868126 -0.71709
0000c0 91 ed 7c 3f 35 de f5 bf ac d9 14 d9 18 85 8e 3f
       -1.36675 0.0149023
0000d0 5a 7e e0 2a 4f a0 e5 bf 7e 2b 44 4d 15 08 82 bf
       -0.675819 -0.00880448
0000e0 53 07 79 3d 98 94 ed bf 12 4e 0b 5e f4 95 e2 bf
       -0.924389 -0.580805
0000f0 d7 f7 e1 20 21 4a ef bf 7b 12 d8 9c 83 67 d5 bf
       -0.977799 -0.334443
000100 72 c5 20 0b 2c db aa bf 9e b5 db 2e 34 d7 f9 bf
       -0.0524534 -1.61504
000110 04 3a 93 36 55 f7 d0 bf 63 9c bf 09 85 88 f2 3f
       -0.265096 1.15833
000120 b0 3d b3 24 40 cd 06 c0 9f 59 12 a0 a6 96 01 c0
       -2.85022 -2.19856
000130 ea 95 b2 0c 71 2c 05 c0 00 fc f8 f0 d1 87 9b bf
       -2.6467 -0.0268853
000140 ad 2f 12 da 72 ae f7 bf 99 0d 32 c9 c8 99 03 40
       -1.48009 2.45009
000150 e1 7d 55 2e 54 fe d4 bf 33 f1 58 7d bf e2 a2 bf
       -0.328023 -0.0368862
000160 96 af cb f0 9f ee ed bf 2b 6d cc 46 42 b6 b7 bf
       -0.935379 -0.0926248
000170 89 cf 9d 60 ff f5 eb bf 52 9b 38 b9 df a1 d9 bf
       -0.873779 -0.400505
000180 f0 8b 4b 55 da e2 e1 bf 85 25 1e 50 36 e5 05 c0
       -0.558942 -2.73692

FC2_weight f8 [50, 50]
000000 f3 54 87 dc 0c 37 fa 3f d3 f4 d9 01 d7 15 cd 3f
       1.63844 0.227229
000010 09 b2 54 cd 62 18 b0 bf 07 5f 98 4c 15 8c da 3f
       -0.0628721 0.4148
000020 45 11 52 b7 b3 af dc 3f 1d 3d 7e 6f d3 9f e8 bf
       0.448224 -0.76951
000030 78 ef a8 31 21 e6 ea 3f 53 b3 07 5a 81 21 d5 3f
       0.840592 0.33017
000040 2d e9 28 07 b3 09 c8 bf 58 00 53 06 0e 68 da 3f
       -0.187796 0.412601
000050 b2 11 88 d7 f5 0b db 3f 21 cb 82 89 3f 8a da bf
       0.422605 -0.414688
000060 52 d6 6f 26 a6 0b c3 3f d8 07 61 87 94 13 83 bf
       0.148793 -0.00931469
000070 3e ed f0 d7 64 8d e0 3f ca 4e 3f a8 8b 94 e5 3f
       0.51726 0.674383
000080 75 aa be eb 1a ca 7c 3f 9a d0 24 b1 a4 dc d4 3f
       0.00702868 0.325967
000090 3a b4 23 30 31 f1 b0 3f f8 4f 37 50 e0 9d de 3f
       0.0661803 0.478386
0000a0 fc 55 80 ef 36 6f d6 bf f9 f7 19 17 0e 04 f7 bf
       -0.350538 -1.43849
0000b0 45 9e 24 5d 33 79 f2 3f 89 eb f7 48 73 f9 79 3f
       1.15459 0.00634141
0000c0 1d c7 0f 95 46 cc e3 3f 6c 0a 64 76 16 bd ef bf
       0.618686 -0.991832
0000d0 19 8e e7 33 a0 de bc 3f 2b 91 fa a1 88 fb 8e bf
       0.112772 -0.0151282
0000e0 77 f3 54 87 dc cc 03 40 45 9e 24 5d 33 f9 f0 bf
       2.47503 -1.06084
0000f0 0e 69 54 e0 64 9b e3 3f 1e 53 77 65 17 0c e4 3f
       0.612719 0.626476
000100 11 ea 7d 3e 25 42 8e bf 5e b9 de 36 53 21 e0 3f
       -0.0147746 0.504068
000110 6b d8 ef 89 75 aa ee bf d1 e8 0e 62 67 8a f3 3f
       -0.958308 1.22129
000120 23 18 62 50 01 8b 87 bf df f8 da 33 4b 02 dd 3f
       -0.0114956 0.453265
000130 37 aa d3 81 ac a7 d3 bf 35 fe 8e f2 dd f7 89 bf
       -0.307109 -0.0126798
000140 84 12 66 da fe 15 f2 3f a9 d9 03 ad c0 90 fb 3f
       1.13037 1.72284
000150 4c 88 b9 a4 6a bb e1 bf df 39 ef 5a 9d f7 a6 bf
       -0.554128 -0.0448579
000160 ed 28 73 98 d4 75 95 bf 0d a5 f6 22 da 8e ad bf
       -0.0209573 -0.0577305
000170 bb 5e 9a 22 c0 e9 c7 bf 96 cf f2 3c b8 3b e2 3f
       -0.186821 0.56979
000180 4b cd 79 21 78 d7 a4 bf 7b 4e 7a df f8 5a f3 3f
       -0.0407064 1.20971
000190 70 3e 75 ac 52 7a c8 3f 28 0a f4 89 3c 49 d4 3f
       0.191233 0.31697
0001a0 6e 4c 4f 58 e2 81 e6 3f e2 22 f7 74 75 c7 a6 3f
       0.703355 0.0444905
0001b0 4d 83 a2 79 00 8b df 3f ee b3 ca 4c 69 fd e2 3f
       0.492859 0.593434
0001c0 17 9a eb 34 d2 92 06 c0 39 7c d2 89 04 53 e1 3f
       -2.82169 0.541384
0001d0 05 5c 46 a0 b0 7a a6 3f b3 cd 8d e9 09 cb 00 c0
       0.0439048 -2.09914
0001e0 55 6d 37 c1 37 cd e1 3f 1b d8 2a c1 e2 f0 ee bf
       0.556301 -0.966905
0001f0 13 66 da fe 95 95 f1 3f 21 8f e0 46 ca 16 de 3f
       1.09902 0.470141
000200 cc 7c 07 3f 71 00 e7 bf 66 4f 02 9b 73 70 eb 3f
       -0.718804 0.857477
000210 4b f9 5a e1 a7 bb a8 bf f3 20 3d 45 0e 11 cf bf
       -0.0483067 -0.242708
000220 5d 6d c5 fe b2 fb f1 bf 48 34 81 22 16 31 d9 bf
       -1.12395 -0.393621
000230 72 f8 a4 13 09 a6 e2 bf bc 3f de ab 56 26 fa bf
       -0.582768 -1.63436
000240 73 83 a1 0e 2b dc ca bf 71 1e 4e 60 3a ad d0 3f
       -0.209844 0.260573
000250 65 06 e0 55 c5 0a ad 3f 20 ed 7f 80 b5 6a d4 3f
       0.0567228 0.319013
000260 79 24 5e 9e ce 15 e6 3f 54 88 ec 28 73 98 a0 bf
       0.690162 -0.0324131
000270 e6 b1 66 64 90 bb ce 3f a5 d9 3c 0e 83 f9 e7 bf
       0.240099 -0.749208
000280 1d e7 36 e1 5e 99 d9 bf 38 2c 0d fc a8 86 e5 bf
       -0.399986 -0.672688
000290 1a 2c a4 15 42 7b 63 bf 60 cd 01 82 39 7a f6 3f
       -0.00237811 1.40484
0002a0 ff 77 44 85 ea e6 c4 3f 39 99 b8 55 10 03 cd bf
       0.163297 -0.226656
0002b0 ec 87 d8 60 e1 24 c9 3f 7c 81 59 a1 48 f7 d0 bf
       0.196438 -0.265093
0002c0 79 01 f6 d1 a9 ab f6 3f 25 6f 25 e0 7c 8f 7f bf
       1.41691 -0.0077052
0002d0 2b 4d 4a 41 b7 f7 10 c0 7b a4 c1 6d 6d e1 d4 3f
       -4.24191 0.326259
0002e0 1a 69 a9 bc 1d e1 f2 3f 94 9a 87 5d 25 69 a4 bf
       1.17996 -0.0398647
0002f0 62 12 2e e4 11 dc ed bf 64 57 5a 46 ea 3d dd bf
       -0.933114 -0.456904
000300 b7 7c 24 25 3d 8c e7 3f 17 d7 f8 4c f6 cf d1 3f
       0.735869 0.278318
000310 d6 a7 1c 93 c5 fd d4 3f 22 c3 2a de c8 3c f6 bf
       0.327989 -1.38984
000320 19 f7 30 c5 66 91 9f 3f 34 97 65 99 8f b5 a0 bf
       0.0308281 -0.0326352
000330 ed ec d0 55 5f 02 a0 bf 9b e9 b9 e0 67 b7 91 3f
       -0.0312681 0.0173012
000340 59 9f f6 84 ba 82 7c 3f 7d 69 9b 2c ff 6b 92 bf
       0.00696061 -0.0179901
000350 da 33 f0 48 61 83 92 bf 83 3e 47 9a 2e 7a 8d 3f
       -0.0180793 0.0143932
000360 c2 60 48 98 b3 88 9a bf 7d ca d6 9f 69 2e a4 bf
       -0.0259121 -0.0394166
000370 6e e8 1c f2 85 7f a7 bf 8f 6b 64 d3 21 a2 6e 3f
       -0.0458948 0.00373942
000380 3c 39 9e 2a 3a ed 9c 3f 55 a0 79 ad 42 d2 80 3f
       0.0282487 0.00821354
000390 91 37 af a0 1f fc 8a 3f 9e 2e e6 42 40 19 96 3f
       0.0131762 0.0215807
0003a0 39 a3 9c 1e ca 06 a8 3f 92 4c 98 7a 27 b0 8a 3f
       0.0469268 0.0130313
0003b0 c2 1a c2 8c 84 11 86 bf b8 52 74 c9 dd 8c ab 3f
       -0.0107756 0.0538091
0003c0 b9 16 2d 40 db 6a 66 3f 7b 2e 53 93 e0 0d a5 3f
       0.0027365 0.0411215
0003d0 85 e5 74 fe 92 f9 9c 3f d9 15 e9 34 c1 26 a5 bf
       0.0282958 -0.0413113
0003e0 d1 21 70 24 d0 60 83 3f 4a fa 6a fd e3 73 5d bf
       0.009462 -0.00179765
0003f0 23 65 8b a4 dd e8 a3 bf 38 d0 8d fa 35 a3 a0 3f
       -0.038886 0.0324952
000400 c2 32 36 74 b3 3f 90 3f 62 64 6e 63 58 6a a6 3f
       0.015868 0.0437801
000410 ab dc 55 59 25 a2 81 bf 00 79 0a 14 0c 42 a0 bf
       -0.00861005 -0.0317539
000420 eb f3 62 72 b4 f4 a2 3f 8a 5a 16 23 7d 20 5a bf
       0.0370232 -0.00159466
000430 12 e2 25 93 ae f4 a5 3f 42 80 04 ac f2 90 83 bf
       0.0428824 -0.00955381
000440 fc 82 c4 13 cd 45 84 3f 4b 83 91 4d a8 96 9b bf
       0.00989876 -0.0269419
000450 dc fc 1a a4 3b e3 a2 bf b6 37 ae 35 4a 4d 91 bf
       -0.0368899 -0.0168964
000460 67 0a 42 1e 66 d4 99 3f 62 4e 2b e0 f9 a0 a6 3f
       0.0252243 0.0441969
000470 23 b1 cd 5b af c8 63 3f 8a d3 ff 28 a0 3f 9b 3f
       0.00241503 0.0266099
000480 7c f9 53 99 18 81 a7 bf f3 13 18 fc 47 f0 a0 bf
       -0.0459068 -0.0330832
000490 d1 b7 60 04 e8 52 97 bf df e4 12 a2 d7 fa 9d bf
       -0.0227772 -0.0292772
0004a0 43 81 88 1e 42 a6 a2 bf f7 d5 0b f4 3f af 7e bf
       -0.0364247 -0.00749135
0004b0 a8 3a e4 66 b8 01 e6 3f cb 9e 04 36 e7 60 ea bf
       0.68771 -0.824329
0004c0 70 5f 07 ce 19 51 cc 3f e8 66 24 e7 69 65 b7 3f
       0.221225 0.0913912
0004d0 c8 ea 56 cf 49 6f f2 bf 4a 79 ad 84 ee 92 a0 3f
       -1.15217 0.032371
0004e0 51 14 e8 13 79 92 fa bf 2e 57 3f 36 c9 8f d2 3f
       -1.66076 0.290026
0004f0 a6 b5 69 6c af 05 df 3f 88 2d 3d 9a ea 49 eb 3f
       0.484722 0.852773
000500 4d dc 2a 88 81 ae ec bf be ec e8 c9 46 31 aa bf
       -0.896302 -0.0511572
000510 2c f2 eb 87 d8 60 c7 3f 11 53 22 89 5e 46 91 bf
       0.182643 -0.01687
000520 81 b2 29 57 78 97 cb bf 19 02 80 63 cf 9e d4 bf
       -0.21556 -0.322193
000530 6d 0b 85 be aa 69 a1 bf 6d e1 79 a9 d8 98 d5 3f
       -0.0340093 0.337454
000540 8c 66 65 fb 90 b7 da 3f 82 e2 c7 98 bb 96 d5 3f
       0.417454 0.337325
000550 02 0e a1 4a cd 9e 15 c0 37 35 d0 7c ce dd d3 bf
       -5.40508 -0.310413
000560 ca 6c 90 49 46 ce 06 c0 a6 09 db 4f c6 f8 d1 3f
       -2.85072 0.280809
000570 49 0d 12 47 c3 ce a9 3f db 14 8f 8b 6a 11 c9 bf
       0.0504056 -0.195844
000580 74 78 ad 29 35 20 9f 3f 49 81 26 3e 4e 03 84 bf
       0.0303963 -0.00977193
000590 bc c9 6f d1 c9 52 d0 bf 2e 39 ee 94 0e d6 c9 3f
       -0.255053 0.201845
0005a0 4f 58 e2 01 65 53 d4 3f bf 7d 1d 38 67 44 f1 3f
       0.31759 1.0792
0005b0 3a 85 4b 7d 0f 4d a3 bf 6b b8 c8 3d 5d dd d7 3f
       -0.0376973 0.372886
0005c0 a6 d6 fb 8d 76 dc da 3f cd 57 c9 c7 ee 82 ec bf
       0.419706 -0.890983
0005d0 4f c3 5c f7 fb 6a a7 3f 15 6b 5d 0f cb 0b a1 3f
       0.0457381 0.0332931
0005e0 dd d8 47 02 68 ef ab bf b9 4d 5d 9e 73 5c b0 bf
       -0.0545609 -0.0639107
0005f0 f7 c7 7b d5 ca 74 20 c0 07 25 cc b4 fd 2b f7 bf
       -8.22811 -1.44824
000600 0b eb c6 bb 23 63 df 3f 9f 14 f7 69 26 29 8a bf
       0.490426 -0.0127738
000610 5b be c3 27 7c 3a 77 bf 02 82 39 7a fc 5e f0 bf
       -0.00567101 -1.02319
000620 c1 ad bb 79 aa 43 e5 bf 38 d7 30 43 e3 89 d5 3f
       -0.66451 0.336541
000630 7f 6a bc 74 93 18 c8 3f dd 41 ec 4c a1 f3 d5 3f
       0.18825 0.342995
000640 59 dc 7f 64 3a 74 e4 bf 93 e1 78 3e 03 ea b9 3f
       -0.639188 0.101227
000650 ac fb 6c 89 01 b7 af 3f a2 9a 92 ac c3 d1 d6 bf
       0.0619431 -0.356553
000660 84 47 1b 47 ac c5 c3 3f a4 8c b8 00 34 4a c3 bf
       0.15447 -0.150702
000670 2e e2 3b 31 eb c5 d3 bf f2 26 bf 45 27 4b cb bf
       -0.308955 -0.213231
000680 ca 8d 22 6b 0d a5 dd 3f ff 5e 0a 0f 9a 5d d8 bf
       0.463199 -0.380713
000690 f4 f8 bd 4d 7f 76 e5 bf a5 13 09 a6 9a 59 a7 3f
       -0.670715 0.0456055
0006a0 db 87 bc e5 ea c7 e5 3f 29 d0 27 f2 24 e9 f1 3f
       0.680654 1.11942
0006b0 10 08 74 26 6d aa aa 3f 1f 10 e8 4c da 54 cd bf
       0.0520815 -0.229152
0006c0 04 ef 9a 46 49 fe 86 bf a3 22 4e 27 d9 ea d3 3f
       -0.0112272 0.311209
0006d0 8a 02 7d 22 4f 52 16 c0 ed b7 76 a2 24 24 be 3f
       -5.58038 0.117739
0006e0 97 81 14 86 12 77 b0 bf 25 3d 0c ad 4e 4e e6 bf
       -0.0643169 -0.697059
0006f0 c3 44 83 14 3c 85 dd 3f 93 51 65 18 77 83 d4 3f
       0.461257 0.320524
000700 7d ae b6 62 7f d9 c9 3f 0b 7c 45 b7 5e d3 c5 3f
       0.20195 0.170513
000710 0a 11 70 08 55 6a c2 bf ea fd eb 81 fb a6 a5 bf
       -0.14387 -0.0422896
000720 3a 93 36 55 f7 c8 d2 3f 2a 1e 17 d5 22 a2 c0 3f
       0.293516 0.129948
000730 0c 93 a9 82 51 49 d5 bf c2 4b 70 ea 03 c9 bf bf
       -0.3326 -0.124161
000740 fa 09 67 b7 96 c9 ac bf 15 39 44 dc 9c 4a e0 bf
       -0.0562255 -0.509108
000750 0e ca ea 0c 42 2f 9a 3f a5 cb 51 36 9b 7d 94 bf
       0.0255709 -0.0200104
000760 31 b1 f9 b8 36 54 b6 3f cc 0b b0 8f 4e 5d e2 3f
       0.0872225 0.57389
000770 06 f3 57 c8 5c 19 d5 bf 81 42 47 ef 77 cf 41 3f
       -0.329673 0.000543531
000780 b3 7b f2 b0 50 6b ca 3f 53 22 89 5e 46 b1 0a c0
       0.2064 -3.33656
000790 81 96 ae 60 1b f1 c6 3f 37 67 e9 af fc 9e 95 bf
       0.179233 -0.0211143
0007a0 69 6f f0 85 c9 d4 f0 3f 04 e3 e0 d2 31 e7 dd bf
       1.05195 -0.467236
0007b0 36 c8 24 23 67 61 00 c0 3b 52 7d e7 17 25 bc 3f
       -2.04756 0.109941
0007c0 9d 84 d2 17 42 ce e3 3f 8c 4d 2b 85 40 2e e2 3f
       0.618928 0.568146
0007d0 f1 2e 17 f1 9d 18 e0 3f b9 36 54 8c f3 37 f3 bf
       0.503005 -1.20116
0007e0 f1 45 7b bc 90 0e cb bf 67 f0 f7 8b d9 12 ec bf
       -0.211382 -0.877301
0007f0 6e a3 01 bc 05 12 f0 3f 2b 4d 4a 41 b7 57 03 40
       1.0044 2.41783

FC3_bias f8 [50]
000000 ba da 8a fd 65 77 fe bf e5 f1 b4 fc c0 d5 e7 bf
       -1.90415 -0.744843
000010 b9 53 3a 58 ff 67 02 40 81 04 c5 8f 31 77 e4 bf
       2.30078 -0.63955
000020 d3 d9 c9 e0 28 79 04 c0 be de fd f1 5e 35 f7 bf
       -2.55916 -1.45053
000030 68 c1 d5 4b 9d 91 aa bf 0a 9d d7 d8 25 2a 10 c0
       -0.0518922 -4.04116
000040 ec 69 87 bf 26 6b fa bf ed d6 32 19 8e 67 ee 3f
       -1.65116 0.950141
000050 65 8f 50 33 a4 8a da bf 6f 81 04 c5 8f 71 03 c0
       -0.414712 -2.43045
000060 be a0 85 04 8c ae e5 bf a9 dc 44 2d cd 2d e7 3f
       -0.677557 0.724341
000070 91 f3 fe 3f 4e 98 d3 bf 47 5a 2a 6f 47 38 0e c0
       -0.306171 -3.77748
000080 11 3a e8 12 0e bd ec 3f 01 9b 18 37 da 16 9a 3f
       0.898078 0.0254778
000090 a0 15 18 b2 ba 55 f5 3f 34 a1 49 62 49 39 e5 3f
       1.33343 0.663243
0000a0 ff 3e e3 c2 81 10 f4 bf a0 6e a0 c0 3b 79 e7 3f
       -1.25403 0.733549
0000b0 ff 95 95 26 a5 60 0d c0 70 99 d3 65 31 71 06 40
       -3.67219 2.80527
0000c0 86 c9 54 c1 a8 a4 f3 bf 5e d7 2f d8 0d 5b 0f c0
       -1.2277 -3.91946
0000d0 ba bd a4 31 5a c7 ff bf d2 c3 d0 ea e4 0c c5 3f
       -1.98617 0.164456
0000e0 c6 33 68 e8 9f 60 e6 bf 90 68 02 45 2c 62 e4 bf
       -0.699295 -0.636984
0000f0 41 62 bb 7b 80 ee e6 bf 69 57 21 e5 27 55 f6 bf
       -0.716614 -1.39579
000100 4f 76 33 a3 1f 8d e1 3f 1d 55 4d 10 75 1f ff bf
       0.548477 -1.94518
000110 4e 27 d9 ea 72 4a c2 3f 29 ec a2 e8 81 0f ef bf
       0.142897 -0.970643
000120 41 9a b1 68 3a bb f5 bf 37 37 a6 27 2c f1 fa bf
       -1.35821 -1.68388
000130 c4 b0 c3 98 f4 f7 e2 bf 91 61 15 6f 64 1e f5 3f
       -0.592768 1.31992
000140 e0 9c 11 a5 bd c1 ff 3f d8 bc aa b3 5a 60 ed 3f
       1.9848 0.918012
000150 52 f3 55 f2 b1 bb e4 3f 22 52 d3 2e a6 19 e3 bf
       0.647912 -0.596881
000160 d8 9a ad bc e4 7f a2 bf 28 49 d7 4c be d9 00 c0
       -0.036132 -2.10632
000170 da 38 62 2d 3e 85 ff bf bf 4b 04 05 39 83 aa 3f
       -1.97003 0.0517824
000180 e9 f6 ed 7f db 6e 8d bf 63 b7 cf 2a 33 a5 c7 bf
       -0.0143716 -0.184729

FC3_weight f8 [50, 50]
000000 0d a6 61 f8 88 18 fa 3f 7d 20 79 e7 50 06 e4 3f
       1.63099 0.625771
000010 8b aa 5f e9 7c 78 ed 3f 25 3f e2 57 ac e1 df 3f
       0.920958 0.498149
000020 c0 94 81 03 5a ba da bf b3 0c 71 ac 8b 5b fa 3f
       -0.417624 1.64735
000030 08 00 8e 3d 7b ae e2 bf 45 4b 1e 4f cb 0f cc 3f
       -0.583799 0.219232
000040 33 fc a7 1b 28 f0 da bf a8 a6 24 eb 70 74 df 3f
       -0.420908 0.491482
000050 bd 6d a6 42 3c 12 e9 bf 75 1f 80 d4 26 4e d5 3f
       -0.783476 0.332895
000060 1e a5 12 9e d0 eb c1 bf a7 a7 34 07 ad 2c b0 bf
       -0.140009 -0.0631817
000070 cd 78 5b e9 b5 d9 d8 3f 6a 13 27 f7 3b 14 cd 3f
       0.388288 0.22718
000080 8a 1f 63 ee 5a c2 f5 3f d4 0e 7f 4d d6 28 f6 bf
       1.35995 -1.38497
000090 22 17 9c c1 df 2f dd 3f d2 6f 5f 07 ce 99 e8 bf
       0.456047 -0.768775
0000a0 9e 7b 0f 97 1c 77 f4 bf 2f db 4e 5b 23 82 de 3f
       -1.27908 0.476693
0000b0 98 86 e1 23 62 ca ee bf 45 bb 0a 29 3f a9 d9 3f
       -0.962205 0.400955
0000c0 17 9a eb 34 d2 d2 e6 3f 1c 25 af ce 31 20 f6 3f
       0.713235 1.38286
0000d0 6b 83 13 d1 af ad ea bf 8f b5 75 26 23 1d 9c bf
       -0.833702 -0.0274549
0000e0 35 eb 8c ef 8b 4b d0 3f 85 43 6f f1 f0 9e c9 3f
       0.254611 0.200163
0000f0 54 53 92 75 38 3a e0 bf 7e 6f d3 9f fd 48 00 40
       -0.507107 2.03564
000100 07 5f 98 4c 15 0c f3 bf 98 69 fb 57 56 9a fd 3f
       -1.19045 1.85018
000110 8f 8b 6a 11 51 4c e8 3f a5 e7 cc 2c f8 23 9b bf
       0.759316 -0.0265044
000120 b4 3e e5 98 2c 6e eb bf b7 9c 4b 71 55 d9 f4 bf
       -0.857199 -1.30306
000130 ed 99 25 01 6a 6a d9 3f 68 06 f1 81 1d ff df 3f
       0.39712 0.499946
000140 3f 39 0a 10 05 33 c2 bf 5e f4 15 a4 19 8b 01 c0
       -0.142182 -2.19292
000150 c4 08 e1 d1 c6 11 ab bf c4 36 f3 f5 c6 5a 7d bf
       -0.05287 -0.00716665
000160 e8 0e 07 ae 97 4b 97 3f 42 ce fb ff 38 61 c2 3f
       0.0227493 0.143592
000170 44 4f ca a4 86 36 d9 3f 0d 72 17 61 8a 72 d3 3f
       0.393953 0.303866
000180 c1 d0 d9 b8 b4 d0 84 3f ac 19 19 e4 2e c2 ea bf
       0.0101637 -0.836204
000190 22 e0 10 aa d4 6c f7 3f 5e a2 7a 6b 60 ab f2 3f
       1.46407 1.16684
0001a0 3b a0 b6 57 30 3b 85 3f bd 52 96 21 8e 75 c9 bf
       0.0103668 -0.1989
0001b0 db a7 e3 31 03 95 bd 3f 48 33 16 4d 67 27 09 40
       0.115555 3.14424
0001c0 33 dc 80 cf 0f 23 c8 3f b6 4b 1b 0e 4b 03 cd 3f
       0.18857 0.226663
0001d0 70 08 55 6a f6 40 ee 3f 2a e3 df 67 5c b8 f4 bf
       0.94543 -1.29501
0001e0 dd 44 2d cd ad 10 d7 bf f7 90 f0 bd bf 41 cb 3f
       -0.360393 0.212944
0001f0 69 c8 78 94 4a 78 db bf e6 94 80 98 84 8b e3 3f
       -0.429217 0.610781
000200 e7 fd 7f 9c 30 61 e4 3f 67 9d f1 7d 71 a9 be 3f
       0.636864 0.119773
000210 29 75 c9 38 46 b2 cb 3f 49 f4 32 8a e5 16 f1 3f
       0.216378 1.06809
000220 99 2e c4 ea 8f 30 a0 bf 2f 34 d7 69 a4 a5 da 3f
       -0.0316205 0.41636
000230 f9 8a c9 76 19 59 b1 bf 25 c9 73 7d 1f 0e d0 3f
       -0.0677658 0.250862
000240 6f b1 ec 93 ed 8d 9b bf 46 26 e0 d7 48 12 bc 3f
       -0.0269086 0.109654
000250 e5 b4 a7 e4 9c 58 ee 3f 57 ec 2f bb 27 0f da 3f
       0.948317 0.407175
000260 b6 80 d0 7a f8 32 d2 3f 19 71 01 68 94 2e d2 bf
       0.284361 -0.284093
000270 17 10 5a 0f 5f 26 ba 3f 56 bc 91 79 e4 8f f2 3f
       0.102148 1.16013
000280 9f 3e 02 7f f8 f9 ec 3f da fe 95 95 26 a5 04 c0
       0.905514 -2.58064
000290 c0 79 71 e2 ab 1d d2 3f be c0 ac 50 a4 fb ef 3f
       0.283061 0.999468
0002a0 8c f7 e3 f6 cb 27 ed 3f 98 a2 5c 1a bf f0 ed bf
       0.911108 -0.935638
0002b0 be d9 e6 c6 f4 84 f1 3f 44 18 3f 8d 7b f3 cf bf
       1.09496 -0.249618
0002c0 f2 5c df 87 83 84 d9 3f d5 41 5e 0f 26 c5 bb bf
       0.398713 -0.108477
0002d0 b8 75 37 4f 75 c8 b9 3f b4 74 05 db 88 27 dd bf
       0.100715 -0.455538
0002e0 96 e9 97 88 b7 4e e4 3f cc 45 7c 27 66 bd 98 bf
       0.634609 -0.02416
0002f0 ed 32 57 61 8e 79 98 bf 32 1f 10 e8 4c 5a e5 3f
       -0.0239012 0.667273
000300 bd 6f 7c ed 99 25 fd 3f 52 0c 90 68 02 45 d7 3f
       1.82168 0.363587
000310 31 80 4b 5b b7 9c a2 bf c0 3e 3a 75 e5 b3 f5 3f
       -0.0363519 1.35642
000320 ea 42 ac fe 08 c3 ea 3f dc 9b df 30 d1 a0 e0 bf
       0.836308 -0.519631
000330 e1 42 1e c1 8d 94 d3 3f 96 ec d8 08 c4 6b e2 3f
       0.305942 0.575655
000340 25 ec db 49 44 78 e3 bf 9b 97 1e a8 ae d7 af 3f
       -0.608431 0.0621924
000350 c9 77 29 75 c9 38 ea 3f ca 53 56 d3 f5 44 e9 3f
       0.819432 0.789668
000360 cf 83 bb b3 76 5b f0 3f 12 4e 0b 5e f4 d5 01 40
       1.02233 2.22947
000370 1c 08 c9 02 26 f0 f1 bf f9 a0 67 b3 ea 73 f1 3f
       -1.12113 1.0908
000380 97 4c 5f 19 65 47 b6 3f e3 e1 3d 07 96 23 e7 3f
       0.0870269 0.723094
000390 22 19 72 6c 3d c3 e3 3f 01 5d 45 90 94 3e aa bf
       0.617583 -0.0512587
0003a0 ce c2 9e 76 f8 6b dc bf 04 ff 5b c9 8e 8d f0 bf
       -0.44409 -1.03456
0003b0 98 86 e1 23 62 ca ea 3f 3e 5c 72 dc 29 1d fb 3f
       0.837205 1.69462
0003c0 0b ed 9c 66 81 76 c3 3f f8 c4 3a 55 be 67 d3 bf
       0.152054 -0.303207
0003d0 2b de c8 3c f2 47 06 c0 bf 9d 44 84 7f 11 b2 bf
       -2.78513 -0.0705795
0003e0 ba bd a4 31 5a 47 e4 bf 9e 24 5d 33 f9 66 f9 3f
       -0.63371 1.58764
0003f0 8e 1e bf b7 e9 4f f6 bf bd 21 e8 c3 0e be 9b bf
       -1.39451 -0.0270922
000400 94 bd a5 9c 2f f6 cc bf 2e 75 90 d7 83 c9 e1 3f
       -0.226263 0.555849
000410 11 c4 79 38 81 69 e0 3f a6 44 12 bd 8c 22 08 c0
       0.512879 -3.01687
000420 62 f4 dc 42 57 a2 ec bf 4f 3b fc 35 59 a3 f2 3f
       -0.894817 1.16488
000430 89 07 94 4d b9 42 f0 3f d5 eb 16 81 b1 3e e2 3f
       1.01629 0.570153
000440 d9 3d 79 58 a8 b5 05 c0 2c d3 2f 11 6f 1d e7 bf
       -2.7137 -0.722343
000450 23 66 f6 79 8c f2 ec 3f 7f de af 5d 35 2a b3 bf
       0.904608 -0.0748628
000460 9b 00 c3 f2 e7 5b ed 3f d0 d3 80 41 d2 a7 c5 3f
       0.917469 0.169184
000470 ad 51 0f d1 e8 0e dc bf 63 33 76 78 be 55 b1 3f
       -0.43841 0.0677146
000480 60 1e 32 e5 43 50 ad bf 93 6f b6 b9 31 3d fb bf
       -0.057253 -1.70244
000490 29 04 72 89 23 0f e3 bf 64 ac 36 ff af 3a e6 3f
       -0.595598 0.694664
0004a0 14 e9 7e 4e 41 7e a2 bf 26 e4 83 9e cd 2a f2 3f
       -0.0361195 1.13545
0004b0 42 b0 aa 5e 7e a7 da bf 1e 30 b4 df 7f d0 5f bf
       -0.416473 -0.0019418
0004c0 04 73 f4 f8 bd 4d eb bf 66 3a 2a ed c3 30 b4 bf
       -0.85324 -0.0788691
0004d0 db 51 9c a3 8e 8e e6 3f cc 97 17 60 1f 9d f0 3f
       0.704902 1.03836
0004e0 d9 95 96 91 7a 4f a5 3f 55 67 b5 c0 1e 13 e5 bf
       0.041622 -0.658584
0004f0 ad dd 76 a1 b9 ce f1 3f a0 c5 52 24 5f 09 c2 3f
       1.11297 0.140911
000500 7e 38 48 88 f2 05 dd 3f eb aa 40 2d 06 0f d9 bf
       0.453488 -0.391542
000510 a2 96 8b 9d 95 59 a5 3f 82 ab 3c 81 b0 53 df bf
       0.0416991 -0.489483
000520 73 9c db 84 7b 65 d3 3f 64 af 77 7f bc d7 f7 3f
       0.303069 1.49017
000530 5f 7b 66 49 80 9a e6 bf ac 8d b1 13 5e 82 cf 3f
       -0.70636 0.246166
000540 93 8a c6 da df d9 d1 3f 36 e7 e0 99 d0 a4 e1 bf
       0.278923 -0.551369
000550 b6 0e 0e f6 26 06 e1 3f 79 f2 9f 24 13 a6 96 bf
       0.532001 -0.0221179
000560 ac 6c c4 38 24 5a a3 bf 9a 98 2e c4 ea 0f e2 bf
       -0.0377971 -0.564443
000570 56 83 30 b7 7b b9 c9 3f 2c 47 c8 40 9e dd e0 3f
       0.200973 0.527053
000580 df 35 e8 4b 6f ff e0 bf 2e ae f1 99 ec 9f cf bf
       -0.531181 -0.247068
000590 f2 94 d5 74 3d d1 e6 3f 5d 8b 16 a0 6d 35 a3 bf
       0.713042 -0.037517
0005a0 75 3d d1 75 e1 07 dd 3f 57 06 d5 06 27 a2 d0 bf
       0.453606 -0.259897
0005b0 f9 49 b5 4f c7 63 f0 bf d5 91 23 9d 81 11 ed bf
       -1.02436 -0.908387
0005c0 7c 7f 83 f6 ea e3 dd bf 03 40 15 37 6e b1 ef 3f
       -0.467036 0.990409
0005d0 f8 8d af 3d b3 24 cc 3f f9 4c f6 cf d3 80 d7 3f
       0.21987 0.367238
0005e0 80 4a 95 28 7b 4b e5 bf 67 ba d7 49 7d 59 ce 3f
       -0.665464 0.237106
0005f0 11 a9 69 17 d3 4c e5 3f 2e ff 21 fd f6 f5 f4 bf
       0.665628 -1.31005
000600 14 75 e6 1e 12 be e6 3f 25 04 ab ea e5 77 c2 3f
       0.710702 0.144284
000610 ca 1b 60 e6 3b f8 a5 bf 7e 3a 1e 33 50 19 e4 3f
       -0.0429095 0.62809
000620 f5 b8 6f b5 4e 5c d7 bf 45 0d a6 61 f8 08 f7 bf
       -0.365009 -1.43969
000630 d0 d5 56 ec 2f bb ab bf e1 ae 03 8c d3 b5 9b 3f
       -0.0541625 0.0270608
000640 e7 35 76 89 ea ad 02 40 2e ca 6c 90 49 c6 e5 bf
       2.33492 -0.680455
000650 47 ac c5 a7 00 18 f0 3f ec c1 a4 f8 f8 04 eb 3f
       1.00586 0.844357
000660 a3 20 78 7c 7b d7 ea bf 14 b3 5e 0c e5 44 eb 3f
       -0.838804 0.85216
000670 f5 b9 da 8a fd 65 f5 3f ce 33 f6 25 1b 0f d5 3f
       1.3374 0.329047
000680 3d 0b 42 79 1f 47 dc 3f b7 d2 6b b3 b1 12 bf 3f
       0.441841 0.121379
000690 13 d5 5b 03 5b a5 fd 3f d2 e3 f7 36 fd 19 01 40
       1.85287 2.13769
0006a0 2c 00 7c a6 4d 8b 90 bf 01 18 cf a0 a1 4f 23 c0
       -0.0161564 -9.65553
0006b0 68 d0 d0 3f c1 c5 05 c0 55 fb 74 3c 66 a0 fe 3f
       -2.72156 1.91416
0006c0 59 fa d0 05 f5 2d f1 3f a2 d1 1d c4 ce 94 e2 3f
       1.07372 0.580665
0006d0 a1 6a f4 6a 80 d2 da 3f 20 b5 89 93 fb 1d f3 3f
       0.419098 1.19482
0006e0 c9 93 a4 6b 26 9f 05 c0 f0 6d fa b3 1f 29 f4 bf
       -2.70271 -1.26004
0006f0 9e 41 43 ff 04 17 de 3f d9 07 59 16 4c fc d0 3f
       0.470155 0.265399
000700 64 ce 33 f6 25 1b ec bf 3d 7e 6f d3 9f 7d f3 bf
       -0.878314 -1.21817
000710 87 15 6e f9 48 4a d1 bf 8f 71 c5 c5 51 b9 d7 3f
       -0.270159 0.370686
000720 94 fa b2 b4 53 73 ed 3f f0 a7 c6 4b 37 89 d7 3f
       0.920328 0.36775
000730 28 9b 72 85 77 59 13 40 55 18 5b 08 72 10 06 c0
       4.83737 -2.75803
000740 d4 0e 7f 4d d6 a8 f5 3f e3 19 34 f4 4f b0 07 40
       1.35372 2.96109
000750 e7 8d 93 c2 bc c7 ea 3f dd a0 ac ce 20 f4 a6 bf
       0.836882 -0.0448313
000760 44 4c 89 24 7a d9 01 40 53 96 21 8e 75 71 02 c0
       2.23119 -2.3054
000770 43 8d 42 92 59 bd d0 bf 11 57 ce de 19 ed e0 3f
       -0.261557 0.528943
000780 2f 8b 89 cd c7 b5 f8 3f ce 16 10 5a 0f 5f c0 3f
       1.54438 0.127901
000790 d0 ed 25 8d d1 3a f1 bf 89 29 ec fd a1 f4 b6 bf
       -1.07686 -0.0896703
0007a0 f1 a0 d9 75 6f 45 9a bf 92 cb 7f 48 bf fd f5 bf
       -0.0256555 -1.37445
0007b0 4b 04 aa 7f 10 c9 ed bf fa 62 ef c5 17 ed d5 3f
       -0.930794 0.342596
0007c0 4b 00 fe 29 55 a2 94 3f 5a f0 a2 af 20 cd fb 3f
       0.0201505 1.73758
0007d0 7f a4 88 0c ab f8 f4 bf 03 05 de c9 a7 c7 d7 bf
       -1.31071 -0.371561
0007e0 c2 f8 69 dc 9b df d0 bf 08 77 67 ed b6 0b c3 3f
       -0.263648 0.148795
0007f0 fe 9a ac 51 0f d1 d1 bf b2 9d ef a7 c6 8b 01 40
       -0.278385 2.19325
