examples/submissions/2021_ATVA/mnist_nets/A_NS_SET1.onnx (onnx, 30958 bytes, 8 tensors)

Combined_Linear_1_weight f4 [784, 9]
000000 11 93 7f bb 0c 62 c2 3c 01 40 83 ba 94 14 26 b0
       -0.003899757 0.023728393 -0.0010013581 -6.041969e-10
000010 2e 03 8b 3b 1d 27 f0 38 ed d3 72 b2 9c 15 13 3a
       0.0042423224 0.00011451377 -1.413444e-08 0.0005610825
000020 1c f1 a9 3b 1c 5a 55 3c b6 35 35 bb 5f 5a b5 3a
       0.005186213 0.013021972 -0.0027650422 0.0013836137
000030 4d 7e 01 30 77 2c 42 bc 5f bd 12 3a 3e 66 4e b1
       4.710941e-10 -0.011851422 0.00055976765 -3.0035063e-09
000040 c2 fe 26 3b 0a 12 31 3c 5d e7 8e bb 2f 38 39 3c
       0.0025481437 0.0108075235 -0.0043610767 0.011304899
000050 b4 7e 80 ba 84 c1 62 30 71 81 17 bb d8 5a 67 38
       -0.0009803385 8.2493323e-10 -0.0023117925 5.5159297e-05
000060 50 72 8d 32 b2 f7 48 3c 97 0d 65 ba ef 15 4c 3c
       1.6466544e-08 0.012266086 -0.0008737682 0.012456401
000070 7b 98 d1 3b 62 4f 26 bb 95 0b 64 b1 0e 46 da ba
       0.006396351 -0.0025376906 -3.318495e-09 -0.0016652958
000080 7e 11 30 3a de 05 39 32 68 48 09 bb f9 04 a3 ba
       0.0006716474 1.0769751e-08 -0.0020947699 -0.0012437395
000090 1d 77 7e 3b 69 08 ae bb 31 ef 1a 3a 37 d8 c1 af
       0.0038828321 -0.005311061 0.0005910276 -3.5260125e-10
0000a0 79 16 5c 3b 02 fd 96 39 ef d3 04 32 dd 83 46 ba
       0.003358273 0.00028798735 7.731599e-09 -0.000757275
0000b0 ff 4a 78 bb 68 19 0f bb b2 de 88 bc a1 11 af ba
       -0.0037886498 -0.0021835212 -0.016707752 -0.0013356694
0000c0 d1 86 d1 30 15 74 10 bc b3 71 03 3b aa 54 0d 32
       1.5245069e-09 -0.008816739 0.0020056784 8.226531e-09
0000d0 6a a8 d5 ba 4d ff 98 ba cc d6 4b 3c 5f 69 84 bc
       -0.0016300802 -0.0011672765 0.012441348 -0.016163526
0000e0 d6 6d 5d 39 23 ba 88 31 9a 45 71 ba 93 ba f7 3a
       0.0002111712 3.9792822e-09 -0.0009203792 0.0018900208
0000f0 32 2c 84 31 16 d0 1e 3b b5 49 64 3c 54 d4 a3 3b
       3.84673e-09 0.0024232916 0.013933589 0.0049996767
000100 5a 61 b3 bc a7 5e f2 ba a1 af 60 af ab f6 bc ba
       -0.021897007 -0.0018491343 -2.0435077e-10 -0.0014416775
000110 4d a5 98 3a 10 87 38 b2 40 65 80 3b 5c a3 aa bb
       0.0011645943 -1.0740919e-08 0.00391832 -0.0052074622
000120 e1 40 b4 ba ec 7c 44 3b 95 73 a5 ba 1e 3d a9 b0
       -0.0013752246 0.0029981686 -0.0012622947 -1.2313739e-09
000130 d0 52 2c 3c 74 4b 96 3a f1 36 7c b2 83 a4 8c 3c
       0.010517791 0.0011466579 -1.4680823e-08 0.017168289
000140 69 87 f2 ba ef 20 19 3c bb d7 e6 3b 06 eb 3c 39
       -0.001850349 0.009346231 0.00704476 0.0001801663
000150 f3 e2 02 b0 7a a3 0a bc 0d 6b 76 ba e1 71 96 b2
       -4.761624e-10 -0.008461827 -0.0009400107 -1.7514084e-08
000160 8e 7b 68 bb 6b 17 00 3c 08 b5 12 bc 0e 0b 95 bb
       -0.0035474035 0.007818083 -0.008954294 -0.004548437
000170 27 14 fb 3a 05 3e 13 b1 a4 cb 27 bb eb 7d e6 ba
       0.0019155786 -2.142657e-09 -0.0025603557 -0.0017585134
000180 8a 0b 31 32 88 c3 6a 3c 91 8f e7 3a 20 f3 ce bb
       1.030538e-08 0.014328845 0.0017666687 -0.006315604
000190 b9 a4 0d bc dc ab f7 3a e8 96 3e b1 57 8c 41 bc
       -0.00864523 0.0018895823 -2.773442e-09 -0.011813245
0001a0 ce 55 a2 ba 04 f7 4b b2 da 99 38 bb a0 f4 d9 ba
       -0.0012385191 -1.187232e-08 -0.0028167875 -0.001662869
0001b0 8a 92 51 be 3a 08 10 bf f9 dc 19 3a 71 48 96 31
       -0.20466056 -0.5626255 0.00058694143 4.37381e-09
0001c0 75 3e 36 3d b7 d8 9e 38 c2 18 e4 b1 a5 a5 4c be
       0.044493157 7.5743934e-05 -6.638488e-09 -0.19985063
0001d0 1b 73 13 3f 81 99 2e be 28 71 08 bf 6a 9a 0a bb
       0.5759751 -0.17050745 -0.5329766 -0.0021149167
0001e0 83 6e 6b 30 e2 ce 68 3c ac 5f 23 bb e0 3d e1 b2
       8.564955e-10 0.014209481 -0.002492885 -2.6221585e-08
0001f0 bc 89 0a 3d 97 23 22 3f ae 3b b5 3d 02 dc 3b be
       0.03382276 0.63335556 0.088492736 -0.18345645
000200 6f 0a f8 b9 d5 a5 1b b0 f8 05 68 be 5d 81 fa b9
       -0.0004731002 -5.6624333e-10 -0.22658527 -0.000477801
000210 91 c6 75 b2 a0 87 59 3e 95 6b 1a 3f 21 ac 8e 3c
       -1.4306026e-08 0.21243143 0.6032041 0.017416062
000220 32 45 1b bd 4d a0 0a bb 88 71 96 30 d4 78 39 be
       -0.037907787 -0.0021152676 1.0946204e-09 -0.18112499
000230 0d d9 96 3a e9 2f 40 b2 fa 92 ac 3d 27 85 02 3f
       0.0011508778 -1.1186764e-08 0.08426471 0.50984424
000240 62 e6 a6 3a 3c 4d 8f bc 2f a6 69 b6 7e 05 42 b1
       0.0012733454 -0.017492883 -3.4816437e-06 -2.8233837e-09
000250 68 8a 0f 3c ba 35 1c bb 5f 6e 06 b2 57 97 bd 3b
       0.008761026 -0.0023835734 -7.824922e-09 0.0057858634
000260 17 d2 53 3b 14 a7 b5 ba f4 5c e2 bb 37 22 a3 3a
       0.0032321268 -0.0013858997 -0.0069080535 0.001244611
000270 75 01 41 2f db eb 84 bb 08 15 b3 ba c0 b9 d1 31
       1.7553765e-10 -0.0040564365 -0.0013662884 6.103818e-09
000280 a4 c8 b6 ba 0a 97 a5 3a a4 be a1 3b 4c 0d 46 bb
       -0.0013945294 0.0012633514 0.004936056 -0.0030220328
000290 56 dd af ba 5d 14 8d 31 97 73 95 bc 31 0a 8a 3a
       -0.0013417404 4.105955e-09 -0.018243594 0.0010531602
0002a0 b7 2a 23 32 89 21 0c 3c 21 9d fe ba 4d c5 58 3b
       9.497561e-09 0.008552917 -0.001942549 0.0033076585
0002b0 01 10 0d 3c 38 dc 8b ba 22 96 49 b1 64 34 b2 bc
       0.008609773 -0.0010670489 -2.933469e-09 -0.021753497
0002c0 ec 9d 98 ba 20 6d 35 32 ef 39 29 ba 52 b8 c6 3b
       -0.0011643744 1.0560399e-08 -0.0006455471 0.006064453
0002d0 3c ca fc bb df 56 66 3b a0 ff a1 ba aa 96 38 30
       -0.007714538 0.0035146994 -0.0012359507 6.7152917e-10
0002e0 de 90 ab 39 07 b3 08 3b 95 20 39 32 d1 55 df 3b
       0.00032723596 0.0020858662 1.0775826e-08 0.00681565
0002f0 e2 f3 97 ba 81 d6 a1 bb 7a 25 44 3b b1 d4 f6 38
       -0.0011593068 -0.004938901 0.0029929564 0.00011769811
000300 28 d4 35 b1 cc b6 4b bc af 34 3f 3a ee 21 80 b2
       -2.6459563e-09 -0.012433719 0.0007293922 -1.491659e-08
000310 49 a7 c3 bb 1b cf 89 3b 88 50 ec bb dd 78 32 3c
       -0.0059708697 0.004205597 -0.0072117485 0.010893074
000320 36 f5 b6 3a 29 f2 db b0 e0 92 e0 ba c7 c3 da 3a
       0.0013958577 -1.6003173e-09 -0.0017133616 0.0016690426
000330 76 5e 2b b2 f6 40 fb b9 25 9c 29 bc 0e 9a 9a bc
       -9.974988e-09 -0.0004792285 -0.010352169 -0.018872287
000340 78 9a ef 3b 6d 29 88 ba 93 8c 8c 30 78 99 99 bb
       0.0073121153 -0.0010388322 1.0226294e-09 -0.0046874844
000350 aa 92 1c 3a fb 46 64 b2 fe 23 40 bb 65 c5 b3 3a
       0.00059727824 -1.3287486e-08 -0.0029318328 0.0013715444
000360 01 01 a6 bb f3 1e a3 bb bc 77 58 39 5c b8 29 b1
       -0.0050660376 -0.0049780547 0.0002064397 -2.4697533e-09
000370 db 8d 38 3b d3 73 a7 3a 94 6b b5 b2 b9 87 ce 3b
       0.0028160724 0.0012775607 -2.1120094e-08 0.0063028005
000380 70 b4 0d 3c 1f 77 63 bc 43 44 89 bb 33 d2 81 3a
       0.008648977 -0.013883381 -0.0041890456 0.0009904563
000390 94 00 9b 31 e9 5d 2f bc 3c 34 9e 39 6a fe e1 b0
       4.5111594e-09 -0.010703542 0.00030175026 -1.6443213e-09
0003a0 62 26 9d 39 82 0a 3c 3c 03 f9 28 3b 07 ab b5 3c
       0.0002997397 0.011477115 0.0025783188 0.022176279
0003b0 09 59 db b9 88 4e 45 b0 15 55 11 3c bf bc f9 3a
       -0.0004183727 -7.177978e-10 0.008870383 0.0019053443
0003c0 56 01 84 b1 69 6f 87 3a 77 15 7d 3c ec 8a 13 3c
       -3.8418575e-09 0.0010332885 0.015447012 0.0090052895
0003d0 04 a3 f3 bc 40 93 27 b9 ed 59 9a 30 bb b9 37 3c
       -0.029740818 -0.00015981216 1.1230533e-09 0.011213715
0003e0 24 90 a9 39 ea 11 13 32 4a 02 24 bc 5a ad 60 3c
       0.00032341585 8.560599e-09 -0.010010311 0.013713205
0003f0 a3 d3 cc bb bb b8 6e 3b 08 3a fe 39 20 8d 52 31
       -0.006250815 0.0036426026 0.00048489892 3.0639242e-09

Combined_Linear_1_bias f4 [9]
000000 58 72 d0 41 9a a3 35 42 fc 28 06 41 aa fb a9 bf
       26.055832 45.409767 8.385006 -1.3279927
000010 46 f0 b1 c1 b0 4e 20 c0 d6 5c 91 bf 3e a5 97 40
       -22.242321 -2.5048027 -1.1356456 4.738921
000020 76 cc cb 41
       25.474834

Combined_Linear_3_weight f4 [9, 13]
000000 0d 5c 86 33 5d 00 57 3c d8 94 b7 b3 5d e3 84 3c
       6.256605e-08 0.013122645 -8.548676e-08 0.016221697
000010 59 0c 26 bd 52 a1 87 b8 e7 22 74 ba 46 f3 02 40
       -0.04053912 -6.46735e-05 -0.0009313062 2.0460982
000020 6f 7a e2 39 05 8e 83 bb 21 a3 46 b3 46 92 01 bc
       0.000431973 -0.004014733 -4.6248832e-08 -0.007908409
000030 bf 65 4d 3c de 84 98 b3 45 af da bf 21 1d 99 33
       0.012536465 -7.10222e-08 -1.7084738 7.129916e-08
000040 c2 e7 d7 3c c9 1b 85 3a 2e f3 ae b8 d3 9d 3e 3b
       0.026355628 0.0010155375 -8.342262e-05 0.002908577
000050 f8 d8 67 3d a6 f8 69 bb 84 91 4a bc 52 8b 97 33
       0.056603402 -0.0035701185 -0.012363795 7.056828e-08
000060 90 a2 91 bd ec 39 d1 3a c4 3a 38 b3 43 8a 50 bc
       -0.071110845 0.0015962697 -4.2894285e-08 -0.012728277
000070 d9 d2 99 33 a3 35 51 3c 0e 13 b6 3b d9 89 91 37
       7.162971e-08 0.012769136 0.0055564707 1.7349537e-05
000080 48 5c 80 ba 8c fa b8 ba 44 4b 05 bb 83 2d 57 bb
       -0.0009793127 -0.0014112755 -0.0020339051 -0.0032833524
000090 76 1c 0b b2 d3 32 81 bc 94 39 c7 bc 3c 97 7e b1
       -8.097336e-09 -0.015771305 -0.024319448 -3.7047831e-09
0000a0 ef 56 7c ba db 42 02 32 05 cc bd bc ca 73 dc bb
       -0.0009625991 7.582197e-09 -0.023168573 -0.0067276703
0000b0 31 0c 1f b8 45 7d 90 3a a7 43 8c bd 8b 3c a0 39
       -3.791991e-05 0.0011023661 -0.06848841 0.00030562686
0000c0 e2 bb 84 3b bd 02 3b b2 46 59 78 3b d5 28 6f bb
       0.0040507177 -1.0885455e-08 0.0037895008 -0.0036492844
0000d0 3f 3e 95 33 0b 0e 9b bd 7e cb 00 b3 0f 6c c9 bf
       6.949676e-08 -0.07571038 -2.9987397e-08 -1.5736102
0000e0 e4 a0 61 3d cd 06 08 b8 b1 f3 02 3b ec 04 ec 3c
       0.055085078 -3.243126e-05 0.0019981677 0.02881094
0000f0 85 95 44 3a c3 1a 74 3b 81 75 fc b2 e4 a9 6d bd
       0.0007499087 0.0037247397 -2.9390096e-08 -0.05802335
000100 f1 eb 4d 3d ee 5a c9 b2 7c 11 8d 3c fb 83 2d b1
       0.05027384 -2.344083e-08 0.017220251 -2.5249836e-09
000110 2c 2f b6 bb 7c ae 83 bb b9 cd 12 b8 4a a3 3c 3a
       -0.0055598225 -0.004018603 -3.5000707e-05 0.0007195963
000120 45 64 74 bc 2c 7d ee 39 b3 de bb ba 7c eb 1e 33
       -0.014916484 0.00045488158 -0.0014333337 3.7001413e-08
000130 94 83 0a 3c e0 a1 f2 bb 2c dd 38 b3 2e f0 22 bb
       0.008454222 -0.007404551 -4.3041993e-08 -0.0024862397
000140 10 db 30 32 67 64 7e bb 45 00 5f bb fc 79 8c b7
       1.0294357e-08 -0.0038817169 -0.003402726 -1.6746104e-05
000150 35 16 79 3a b3 3e a0 3b 1c 07 ad 39 c7 90 0c 3a
       0.00095019053 0.004890287 0.00033002428 0.00053621497
000160 19 3d c7 b2 8e 4a 52 3c 6c 68 ab 3b 26 ac 1a b4
       -2.3194433e-08 0.012835158 0.005230954 -1.4404995e-07
000170 c5 05 d3 bc 26 fa 80 33 22 1d 6d bc 64 89 3d bc
       -0.025759587 6.005966e-08 -0.014472278 -0.011568401
000180 88 57 7e 38 d6 5a 1a bb 67 ab 59 bb b2 32 f7 3a
       6.063984e-05 -0.0023552678 -0.0033213736 0.0018859713
000190 e8 ea 3e 3c ac d6 73 b3 56 12 8d 3f 3b df 2d bd
       0.011652686 -5.677309e-08 1.1021221 -0.042449217
0001a0 29 34 3c b3 ea 0e 66 bc 10 ab 82 b2 48 72 03 3d
       -4.38196e-08 -0.014041642 -1.5211782e-08 0.03209141
0001b0 33 af 6c bb 31 16 61 b9 47 eb 94 3b 58 59 9f bc
       -0.003611517 -0.00021465939 0.004544649 -0.019451782
0001c0 91 b3 cc bb 76 81 71 38 37 f0 8a b3 9d 44 19 3c
       -0.006246992 5.7579447e-05 -6.4698206e-08 0.009354738
0001d0 84 d6 c1 bf
       -1.514359

Combined_Linear_3_bias f4 [13]
000000 b8 4a 03 bf 4e 43 ce 41 22 dd 5a c0 13 a4 d6 41
       -0.51285887 25.782864 -3.4197469 26.830114
000010 a5 d5 36 c0 ee f6 c3 40 c7 aa 94 40 67 a7 df c0
       -2.8567898 6.123893 4.645847 -6.989185
000020 68 6c b6 40 7c d7 df 40 6a 25 85 bf f0 04 1a 40
       5.700733 6.9950542 -1.0402043 2.4065514
000030 e4 72 eb 41
       29.431099

Combined_Linear_5_weight f4 [13, 5]
000000 30 e7 7b 3b 7c 58 b6 ba 83 90 87 b9 84 ea 21 b9
       0.003843736 -0.0013911868 -0.00025856876 -0.0001544152
000010 6e ff 9b 3b 50 63 f4 bc dc 69 39 3e ea cf 93 bd
       0.004760674 -0.029832512 0.18106788 -0.07217391
000020 fc 3c 48 bc 94 58 17 bd be cb 45 bb 0e a1 82 3a
       -0.012221571 -0.03694971 -0.0030181254 0.0009966211
000030 fa 4c 00 3b 4e 7b 7c 3a 85 3d 0f bb 64 45 20 3e
       0.0019577132 0.0009631411 -0.0021856737 0.1565147
000040 c4 e1 cf bc 23 bf c1 3c 07 24 e9 3c 77 49 d2 3b
       -0.025376208 0.023650711 0.028459562 0.006417449
000050 af 04 07 b9 f6 a7 c1 37 66 8d 09 bb 37 ae 7b b7
       -0.00012876348 2.3085606e-05 -0.002098882 -1.5001328e-05
000060 c2 17 f6 3a 2a 4c cc b7 0f d0 3f b8 e3 86 31 b7
       0.0018775391 -2.4354162e-05 -4.573172e-05 -1.0581428e-05
000070 c2 9a 68 38 96 db c9 38 ae 9b d7 38 8f ce a6 b8
       5.545724e-05 9.625328e-05 0.000102809965 -7.953971e-05
000080 11 49 8e b8 3f 7c 24 b9 b9 3f cd b9 6c 55 2f 3b
       -6.784697e-05 -0.00015686544 -0.00039148124 0.0026753796
000090 c7 d5 c7 bb 87 50 ed bb e5 ae 28 3b 7d 99 7a be
       -0.0060984823 -0.0072422656 0.002573901 -0.24472614
0000a0 1c b8 20 b9 3d 6e 0a 38 bf 66 03 b9 fc 61 75 b6
       -0.00015327375 3.300443e-05 -0.0001253141 -3.656488e-06
0000b0 58 0e 98 b8 a3 be fa b8 8c 0b 3a 3a d8 b1 61 b8
       -7.2505965e-05 -0.00011956438 0.00070970575 -5.380981e-05
0000c0 dc 44 a7 39 87 5b 3a b8 95 6d 4e 3a 59 6b e6 3a
       0.00031904026 -4.4431097e-05 0.00078746054 0.00175796
0000d0 94 c8 4b 39 b9 24 9d 3b 79 7d 15 ba ad b6 82 bb
       0.0001943431 0.0047956374 -0.0005702596 -0.003989062
0000e0 02 80 7d bc f5 29 a3 3e 36 dd 65 3b 62 66 4d 3b
       -0.015472414 0.31867948 0.003507448 0.0031341542
0000f0 50 66 e4 bb 89 83 cb 3c 2c 92 09 bd 62 9e 7f be
       -0.0069702044 0.024842994 -0.033586666 -0.24962762
000100 e5 39 c8 bc
       -0.024441669

Combined_Linear_5_bias f4 [5]
000000 a8 c8 0e bf a0 76 54 3d f2 58 45 c0 41 61 14 40
       -0.5577493 0.051870942 -3.0835538 2.318436
000010 95 e6 29 40
       2.6546986

Linear_7_weight f4 [5, 10]
000000 21 7b 12 c0 09 df 7f 40 f8 28 c9 3f 9a c7 94 40
       -2.2887652 3.997988 1.5715628 4.6493654
000010 da 48 ad c0 12 9f e2 3f bb 5a e3 bf 11 24 82 c0
       -5.415143 1.7704794 -1.7762064 -4.0669026
000020 10 a2 35 40 40 21 cc bf d8 0e cb be 62 4f 63 40
       2.8380165 -1.5947647 -0.39659762 3.5517201
000030 1e 87 97 40 17 dd 6b bf 7c ee 84 3f 70 0e 9a bf
       4.735244 -0.9213423 1.038528 -1.2035656
000040 82 05 9d 40 54 fb f3 bf a8 ae b3 3f b0 1e 05 c0
       4.9069223 -1.9061074 1.4037676 -2.079998
000050 e5 cf ff 3f b7 d6 4a c0 6c 94 7d be 0c 66 24 c0
       1.9985319 -3.1693552 -0.2476365 -2.5687284
000060 bf 8c db 3f 5c 44 f4 3f 93 5b 7b 40 47 01 c2 c0
       1.7152327 1.9083362 3.9274642 -6.062656
000070 1b 6f 1d 40 da 54 35 bc 52 2e 96 40 41 0f e5 bf
       2.4599063 -0.0110675935 4.6931543 -1.789528
000080 26 fe a5 40 cc ef 47 3f 86 02 4f c0 0b 2e bc be
       5.187274 0.78100276 -3.234529 -0.36753878
000090 88 e1 97 3f 90 08 75 40 75 92 8e 3e 99 44 0b 3e
       1.1865702 3.8286476 0.27846113 0.13600387
0000a0 f7 6e 70 c0 c0 ed 2b 40 c3 8e 88 bf 77 48 71 bf
       -3.7567728 2.686386 -1.0668567 -0.942512
0000b0 bf f0 55 40 cd f1 4a c0 7f 7d 66 c0 db d2 8e 40
       3.342819 -3.1710083 -3.6014097 4.463239
0000c0 96 ed e0 3f cb 4f a0 40
       1.7572505 5.0097404

Linear_7_bias f4 [10]
000000 31 74 28 40 38 ee 97 c0 7b 1a ae c0 3f e4 30 40
       2.6320918 -4.7478294 -5.4407325 2.763931
000010 30 b5 36 40 0d 5b 92 40 20 6a 7b c0 5f e2 b9 40
       2.8548088 4.5736146 -3.9283524 5.808883
000020 8d 39 7a c0 8b 54 fa 3f
       -3.9097626 1.955705
