examples/submissions/2023_SoftComputing/data/ACAS XU/Networks/ACAS_XU_3_9.onnx (onnx, 108361 bytes, 14 tensors)

FC0_bias f8 [50]
00000000: fee2 0808 9c5b 9f3f 0b62 a06b 5f40 cf3f
00000010: 665c 829d ac62 8b3f d214 a694 7c91 9d3f
00000020: 8f6f ef1a f425 e1bf ba12 81ea 1f44 babf
00000030: ae9b 525e 2ba1 e4bf 80b7 4082 e2c7 dcbf
00000040: 184c b2c4 b93c 9cbf ae1a 3a2c c36e 96bf
00000050: 7362 b433 f1b3 86bf 62dc 0da2 b522 e8bf
00000060: a9db d957 1ea4 cd3f 465e d6c4 02df e43f
00000070: e84e 6ee3 68f1 56bf d5b2 b5be 4868 e1bf
00000080: 5d89 40f5 0f22 a5bf 7099 d365 31b1 dfbf
00000090: f46e 2c28 0cca d2bf 1590 f63f c0da e0bf
000000a0: 6a7b 05b3 53bd 96bf 78d1 5790 662c d8bf
000000b0: 22b2 fe85 d4a3 af3f dd5b 9198 a086 cd3f
000000c0: 0169 ff03 ac55 d9bf f8d4 fbd7 03f7 9d3f
000000d0: e7e2 6f7b 82c4 c63f e7c0 17cb 9992 b9bf
000000e0: 809a 5ab6 d617 e3bf 09e1 d1c6 116b cd3f
000000f0: 79cd ab3a ab05 cabf e4c0 abe5 ce4c bc3f
00000100: f5da 6cac c43c bb3f 3160 c955 2c7e c3bf
00000110: 9a59 f047 f6ad 9bbf dc62 7e6e 68ca be3f
00000120: 55cd 6218 6657 a43f 081c 0934 d8d4 b93f
00000130: 33ba cd65 b49f 9e3f 9580 9884 0b79 c03f
00000140: f588 2c2d 7eae b7bf eb64 1d4c 9200 583f
00000150: e4f8 a1d2 8819 e2bf d452 2fae a70c 9abf
00000160: d25c 5d04 7c6d 94bf 3d2c d49a e61d bbbf
00000170: 1991 28b4 acfb d8bf 2044 32e4 d87a d0bf
00000180: d3a3 a99e cc3f c0bf 0073 2d5a 80b6 cdbf
0.0306229 0.244152 0.0133718 0.0288753 -0.535883 -0.102602 -0.644674 -0.4497
-0.0275754 -0.0219069 -0.0110854 -0.754237 0.231571 0.652223 -0.00140033 -0.54398
-0.0412755 -0.49519 -0.293582 -0.526703 -0.0222066 -0.37771 0.0617968 0.230671
-0.395854 0.0292626 0.177872 -0.0998932 -0.59666 0.22983 -0.203298 0.110547
0.106396 -0.152288 -0.0270308 0.120276 0.0397293 0.100904 0.0299061 0.128694
-0.0925063 0.00146498 -0.565617 -0.0254389 -0.0199489 -0.105925 -0.390361 -0.257498
-0.126947 -0.232132

FC0_weight f8 [5, 50]
00000000: e9b7 af03 e78c c43f 80f3 e2c4 573b ba3f
00000010: fbcc 599f 724c 963f bd7a 0da8 d478 83bf
00000020: a0ac 314b af8b 823f 8c30 45b9 347e d5bf
00000030: 1a97 6027 abd8 aabf d657 5705 6a31 c43f
00000040: f3ba 1326 6b58 843f f01b db42 c2bd 733f
00000050: 4d7a 2986 f590 aebf 01a0 2f62 4447 a73f
00000060: d062 2992 af84 e73f fe0e 4581 3ed1 0140
00000070: 1af8 510d fb3d 993f bdd6 efd3 02c5 a9bf
00000080: 85d1 ac6c 1ff2 96bf 5565 845c 4eae 9ebf
00000090: f93d 1cea 986f 643f a02b d7fc 7413 773f
000000a0: 1657 f036 ca55 afbf 303b 7ab2 518c a23f
000000b0: 1781 b1be 81c9 c3bf d49b 51f3 55f2 ad3f
000000c0: 058c 2e6f 0ed7 d73f 39d1 ae42 ca4f ae3f
000000d0: 676b 3304 b639 a8bf 97c3 9382 1376 b23f
000000e0: 1981 4623 7e49 733f 300d c347 c494 bc3f
000000f0: 4d5f 741e ba45 b5bf 210c 97b0 917f 91bf
00000100: 1b4b 581b 6327 c0bf a3bd b0eb cd5e b83f
00000110: 78fd 3850 9610 9abf 58d0 0f7e 3dba acbf
00000120: 29b7 6943 30d4 723f 3bfd a02e 5228 c73f
00000130: 9cd0 35dd fcd0 9ebf 1bfb ed46 7aac 943f
00000140: 7e18 213c dab8 f1bf c7f6 5ad0 7b63 b0bf
00000150: b953 3a58 ffe7 03c0 deb7 109a 136a 943f
00000160: e733 4525 1a49 b53f d025 1c7a 8b87 e6bf
00000170: 390f 2730 9dd6 c5bf 6e73 79a8 f345 173f
00000180: f817 4163 2651 bf3f 753d d175 e107 c33f
00000190: e4a0 8499 b6ff febf 4b93 52d0 eda5 f73f
000001a0: e4f5 6052 7cfc e93f 1556 2aa8 a87a e03f
000001b0: b532 e197 fa79 efbf f2b5 6796 04a8 03c0
000001c0: a2d1 1dc4 ce14 fc3f 5261 6c21 c8c1 f9bf
000001d0: 6358 6a62 26f6 85bf 529a cde3 3098 973f
000001e0: e6e5 b0fb 8ee1 cf3f 3f70 9527 1076 b2bf
000001f0: 05b2 6c20 3c5e 81bf 6688 635d dc46 a3bf
00000200: 03ee 79fe b4d1 e23f 65aa 6054 52a7 f23f
00000210: dc68 006f 8104 d3bf 54c9 0050 c58d d93f
00000220: 427b f5f1 d077 cfbf e3c7 98bb 9610 f7bf
00000230: d3f9 f02c 41c6 e1bf 9643 8b6c e7fb f63f
00000240: eca1 7dac e0b7 e93f dae7 31ca 332f d3bf
00000250: 69c8 7894 4af8 eb3f 21ac c612 d6c6 df3f
00000260: 0057 b263 2390 f1bf 2db2 9def a746 0040
00000270: d61c 2098 a3c7 f3bf cf87 6709 3202 ddbf
00000280: 8109 dcba 9ba7 fd3f 6ad9 de97 c83f 723f
00000290: c66d 3480 b740 e4bf 0057 b263 2310 f4bf
000002a0: 5fb5 32e1 977a edbf dcd6 169e 970a e3bf
000002b0: f86f 5e9c f86a e93f 5a84 622b 685a cabf
000002c0: 7b4b 395f ec3d e5bf 5b94 d920 930c e2bf
000002d0: d7a2 0568 5bcd babf e87d 88b2 5cdb a4bf
000002e0: 7a36 ab3e 575b cbbf 4f95 6be1 e444 4c3f
000002f0: 59a3 1ea2 d19d f5bf abb3 5a60 8f89 c43f
00000300: 6e4c 4f58 e281 0240 a73f fb91 22b2 ffbf
00000310: 6d1c b116 9f82 f1bf b476 db85 e63a f7bf
00000320: cf83 bbb3 765b 0140 2310 afeb 176c fcbf
00000330: f08a e07f 2bd9 b93f b6f8 1400 e319 fa3f
00000340: c85e effe 78af f13f fd4d 2844 c021 0440
00000350: 205e d72f d80d 01c0 abb2 ef8a e0ff f43f
00000360: c916 9348 ec24 8cbf a079 317b 764c 6fbf
00000370: 5376 fa41 5da4 db3f 567f 8461 c092 cb3f
00000380: 9ef3 aed5 79af 85bf d4ad e820 f994 a53f
00000390: 828f c18a 532d eb3f c381 902c 6082 f6bf
000003a0: 7236 1d01 dc2c eebf bb98 66ba d749 d1bf
000003b0: ab95 09bf d4cf f03f 42b2 8009 dc3a ff3f
000003c0: 3350 19ff 3e63 f5bf e65c 8aab cabe fcbf
000003d0: c2c1 dec4 901c ef3f cc63 cdc8 2077 de3f
000003e0: 11c7 bab8 8d86 eebf 18d0 0b77 2e8c 84bf
000003f0: 76e3 dd91 b1da dbbf 3a3e 5a9c 31cc d23f
00000400: a9d9 03ad c090 f93f 6b60 ab04 8b43 f23f
00000410: 1eb3 a2bc 4516 97bf 7911 5c9b 7c69 a0bf
00000420: c107 0a17 4dc2 90bf 22e0 10aa d4ec f6bf
00000430: 9fcc 3ffa 264d e2bf d55c 6e30 d461 e7bf
00000440: 69a9 bc1d e1b4 d03f 3dee 5bad 1397 e03f
00000450: a33b 889d 2974 bebf a88d ea74 20eb e23f
00000460: 2c22 2f10 a90e b0bf fa70 1cba d1ae 6f3f
00000470: 5dfe 43fa edeb c23f 71d1 7fc5 d0a0 573f
00000480: 0020 8205 8b1e b3bf c7bc 8e38 6483 eb3f
00000490: 8599 b67f 65e5 06c0 ef1b 5f7b 66c9 0040
000004a0: 6f27 b627 edb2 94bf 8d46 3eaf 78ea dc3f
000004b0: 4703 780b 2428 c23f 9a3f a6b5 696c c13f
000004c0: 363f fed2 a23e e33f ef37 da71 c3ef c2bf
000004d0: bfe8 3c74 8b0a b8bf 7cd2 8904 53cd 8cbf
000004e0: 6662 5f57 38ee b1bf 7afe b451 9d0e bc3f
000004f0: f8a3 4d7a 843f 883f c7b7 ba4e f160 153f
00000500: c494 48a2 9751 dcbf 2c02 ad0a 1ef0 b4bf
00000510: e980 24ec db49 c23f 0266 be83 9f38 983f
00000520: f7c7 7bd5 ca84 db3f 0b95 2474 3c0b b5bf
00000530: 7469 b235 11ec b43f 9939 6e42 6b8f 90bf
00000540: 83de 1b43 0070 acbf 774c dd95 5d30 c6bf
00000550: f356 5d87 6a4a e03f 096e a46c 91b4 d13f
00000560: 2fdc b930 d28b e73f c3b6 4599 0d32 f13f
00000570: 2536 c41d 1439 813f 5da3 e540 0fb5 c73f
00000580: ae29 90d9 59f4 e03f e9d4 95cf f23c c03f
00000590: 6571 ff91 e9d0 c1bf ccb8 a981 e673 dd3f
000005a0: 758c d074 1b79 953f 6ce8 667f a0dc d43f
000005b0: 2618 ce35 ccd0 dfbf 69fe 98d6 a6b1 c53f
000005c0: edbb 22f8 df4a d93f 0c02 2b87 16d9 d6bf
000005d0: 8f1a 1362 2ea9 bebf d82e 6d38 2c8d e4bf
000005e0: 726b d26d 895c d1bf 8599 b67f 65a5 dbbf
000005f0: a210 5c40 c3f6 ae3f 8e3c 1059 a489 e6bf
00000600: 9abc b7d8 a326 903f d75f c0dc 3873 91bf
00000610: 925b 936e 4be4 b83f d009 a183 2ee1 d03f
00000620: 861c 5bcf 108e c3bf adc0 90d5 ad1e ef3f
00000630: 3b1d c87a 6a75 e73f 06d9 b27c 5d86 d43f
00000640: e6cb 0bb0 8f4e dd3f addf 4c4c 17e2 e4bf
00000650: 321e a512 9ed0 e4bf d5af 743e 3c4b c83f
00000660: 6748 15c5 abac c73f c6c4 e6e3 da50 e9bf
00000670: dd95 5d30 b8e6 e13f 67b8 019f 1f46 cebf
00000680: b9ef 62ab 15b7 4bbf 7b1c fe81 0fb1 833f
00000690: 00df 1225 c6d7 b7bf 85b6 9c4b 71d5 fdbf
000006a0: ddf4 c2f8 c495 b43f 9351 0a5f 0432 a43f
000006b0: c34e 0c24 8337 a7bf 7a6d 3656 629e d03f
000006c0: ebb8 2b05 ee8a b23f 1e33 5019 ffbe f1bf
000006d0: 0a4a d1ca bd40 e5bf b533 4c6d a983 e43f
000006e0: 581e a4a7 c821 d5bf e7c4 1eda c78a e3bf
000006f0: acc4 3c2b 6945 e9bf ac1c 5a64 3bdf f1bf
00000700: 3a40 3047 8fdf c53f bf7e 880d 164e d83f
00000710: 4702 0d36 751e cdbf 2f30 2b14 e97e c2bf
00000720: 809a 5ab6 d617 d93f da1f 28b7 edfb e0bf
00000730: e7c2 482f 6af7 e5bf 42b9 c898 1650 b93f
00000740: 2063 ee5a 42be e33f 228d 0a9c 6c03 d23f
00000750: 79e5 7adb 4c85 d3bf 2b20 a3f2 6558 ab3f
00000760: 781a 7ad5 1412 ae3f 7828 0af4 893c e73f
00000770: 9a76 d613 025e 8b3f fdc1 c073 efe1 dd3f
00000780: 0508 d5bc 9987 a6bf 4e9a 0645 f380 e63f
00000790: 02cd 316a 08d8 90bf 017a 4c6a 8911 693f
000007a0: 206c 674e 4d38 a2bf e4f8 a1d2 8899 c33f
000007b0: 5985 cd00 17e4 ec3f e2ae 5e45 4687 ebbf
000007c0: 5915 e126 a34a ebbf 9700 fc53 aa44 dcbf
0.16055 0.102468 0.021776 -0.00950781 0.00905549 -0.335828 -0.0524343 0.157758
0.00993427 0.00481964 -0.0596997 0.0454656 0.734947 2.22717 0.0246505 -0.0503312
-0.022408 -0.0299618 0.00249462 0.00563379 -0.0612014 0.0362268 -0.154587 0.0584895
0.372501 0.0592025 -0.0473153 0.0721142 0.00470876 0.111645 -0.0830952 -0.0170882
-0.126202 0.0951966 -0.0254539 -0.0561084 0.00459689 0.180918 -0.0300941 0.0201892
-1.10763 -0.064018 -2.48828 0.0199359 0.0831467 -0.704046 -0.170612 8.87804e-05
0.122332 0.148678 -1.93743 1.47801 0.812071 0.514973 -0.98364 -2.45704
1.75508 -1.60981 -0.0107234 0.0230415 0.249071 -0.072114 -0.00848052 -0.03765
0.588099 1.16585 -0.29715 0.399278 -0.245844 -1.44155 -0.555451 1.4365
0.803696 -0.299756 0.874059 0.496511 -1.09769 2.0345 -1.23624 -0.453259
1.85342 0.00445536 -0.6329 -1.25394 -0.921215 -0.595043 0.794308 -0.205884
-0.663809 -0.564035 -0.104696 -0.0407361 -0.213725 0.000862705 -1.35103 0.160448
2.31342 -1.98099 -1.09439 -1.45188 2.16966 -1.77639 0.10097 1.63132
1.10534 2.51648 -2.13176 1.31247 -0.0137423 -0.00382064 0.431907 0.215416
-0.0105886 0.0421522 0.849283 -1.40683 -0.942976 -0.270132 1.05074 1.95187
-1.33673 -1.79658 0.972237 0.476021 -0.953925 -0.010033 -0.435223 0.293713
1.59784 1.14149 -0.0225459 -0.0320548 -0.0163662 -1.43282 -0.571918 -0.730692
0.26104 0.518442 -0.11896 0.591202 -0.0627237 0.00386754 0.147825 0.00144215
-0.0746848 0.859789 -2.86201 2.09834 -0.0202138 0.451811 0.14185 0.136121
0.601396 -0.147942 -0.0939109 -0.0140635 -0.0700412 0.109598 0.0118399 8.15532e-05
-0.44248 -0.0817889 0.142879 0.0236535 0.42998 -0.0822027 0.0817271 -0.0161721
-0.055542 -0.173351 0.509084 0.276646 0.735818 1.07472 0.00840965 0.185213
0.529828 0.12686 -0.139188 0.460199 0.0209698 0.325966 -0.497119 0.169484
0.395195 -0.357 -0.119769 -0.642233 -0.271273 -0.43197 0.0604764 -0.704302
0.0157724 -0.0170411 0.0972335 0.263744 -0.152773 0.972495 0.733083 0.320701
0.45792 -0.652599 -0.650466 0.189796 0.184957 -0.79112 0.559414 -0.236515
-0.0008458 0.00961506 -0.0931362 -1.86461 0.0804103 0.0394441 -0.0453454 0.259667
0.0724324 -1.10913 -0.664153 0.641072 -0.330187 -0.610691 -0.789723 -1.117
0.170885 0.379766 -0.227492 -0.144498 0.39208 -0.530753 -0.686452 0.0988783
0.616975 0.281459 -0.305011 0.0534088 0.0587317 0.72614 0.0133629 0.466915
-0.0440033 0.703241 -0.0164491 0.00306012 -0.0355858 0.153123 0.902843 -0.860263
-0.852861 -0.441691

FC1_bias f8 [50]
00000000: f5be f1b5 6716 f23f fe8f 5db3 a6c3 94bf
00000010: 984c 158c 4a6a f93f 3277 2d21 1ff4 febf
00000020: 61fa 038a fd0a 96bf 94a4 6b26 df6c f0bf
00000030: e2ab 1dc5 39ea d73f 3302 85d5 b37b 95bf
00000040: 0c22 52d3 2ea6 c13f 86aa 984a 3f61 ef3f
00000050: 4512 bd8c 62b9 fb3f 5bc3 561a 42df a7bf
00000060: 6d36 5662 9e95 d23f 390f 2730 9dd6 d9bf
00000070: a5d8 d138 d4ef 92bf c0ab 8a15 dade 9bbf
00000080: 23ad e75a 6a73 a2bf 3676 89ea ad81 95bf
00000090: 5771 4ffc bdb9 a0bf 83a2 7900 8bfc 92bf
000000a0: 3d61 8907 94cd f4bf bdfb e3bd 6a65 f03f
000000b0: ad5d c944 0026 9fbf b1fc f9b6 60a9 e0bf
000000c0: 8b89 cdc7 b5a1 d33f 973a c8eb c1a4 ca3f
000000d0: 75fd 2724 3e1c 89bf dc8b 1eae 8b91 8bbf
000000e0: 45e8 b177 90e8 9fbf 8ec5 dbef f55a 95bf
000000f0: a9ae 3209 cd64 96bf 1b9c 887e 6d7d ec3f
00000100: 86ea 419c e2cc 8abf 0a9d d7d8 25aa 87bf
00000110: 34a2 b437 f842 f03f ae7e 6c92 1ff1 d2bf
00000120: 87dc 0c37 e0f3 f73f 1479 9274 cde4 ddbf
00000130: 9387 2aa1 606b 93bf 8a2e 5ee2 7e76 86bf
00000140: e4ba 29e5 b512 ccbf 81ec f5ee 8f77 f8bf
00000150: 4f78 094e 7d20 89bf 5c1f d61b b5c2 cabf
00000160: ef1a f4a5 b7bf e73f ff9d 488b 8e3f 8cbf
00000170: e0ee 5124 0450 91bf 4298 dbbd dc27 d8bf
00000180: 1059 a489 7780 87bf a035 3ffe d2a2 e73f
1.13047 -0.0202776 1.58845 -1.9346 -0.0215263 -1.02658 0.373671 -0.0209797
0.137884 0.980621 1.73276 -0.0466252 0.290382 -0.403724 -0.018493 -0.0272173
-0.0360368 -0.0210025 -0.0326671 -0.0185415 -1.30019 1.02476 -0.0304184 -0.520676
0.306745 0.208153 -0.0122609 -0.0134612 -0.0311606 -0.0208548 -0.0218689 0.890311
-0.0130861 -0.011555 1.01635 -0.295967 1.49704 -0.46709 -0.0189643 -0.0109682
-0.219321 -1.52919 -0.012269 -0.209067 0.742153 -0.0137931 -0.0169068 -0.377433
-0.0114755 0.738626

FC1_weight f8 [50, 50]
00000000: 9b38 b9df a128 f0bf b45b 261e abef 973f
00000010: 6b44 300e 2e9d e5bf 7258 75b1 c45e b3bf
00000020: a297 512c b7b4 9a3f 40c1 c58a 1acc f43f
00000030: 3a5c ab3d ec85 e1bf 86c9 54c1 a8a4 96bf
00000040: a4e4 d539 06e4 f0bf b6d6 1709 6db9 f7bf
00000050: b308 c556 d0b4 dabf ad64 cfb7 6875 80bf
00000060: 450d a661 f888 f1bf 9f59 12a0 a616 fbbf
00000070: 6469 f173 8de0 983f 76f6 3a4e 76d8 993f
00000080: 2799 e667 3403 86bf 9d45 949b 4dec a2bf
00000090: 1e9e ca0e 9656 983f 0b9b 012e c896 db3f
000000a0: 6951 9fe4 0e9b d3bf e888 7c97 5297 e6bf
000000b0: 62a6 4819 ccba 9a3f b116 9f02 603c f5bf
000000c0: 3f1b b96e 4a79 ebbf a209 14b1 8861 edbf
000000d0: 9418 a12b 53c4 503f ee25 8dd1 3aaa aabf
000000e0: 0ed8 d5e4 29ab 893f 099b 4bbb e2f3 9cbf
000000f0: 5ef6 eb4e 779e 90bf c1e5 b166 6490 e33f
00000100: b142 db7b 0272 733f 622d 3e05 c078 da3f
00000110: 4206 f2ec f2ad d53f 7385 77b9 886f ed3f
00000120: 55c2 137a fdc9 efbf 82a8 fb00 a436 de3f
00000130: 9f88 8f99 55e9 a4bf f47b ac2a 453c 73bf
00000140: 21c8 4109 336d c53f 2aa9 13d0 4458 febf
00000150: e709 3a10 4878 91bf 7afc dea6 3ffb dabf
00000160: 1095 46cc ecf3 d7bf 9eba 4d13 1159 97bf
00000170: 3db9 a640 6667 a5bf 6a58 422d bc81 b2bf
00000180: 584c b6cb c86a a8bf a801 83a4 4fab dcbf
00000190: b6bb 07e8 be1c efbf 70ca 81c3 b068 9f3f
000001a0: 13b5 34b7 4258 d2bf 7d3e ca88 0b40 e13f
000001b0: ea98 d27e 94a6 7bbf 6361 889c be9e ea3f
000001c0: b16f 2711 e15f bcbf 87a2 409f c893 943f
000001d0: ecdd 1fef 552b e1bf 3eb2 b96a 9e23 c6bf
000001e0: df51 6342 cc25 e3bf 60d0 9dbb b8e8 9fbf
000001f0: 68ce fa94 63b2 d6bf f6b3 588a e42b b3bf
00000200: 2e1b 423a e1ca 96bf a1f0 7e81 c586 93bf
00000210: 78d4 9810 7349 a13f b45a dc56 e508 7a3f
00000220: a97d 84ab 4dad a4bf dd0b cc0a 45ba d33f
00000230: 802a 6edc 627e d7bf 6e31 3f37 34e5 e7bf
00000240: b4d0 2923 89b9 9fbf cde7 dced 7a69 cc3f
00000250: 6adf dc5f 3dee d43f ae4a 22fb 204b e1bf
00000260: 27fd 18ce 9085 93bf bb2a cc52 1d38 783f
00000270: fa8a d8a1 4693 4ebf 87fb c8ad 49b7 a13f
00000280: ef8d 2100 38f6 943f 7671 1b0d e0ad e9bf
00000290: 40c8 68d3 c732 abbf c5e2 3785 950a ea3f
000002a0: 2098 a3c7 ef6d 8a3f a933 f790 f0bd b13f
000002b0: ffeb dcb4 19a7 eabf aa7e a5f3 e159 cabf
000002c0: 2a48 7da3 67c4 9ebf f1d1 87d3 eefc 873f
000002d0: 1931 5816 f142 abbf b2f5 0ce1 9865 cf3f
000002e0: 1586 1277 0657 a6bf 33c1 70ae 6186 ca3f
000002f0: 8f51 9e79 396c e5bf cefd d5e3 bed5 8a3f
00000300: ba64 c169 66d2 933f 857a fa08 fc61 e53f
00000310: 7166 05d0 3989 923f e59a 0299 9dc5 e1bf
00000320: 6dc5 feb2 7bf2 b6bf 0297 aefd f035 6c3f
00000330: b4ab 90f2 93ea e0bf a5da a7e3 3103 f4bf
00000340: fcf5 af51 7bb6 a3bf aa60 5452 27a0 f1bf
00000350: e0db f467 3f52 fabf eba7 a4f3 86a0 8f3f
00000360: c363 3f8b a5c8 e53f 6fa0 c03b f974 eebf
00000370: 21cb 8289 3f8a dd3f 709f b01f bd3c ac3f
00000380: 336f d575 a826 e43f 7fa4 880c abf8 f1bf
00000390: 738b af2c 87cc a7bf 7018 16ed 3bd0 a0bf
000003a0: 8335 ad98 3a5d 803f fa75 f1c8 6999 9ebf
000003b0: 7463 d57b 8560 90bf dbbc 1699 25a6 b23f
000003c0: 4ca8 e0f0 8288 d53f 9db8 1caf 40f4 dd3f
000003d0: 4def 8744 46ac a6bf 9224 0857 4021 e6bf
000003e0: e3a6 069a cfb9 d8bf 471f f301 81ce c0bf
000003f0: de68 119b d9f8 95bf 8865 3387 a416 8a3f
00000400: 2c7b 7502 58ec 783f 283f 4e3d 7727 a8bf
00000410: 8d56 ff31 be79 8b3f ff5b c98e 8d40 fd3f
00000420: b00b 16b9 6d00 723f 6e8b 321b 6492 c33f
00000430: 7e1e a33c f372 c0bf 7c47 8d09 3117 edbf
00000440: afc7 e990 4028 acbf f166 0dde 57e5 d03f
00000450: a153 4612 73ff 973f 67c0 b403 09e5 90bf
00000460: dc2d c901 bb9a d93f 6823 d74d 29af c33f
00000470: a194 5a39 c5f4 a2bf 772f f7c9 5100 e33f
00000480: a0a5 2bd8 46bc e8bf bef0 efd8 74a9 a2bf
00000490: 3c49 3e9f 9659 83bf cb3d 6e09 0acd b73f
000004a0: 5419 6b24 ae08 afbf e546 91b5 86d2 e7bf
000004b0: 8dee 2076 a6d0 f63f f31b cb60 318f 99bf
000004c0: b79b e09b a6cf ca3f 9a42 e735 7689 f03f
000004d0: 8081 2040 868e a5bf 78b9 88ef c42c febf
000004e0: 9a08 1b9e 5ea9 f6bf 7033 260e ea6c a6bf
000004f0: 1686 c8e9 ebf9 dbbf ef8e 8cd5 e6ff e63f
00000500: 74d0 251c 7a0b edbf 9aeb 34d2 5279 a73f
00000510: 9fcb d424 7843 ec3f a392 3a01 4d84 efbf
00000520: fae2 9c22 d115 b0bf 7718 8b8d 16f3 653f
00000530: 4d58 4d9d 68d3 80bf a9fd 3108 07d6 94bf
00000540: b599 547e 6319 943f a229 3bfd a02e ccbf
00000550: af7c 96e7 c15d f13f 23db f97e 6abc f43f
00000560: fffd 10b8 01e1 7bbf 7d21 e4bc ff0f e43f
00000570: 3a94 a12a a6d2 ddbf 6e17 9aeb 34d2 c0bf
00000580: 2d14 9ff1 33e4 9e3f 8cca d97d bf7f 703f
00000590: 280d 350a 4966 a13f ba76 d45e 65e9 5abf
000005a0: ae72 b21e 08da 96bf 938d 075b ecf6 de3f
000005b0: 63ea 3225 274d 72bf 753f a720 3f1b c7bf
000005c0: be4a 3e76 1728 cdbf dc83 1090 2fa1 da3f
000005d0: 836b eee8 7fb9 d53f f301 81ce a44d b53f
000005e0: 8d33 3cac 263e 9d3f 9879 6121 29d8 9d3f
000005f0: b8cb 7edd e9ce db3f 963e 7441 7dcb f13f
00000600: 7a3f 2432 6255 9bbf ec14 ab06 616e c5bf
00000610: 1805 c1e3 dbbb dfbf 7a89 5693 4cf3 933f
00000620: 5f7a 5e9e 8cf9 42bf 0df2 c4bd 439b 95bf
00000630: 8b2a 0d46 36a1 9abf 8b71 fe26 1422 bcbf
00000640: 7940 d994 2b3c f23f f0ec e181 b7f6 a43f
00000650: af99 7cb3 cd8d 0fc0 6501 13b8 75b7 f6bf
00000660: d806 38ce b74f 90bf 25af ce31 201b 1040
00000670: 3815 a930 b610 f9bf 3370 404b 57b0 a53f
00000680: fe0c 6fd6 e07d d3bf c7ba b88d 06f0 0cc0
00000690: 9222 32ac e24d 03c0 56a2 47e7 57ce 913f
000006a0: 5af2 785a 7ee0 d3bf 3754 8cf3 3721 0340
000006b0: 07ba 51bf 6614 9e3f 0e50 7523 87e3 843f
000006c0: 0840 378f 1e1a 813f d5cb ef34 99f1 aabf
000006d0: 2da4 70fb ed04 5ebf a931 21e6 92aa d93f
000006e0: 1e6c b1db 6795 cfbf 18b4 9080 d1e5 c73f
000006f0: 49b0 8229 1433 9cbf 17d4 b7cc e932 f5bf
00000700: 1557 957d 5704 f63f 7e52 edd3 f118 e8bf
00000710: fc25 fb4a 947b 793f ab21 718f a50f 8d3f
00000720: 653f e65e bb0f 9b3f 253b db48 7e69 9ebf
00000730: c732 58cc 6328 a6bf 666b 7d91 d0b6 17c0
00000740: 14fd eb26 4234 943f 1004 c8d0 b183 d8bf
00000750: d9b5 bddd 921c e7bf 6f9b a910 8fc4 e8bf
00000760: d40e 7f4d d6e8 0240 2462 4a24 d1cb fa3f
00000770: 7a80 3859 b44a 8abf cf5f ae66 19b9 593f
00000780: 9065 c1c4 1f45 ec3f a48e 8eab 915d b7bf
00000790: 6fb1 474d 60df a3bf 18cf a0a1 7f02 fabf
000007a0: b9e0 0cfe 7e31 da3f 6bd4 4334 ba83 a4bf
000007b0: e5be 30f4 e38a aabf b768 b74c 3c56 a33f
000007c0: 9961 a3ac df4c 9c3f 751f 80d4 26ce ee3f
000007d0: fe47 a643 a7e7 efbf 7815 08f1 3790 9c3f
000007e0: d027 f224 e99a f1bf 9223 9d81 9197 df3f
000007f0: c9f4 3a98 03f3 a6bf 18b1 4f00 c548 ee3f
-1.00992 0.0233752 -0.675437 -0.0756648 0.02608 1.29983 -0.547598 -0.0221125
-1.05567 -1.48277 -0.417286 -0.00803644 -1.09594 -1.69303 0.0242941 0.0252398
-0.0107483 -0.0369591 0.0237678 0.431078 -0.306339 -0.705972 0.0261032 -1.32724
-0.858556 -0.918156 0.00102337 -0.05208 0.0125335 -0.0282741 -0.0162295 0.611376
0.0047474 0.41362 0.338742 0.919865 -0.993407 0.472085 -0.0408427 -0.00469615
0.167395 -1.89655 -0.0170604 -0.421585 -0.374263 -0.0228007 -0.0418045 -0.0722921
-0.0476897 -0.447956 -0.972259 0.0306728 -0.286637 0.539068 -0.00675066 0.831878
-0.110838 0.020095 -0.53654 -0.172962 -0.598364 -0.0311612 -0.354638 -0.0748885
-0.0222583 -0.0190688 0.0337635 0.00635614 -0.0403847 0.308244 -0.367089 -0.746729
-0.0309812 0.221969 0.327041 -0.540421 -0.0190642 0.00591289 -0.000933084 0.0346015
0.0204705 -0.802475 -0.0531218 0.813792 0.012905 0.0693045 -0.832898 -0.205868
-0.0300461 0.0117129 -0.0532451 0.245288 -0.0436327 0.207226 -0.669461 0.013103
0.0193573 0.668211 0.0181016 -0.555373 -0.0896375 0.00344369 -0.528635 -1.25078
-0.0385016 -1.1016 -1.64508 0.0154429 0.680743 -0.951779 0.461563 0.0551509
0.629719 -1.12321 -0.0464823 -0.0328387 0.00799032 -0.0298821 -0.0159932 0.0728477
0.336457 0.468033 -0.0442831 -0.691559 -0.386341 -0.131302 -0.0214571 0.0127385
0.00608477 -0.0471761 0.0134158 1.82826 0.00439494 0.152905 -0.128508 -0.909081
-0.0549946 0.263998 0.0234354 -0.0164987 0.400069 0.153783 -0.0370237 0.593789
-0.772983 -0.0364491 -0.00944822 0.0929724 -0.0606131 -0.744449 1.42594 -0.0249603
0.209462 1.03356 -0.042103 -1.88593 -1.41635 -0.0437997 -0.437129 0.718738
-0.907651 0.0458475 0.883236 -0.9849 -0.0628329 0.00267939 -0.00821573 -0.0203477
0.0196281 -0.220173 1.08539 1.296 -0.00680638 0.626953 -0.465982 -0.131415
0.0301674 0.00402808 0.0339835 -0.00164256 -0.0223161 0.483821 -0.00446811 -0.180519
-0.227786 0.416088 0.339447 0.083216 0.0285574 0.0291449 0.434504 1.11218
-0.0266929 -0.167431 -0.495841 0.0194828 -0.000579065 -0.0211001 -0.0260056 -0.109895
1.13969 0.0409448 -3.94424 -1.41979 -0.0159291 4.02649 -1.56658 0.042361
-0.304558 -3.6172 -2.41303 0.0173887 -0.310577 2.39122 0.0293747 0.0101996
0.0083506 -0.0526245 -0.00183223 0.401036 -0.246747 0.186701 -0.0275386 -1.32493
1.37606 -0.753045 0.00622137 0.01419 0.0264272 -0.0296993 -0.0432769 -5.92853
0.0197306 -0.383038 -0.722238 -0.773994 2.36369 1.67476 -0.0128378 0.00157001
0.883438 -0.0912715 -0.0388136 -1.62561 0.409271 -0.0400675 -0.0518409 0.0377673
0.027637 0.962665 -0.997028 0.0278939 -1.10032 0.493626 -0.0448228 0.946383

FC2_bias f8 [50]
00000000: 959b a8a5 b915 eebf b519 a721 aa70 e2bf
00000010: e415 889e 9449 c13f 6954 e064 1bb8 eebf
00000020: 65a5 4929 e8f6 d9bf dae4 f049 2712 d23f
00000030: 8bde a980 7b9e e13f 65f6 1ed3 7f7b 93bf
00000040: e1a2 4918 bc9e 96bf 512d 228a c91b eebf
00000050: 61a2 e650 2bf1 a13f 8064 3a74 7ade c7bf
00000060: dff9 4509 fa0b d7bf 151e 34bb ee2d e2bf
00000070: 6b9f 8ec7 0cd4 f43f a73d 25e7 c49e e6bf
00000080: 5f07 ce19 51da d43f 3695 4561 17c5 e9bf
00000090: 575d 876a 4ab2 dabf 7100 fdbe 7ff3 d4bf
000000a0: bb44 f5d6 c0d6 f6bf 8fbb 52e0 aea8 aa3f
000000b0: b515 fbcb ee49 f3bf 1d03 b2d7 bb3f fd3f
000000c0: 6b03 c12d 69d6 a7bf af1f 07ca 1242 a4bf
000000d0: aa64 00a8 e246 e7bf ddef 5014 e893 f3bf
000000e0: 0e32 c9c8 59d8 f7bf 65b1 a8e3 8cbc b73f
000000f0: 3f57 5bb1 bfec e03f cac2 d7d7 ba54 eebf
00000100: b952 cf82 50de e3bf d4f2 0357 7982 e53f
00000110: 76fb ac32 535a e3bf ea95 b20c 71ac f1bf
00000120: b1fa 230c 0396 d7bf c79d d2c1 fabf ebbf
00000130: 651b b803 75ca cfbf a53e 7f90 1b34 9abf
00000140: 541d 7233 dc00 ff3f 21ea 3e00 a9cd ef3f
00000150: 5071 1c78 b5dc d5bf 4fdb f1ec 13bc 78bf
00000160: fd10 1b2c 9ca4 c9bf badb f5d2 1401 ba3f
00000170: d0bc 772f 5283 84bf ea23 f087 9f7f e2bf
00000180: 6990 82a7 902b edbf 3203 95f1 efb3 f0bf
-0.940152 -0.576253 0.135058 -0.959974 -0.405695 0.282358 0.550596 -0.0190258
-0.0220899 -0.940892 0.0350431 -0.186477 -0.360106 -0.568107 1.30177 -0.706881
0.325825 -0.805309 -0.417132 -0.327362 -1.42743 0.0520682 -1.20555 1.82806
-0.0465577 -0.0395666 -0.727403 -1.22361 -1.49032 0.0927208 0.5289 -0.947843
-0.620888 0.672177 -0.604776 -1.1046 -0.368531 -0.867185 -0.248366 -0.0255894
1.93771 0.993855 -0.341596 -0.00603874 -0.200336 0.101579 -0.0100161 -0.578079
-0.911568 -1.04393

FC2_weight f8 [50, 50]
00000000: 0f47 57e9 ee3a e03f 66da fe95 95a6 ec3f
00000010: 8f6e 8445 459c d2bf 7c27 66bd 18ca 02c0
00000020: 59a5 f44c 2f31 d13f b0c6 d974 0470 d23f
00000030: 1306 0a61 dadc 9d3f 0f89 94c9 1df4 643f
00000040: 17ea fa4f 487c a0bf 2a91 442f a358 c4bf
00000050: ff07 58ab 764d d5bf 7616 bd53 01f7 d63f
00000060: aa60 5452 27a0 da3f b477 465b 9544 da3f
00000070: 7b33 6abe 4a3e d13f 6138 d730 43e3 d2bf
00000080: 7156 444d f479 e2bf 2ddd 13da 28a1 b83f
00000090: 56af 6c30 1eef ab3f efc5 17ed f142 ce3f
000000a0: e44a 3d0b 4279 d93f 6078 25c9 737d c3bf
000000b0: 8a76 1552 7e52 c73f 59e0 2bba f59a b0bf
000000c0: 96f3 7b51 71d2 8a3f cdbb a074 d833 9abf
000000d0: b341 2619 390b f2bf 282a 1bd6 5416 e73f
000000e0: 213b 6f63 b323 c53f f888 9812 49b4 0340
000000f0: 3389 7ac1 a739 e2bf 586f d40a d3f7 babf
00000100: 910a 630b 410e d03f 842b a050 4f1f cbbf
00000110: 76df 313c f6b3 d0bf c1a6 73ea 6fae b43f
00000120: a4c7 ef6d fab3 e0bf 4705 4eb6 813b d73f
00000130: e50a ef72 115f e4bf 411c dab6 de25 a7bf
00000140: eab0 c22d 1f49 bd3f a4df be0e 9c33 cabf
00000150: ce6e 2d93 e178 d2bf e595 90b4 c0c3 a5bf
00000160: 72fc 5069 c4cc cc3f ab5a d251 0e66 e8bf
00000170: 2b81 391f 436c a9bf 7dae b662 7fd9 df3f
00000180: a14d 0e9f 7422 c7bf 1a4d 2ec6 c03a eebf
00000190: 2418 bd09 74dc 9f3f fe81 eea2 1abc 80bf
000001a0: f756 c96c 3590 933f 4211 a4b5 1624 753f
000001b0: 903c c6cb 892c a4bf 4af9 de19 4c47 81bf
000001c0: 9557 f844 e8b1 873f 5220 fd40 03fb a53f
000001d0: c85f 5ad4 27b9 a3bf 5829 f345 312f a23f
000001e0: f0c9 dcdf 4d75 60bf 3296 b1ed 2943 493f
000001f0: f6b7 5f99 12a4 9dbf 83ce 5ac0 bae0 a63f
00000200: 44eb 973e 2ab4 9abf 18e5 1dd0 677a 803f
00000210: 2943 b005 18f1 a03f c7e7 5fdc 572f a83f
00000220: c0aa 1f40 2bd5 8abf 75fe 92f9 ec25 9a3f
00000230: e797 778b 76cb 943f cd42 9660 ccf1 a13f
00000240: ba95 6fc7 e589 91bf 3e7b 890c 0632 9e3f
00000250: d845 d103 1f83 9dbf d950 7b5b fae1 913f
00000260: 71a3 12e8 5d06 a53f 8f00 6e16 2f16 a63f
00000270: f418 a37d c57d 68bf bbcc 5598 631e 8ebf
00000280: b67a 56eb 2710 84bf 74a0 3d4d 1c2f 9bbf
00000290: 62cf e858 ef81 a73f 18f2 6327 17be 99bf
000002a0: f981 5083 0e5f 93bf de6b 10ff 13d0 723f
000002b0: 8764 6df8 82bb 98bf ed83 2c0b 26fe a03f
000002c0: e151 19b5 b1c8 a5bf d925 aab7 06b6 9abf
000002d0: 139c fa40 f2ce 99bf aab7 69e0 0519 5abf
000002e0: f7b4 1e19 0687 72bf 86d0 9c50 e339 9e3f
000002f0: e27d b0e7 c64f a23f 6d42 b51c 435b a53f
00000300: 3105 10e3 daf5 973f b054 17f0 32c3 863f
00000310: 4b2e 104e 55eb 8ebf 3e53 f9e8 1e23 aabf
00000320: e84d 452a 8c2d fdbf 3483 f8c0 8eff d53f
00000330: 5872 158b df14 c6bf 37fe 4465 c31a ef3f
00000340: dbfc bfea c891 bebf 310a 82c7 b777 bd3f
00000350: 31b5 a50e f2fa e2bf 378f 1e1a 715c adbf
00000360: de54 a4c2 d842 a4bf 0de7 751f db8d 91bf
00000370: 3a75 e5b3 3c8f f1bf 80bb ecd7 9dee c8bf
00000380: 012f 336c 94f5 d33f 1ac1 c6f5 effa b23f
00000390: 6d20 5d6c 5a29 d53f d292 228d 6555 abbf
000003a0: 7a1b 9b1d a93e eabf e2ab 1dc5 39ea c8bf
000003b0: ddf2 ec4d 6782 b03f 475b 321a 3bd9 643f
000003c0: 3f57 5bb1 bf0c 23c0 0667 f0f7 8bd9 c8bf
000003d0: 5dc3 0c8d 2782 d7bf f3c7 b436 8ded bdbf
000003e0: 7ad2 78d8 fad8 93bf e344 aade d04a 90bf
000003f0: f6ef facc 599f d3bf 4bc8 073d 9b55 f5bf
00000400: 1900 aab8 718b d83f e2cb 4411 52b7 e0bf
00000410: f981 ab3c 81b0 c7bf 4af3 8598 6447 673f
00000420: d5ed ec2b 0fd2 c73f a7af e76b 96cb c43f
00000430: 5a84 622b 685a ddbf 2bf6 97dd 9387 d0bf
00000440: 226f b9fa b149 dcbf 0935 43aa 285e cf3f
00000450: 1894 6934 b918 c3bf d350 fe49 d7a7 97bf
00000460: 9370 84b9 9baf 83bf 1b71 b7da 79d1 a5bf
00000470: 8945 0c3b 8c49 d3bf 9a51 3de3 0c0f 93bf
00000480: 6902 452c 62d8 913f 8c69 a67b 9dd4 d3bf
00000490: 97cd 774b cd79 a5bf 85d0 4197 70e8 cb3f
000004a0: b4dd a925 c22b b2bf 2524 d236 fe44 c53f
000004b0: 459c 4eb2 d5e5 ef3f 4e14 7c2e ae4c b7bf
000004c0: 594d d713 5d17 bebf 6bb7 5d68 ae53 fb3f
000004d0: e42c ec69 87bf e53f a8c6 4b37 89c1 e9bf
000004e0: ad29 3520 e7a2 aa3f 574d 63bd 49ba 73bf
000004f0: c6de 8b2f dae3 a1bf 2498 6a66 2d85 e83f
00000500: 95d2 33bd c458 e63f aa28 5e65 6d53 c0bf
00000510: 5fb7 088c f50d e53f f7e9 78cc 40e5 f2bf
00000520: de77 0c8f fdac e0bf 4277 499c 1551 e73f
00000530: 5bce a5b8 aaec f9bf 78ed d286 c3d2 d73f
00000540: 5e48 8787 307e d0bf c040 1020 43c7 e03f
00000550: 5dde 1cae d59e eb3f 8884 effd 0dda d6bf
00000560: 44bf b67e facf ce3f 5c8e 5720 7a52 c03f
00000570: 1734 e323 18bd 99bf b196 f1a5 a613 ab3f
00000580: 24d2 36fe 44e5 ec3f a262 9cbf 0985 da3f
00000590: 8c67 d0d0 3f41 02c0 2d95 b723 9cd6 01c0
000005a0: 766d 6fb7 2407 cc3f a454 c213 7afd dfbf
000005b0: d994 2bbc cb45 0bc0 e258 17b7 d140 09c0
000005c0: 0341 800c 1d3b e13f 3e23 111a c1c6 da3f
000005d0: 9962 0e82 8ed6 e2bf bf0e 9c33 a234 f6bf
000005e0: eb33 0cc4 57e0 a8bf 88c3 2d7a 02bc 98bf
000005f0: b3b1 12f3 aca4 e8bf e932 90c2 50e2 a6bf
00000600: df53 39ed 2939 c73f f793 313e cc5e 86bf
00000610: 9a32 26b3 30fa a03f fe7d c685 0321 ebbf
00000620: add0 5158 f32d a1bf 7619 fed3 0d94 e5bf
00000630: 990f 0874 26ed e9bf 280f 0bb5 a6f9 09c0
00000640: 36d0 d787 5000 a03f 93b6 c8a8 f8e0 713f
00000650: cbe1 aceb c4a3 6c3f 07d5 61e0 14b1 a73f
00000660: 82bf 0413 245b 9abf c811 2164 0fa3 963f
00000670: bf6e 6460 1556 77bf cefe 40b9 6ddf a3bf
00000680: 0a0a 2879 1ad5 a6bf fbca 83f4 1439 a4bf
00000690: 0217 1a3e d818 a63f 0e0c 2da6 2a51 3cbf
000006a0: 288a 462d 8320 9e3f f8c9 ac39 9be9 91bf
000006b0: 565e d9a2 58b0 753f 09b3 bfa2 1122 a33f
000006c0: b647 6fb8 8fdc a23f 7371 0ae1 8739 a73f
000006d0: 450c 5c9a 32a2 82bf f310 7cc2 c881 a53f
000006e0: d944 c1e7 e2ca 843f 6582 a7b1 39de 7fbf
000006f0: 559f ccbb c182 81bf f783 70bb 86cf 94bf
00000700: b603 649e 4b27 a83f 0701 0184 724f 75bf
00000710: b0f3 80c3 55af a8bf 6956 b60f 79cb a13f
00000720: cb0b 55d6 db0b a1bf 1700 f445 8ce8 a83f
00000730: ef07 97e9 f241 8a3f d7a0 2fbd fdb9 a0bf
00000740: f4f7 b5a2 8b55 7cbf d2bd 9877 e62f a63f
00000750: 3dab 1622 f13c 92bf eb73 b515 fbcb a23f
00000760: f22e cd63 833b a63f e16d b5b9 f791 77bf
00000770: d604 cdbe 5dbc 80bf 5368 0f6a 7528 993f
00000780: e23b 31eb c550 a6bf 84b8 51e8 e545 703f
00000790: 65f4 ed6e af16 a9bf 5024 4edd 4bd0 a1bf
000007a0: 79fa 5289 fc44 9f3f d4c0 ea23 4b41 9a3f
000007b0: 8b94 1c66 1eaf 963f cf0a 56e6 f747 893f
000007c0: 004e 64f0 740a 493f 214d 0691 56c6 903f
000007d0: 1add 41ec 4ca1 f3bf 3f57 5bb1 bfcc 12c0
000007e0: b2e7 7cc2 233b b8bf afb9 feb8 58ac a03f
000007f0: b4c9 e193 4e24 d83f eca1 7dac e0b7 a53f
0.507194 0.895335 -0.290788 -2.34868 0.268627 0.288087 0.0291628 0.00255781
-0.0321982 -0.158955 -0.332853 0.358826 0.416025 0.410436 0.269427 -0.295121
-0.577387 0.0962091 0.0545587 0.236418 0.398026 -0.152266 0.182205 -0.0648645
0.0130967 -0.0255884 -1.12774 0.721476 0.165152 2.46303 -0.569538 -0.105344
0.25087 -0.211893 -0.260984 0.0807867 -0.52197 0.363007 -0.636605 -0.0452108
0.114397 -0.2047 -0.288628 -0.0425091 0.224999 -0.762458 -0.0496541 0.49765
-0.180739 -0.944672 0.0311144 -0.00817128 0.0191048 0.00516137 -0.0394023 -0.00843677
0.0115698 0.0429307 -0.038522 0.0355163 -0.00200906 0.000770946 -0.0289462 0.0446833
-0.0260779 0.00804597 0.0330894 0.0472362 -0.0131019 0.0255353 0.0203074 0.0350479
-0.0171276 0.0294877 -0.0288205 0.0174636 0.0410642 0.043138 -0.00298966 -0.0147064
-0.00979644 -0.0265469 0.0459132 -0.0251392 -0.0189173 0.00459297 -0.0241528 0.033189
-0.0425468 -0.026085 -0.0252035 -0.00159288 -0.0045233 0.0295177 0.0357649 0.0417119
0.0233988 0.0111145 -0.0150973 -0.0510492 -1.82362 0.343723 -0.172512 0.972017
-0.119412 0.115108 -0.593133 -0.0573459 -0.0395725 -0.0171427 -1.09747 -0.194782
0.311864 0.0741415 0.330649 -0.0533859 -0.820149 -0.194648 0.0644898 0.00254499
-9.5249 -0.194139 -0.367319 -0.116906 -0.0193824 -0.0159104 -0.306601 -1.3334
0.383511 -0.522378 -0.185074 0.00284166 0.186098 0.162463 -0.458643 -0.258275
-0.441998 0.245061 -0.149192 -0.0231012 -0.00961229 -0.0426138 -0.301364 -0.0186121
0.017427 -0.309852 -0.0419449 0.218031 -0.0709802 0.166168 0.996806 -0.0910138
-0.117544 1.70793 0.67963 -0.804875 0.0520241 -0.00481633 -0.0349415 0.766257
0.698336 -0.127546 0.657954 -1.18097 -0.521117 0.728648 -1.62028 0.372239
-0.257702 0.524324 0.863139 -0.357059 0.240722 0.127517 -0.0251354 0.0528843
0.902987 0.41437 -2.28186 -2.22979 0.218968 -0.499846 -3.40908 -3.15665
0.538466 0.418381 -0.588691 -1.38785 -0.0485866 -0.0241547 -0.770102 -0.0446954
0.181432 -0.010923 0.0331588 -0.84778 -0.0335537 -0.674323 -0.810199 -3.2469
0.0312524 0.00436494 0.00349606 0.0462729 -0.0257383 0.0221064 -0.00569733 -0.038814
-0.0445946 -0.039498 0.0431583 -0.000432084 0.0294209 -0.0174927 0.00529513 0.0373693
0.036839 0.0453608 -0.00909843 0.0420058 0.0101526 -0.00778029 -0.00855018 -0.0203229
0.0471748 -0.00520272 -0.0482127 0.0347555 -0.0332936 0.0486492 0.0128211 -0.032669
-0.00691752 0.0433342 -0.0178106 0.0367125 0.0434228 -0.00575444 -0.00817178 0.0245684
-0.043585 0.00397291 -0.0490012 -0.0347923 0.0305366 0.0256397 0.0221524 0.0123443
0.000764186 0.0163816 -1.22688 -4.69995 -0.0946524 0.0325649 0.377216 0.0424185

FC3_bias f8 [50]
00000000: 3d7e 6fd3 9f7d fcbf 00a9 4d9c dcef f5bf
00000010: 8eaf 3db3 24c0 02c0 bf0d 315e f32a e03f
00000020: 361f d786 8af1 0fc0 15e3 fc4d 2884 0f40
00000030: 87fe 092e 56d4 fabf 6e30 d461 855b 96bf
00000040: d7dd 3cd5 2137 f33f 7e52 edd3 f198 da3f
00000050: f2cd 3637 a6a7 0d40 b41f 2922 c32a f7bf
00000060: 062a e3df 675c f23f ae0d 15e3 fc4d f9bf
00000070: fb22 a12d e7d2 f53f 6cb3 b112 f32c e93f
00000080: 2289 5e46 b15c 0ac0 7bc1 02f3 ebe2 91bf
00000090: f44d 9a06 45f3 d13f 1aa8 8c7f 9ff1 04c0
000000a0: fb90 b75c fdd8 db3f 24d5 777e 5182 ed3f
000000b0: ad69 de71 8a8e f4bf 30f0 dc7b b8e4 f83f
000000c0: 2b4d 4a41 b757 0a40 74ec a012 d7b1 e3bf
000000d0: 2289 5e46 b15c f13f 718f a50f 5d50 cdbf
000000e0: a7ae 7c96 e741 febf 76e0 9c11 a5bd e8bf
000000f0: 79eb fcdb 653f efbf 9961 a3ac df4c db3f
00000100: ca15 dee5 22fe 02c0 4911 1956 f146 ffbf
00000110: ad17 4339 d1ae f93f a549 29e8 f612 1140
00000120: 5798 bed7 101c de3f 41b0 4fa5 0b56 b3bf
00000130: 1633 c2db 8390 e23f f1ba 7ec1 6e58 fc3f
00000140: 1843 39d1 ae02 00c0 f7f2 12ce 3482 79bf
00000150: 734b ab21 718f f4bf 836e 2f69 8cd6 f93f
00000160: 4df3 8e53 74a4 f4bf 51f9 d7f2 caf5 c63f
00000170: 2ead 86c4 3d96 dbbf ea0a 11cb c1c7 8b3f
00000180: 473c d9cd 8cfe e3bf 5f20 6bba 5ccc 78bf
-1.78067 -1.37106 -2.34382 0.505243 -3.99294 3.93953 -1.67684 -0.0218335
1.20096 0.415585 3.70686 -1.44794 1.14756 -1.58154 1.36399 0.786737
-3.29526 -0.0174672 0.280473 -2.61798 0.435119 0.922158 -1.2848 1.55584
3.29283 -0.615459 1.08513 -0.229015 -1.89109 -0.77315 -0.976489 0.426567
-2.37409 -1.95482 1.60518 4.26852 0.470463 -0.0755317 0.580141 1.77159
-2.00131 -0.00622769 -1.28502 1.61488 -1.29015 0.179376 -0.431045 0.0135646
-0.624823 -0.00605427

FC3_weight f8 [50, 50]
00000000: d15c a791 964a f0bf e40f 069e 7b8f f7bf
00000010: 626a 4b1d e4f5 e4bf 2bfb ae08 feb7 f33f
00000020: 618c 4814 5a56 eebf 382c 0dfc a886 e3bf
00000030: 98eb 23a6 fa84 a23f 5e0f dfef 3b79 4d3f
00000040: 0d6c 9560 71b8 13c0 33fa d170 cadc c63f
00000050: 287e 8cb9 6b09 df3f 0edc 813a e5d1 e1bf
00000060: b002 7cb7 79e3 b4bf d68f 4df2 23fe e73f
00000070: fdd9 8f14 9161 ed3f f6f0 65a2 08a9 cfbf
00000080: bea3 c684 984b e73f 470b 2b70 0dc7 a23f
00000090: f3ff aa23 47ba e6bf 9a5e 622c d32f d03f
000000a0: 6189 0794 4df9 02c0 aeb6 627f d93d f43f
000000b0: 8c65 fa25 e2ad d83f 01fb e8d4 95cf f53f
000000c0: b724 07ec 6af2 db3f fc1c 1f2d ce18 d4bf
000000d0: 529a cde3 3098 c7bf 52d6 6f26 a60b dcbf
000000e0: 8db6 2a89 ec03 eabf faf0 2c41 4640 ee3f
000000f0: c009 8508 3884 03c0 7ae4 0f06 9efb fd3f
00000100: 5550 51f5 2b9d e1bf 094f e8f5 27f1 cf3f
00000110: 5452 27a0 8970 1240 b9c7 d287 2ee8 0140
00000120: 9127 49d7 4cfe 01c0 e258 17b7 d180 febf
00000130: cb2f 8331 2251 debf dee8 bef7 9221 b43f
00000140: ad6d 8ac7 45b5 d2bf 4d4c 1762 f547 cabf
00000150: d044 d8f0 f4ca f13f 34ba 83d8 9942 f23f
00000160: 6afa ec80 eb8a d03f 274e 3fbf 278a 2bbf
00000170: 12da 722e c555 ec3f ffea 71df 6a9d e73f
00000180: 98da 5207 793d d0bf b64a b038 9cf9 a9bf
00000190: f67a f7c7 7b55 f23f 166a 4df3 8ed3 f83f
000001a0: 172b 6a30 0d43 f1bf 4182 e2c7 983b e7bf
000001b0: 3e79 58a8 354d fbbf 2a3f 04b0 5cca b03f
000001c0: 34c9 7ecc bd76 b7bf ca2c e7f7 a2e2 a0bf
000001d0: 4a24 d1cb 2896 e83f 79e8 bb5b 59a2 e83f
000001e0: f46b eba7 ffac d53f 5950 1894 69b4 ef3f
000001f0: b3d2 a414 74fb ea3f 07f0 1648 50fc ac3f
00000200: ff5d 9f39 eb53 d1bf 3e40 f7e5 cc76 cb3f
00000210: be85 75e3 dd91 efbf 3dcf 0261 653c 83bf
00000220: 3597 1b0c 7558 cfbf e91f 8ebf fe35 aabf
00000230: e276 6858 8cba ce3f 6adb 300a 8247 eb3f
00000240: 1151 4cde 0033 cb3f f624 b039 07cf e2bf
00000250: ca24 d9d9 46f2 b13f a92f 4b3b 3517 ef3f
00000260: 30bd fdb9 68c8 e33f dfdf a0bd fa78 d3bf
00000270: a379 008b fcfa c73f 44c4 cda9 6400 dd3f
00000280: e466 b801 9f9f f23f f0a2 af20 cd98 12c0
00000290: 944f 8f6d 19f0 e93f efca 2e18 5c73 debf
000002a0: 3bc7 80ec f5ee 0bc0 e948 2eff 213d 1a40
000002b0: 5b42 3ee8 d92c f03f 40c3 9b35 785f d5bf
000002c0: c2a3 8d23 d6e2 f53f 1a53 b0c6 d974 b23f
000002d0: a4df be0e 9cb3 f33f 4816 3081 5bf7 e53f
000002e0: 0d17 b9a7 ab3b d9bf aa9c f694 9c93 e73f
000002f0: 8a90 ba9d 7d65 ed3f c990 63eb 19c2 e0bf
00000300: 5795 7d57 04ff 0f40 e803 b80f 2f3e 8b3f
00000310: 8621 72fa 7abe e5bf 149c 55fa 6420 a2bf
00000320: f452 b131 af23 e23f b858 5183 6918 c6bf
00000330: a0a5 2bd8 463c e6bf ad34 2905 ddde eebf
00000340: 38a1 1001 8750 04c0 0fd4 298f 6e84 d23f
00000350: 8273 4694 f686 f1bf c267 9027 ee1d 9a3f
00000360: ffb2 7bf2 b050 e53f b422 6aa2 cf47 c53f
00000370: 6447 99c3 a4ae b13f 5b08 7250 c28c 06c0
00000380: 6cb4 1ce8 a1b6 edbf 0723 f609 a018 c9bf
00000390: 9e66 dc2f fa65 9bbf 0da6 61f8 8898 f5bf
000003a0: b0af 75a9 117a ef3f 419a b168 3a3b 99bf
000003b0: 24b9 fc87 f4db c3bf 3d2c d49a e69d f2bf
000003c0: a12d e752 5c55 d83f 02d9 ebdd 1f6f 0040
000003d0: a698 83a0 a355 d03f d95c 35cf 11f9 da3f
000003e0: f4dc 4257 2250 db3f 87e1 2362 4a24 f83f
000003f0: be87 4b8e 3b25 e73f 4a45 63ed efec ebbf
00000400: ec31 91d2 6c1e db3f a8a7 8fc0 1f7e d9bf
00000410: c634 d3bd 4e6a eb3f 0728 0d35 0a49 c6bf
00000420: 0725 ccb4 fd2b f83f b5c1 89e8 d7d6 a33f
00000430: d4d7 f335 cb65 e83f a4a5 f276 84b3 1640
00000440: 3fc6 dcb5 847c d03f 78d1 5790 66ac f4bf
00000450: 11df 8959 2f06 e3bf f581 e49d 4319 bebf
00000460: 5edb db2d c901 e13f cac3 42ad 69de cdbf
00000470: 616d 8c9d f012 d9bf 9e5a 22bc e24e 96bf
00000480: fb96 395d 1613 d1bf f983 81e7 dec3 0bc0
00000490: 3c88 9d29 745e f43f d82a c1e2 7026 0040
000004a0: eeb4 3522 1807 dbbf d6b7 825c 983b a53f
000004b0: 8c7b 3da9 4077 b5bf 9414 5800 5306 8ebf
000004c0: 0d36 751e 15ff e8bf 7a1d 71c8 06d2 e2bf
000004d0: 8c2d 0439 2861 dcbf 5cb2 857b c097 a53f
000004e0: 6616 a1d8 0a9a dc3f 1110 ddfd 3bec 8f3f
000004f0: 3ecd c98b 4cc0 d4bf 3736 3b52 7d67 e23f
00000500: 984e eb36 a8fd cc3f b263 2310 afeb cd3f
00000510: c58d 5bcc cf0d 8dbf 3a90 f5d4 eaab d93f
00000520: 9cdb 847b 65de dcbf cf83 bbb3 765b f03f
00000530: ce89 3db4 8f15 c03f 371e c76a 4eb9 a5bf
00000540: 9071 207f c40a 92bf 7b2f be68 8f17 ce3f
00000550: f4c0 c760 c529 e23f d784 b4c6 a013 b23f
00000560: 5c55 f65d 11fc f53f 5bee cc04 c3b9 c23f
00000570: e965 14cb 2dad e13f f298 81ca f8f7 c3bf
00000580: d1cc 936b 0ae4 e1bf 6f0e d76a 0f7b d5bf
00000590: de58 5018 9469 e13f 3507 08e6 e871 f1bf
000005a0: 17f0 32c3 4659 dbbf 9947 fe60 e0b9 f2bf
000005b0: 2b17 2aff 5a5e d3bf 9a7b 48f8 dedf b63f
000005c0: 84d9 0418 963f abbf 38be f6cc 92c0 0e40
000005d0: 56bb 26a4 3506 dcbf 74ed 0be8 853b e3bf
000005e0: ac56 26fc 523f f13f 0867 0124 e4cd af3f
000005f0: 33a8 3638 11fd ccbf ac44 8fce af9c ab3f
00000600: 240b 98c0 adbb 0440 b570 5985 cd00 dc3f
00000610: a627 2cf1 8032 f1bf 749b 70af cc5b e1bf
00000620: 2db2 9def a746 f23f c686 6ef6 07ca bd3f
00000630: 94f6 065f 986c 25c0 6404 5438 8254 92bf
00000640: 1232 9067 976f dabf 61fb c918 1f66 e33f
00000650: 2d0b 26fe 28ea e73f 0b0c 59dd ea39 ec3f
00000660: 3507 08e6 e871 0540 eb54 f99e 9108 d43f
00000670: 01fb e8d4 95cf c4bf 2413 4b25 975a 9a3f
00000680: ed81 5660 c8ea f03f a86f 99d3 65b1 fdbf
00000690: 28f3 8fbe 49d3 e63f cb2f 8331 2251 d03f
000006a0: faee 5696 e82c cbbf c494 48a2 9751 e93f
000006b0: a647 533d 997f ac3f ca18 1f66 2fdb c63f
000006c0: 4b57 b08d 78b2 d63f 9d1d 5f31 d92e 933f
000006d0: 957a bbca 7fed 95bf e7a9 0eb9 196e fc3f
000006e0: aca8 c134 0c1f e2bf 9483 d904 1896 e9bf
000006f0: 47e9 d2bf 2495 e93f e0d5 7267 2618 e4bf
00000700: fa08 fce1 e7bf c93f d2fb c6d7 9ed9 fb3f
00000710: 34f2 79c5 538f dfbf 956a fa47 3a5e b63f
00000720: 12f9 2ea5 2e19 bbbf 7bf4 86fb c8ad e13f
00000730: 90bc 7328 4355 ebbf 2733 de56 7a6d d33f
00000740: 7e18 213c dab8 f63f 3963 9813 b4c9 cb3f
00000750: 4451 a04f e449 e03f e128 7975 8e01 c5bf
00000760: 9961 a3ac df4c d53f dee5 22be 1373 08c0
00000770: c4eb fa05 bb61 d8bf 7c44 4c89 247a 0fc0
00000780: ff79 1a30 487a e13f e17a 14ae 47e1 dd3f
00000790: 3cf7 1e2e 396e f3bf e316 f373 4353 bebf
000007a0: 6809 3202 2a9c e03f 5abd c3ed d0b0 debf
000007b0: 990d 32c9 c859 02c0 2634 492c 2977 d1bf
000007c0: 3546 eba8 6a02 f83f 5500 e720 4322 883f
000007d0: 4089 cf9d 607f e93f 0dc3 47c4 9448 06c0
000007e0: 69e0 4735 ecf7 e33f b1b0 96f1 a5a6 b5bf
000007f0: d53e 1d8f 1928 f0bf 3464 3c4a 253c c5bf
-1.01821 -1.47253 -0.655016 1.23242 -0.948041 -0.610188 0.0361708 0.000899462
-4.93012 0.178613 0.48495 -0.556872 -0.081596 0.749773 0.91816 -0.247346
0.727978 0.0366749 -0.710239 0.252919 -2.37173 1.2651 0.385613 1.36318
0.436671 -0.314014 -0.184332 -0.438211 -0.812979 0.945346 -2.43956 1.87393
-0.550436 0.249547 4.6099 2.23837 -2.24917 -1.90645 -0.473702 0.0786373
-0.292314 -0.205321 1.11205 1.14126 0.258479 -0.000210111 0.88547 0.737966
-0.253752 -0.0507325 1.14587 1.55165 -1.07887 -0.726025 -1.70635 0.0655878
-0.0916556 -0.0329791 0.76833 0.769818 0.338684 0.990773 0.843195 0.0566125
-0.270747 0.214563 -0.986556 -0.00939254 -0.244887 -0.0511932 0.240068 0.852479
0.212494 -0.587772 0.0701031 0.971583 0.618214 -0.304259 0.187347 0.453149
1.16397 -4.64922 0.810559 -0.475791 -3.49168 6.5597 1.01095 -0.333952
1.36788 0.0720955 1.23135 0.686445 -0.394267 0.736769 0.918639 -0.523694
3.99952 0.0133022 -0.679502 -0.0354034 0.566856 -0.17262 -0.694858 -0.964705
-2.53932 0.289333 -1.09545 0.0255048 0.6661 0.166254 0.0690711 -2.81873
-0.928544 -0.196064 -0.0267562 -1.34974 0.983651 -0.02464 -0.15515 -1.16355
0.38021 2.05426 0.255227 0.421452 0.426766 1.50886 0.723295 -0.872673
0.423732 -0.398323 0.856727 -0.174104 1.51074 0.0387485 0.762426 5.67531
0.2576 -1.29209 -0.594505 -0.117573 0.531468 -0.23335 -0.391781 -0.0217853
-0.26679 -3.47064 1.27306 2.01877 -0.422308 0.0414703 -0.0838509 -0.0146605
-0.781138 -0.588138 -0.44343 0.0421734 0.446902 0.0155873 -0.324237 0.575133
0.226491 0.233755 -0.0141865 0.401118 -0.451074 1.02233 0.125658 -0.0424294
-0.0176192 0.235094 0.567599 0.070612 1.37404 0.146294 0.55239 -0.156005
-0.559087 -0.335636 0.544138 -1.09031 -0.427324 -1.17038 -0.302634 0.0893535
-0.0532195 3.84403 -0.437879 -0.601016 1.07796 0.0621177 -0.226473 0.0539298
2.59164 0.437549 -1.07483 -0.542456 1.14225 0.116364 -10.7121 -0.0179005
-0.413061 0.606216 0.747334 0.88207 2.68062 0.313023 -0.162585 0.0257362
1.05732 -1.85581 0.713292 0.254952 -0.212308 0.79121 0.055661 0.178564
0.354643 0.0187334 -0.0214138 1.77688 -0.56629 -0.799572 0.799456 -0.627948
0.201169 1.74063 -0.493123 0.0873753 -0.105853 0.552464 -0.854158 0.303557
1.42013 0.217093 0.50902 -0.16411 0.332817 -3.05619 -0.380965 -3.93464
0.546177 0.466875 -1.21441 -0.118458 0.519063 -0.479542 -2.29384 -0.272898
1.50059 0.0117841 0.796799 -2.78544 0.624014 -0.0845741 -1.00979 -0.165898

FC4_bias f8 [50]
00000000: e8a4 f78d af3d ecbf f2cd 3637 a6a7 f0bf
00000010: 9dd9 aed0 07cb d43f b823 9c16 bc68 fa3f
00000020: d578 e926 3108 f5bf d717 096d 3957 10c0
00000030: 12da 722e c5d5 f7bf dd98 9eb0 c483 0140
00000040: c39e 76f8 6b32 0bc0 5705 6a31 7818 ea3f
00000050: 07d3 307c 44cc f5bf 5856 9a94 82ee f5bf
00000060: 3c17 467a 51bb efbf 2714 22e0 106a 0640
00000070: a989 3e1f 65c4 cb3f 8306 51ad 742d a8bf
00000080: 7381 cb63 cd48 e33f e561 a1d6 34ef e13f
00000090: 8b6c e7fb a9f1 c43f dc4b 1aa3 7554 f63f
000000a0: e140 4816 3081 0140 787a a52c 431c f4bf
000000b0: e63f a4df bece 01c0 48c4 9448 a217 f6bf
000000c0: 516b 7969 b37f 80bf be30 992a 1815 01c0
000000d0: 670f b402 43b6 1140 acff 7398 2faf f0bf
000000e0: cd23 7f30 f05c fabf 52ee 3ec7 470b e8bf
000000f0: 4e44 bfb6 7efa dc3f 670c 7382 36b9 ebbf
00000100: 8c81 751c 3fd4 ed3f c494 48a2 97d1 0440
00000110: 7ccf edca d35e ad3f 46b1 dcd2 6a48 f7bf
00000120: 4264 ecdf 5053 9ebf 6614 cb2d ad06 f13f
00000130: b306 efab 72a1 e43f c22f f5f3 a622 0d40
00000140: a27e 17b6 662b d53f 7575 c762 9bd4 e7bf
00000150: d409 0d69 f926 b03f f8fe 06ed d5c7 c13f
00000160: 2d5b eb8b 84b6 fcbf 79e5 7adb 4c85 e0bf
00000170: cd75 1a69 a9bc f13f ccee c9c3 42ad f33f
00000180: e57e 87a2 401f f3bf fb57 569a 9482 d23f
-0.88253 -1.04093 0.324892 1.65057 -1.3145 -4.08518 -1.48969 2.18934
-3.39962 0.815487 -1.36237 -1.37073 -0.991616 2.80179 0.216931 -0.0472218
0.602637 0.56045 0.163625 1.39562 2.18808 -1.2569 -2.22595 -1.38077
-0.00805607 -2.1353 4.42799 -1.04277 -1.64769 -0.751377 0.452789 -0.866359
0.932159 2.60234 0.0573641 -1.45518 -0.0296147 1.06413 0.644708 3.64192
0.330774 -0.744703 0.0630947 0.138911 -1.79456 -0.516272 1.10856 1.2298
-1.19513 0.28922
