examples/submissions/2023_SoftComputing/data/ACAS XU/Networks/ACAS_XU_2_9.onnx (onnx, 108361 bytes, 14 tensors)

FC0_bias f8 [50]
0	0x3fd40e3cd9a52264	0.313369
1	0xbfcd61804d983947	-0.229538
2	0xbfe5d145d851654d	-0.681796
3	0x3fb7ffbb36a2537c	0.0937459
4	0xbfd7bd017dae8188	-0.370911
5	0xbfb701fb82c2bd7f	-0.089874
6	0x3fceda4ce8101f32	0.241037
7	0xbfb70876c706ba2e	-0.0899729
8	0x3f889f912a5f4f1b	0.0120231
9	0x3fb5672d35c3306c	0.0836056
10	0xbfb24f765fd8adac	-0.071525
11	0x3fbc053e2d6238da	0.109455
12	0x3fcb0329802c0a4a	0.211034
13	0xbfc9bd273d5bab22	-0.201085
14	0x3fa2f8990371a488	0.0370529
15	0xbfd2242070b8cfc0	-0.283455
16	0x3fc17e56473471f8	0.136668
17	0xbfe4675147f13059	-0.637612
18	0x3fb72c625e99e94b	0.090521
19	0xbf91acaf20139bbe	-0.0172603
20	0xbfd42ecf20642396	-0.315357
21	0x3fb5d0e48981f461	0.0852187
22	0xbfdea78af3e468cb	-0.478976
23	0xbfda1858bc59b802	-0.407736
24	0xbfbe837f7be121ee	-0.119194
25	0x3fbd700cd855970b	0.114991
26	0xbfdda5c5f7c6759b	-0.463243
27	0xbfd6507e9d94d0dd	-0.348663
28	0xbfd67bd48cb4aec9	-0.351308
29	0xbfd0eae18ac9f2fe	-0.264336
30	0xbfcb6366d7a56de3	-0.213971
31	0xbfb2d1526d8b1dd6	-0.0735065
32	0x3fc1bb73083558a7	0.138533
33	0xbfdfd616f86a0989	-0.497442
34	0x3fc2d8ba40d90e24	0.147239
35	0x3fbf04ff43419e30	0.12117
36	0x3fa806cd799af691	0.0469269
37	0x3fccf5989df1172f	0.226245
38	0x3f9a234076e894a9	0.0255251
39	0x3fa684090e9c7af5	0.0439761
40	0x3fa3c82d2adb75dd	0.0386366
41	0xbf9561cd7a71b626	-0.0208809
42	0xbfd4ec2480e8c8ac	-0.326913
43	0xbfca3afb7e90ff97	-0.204925
44	0xbfbe7e9531550ca2	-0.119119
45	0x3fbbc23315d701da	0.108432
46	0x3fcaae429e0a41a2	0.208443
47	0xbf78e876cc651de7	-0.00608107
48	0xbfe03042528ae74f	-0.505891
49	0x3fe28229a5ebb774	0.578389

FC0_weight f8 [5, 50]
0	0x3fa042b734b51373	0.031759
1	0x3fca367e414e7ee9	0.204788
2	0xbf7d80eca4838281	-0.00720303
3	0x3f7175485685f39f	0.00426224
4	0xc0030ba732df505d	-2.38069
5	0xbfba01eeed8904f7	-0.101592
6	0xbf818c68ae952947	-0.00856859
7	0xbfc4c0ad03d9a954	-0.16213
8	0xbf5fe8be1a0188ec	-0.00194758
9	0xbfe6805814940bbb	-0.703167
10	0xbfe3d5c31593e5fb	-0.619844
11	0x3fb6990a27a12eb9	0.0882727
12	0x3f970e75e488ab35	0.0225161
13	0x3fd4e17e34b94531	0.326263
14	0xbfbfb69984a0e411	-0.12388
15	0xbfafc1b39416a2da	-0.0620247
16	0x3fdea88effe2a3cf	0.479038
17	0xc0054a771c970f7c	-2.66136
18	0xbfbca6223e186983	-0.11191
19	0xbfe30af3e468cac5	-0.595087
20	0x3fb113165d3996fb	0.0666975
21	0xbfc72745bf26f1dc	-0.180886
22	0x3f8433d6c7219221	0.0098645
23	0x3f964020817fc760	0.021729
24	0xbf76fb4c3c18b503	-0.00561075
25	0xbf952d2a04b64826	-0.0206801
26	0xbf9cf48a80f7e224	-0.0282766
27	0x3f656054539451b1	0.00260941
28	0x3f9de6439657c5ba	0.0291987
29	0xbf1080b9756d6f8e	-6.29533e-05
30	0xbf96a75bf9fbda01	-0.0221228
31	0xbfe7464345cfede9	-0.727327
32	0xbf8d4b2745bf26f2	-0.0143035
33	0x3f8e2328f9f44d44	0.0147155
34	0x3f9a2b1dbafbe9f1	0.0255551
35	0xbfa0804102ff8ec1	-0.0322285
36	0x3f908b8a0c5ddc54	0.0161573
37	0x3faf383f0bae89ec	0.060976
38	0x3fac74213a0c6b48	0.0555735
39	0x3fdbff0cbaf965b2	0.437442
40	0x3fada64d06431020	0.0579094
41	0xbfc47a41e57d9dbb	-0.159981
42	0xbfd02d5171e29b6b	-0.252766
43	0xbfd262f9ca5bd945	-0.287291
44	0x3fc2158750c1b973	0.141282
45	0x3fbb80a9de8b3b32	0.107432
46	0xbf9175dea96e22f3	-0.0170512
47	0x3fa4696879661d6b	0.0398667
48	0xbf970fe6fdd07ad7	-0.0225216
49	0x40005ab4b72c5198	2.04429
50	0xbffbb4c1a8ac5c14	-1.73163
51	0x3ff8ae9ccb7d4174	1.54263
52	0xbfb0ea762aff880b	-0.0660776
53	0x3fe509c1b54195cd	0.657441
54	0x3fa2a8b23b510ee6	0.0364433
55	0xc000d0f51ac9afe2	-2.10203
56	0x3fc07c84b5dcc63f	0.1288
57	0xbf837cd365424f05	-0.00951543
58	0xc003a6516db0dd83	-2.45621
59	0x3f952403eb470b57	0.0206452
60	0x3fba3d4f15e7c8d2	0.102498
61	0xbfe36a7264a16a48	-0.606744
62	0x3ff4fa82e87d2c7c	1.31116
63	0xbff64322291fb3fa	-1.39139
64	0x3fae9691a75cd0bb	0.0597425
65	0x40050c0053e2d624	2.63086
66	0x3fd13cb81733226c	0.269331
67	0x3fbe856605ee568a	0.119223
68	0x3fcd95464dc22ab2	0.231118
69	0x3fb9a57646ae3a3b	0.100181
70	0x3ff0ab7564302b41	1.04186
71	0xbfc88909289dadfb	-0.191682
72	0xbfebcf2f123c42a6	-0.869041
73	0x3fc070c996b7670a	0.128442
74	0xbfe74f8d716d2aa6	-0.728461
75	0x3fe0d095af294dd7	0.525462
76	0x3fed5113836a832c	0.916147
77	0x3ff16e6d9be4cd75	1.08946
78	0x3fd20e8858ff7597	0.282137
79	0xbff6da9a8049667b	-1.42837
80	0x3ff21bda5119ce07	1.1318
81	0xbfc316a055757d5b	-0.149128
82	0xbfe2b2031ceaf252	-0.58423
83	0x3febb71da37ef5a9	0.866103
84	0xbfe18ff972474539	-0.548825
85	0xbfdafba450acc0be	-0.421609
86	0x3ffd8b04ab606b7b	1.84644
87	0x3fec152f3c2dadb8	0.877586
88	0xbfdbc6e2a80064aa	-0.434014
89	0x3ff0d48a9bcfd4bf	1.05189
90	0x3fcca63305100a39	0.223822
91	0x3fece9d7342edbb6	0.903545
92	0xbffac71b47842310	-1.67361
93	0x3ff1404ea4a8c155	1.0782
94	0x3ffee6cf41f212d7	1.93135
95	0x3fd06a6a012599ed	0.256495
96	0xbfba14df8b157258	-0.101881
97	0x3fe1e82b62845996	0.559591
98	0xbff45cfaacd9e83e	-1.2727
99	0x3f95c4e4a0fee8a9	0.0212589
100	0xbfb66297a4ccd383	-0.0874419
101	0xbfc28c9320d9945b	-0.144915
102	0xbf8b981966d952ed	-0.0134737
103	0x3fe0309a671ef30a	0.505933
104	0x3f799aa60913a4f8	0.006251
105	0xbffaf05a708ede55	-1.68368
106	0xc0088029f16b11c7	-3.06258
107	0xbfb1126b3c8efc88	-0.0666873
108	0xbfd06976bc1effa0	-0.256437
109	0x3f6b44efc926242c	0.00332877
110	0xbfb6d670ba7d3ef0	-0.0892096
111	0xbffbe15ca6ca03c5	-1.74252
112	0x3fac663c74fb54a0	0.0554675
113	0x3fbf95b35b0bbf51	0.123378
114	0x3fa918be3ce7111c	0.0490169
115	0x3fe8b2031ceaf252	0.77173
116	0xbfeb160956c0d6f5	-0.84644
117	0xbfcf6073de1e2de8	-0.245131
118	0xbfc05f06f6944674	-0.1279
119	0x3ff132aae297396d	1.07487
120	0xbff62e924f227d03	-1.38637
121	0x3fd78a2ec28b2a6b	0.367809
122	0x3ff2782d38476f2a	1.15434
123	0x3f935d610426d62e	0.0189109
124	0xbfc1eb4a66559f6f	-0.139993
125	0x3fcb2deca25529fe	0.212339
126	0xbff38c692f6e8295	-1.22178
127	0xbff114a4d2b2bfdb	-1.06754
128	0xbfd4a4873365881a	-0.322542
129	0x3ff7e6516db0dd83	1.49373
130	0xbfd10852b4d8ba41	-0.266133
131	0x3f66b34008d99862	0.00277102
132	0x3fe909374bc6a7f0	0.782375
133	0xbff1660807357e67	-1.08741
134	0x3ff8a4e7ab756430	1.54026
135	0xbfd4bc48f10a99b7	-0.323992
136	0x3fd05c5718eb8950	0.255636
137	0xbff67a97e132b55f	-1.40493
138	0xbfa1d154f1c9dc58	-0.0348002
139	0xbfe896c1e364bec6	-0.768403
140	0x3fc1c5cdd50a88f0	0.138849
141	0xbfeaa9307af20ea6	-0.833153
142	0x40014ab606b7aa26	2.16148
143	0xbffcdb4245f5ad97	-1.80353
144	0xbfcbda9435ac8a37	-0.217608
145	0xbfd51ede1198aeb8	-0.330009
146	0xbffb93e81450efdd	-1.72361
147	0x3fec9c92ddbdb5d9	0.894113
148	0x3ff83c74fb549f95	1.51476
149	0xbf73c66b89bbd605	-0.0048279
150	0x3fcf836a832b990b	0.246198
151	0x3fd5ee17a02fb5d0	0.342657
152	0xbf50bd1c55a11c45	-0.00102165
153	0xbfcf27e52157689d	-0.243405
154	0xbfa3104ba79e3f1b	-0.0372337
155	0x3fe0ea854477ff15	0.528628
156	0x3fcd09a671ef30a5	0.226857
157	0xbfe651aa821f2991	-0.697469
158	0x3fd964a59c065b64	0.396768
159	0xbfa113836a832b99	-0.033352
160	0x3fe8e4388ebcc6c5	0.777859
161	0xbfe0086bdf4c2b52	-0.501028
162	0x3fc71758e219652c	0.1804
163	0x3fd344fa05143bf7	0.301085
164	0x3fc17b4a2339c0ec	0.136575
165	0x3fb7461d1ac2f9e5	0.0909136
166	0xbfa11a75cd0bb6ed	-0.033405
167	0x3fbd5011904b3c3e	0.114503
168	0xbfeacf1a1986b9c3	-0.837781
169	0x3fd3dba4d6e47dc3	0.310281
170	0x3fba59c065b63d3e	0.102932
171	0xbfe48563ed0f6274	-0.641283
172	0xbfc0a8112ba16e7a	-0.130129
173	0xbff146c764adff82	-1.07978
174	0x3fc6c1a048e043a2	0.177784
175	0xbfb00bd0ee9a7cee	-0.0626803
176	0xbfb73efbbe51dfc7	-0.0908048
177	0xbf881c3b9fe93ef3	-0.0117726
178	0xbfc0406c00da1a93	-0.126966
179	0x3fda9fb1e18efbb1	0.415997
180	0x3fb33e6ed0983368	0.0751714
181	0x3fc11c53f39d1b2e	0.133677
182	0x3fc407b352a84381	0.156485
183	0xbfb89340ba04732c	-0.0959969
184	0x3faf84cad57bc7f7	0.06156
185	0xbfcd4bcf0b6b6e0d	-0.228876
186	0x3fcce19b90ea9e6f	0.225635
187	0x3f94bba7e15af94b	0.0202471
188	0xbfc56d22424a276b	-0.167393
189	0xbfc3fd2630ec3116	-0.156163
190	0xbfc7daceee0f3cb4	-0.186365
191	0x3fb4a875d56f32be	0.0806955
192	0xbfcaa6c1a048e044	-0.208214
193	0xbfbdb1422ccb3a26	-0.115986
194	0x3fd8e0157eed45e9	0.388677
195	0xbfdd835dedf1e083	-0.461143
196	0x3fe6a6aa8eb46349	0.707845
197	0x3fdeb3743632c1f4	0.479703
198	0xbfadcde276823d5d	-0.0582114
199	0x3f69449f97348f7f	0.00308448
200	0x3fc5c7c5260f5e42	0.170159
201	0xbfdae7967caea748	-0.420385
202	0xbffec970f7b9e061	-1.92418
203	0x3fc1db3bfb58d152	0.139503
204	0xbf7974805a83593b	-0.00621462
205	0xbfd4a58b3f63c31e	-0.322604
206	0xbf7a57214f0520d1	-0.00643075
207	0x3fdd1ab8e8ea39c5	0.454756
208	0xbfd13cf2cf95d4e9	-0.269345
209	0xbfc8a2ec28b2a6b1	-0.192472
210	0xbfec681669ced0b3	-0.887706
211	0x3fe19eb2074ea8da	0.550622
212	0x3fb8654add73e3fd	0.0952956
213	0xbfe172a5a469d734	-0.545245
214	0x3fa18a796b25e8c8	0.0342596
215	0xbfd0a8b8f14db595	-0.260298
216	0x3fc2c5e2cdc011d3	0.146664
217	0x3f99e2b6431d8c02	0.0252789
218	0x3fece7ee9142b303	0.903312
219	0x3fdda597d49d7ba6	0.463232
220	0xbfca68661ae70c13	-0.206311
221	0x3fe815f88fc9363f	0.752682
222	0x3fd64d2b2bfdb4cc	0.34846
223	0xbfc9eaee2003ab86	-0.202482
224	0x3fd51294573a7979	0.329259
225	0x3fc960d887ebf22c	0.198268
226	0x3fd0e820e6299525	0.264168
227	0x3fd0023a6ce3582a	0.250136
228	0xbfe5e93e1c9b413a	-0.684722
229	0xbfe39018e757928e	-0.61134
230	0xbfe51c79b34a44c8	-0.659726
231	0x3fb8545ba1e745f5	0.0950372
232	0xbfdbc8bc9cd3e0bd	-0.434127
233	0x3fc9958969a0ad8a	0.199876
234	0x3fce7807789a4591	0.238038
235	0xbfbd01083dbc2331	-0.113297
236	0xbfbb02602c9081c3	-0.105505
237	0x3fe912ee84ad794a	0.783561
238	0x3fca1e1d2178f68c	0.204044
239	0x3fd41f85d744f5d3	0.314424
240	0x3fc6039abf338716	0.171985
241	0xbfd7b4c7f3493858	-0.370409
242	0x3fe9896787ce95fb	0.798023
243	0x3fd874299d883ba3	0.38209
244	0xbfe09409a2403148	-0.518071
245	0x3fdb2220bc382a13	0.423958
246	0xbfe506f47b677f6b	-0.657099
247	0x3f9c7340697c9b5c	0.0277834
248	0x3fd8d5992428d435	0.388037
249	0x3fa3d7a497239d94	0.0387546

FC1_bias f8 [50]
0	0x3fd4821af7d30ad4	0.320441
1	0xbf79d129feac17f6	-0.00630299
2	0xbff2c52e72da1230	-1.17314
3	0xbf861233086b088d	-0.0107769
4	0xbf8425eb4c13d4c9	-0.00983795
5	0x3fd0649d388a8b09	0.256141
6	0xbfac7859adf13f73	-0.0556057
7	0xbfeff5f4e4430b18	-0.998774
8	0x3fa686eb412c1a3a	0.0439981
9	0xc002953cddd6e04c	-2.32287
10	0xbfdecaea747d805e	-0.481135
11	0xbff3ff822bbecaac	-1.24988
12	0x3feb807357e670e3	0.85943
13	0xbf7c7fc58809fa2a	-0.00695779
14	0xbfa1e44fa05143bf	-0.034945
15	0x3fe2bdf6db940fed	0.585689
16	0xbfee131a8ef77f28	-0.939832
17	0x3fec3c579f234656	0.882366
18	0x3fc8c81d3aa369fd	0.193607
19	0xbf974b97ae070ee8	-0.0227493
20	0xbf7aedba0244d3c5	-0.00657437
21	0xbf9443477d6d1329	-0.0197879
22	0x3fec2ee84ad794a7	0.880726
23	0xbfd43e9ea1405708	-0.316322
24	0x3fb2bb55ac03ff69	0.073171
25	0xbf925a54096c904c	-0.0179227
26	0xbf95d5f56a7ac81d	-0.021324
27	0xbfcedf2ecf206424	-0.241186
28	0xbf9e861e92923e5c	-0.0298085
29	0xbf79af7929e27c8c	-0.00627086
30	0xbfc7deacc92146a2	-0.186483
31	0xbf936b96510fbd0c	-0.0189651
32	0x3fd44cb9ecf63800	0.317183
33	0xbfde8869c66d373b	-0.477076
34	0xbf876bc1eff9f87f	-0.011436
35	0xbfd464388ebcc6c5	-0.318617
36	0x3fc9c65c70435efa	0.201366
37	0xbf813f6ed5cba403	-0.00842177
38	0xbff80f7121ab4b73	-1.50377
39	0xbf88382001fe0701	-0.0118258
40	0x3ff9eb5b2d4d4025	1.61996
41	0xbff27e90ff972474	-1.1559
42	0x3fd50f55de58e64b	0.329061
43	0xbfcf6ba8c586876e	-0.245473
44	0xbfc6604e1e71044f	-0.174814
45	0x4002b1465e892253	2.33656
46	0x3fee2fd5454152b1	0.943339
47	0xbfc856de33269df9	-0.190151
48	0x3fe7f952d234eb9a	0.749185
49	0x3ff5d4fdf3b645a2	1.3645

FC1_weight f8 [50, 50]
0	0xbfd18e53eb399f5e	-0.274312
1	0x3f9a5a906f4e6c75	0.0257361
2	0x3fabba5fe2bea699	0.0541563
3	0xbf82f87d7fb292ba	-0.00926302
4	0x3f94351230842c4a	0.0197337
5	0xbff0a10e02214270	-1.03932
6	0xbfae73888dd89b37	-0.0594752
7	0x3f975c8033970641	0.0228138
8	0x3fdf7739f340d4dc	0.491652
9	0x3fcffb9bed30f063	0.249866
10	0xbfeb12684cf0739b	-0.845997
11	0x3fa6075c14d3cc9b	0.0430249
12	0xbfdeb11409a24031	-0.479558
13	0x3fa864b083c0ea40	0.0476432
14	0xbf935d249e44fa05	-0.01891
15	0xbfc9cdb37c99ae92	-0.20159
16	0xbff30cb295e9e1b1	-1.1906
17	0xbfdd370cdc8754f3	-0.456485
18	0xbfd6fbca1059ea57	-0.359118
19	0xbfa7c06408be14a3	-0.0463897
20	0x3f813ba72014f357	0.00841456
21	0xbfaa52a91a401d27	-0.0514119
22	0xbfb2a92e62131a8f	-0.072894
23	0xc001720d9945b6c3	-2.18069
24	0x3fc8295208e15012	0.188761
25	0xbfd7120e1f7d73c9	-0.360477
26	0x3f9022bbecaab8a6	0.0157575
27	0x3f7a92adc21a9730	0.00648754
28	0xbfa1ff609dcf8940	-0.0351515
29	0x3f878a0fb8daa781	0.0114938
30	0x3fd5ac4b4d056c51	0.338641
31	0xbfa57903f7dc4510	-0.0419389
32	0x3fa520875f047256	0.0412638
33	0x3fd916659d12cade	0.391992
34	0xbf963dcb3ca9d47a	-0.0217201
35	0xbfd3e9a2c669057d	-0.311135
36	0x3fd3d4f15e7c8d19	0.309872
37	0x3f8160a8366a753f	0.00848514
38	0xbfe275d78811b1d9	-0.576885
39	0xbfabb715ab62efb9	-0.0541312
40	0x3fd90c564f97edc8	0.391378
41	0xbfdefcdee34fc611	-0.484184
42	0xbfe399567dbb16c2	-0.612468
43	0x3fc977e1b8ed1bf8	0.198971
44	0x3fe32962cfd8f0c7	0.598802
45	0x3fd2a68f4b61fe22	0.291416
46	0x3fc375ea67e846a6	0.152036
47	0xbff44f0307f23cc9	-1.26929
48	0xbfc280cf9e3864cb	-0.144556
49	0x3fb8630b68130ed0	0.0952613
50	0x3fdd01f31f46ed24	0.453244
51	0xbf9b57b0c0fd8bb1	-0.0267017
52	0xbfedbf0dc768dfbd	-0.929572
53	0xbf8b08065ebed238	-0.0131989
54	0xbf9c8183225ecf99	-0.0278378
55	0x3fc90bf1a5ca2984	0.195677
56	0xbfa5344b61276245	-0.0414146
57	0xbfa3fb521b55c6dc	-0.0390268
58	0x3fe38c47a17f4129	0.610874
59	0x3ff4e3f141205bc0	1.30565
60	0xbfe00fd199bb2789	-0.501931
61	0xbfacafb71250649c	-0.0560281
62	0x3fe4d6c0d6f544bb	0.651215
63	0xbfa65b20b8066c2b	-0.043664
64	0xbf50488588733433	-0.000993853
65	0xbf9f3b85e80bed74	-0.0305005
66	0xbfc8088d6d3b6cbe	-0.187761
67	0x3feb67fb267c6b8b	0.856443
68	0x3fcb055b89939219	0.211101
69	0x3f94d891fced2609	0.0203574
70	0x3f949b9f2d575120	0.0201249
71	0x3f8a7206ad992adf	0.0129128
72	0xbfd9c918e325d4a6	-0.402899
73	0xbfc49802c0a4a05e	-0.160889
74	0xbfe616fc9bc77143	-0.690306
75	0x3fd1e72da122fad7	0.279735
76	0xbf9b45f831d56522	-0.0266341
77	0x3fb7ccdb0f85af01	0.0929696
78	0xbf967924af0bf1a6	-0.0219465
79	0x3fa0b4e11dbca969	0.03263
80	0xbfe0019f3c70c997	-0.500198
81	0x3f78a9748309b536	0.00602098
82	0xbff4c1a8ac5c13fd	-1.29728
83	0x3fea2bf11f926c7f	0.817864
84	0xbfa7545c78a6dacb	-0.0455655
85	0xbff315810624dd2f	-1.19275
86	0xbff0fb5f1bef49cf	-1.06137
87	0x3fa2b73b6b101953	0.0365542
88	0xbff1777af640639d	-1.09167
89	0xbfa8b76c1277d1c9	-0.0482744
90	0xbfd2d84901d19158	-0.294451
91	0x3feb41db0142f61f	0.851789
92	0xbfcb10c2c5e2cdc0	-0.211449
93	0xbfe32d9ad85dfa87	-0.599317
94	0xbfeed6cd6c2efd44	-0.963721
95	0x3ff46bce8533b107	1.27632
96	0x3fe3f2778140dd40	0.623348
97	0x3ff6d77d955714ba	1.42761
98	0x3fd7f30e7ff583a5	0.37421
99	0xbfd4788db0574b40	-0.319858
100	0xbfd0ef0ae536501e	-0.26459
101	0x3f7149b179e015d5	0.00422067
102	0xbff094e3bcd35a86	-1.03635
103	0xbf92b10ba6266fd6	-0.0182535
104	0xbf55f1030cfaba46	-0.0013392
105	0x3fd10e496ededaec	0.266497
106	0xbfa2a79f15da5cd8	-0.0364351
107	0xbfd2d4b6a619da9d	-0.294233
108	0x3f977effba5fe2bf	0.0229454
109	0x3ffd38476f2a5a47	1.82624
110	0xbfc451d25aab4741	-0.158747
111	0x3fb30e7aed062838	0.0744397
112	0x3fd19008205ff1d8	0.274416
113	0x3f86a4e52736a5ae	0.0110567
114	0xbf6dc8e35e33bcf1	-0.00363583
115	0x3fefad01c0ca600b	0.989869
116	0xbff2c9320d9945b7	-1.17412
117	0x3ffd9b52007dd441	1.85042
118	0xbfda98d045fe1112	-0.415577
119	0x3f9170138e523dba	0.0170291
120	0xbf9ed3f331bb63ef	-0.0301054
121	0xbfa38ed875777b62	-0.0381992
122	0xbfdbb6390c9107fb	-0.432997
123	0x3ff2cc78e9f6a93f	1.17492
124	0x3fff49a5657fb69a	1.95548
125	0x3fd4cea6c1a048e0	0.325113
126	0x3f9deb95e5aff2a1	0.029219
127	0x3f58f67bc7cc87d8	0.00152361
128	0x3fa173174ed11e6b	0.0340812
129	0xbf9fab9da81c135c	-0.0309281
130	0xbfca950763a19008	-0.207673
131	0xbf6b64eb11307ef9	-0.00334402
132	0x3fd86e935b91f70e	0.381749
133	0xbfe78f40e5a35d68	-0.736237
134	0xbfa7a175302dc535	-0.0461537
135	0x3feab4373f316e37	0.834499
136	0x3fe6c0ebedfa43fe	0.71105
137	0xbf900a9732b70c71	-0.0156654
138	0x3fe383f2d3c792d1	0.609857
139	0x3fa12051af1f3cdc	0.0334497
140	0xc00e09667b5f1bef	-3.75459
141	0xbfe089acbc8c0ce9	-0.516806
142	0x3fa639b456b441bc	0.043409
143	0x4000f7b9e060fe48	2.12096
144	0xbfd660bf5d78811b	-0.349655
145	0xc00f214cec41dd1a	-3.89126
146	0xc008b0d306a2b170	-3.08634
147	0xbfcbba8826aa8eb4	-0.21663
148	0xbff9d09bf9c62a1b	-1.61343
149	0xbfe063886594af4f	-0.51215
150	0xbfcac8366516db0e	-0.209235
151	0x3fa2877ee4e26d48	0.03619
152	0xbffc0995aaf78fef	-1.75234
153	0xbf6b978b2186b86b	-0.00336816
154	0xbf9f961ebad62a44	-0.0308461
155	0xbf96cac6624f8071	-0.0222579
156	0xbf89dc64f044a11a	-0.0126274
157	0xbfa33ba0bffe8831	-0.0375643
158	0xbfa4088bbfbc4312	-0.0391277
159	0x400ddf01b866e43b	3.73389
160	0x3fe60a350d2806af	0.688746
161	0xc00080bcbe61cfff	-2.06286
162	0x3f4e3676df856128	0.00092202
163	0x3f4dadcc11cd1832	0.000905728
164	0x3fa2176a7fd09ab8	0.0353349
165	0x3fc6fc71d6063172	0.179579
166	0xbfcc7e9531550ca2	-0.222613
167	0xbfac0218def416be	-0.0547035
168	0x3fe09ba7fc32ebe6	0.519001
169	0xbfa6849957547aac	-0.0439804
170	0xbf904d76ab5807ff	-0.0159205
171	0x3f8c25a8303551f1	0.0137437
172	0x3fd7c85c24c404a7	0.371604
173	0xbff661f9f01b866e	-1.39892
174	0x3fc2a51e321a2e7f	0.145664
175	0xbfa23a84604c70f2	-0.0356027
176	0x3f746eed1da52c75	0.0049886
177	0xbfd498c3b0c4588a	-0.321824
178	0x3f9a2298b13c4d8e	0.0255226
179	0x3f881c3b9fe93ef3	0.0117726
180	0x3fd1b53d640e9d52	0.276687
181	0xbf97098ef4fae940	-0.0224974
182	0x3ff279873ffac1d3	1.15467
183	0xbfd24c0df58c08b7	-0.285892
184	0xbf95694614b7472a	-0.0209094
185	0x3fe2ea854477ff15	0.591128
186	0xbfebde33269df97b	-0.870874
187	0xbf86782c6187da54	-0.0109714
188	0x3fd10a73f748a15a	0.266263
189	0x3f992c351230842c	0.0245827
190	0x3ff8ca2db61bb060	1.54936
191	0xbfe30c0485a0be51	-0.595217
192	0x3fd2aacd9e83e426	0.291675
193	0xbff6a085b18548aa	-1.41419
194	0x3ff1e1b089a02752	1.1176
195	0x3f90fc9a19f2198d	0.0165886
196	0xbfc7508f648c7193	-0.182146
197	0xbfc2408d8ec95bff	-0.142595
198	0xbfe671455219a848	-0.701327
199	0xbfdc95dd4c76d118	-0.446647
200	0x3fd0c4f3ba775fb3	0.262021
201	0x3fa389eacfed12bd	0.0381616
202	0xbffd64a38327674d	-1.83707
203	0xbf77fcd959f8efc0	-0.00585637
204	0xbf9d57074dd21aea	-0.0286523
205	0xbfd132f87ad080b6	-0.268736
206	0xbfa400ccae99dbdf	-0.0390686
207	0x3ff33ae685db76b4	1.20188
208	0x3fcf77b7c7820a31	0.245841
209	0xbfe693037d63022e	-0.705446
210	0x3fea7bd05af6c69b	0.827614
211	0xbfdfd1526d8b1dd6	-0.497151
212	0xbfb049b555b7c27a	-0.0636247
213	0xbfa2ec8d5c74751d	-0.036961
214	0xbf96d51a79280a0a	-0.0222973
215	0x3ff9ae297396d091	1.60502
216	0x3fcea704bc27631b	0.239472
217	0x3fdd37542a23bff9	0.456502
218	0x3fe26f459d99029b	0.576083
219	0x3f94f63eb61e349e	0.0204706
220	0xbf9c03c9b91c15e0	-0.0273582
221	0x3f7a2217d7e3006b	0.00638017
222	0xbfd26e9ff0cbaf96	-0.288002
223	0xbfe08cb295e9e1b1	-0.517175
224	0xbfd17b7c7820a30e	-0.273162
225	0xbfdc855da272862f	-0.44564
226	0xbf7914ec76356669	-0.00612347
227	0x3fbffd50225742dd	0.124959
228	0x3f8e63db71ab3e07	0.0148389
229	0x3f7115e21487a175	0.00417126
230	0xbfdf878316a05575	-0.492646
231	0xbf61d98c22e384ca	-0.00217893
232	0x3fd2bedfa43fe5c9	0.2929
233	0x3fca323358f2e05d	0.204657
234	0xbf959c99ff1a26f3	-0.0211052
235	0x3fbb601797cc3a00	0.106935
236	0x3ffcecb5350092cd	1.80779
237	0xbf8f161d78b6cb03	-0.0151789
238	0xbfdb991ff7164c73	-0.431221
239	0xbf820531c31b9e16	-0.00879897
240	0xbff2daceee0f3cb4	-1.17842
241	0x3fedeea854477ff1	0.935383
242	0x3fb67235a781b9a9	0.0876802
243	0xbff37f77af64063a	-1.21862
244	0x3fb7ced769080156	0.0929999
245	0xbff875b813016484	-1.52874
246	0xbfd03efae7924af1	-0.253844
247	0xbfe807a8d64d7f0f	-0.750935
248	0xbfdc9f83be6601bd	-0.447236
249	0xc008b3d07c84b5dd	-3.0878
250	0xbf7bf35e061aa141	-0.00682389
251	0xbfa8378fb946074b	-0.0472989
252	0xbfd7577531db445f	-0.364713
253	0x3fa13586ca89fc6e	0.0336115
254	0x3f7431a061090461	0.00493014
255	0xbfe3d942917507ea	-0.620271

FC2_bias f8 [50]
0	0xbffe63bcd35a8588	-1.89935
1	0x3feb10f51ac9afe2	0.84582
2	0xbff0633eff195033	-1.02423
3	0x3fb740c4156e264e	0.090832
4	0xbff833721d53cddd	-1.51256
5	0xc009932b55ef1fde	-3.19686
6	0xc007d495182a9931	-2.9788
7	0x3fb245f0a519299d	0.0713797
8	0xbf9fdf8bec31ece2	-0.0311262
9	0xbfe7e12e83a109d0	-0.746238
10	0x3ff7d25edd052935	1.48886
11	0x3fda12b1b36bd2b7	0.407391
12	0xbfe1a53fc0096feb	-0.551422
13	0x3fc4a2e3c536d656	0.161221
14	0x3fcd5df6555c52e7	0.22943
15	0xbff4e9f6a93f290b	-1.30712
16	0xbfceacaff6d33094	-0.239645
17	0xbff8db8130164841	-1.55359
18	0xbfdd31a4bdba0a52	-0.456155
19	0xbfdd33c60029f16b	-0.456285
20	0xbfa90540b1a0f75c	-0.0488682
21	0xbffee0bf5d78811b	-1.92987
22	0x3ff186a2b1704ff4	1.09537
23	0x3fc6acfb762d83c7	0.177154
24	0xc000ebe37de939eb	-2.11518
25	0xbfed4b5bb384fd2a	-0.915449
26	0xbfc411ba3ca7503c	-0.156791
27	0xbf95bf6a0dbad3a6	-0.021238
28	0xbff1bf9c62a1b5c8	-1.10928
29	0xbff62d6cb5350093	-1.38609
30	0xbff6c5b6c3760bf6	-1.42327
31	0xbff1044284dfce31	-1.06354
32	0xbf98830bb89ae6a1	-0.0239374
33	0x3ff3eb463497b741	1.24494
34	0xbf9b970cf75f478e	-0.0269434
35	0xbfd376a2f48c2e77	-0.304116
36	0xbff9262cba732df5	-1.57182
37	0xbfeef9c1f85d744f	-0.967988
38	0xbfd47b8d3f1843c4	-0.320041
39	0xbff14855da272863	-1.08016
40	0xbfc4a79bbadc0981	-0.161365
41	0xbff01042d8c2a455	-1.00397
42	0xbfe8c0639d5e4a38	-0.773485
43	0xbf7027a02d069e55	-0.00394404
44	0x3fe74c942d490e67	0.728098
45	0xbfe88151a437824d	-0.765786
46	0xbfe523e5b8561d43	-0.660632
47	0xbff3549f94855da2	-1.20816
48	0xbfc6af9a8cdea034	-0.177234
49	0xc007ebedfa43fe5d	-2.9902

FC2_weight f8 [50, 50]
0	0x3fc1075b3e1437c5	0.133037
1	0x3ffcb30941c8216c	1.79371
2	0xbfd1a62aa19439de	-0.275767
3	0x3fae18e90511b7b8	0.0587838
4	0x3fdfa3a8e71476b0	0.494364
5	0x3ff7c3aa79bbadc1	1.48527
6	0x3fef8f1d3ed527e5	0.98622
7	0x3fcd6d4c33b53932	0.229898
8	0xbf70a3e1c704e1bc	-0.00406254
9	0xbff2469d7342edbb	-1.14224
10	0x3fef43efae7924af	0.977043
11	0x3fe6262888b545c8	0.692158
12	0x3fd1a2f8bdec5f39	0.275572
13	0xbfd2966be7afa722	-0.290431
14	0x3ff8f396d0917d6b	1.55947
15	0x3fc9d2a62aa1943a	0.201741
16	0xbfbfaf31b152f3c3	-0.123767
17	0xbff9b92e1ef73c0c	-1.60771
18	0x3fd8c4113c68661b	0.386967
19	0xbfe8cf440af1cb8a	-0.775301
20	0xbfb07bc2183de467	-0.0643884
21	0x3feaf381d7dbf488	0.842225
22	0xbff1fa6defc7a398	-1.12364
23	0x3fd5a2c2374794ea	0.338059
24	0x3fff7c6fbd273d5c	1.96788
25	0x3fb39da9c99285a9	0.0766245
26	0xbfc240d0aaa7ded7	-0.142603
27	0x3f88afc47e49b1fb	0.012054
28	0xbff0b9eadd590c0b	-1.04539
29	0xbff53ab21815a07b	-1.32683
30	0xbff194a4d2b2bfdb	-1.09879
31	0xbf9c27fd750b44d8	-0.0274963
32	0x3f8057f5b54e55f9	0.00798027
33	0xbfeb8010c6f7a0b6	-0.859383
34	0xbfd025204af92296	-0.252266
35	0xbff7b66f9335d24a	-1.48204
36	0x3fd6b9ecf6380022	0.355098
37	0x3ff44f56eac86057	1.26937
38	0xbfdc9fec99f1ae2e	-0.447261
39	0x3fe9b1a6d698fe69	0.802936
40	0x3ff728f5c28f5c29	1.4475
41	0x3ffd035158b827fa	1.81331
42	0xbfc45b4aa9717df2	-0.159036
43	0xbf9b70336ec2557b	-0.0267952
44	0x3ff0c26fe718a86d	1.04747
45	0x3ff1461522a6f3f5	1.07961
46	0x3ff77a398201cd60	1.46734
47	0x3fdce5f30e7ff584	0.451535
48	0x3fcbf01b866e43aa	0.218265
49	0x3febd7bc7f77af64	0.870085
50	0xbf86615de8e96306	-0.0109279
51	0xbfa4011680750566	-0.0390708
52	0x3f9799d0f6fdf8bf	0.0230477
53	0xbf957a06565b5668	-0.0209733
54	0xbf918dc047834c50	-0.0171423
55	0x3f92d9ad85dfa872	0.0184085
56	0xbf9b23c932e458db	-0.0265037
57	0xbf95c74e07cacf9d	-0.0212681
58	0xbf86876e1deacc92	-0.0110005
59	0x3fa5268b8503e05f	0.0413097
60	0xbfa453162789b1c5	-0.0396964
61	0xbfaa19256af393e1	-0.0509731
62	0x3fa3b950184647e3	0.0385232
63	0xbfa369410c39ca26	-0.0379124
64	0x3f9178f68be2f7b1	0.017063
65	0xbfa3e5ae45224900	-0.0388617
66	0xbf6acad1cae3689b	-0.00327054
67	0x3f9928756a0f6853	0.0245684
68	0x3fa19d37b3cb7407	0.0344026
69	0xbf6452ad76f12318	-0.00248083
70	0x3fa5860ea25a327b	0.0420384
71	0x3f9f06847e7f61e0	0.0302983
72	0x3f4413952a9678f5	0.000612686
73	0x3f98c020161ffcf6	0.0241704
74	0x3f8dd7b70b9a67f6	0.0145716
75	0xbfa5de8485355e87	-0.0427133
76	0xbfa67d424afe2b14	-0.0439244
77	0xbfa8728b37d706e2	-0.0477489
78	0xbf84f35c838e955a	-0.0102298
79	0x3fa3f034b0e1b4bb	0.038942
80	0x3f9a0a44fd60128f	0.0254298
81	0x3fa485e3da2f8bdf	0.040084
82	0x3f970493e377333d	0.0224784
83	0xbf89f0797a3f613f	-0.0126657
84	0x3f93d48cb4aec8d6	0.0193655
85	0x3f911976c98af8ed	0.0166987
86	0xbf95d5a4e2a2f7e7	-0.0213228
87	0x3f9ce3d7ab4d2044	0.0282129
88	0x3fa2b686396a84d9	0.0365488
89	0xbfa977531db445ed	-0.0497385
90	0xbf8a47df92a22e94	-0.0128324
91	0x3f6fe3a022f5a35b	0.00389272
92	0xbf9c66c607b6ada7	-0.0277358
93	0x3fa343c7d5ed06ff	0.0376265
94	0x3f31e9950d20828a	0.000273322
95	0xbfa0a8a9d7d53e8b	-0.0325368
96	0xbf840c54213f6acf	-0.00978914
97	0xbf96df1e0828c36e	-0.0223355
98	0xbf52a78cf749cdff	-0.00113858
99	0x3f9601e4dc8e0af0	0.0214916
100	0x3fe2da059a73b42d	0.589114
101	0xbff8cf0307f23cc9	-1.55054
102	0x3fe91da597d49d7c	0.784869
103	0x3fbd17d6b65a9a80	0.113645
104	0x3fee1a6937d1fe65	0.940724
105	0xbfc32146a1a500d6	-0.149453
106	0x3fdffb19e731d2e1	0.499701
107	0x3fac7b31cf85e4b1	0.0556274
108	0xbfa4c125cf9d61a5	-0.0405361
109	0xbfdc9f8c21e1d218	-0.447238
110	0x3fe176cce5f7403e	0.545752
111	0x3fd40f9d2bf55150	0.313453
112	0x3fca38da3c21187e	0.20486
113	0xbfc612f901083dbc	-0.172454
114	0x3fd5ee88df37329c	0.342684
115	0x3fe6ac96cc5fbf83	0.708568
116	0x3fd959ccfaeff5c7	0.396106
117	0xbfe97e2c55c96031	-0.796652
118	0x3f8177df5fa17b3a	0.00852942
119	0xbfc3a187a4a48f97	-0.153367
120	0xbfa090b417ca2121	-0.032354
121	0x3fd25bc87db2b346	0.286852
122	0x4001e8cbd1244a62	2.23867
123	0xbfe24df8b1572581	-0.572018
124	0x3fc00fba8826aa8f	0.12548
125	0xbfe705100a393ee6	-0.719368
126	0x3fd1983947496aad	0.274916
127	0xbf70724b76f6d762	-0.00401525
128	0x3fceb6ae7d566cf4	0.23995
129	0x3fd8fe82517e77d5	0.390534
130	0x3ffc18201cd5f99c	1.75589
131	0x3fd1095f2452c5a0	0.266197
132	0x3f95171e29b6b2af	0.020596
133	0x3fdba70d1fa33376	0.432071
134	0x3ffa80fba8826aa9	1.65649
135	0xbfc8a38327674d16	-0.19249
136	0xbfdb944aa53fc009	-0.430926
137	0x4001f5696e58a32f	2.24483
138	0x3fd3d12cadddf43c	0.309642
139	0x3fd8d2674080f990	0.387842
140	0x3fe0b526527a2058	0.522113
141	0xbfc54bad7d7c2ca1	-0.166372
142	0x3fe550dcfcc5b8dc	0.666121
143	0xbf94291e067b4444	-0.0196881
144	0x3fe1e3da2f8bdec6	0.559064
145	0x3fed0257c914b168	0.906536
146	0xbfca0f88333fc86d	-0.203599
147	0x3fc2e8c0485a0be5	0.147728
148	0x3fefa38b8ae31d71	0.988714
149	0x3feea3ee1bd1ed9e	0.957511
150	0xbf724643863c9a90	-0.00446154
151	0xbfa13a4c2c287cf7	-0.0336479
152	0x3f7687cc11bbea26	0.0055006
153	0x3f81932ec6670218	0.00858151
154	0x3f93ad553840b92e	0.0192159
155	0x3f998cceaffbdbae	0.0249512
156	0xbf9304ccee5abc0e	-0.018573
157	0x3f891361dc93ea2d	0.012244
158	0x3f74c734b26440c7	0.00507279
159	0x3f91ada0b79b0c60	0.0172639
160	0xbf9378e0bc6dd9f8	-0.0190158
161	0xbfa523373cad2f79	-0.0412843
162	0x3f92627b1f5b0f1a	0.0179538
163	0x3f7748bc31741652	0.0056846
164	0xbf90ca66c0ff3931	-0.0163971
165	0x3fa15d91ab8e8ea4	0.033917
166	0x3f86832ef40951b8	0.0109924
167	0x3f815b218ec60101	0.0084746
168	0xbf9d0c798b0658e0	-0.0283679
169	0x3f88fe260b2c83ed	0.0122035
170	0xbf97889e9f92d7de	-0.0229821
171	0x3f8559202cc631a8	0.0104239
172	0x3f5560240212d4c4	0.00130466
173	0x3fa6212e4df1249b	0.0432219
174	0x3faa053fdae16286	0.0508213
175	0xbf889caef7cfafd6	-0.0120176
176	0x3fa70a152cb7eeef	0.0449988
177	0xbf9dff6e09c8d69e	-0.0292947
178	0xbf9a4acf312b1b37	-0.025676
179	0xbfa28628a38d3862	-0.0361798
180	0xbf932371f50fe1f5	-0.0186899
181	0x3fabd31b9b66f933	0.054345
182	0xbf8b83dc98f2aaad	-0.0134351
183	0x3f88c5791b74d08c	0.0120954
184	0x3faf0ab99765e2b3	0.0606287
185	0x3fa47d87145bd797	0.0400202
186	0xbfa086162f166e01	-0.032273
187	0x3f5052b15b5fd5b1	0.000996278
188	0xbfa21b2016f6bc8a	-0.0353632
189	0xbf907d39e7825ab9	-0.0161027
190	0x3f0b2578ca1111bd	5.17776e-05
191	0xbf94f4e874c8ffb9	-0.0204655
192	0x3fa4cc8d0bec9d4d	0.0406231
193	0xbfa2c6ac215b9a5b	-0.036672
194	0x3fa20857bd563744	0.0352199
195	0xbf864246cc6d2b7d	-0.0108686
196	0x3f93dc41b4d63602	0.0193949
197	0xbf878415a3d6337e	-0.0114824
198	0xbf53a9b5c675f09d	-0.00120013
199	0xbf4cdff96926cee6	-0.000881192
200	0xbf96c56d5cfaacda	-0.0222375
201	0xbf6627799699dfe6	-0.00270437
202	0x3fa1780f05568116	0.0341191
203	0x3fa58ff0a36baa73	0.0421138
204	0xbf9619835ec4b175	-0.0215817
205	0xbfa032477ae8d46a	-0.0316336
206	0xbfa28e71476af89c	-0.036243
207	0x3f95cefc51f5961a	0.0212974
208	0x3fa643279cfcfb69	0.0434811
209	0xbfa2b1d19ec3a506	-0.0365129
210	0xbf9accdbe64543d7	-0.0261721
211	0x3fa20de672904055	0.0352623
212	0xbfa84761be60f93f	-0.0474196
213	0xbf664fe3173c06c1	-0.00272364
214	0x3fa2132eb0ed7336	0.0353026
215	0x3f98733d0e7e4804	0.0238771
216	0xbf97320890c839c0	-0.0226518
217	0x3faa2424a276b7ed	0.051057
218	0x3f6719c248e54c20	0.0028199
219	0xbf8e9f92d7de78c7	-0.0149528
220	0x3f9d07710d89557f	0.0283487
221	0xbfa49e2011177f79	-0.0402689
222	0xbf9251e9d79f8ea6	-0.0178906
223	0x3fa294b52e4a9626	0.0362908
224	0xbf7b550595ec1009	-0.00667288
225	0xbf531174f2704a6b	-0.00116383
226	0xbf9808fdd58354b4	-0.0234718
227	0xbfa00c7706c79a5e	-0.0313451
228	0x3fa5c7a1eaa0f32a	0.0425387
229	0x3fa68c11f19a0baf	0.0440374
230	0x3f8ba7abab141561	0.0135034
231	0x3f9acc631a818b86	0.0261703
232	0xbfa2a0cae642bf98	-0.036383
233	0xbf9d01aca86a16f5	-0.0283267
234	0xbf6b65cc8d8cc5f7	-0.00334444
235	0x3f7498c90f281116	0.00502852
236	0x3f855bda1b69e8d2	0.0104291
237	0xbfa44969d65d6f47	-0.0396226
238	0x3f95a58a68a42e48	0.0211393
239	0x3fa6316f0dd4d4d9	0.0433459
240	0x3fa940d32ee69d58	0.0493227
241	0xbfa24a6a875d56f3	-0.035724
242	0x3fa56422bf47a90c	0.0417796
243	0xbf96be95d264bc42	-0.0222114
244	0x3fa0d4f3e2bb4b9b	0.0328747
245	0xbfa20100b0ffe7ac	-0.0351639
246	0xbf990fe55051512b	-0.0244747
247	0xbf20a3777a1b354c	-0.000126942
248	0xbf6496d0668a4da1	-0.00251332
249	0x3f99071d2ab331f1	0.0244412
250	0x3fb15e39713ad5bf	0.067844
251	0x3fe140f88333fc87	0.539181
252	0x3fe9a5870da5daf0	0.801456
253	0x3fd3ec41dd1a21ea	0.311295
254	0xc0015b37c99ae925	-2.16954
255	0x3fcf76e6106ab14f	0.245816

FC3_bias f8 [50]
0	0xc013089a02752546	-4.7584
1	0x3fd84b167ec7863c	0.379583
2	0xbfe03953dea465a5	-0.506998
3	0x3ff1741f212d7732	1.09085
4	0xbff7eddaceee0f3d	-1.49557
5	0x3ff36de54b48d3ae	1.21433
6	0x3fdf73797460242d	0.491423
7	0x3fff4710cb295e9e	1.95485
8	0xbfd824c8366516db	-0.377245
9	0xbffc6b11c6d1e109	-1.77614
10	0xbff0ad2dcb1465e9	-1.04228
11	0x4000b8f9b13165d4	2.09032
12	0xc01148fd9fd36f7e	-4.32128
13	0x3ff05d590c0ad03e	1.02279
14	0xbf7c389821f54841	-0.00688991
15	0x3fce1a79fec99f1b	0.235183
16	0x3ff54e4649906cca	1.33161
17	0xc0076ad2dcb1465f	-2.92716
18	0x3fe871044f1a1987	0.763796
19	0xbfd6c7000431bde8	-0.355896
20	0xc00a535a858793de	-3.2907
21	0xbf98977e3666c45a	-0.0240154
22	0xc0181851eb851eb8	-6.02375
23	0xbfdb6ec9e236c15d	-0.428637
24	0xbfda92d1287c200c	-0.415211
25	0x3fe5fc1bda5119ce	0.687025
26	0x3fc176f6d7625205	0.136443
27	0x3ff261b089a02752	1.14885
28	0x3feffff36ac64778	0.999994
29	0x3ff75158b827fa1a	1.45736
30	0x3ff44c8366516db1	1.26868
31	0x3fe8073797460243	0.750881
32	0xbf9b29eb8bd4b4f9	-0.0265271
33	0xbff1e44523f67f4e	-1.11823
34	0x4005577d955714ba	2.66772
35	0x3ffaa0663c74fb55	1.66416
36	0xbff2c12ad81adea9	-1.17216
37	0x3ff43645a1cac083	1.26325
38	0xbffbae5de15ca6ca	-1.73007
39	0xc0039394317acc4f	-2.44706
40	0xc0006631f8a0902e	-2.0499
41	0xbfe35ea67e846a5d	-0.605304
42	0xbfe5854ac29bf163	-0.672521
43	0xbfc4be1eb4202d9d	-0.162052
44	0xbfda1b2a27f1b691	-0.407908
45	0x3fe294e7ee9142b3	0.580677
46	0xbff12550870110a1	-1.07161
47	0xbfd0df37329c347f	-0.263624
48	0xbfee2a19439de482	-0.942639
49	0xbff47d028a1dfb94	-1.28052

FC3_weight f8 [50, 50]
0	0xbfe4d4d834091c08	-0.650982
1	0xc0107f6a93f290ac	-4.12443
2	0x3ff5ef2a5a469d73	1.37089
3	0x4014319ce075f6fd	5.04845
4	0x4011815a07b352a8	4.37632
5	0xc0035a9fbe76c8b4	-2.41925
6	0x4011615ca6ca03c5	4.34508
7	0xbff2ddcc63f14120	-1.17915
8	0x3ff8cf41f212d773	1.5506
9	0x3fdce68e3ef28416	0.451572
10	0x3fd964bec679cc75	0.396774
11	0x4001c6540cc78e9f	2.22184
12	0x3ffaf689ca18bd66	1.68519
13	0x3fe29abb01c92ddc	0.581388
14	0x3f9a873bc903ea70	0.0259065
15	0x3fd534373f316e37	0.331312
16	0x3f88c692f6e8294a	0.0120975
17	0x3fdf83dff3f0fe04	0.492424
18	0xc011289a02752546	-4.28965
19	0x3fd41986b9c304cd	0.314058
20	0x401232e1ef73c0c2	4.54969
21	0x3ff6eae7d566cf42	1.43235
22	0x3feeb67e414e7ee9	0.959777
23	0x3fea878316a05575	0.829042
24	0xbfdf4d1e96c3fc44	-0.489082
25	0x3ffbc2c3c9eecbfb	1.73505
26	0x3fe4ab7baecd0785	0.645933
27	0xbfe67605ab3aabcd	-0.701907
28	0x3fd0c62e4d1a6506	0.262096
29	0x3ffad072085b1855	1.67589
30	0x40070a32f4491299	2.87998
31	0x3ff2b96d0917d6b6	1.17027
32	0xbf952b32b3b172d4	-0.0206726
33	0x4001f49cf56eac86	2.24444
34	0xc0065522a6f3f530	-2.79157
35	0x400aaae7d566cf42	3.33345
36	0x40021da272862f5a	2.26447
37	0x3fe314467381d7dc	0.596225
38	0x3fe951f3e89a88ad	0.791254
39	0x401d1bf727136a40	7.27731
40	0x3ffb33d07c84b5dd	1.70015
41	0xbfec9ada76d97b31	-0.893903
42	0xbfe6c3d68405b39e	-0.711406
43	0xbff2a3a29c779a6b	-1.16495
44	0x40108bedfa43fe5d	4.13665
45	0xbff2c52e72da1230	-1.17314
46	0x3ff4bae685db76b4	1.29563
47	0xbfdf1327243137b0	-0.485544
48	0xbfee0b1dd5d3dc8c	-0.938857
49	0xc011a1dd1a21ea36	-4.40807
50	0xbfa55ca6ca03c4b1	-0.0417225
51	0x3fd0548a9bcfd4bf	0.25516
52	0xbff30e410b630a91	-1.19098
53	0x3fb3625204af9229	0.075719
54	0xbfe4c382a12f9011	-0.648866
55	0xbfb723ee1bd1ed9e	-0.090392
56	0x3fb8f6852cfb0ace	0.0975116
57	0xbfe2ea4873365882	-0.591099
58	0xbff9092253111f0c	-1.56473
59	0x3ff069ad42c3c9ef	1.0258
60	0x3fd8652bd3c36113	0.381175
61	0xbfb039332774b910	-0.0633728
62	0x3fdbfbf401c4fc1e	0.437253
63	0xbfe1d2aa5c5f7c67	-0.556966
64	0xbf9797aaac1094a3	-0.0230395
65	0x3fcf1be6e6538690	0.243039
66	0x3ff3670e2c12ad82	1.21266
67	0xbfdf37ac3eb7cbb4	-0.487773
68	0xbfde403dddb1209f	-0.472671
69	0xbfb55ca51c849b05	-0.0834449
70	0x40001cb1465e8922	2.01401
71	0xbfd2ec84f8f8a4c2	-0.295686
72	0x3fc3870da5daf07c	0.152559
73	0x3fd84b1ee2435697	0.379585
74	0x3fdb486f049a9974	0.426296
75	0xbfd64f9c1f85d745	-0.348609
76	0x3fc1d3dc8b86b160	0.139278
77	0x3fad9df39b6daf30	0.0578457
78	0xbfae4289e84bae54	-0.0591014
79	0xbfd75d249e44fa05	-0.36506
80	0x3fca4f8726d04e62	0.205552
81	0x3fc8d844d013a92a	0.1941
82	0x3f9e1338c1e86d3c	0.0293702
83	0xbfd57f1737542a24	-0.335882
84	0x3ff9daaf78feef5f	1.61589
85	0xbfdd62d83c6c97d9	-0.459158
86	0xbfd19fc6da448494	-0.275377
87	0xbfe89c58255b035c	-0.769085
88	0xbfc560a63305100a	-0.167012
89	0x3fd705b39e279dd4	0.359723
90	0xbfbff993d5347a5b	-0.124902
91	0xbfc38b8ae31d712a	-0.152696
92	0x3fc692e62131a8ef	0.176358
93	0xbfd490795f676ea4	-0.321318
94	0x3fa99f93ae9e0d9d	0.0500456
95	0x3fc616f86a098916	0.172576
96	0xbfd2b18116ebd4d0	-0.292084
97	0xbfdf37c99ae924f2	-0.48778
98	0x3fd3ab042528ae75	0.307313
99	0x3ff5bffac1d29dc7	1.35937
100	0xbfe5c5a3e39f7729	-0.680376
101	0x40009d92b7fe08af	2.07694
102	0xbffa152d234eb9a1	-1.63017
103	0xbfe68ce703afb7e9	-0.7047
104	0xbfeff44f5d35653d	-0.998573
105	0x3fbff1950331e3a8	0.12478
106	0x3fa52277fa0ca0f8	0.0412786
107	0x3fcd477bbf93ff26	0.228744
108	0x3feb20296b3354c1	0.847676
109	0x40037f23cc8de2ac	2.43708
110	0xbfc3307af20ea5b5	-0.149917
111	0xbff0dcfaacd9e83e	-1.05395
112	0x3ffb30d306a2b170	1.69942
113	0xbffa19a415f45e0b	-1.63126
114	0xbfa8e8cc06d42f98	-0.0486511
115	0xbfd6a17b0f6ad70e	-0.353606
116	0x3ff662435696e58a	1.39899
117	0xbfd4ffef39085f4a	-0.328121
118	0x3fbe05ccc89b0ee5	0.117276
119	0xbfb209d642975445	-0.0704626
120	0x3ff5f04ff43419e3	1.37117
121	0xbfe8fab53d640e9d	-0.780604
122	0x3fffed3d859c8c93	1.99542
123	0xbfe72ef911cf355d	-0.724484
124	0x3fec813ec460ed81	0.890777
125	0xbff9b242070b8cfc	-1.60602
126	0xbfc5c664d3bf2f55	-0.170117
127	0x3f8458ce78489113	0.00993501
128	0x3fe7a8d64d7f0ed4	0.73936
129	0xbff5207b352a8438	-1.32043
130	0x3feb39a176ddacef	0.850785
131	0xbfe04ff64cf8d717	-0.509761
132	0xbfa9cac7390f1547	-0.0503752
133	0xbfe78f7985271bce	-0.736264
134	0x3ff178ca8198f1d4	1.09199
135	0xbfe82b0c88a47ed0	-0.755255
136	0xbff04523f67f4dbe	-1.01688
137	0xbfe198d477bbf940	-0.549906
138	0xbfef9817b95a2941	-0.987316
139	0xc005ae43aa79bbae	-2.71009
140	0x3fc9a30984e3ffef	0.200288
141	0xbfca40746455eaee	-0.205092
142	0x3fc7616f86a09891	0.182661
143	0xbfcdcef240fa9c13	-0.232878
144	0xbff58aefb2aae297	-1.34642
145	0xbff4f82d38476f2a	-1.31059
146	0xbfd46b3fe9fadafd	-0.319046
147	0x3fe7a862f5989df1	0.739305
148	0xbfe46d02cd39da16	-0.638307
149	0x3fdd1947cfa26a23	0.454668
150	0x3ffa68b19a415f46	1.65056
151	0xbffba2b1704ff434	-1.72722
152	0x3fe0fbc7f77af640	0.530735
153	0xbfba2435696e58a3	-0.102115
154	0x3ffb8870110a137f	1.72081
155	0xbfcfba1b1960fa16	-0.247867
156	0xbfca85ec3dab5c3a	-0.207212
157	0xbfda0d73860999dd	-0.407071
158	0xbfef10eed02cd39e	-0.970817
159	0x3fe9c0a2877ee4e2	0.804765
160	0x3fc3c02afdda8bd2	0.154302
161	0x3fd2603925bb7b6c	0.287123
162	0xc00410917d6b65aa	-2.50809
163	0x3fe8f90fb65668c2	0.780403
164	0xbf8ea1689af40cad	-0.0149563
165	0xbfd139756c93a711	-0.269132
166	0xc0048aa64c2f837b	-2.5677
167	0x3ff7a339c0ebedfa	1.47735
168	0xbff2c0b780346dc6	-1.17205
169	0x3fb5437fb1910724	0.0830612
170	0xbff193f290abb44e	-1.09862
171	0x3ff13b59ddc1e796	1.07699
172	0xbfe41aa3f034b0e2	-0.628252
173	0x3fea1272c94b380d	0.814752
174	0x3fcfc5a3e39f7729	0.248219
175	0x3fcb70ac3a860dcc	0.214376
176	0xbfe4d100a393ee5f	-0.650513
177	0x3f52f4a45737ca47	0.00115696
178	0x3fc682adc4c9c90c	0.175863
179	0x3fc78ca8198f1d3f	0.18398
180	0x3fe7ef9767903212	0.747997
181	0xbfd476ab5807fed2	-0.319743
182	0xbfa224c90d24abb1	-0.0354369
183	0xbfcdbe7f2c3009b3	-0.232376
184	0xbfe7dd4e8fb00bcc	-0.745765
185	0x3fe437ed41b75a75	0.631827
186	0x3ff3bb6ed677707a	1.23326
187	0x3faa42bf9830e3ce	0.0512905
188	0xbfb18d42734216fc	-0.0685617
189	0x3ff74c8366516db1	1.45618
190	0x3fc38ac18f81e8a3	0.152672
191	0xbfec7d30ad46f588	-0.890282
192	0x3ff6062f5989df11	1.37651
193	0xbfebc3ed959a3098	-0.867667
194	0x3ff3e01797cc3a00	1.24221
195	0x3fd337bd05af6c6a	0.300277
196	0xbfc5f202107b7846	-0.171448
197	0x3fbe88ace24bba13	0.119273
198	0x3fe54d65e4606749	0.665698
199	0xbfda931876188b11	-0.415228
200	0x3fe65d00f776c482	0.698853
201	0x3fd67bbb62413db8	0.351302
202	0x3fc62f405f6ba062	0.173317
203	0xbfcbf1b691212514	-0.218314
204	0xc004e0f3cb3e5754	-2.60984
205	0x3fde851a86940358	0.476874
206	0xbfc8c083126e978d	-0.193375
207	0x3fc0f3882278d0cc	0.132432
208	0xbffbf67f4dbdf8f4	-1.74768
209	0x3ffa6ddaceee0f3d	1.65182
210	0xbff7827525460aa6	-1.46935
211	0x3fd808dd1e53a81e	0.375541
212	0xbffb8c5436b8f9b1	-1.72176
213	0x3fd62ce4649906cd	0.34649
214	0xbfa0a5accd53048a	-0.032514
215	0xbfe59cc100e6afcd	-0.675385
216	0x3fe1cf97edc7ef17	0.556591
217	0xc000c0d6f544bb1b	-2.09416
218	0xbfda12018a43bb41	-0.407349
219	0xbfd9c6c11a11233e	-0.402756
220	0xbff19c193b3a68b2	-1.10061
221	0x3ff042a454de7ea6	1.01627
222	0xbff4de0b4e11dbcb	-1.30421
223	0xbff905532617c1be	-1.5638
224	0xc00af266ba493c8a	-3.36836
225	0xbfbf6a400fba8827	-0.122715
226	0xbf94115df6555c53	-0.0195975
227	0x3fa4f31967b01282	0.0409172
228	0xbfc28448cf7caa76	-0.144662
229	0xc00ad9d3458cd20b	-3.35636
230	0xbfbd27807789a459	-0.113884
231	0xbfa26882a058d07c	-0.0359536
232	0x3f968492a157d3fc	0.0219901
233	0x3fde233df2a9d628	0.470901
234	0x3fc544e50c5eb314	0.166165
235	0xbfe7645c358afc48	-0.731001
236	0x3fe1442a66dbd72c	0.539571
237	0xbff0b67a0f9096bc	-1.04455
238	0x3fdba42aed139431	0.431895
239	0xbfe82189bd8383ae	-0.754094
240	0x3fed3c148344c37e	0.913584
241	0xc00007746887a8d6	-2.00364
242	0x3fc5ed06fef7c244	0.171296
243	0x3fe9e8a2ec28b2a7	0.809648
244	0x3fea8dde7a743a64	0.829818
245	0xbff07d0d0678c005	-1.03053
246	0x3fe451a86940357a	0.634968
247	0x3fe214057082491b	0.564944
248	0xbfc8e3d5fdcdf698	-0.194453
249	0x3fe10a7610279570	0.532527
250	0x3ff08663c74fb54a	1.03281
251	0xbfff5729b280f12c	-1.95878
252	0x3fdde6ab9b23dd55	0.467204
253	0x400b705faebc408e	3.42987
254	0x40055888f861a60d	2.66823
255	0xbfdbe774eebf65dc	-0.436002

FC4_bias f8 [50]
0	0xbffe97e132b55ef2	-1.91208
1	0x3ff3efd21ff2e48f	1.24605
2	0x4006d9652bd3c361	2.85615
3	0xbff287fcb923a29c	-1.1582
4	0xc00a217c1bda511a	-3.26635
5	0xc006f396d0917d6b	-2.86894
6	0xbfd4a2d72ffd1dcd	-0.322439
7	0xc0136f1fddebd902	-4.85852
8	0x3f80eeaff67d4a59	0.00826776
9	0x3ff2dbca9691a75d	1.17866
10	0x3ffb3a29c779a6b5	1.7017
11	0x3fd52d2bb23571d2	0.330882
12	0x400acda9003eea21	3.35042
13	0xc00f6ca57a786c22	-3.92805
14	0x3fe4d5d5f56a7ac8	0.651103
15	0x40004f0d844d013b	2.0386
16	0x3fbf57603925bb7b	0.122427
17	0xbfe690fb65668c26	-0.705198
18	0x3ff4158b827fa1a1	1.25526
19	0xbfe967620ee8d10f	-0.79387
20	0xbfa71e04cdc51a51	-0.0451509
21	0xbfde9c0a8d21bc12	-0.478274
22	0xbffdc4e50c5eb314	-1.86057
23	0x4004036113404ea5	2.50165
24	0xc007b9389b52007e	-2.96544
25	0xbfe234acaff6d331	-0.56893
26	0xbff7bed527e52157	-1.48409
27	0xbfee583621fafc8b	-0.948268
28	0xbfe6f71865519371	-0.717663
29	0x3fd1708ede54b48d	0.272495
30	0x3fecadfb506dd69d	0.896238
31	0x40080ad57bc7f77b	3.00529
32	0x3fd507fed20296b3	0.328613
33	0xbfe45495182a9931	-0.635325
34	0xc0103c2656abde40	-4.05874
35	0x3fe0df78359bc340	0.527279
36	0xbff1224894c447c3	-1.07087
37	0x3fb2da7886fa5aa5	0.0736461
38	0x3fd0abc947064ecf	0.260485
39	0x3fe1e0e51d25aab4	0.558703
40	0x3fc6d56b00ffda40	0.178388
41	0xc003d9b90ea9e6ef	-2.48131
42	0xc00ff0307f23cc8e	-3.99228
43	0x3fdcb50f40e5a35d	0.448551
44	0xbff2f5a31a4bdba1	-1.18497
45	0x400e2dc0980b2420	3.77234
46	0x40001888f861a60d	2.01198
47	0x3ff26833c60029f1	1.15044
48	0xc01121cac083126f	-4.283
49	0xbffeedbb59ddc1e8	-1.93304

FC4_weight f8 [50, 50]
0	0x3faa946b5c6f6c9f	0.0519136
1	0x3fce0852b4d8ba41	0.234629
2	0xbfe95fdef8487b9a	-0.792953
3	0x3fd67a52ac753e70	0.351216
4	0xc0054b7d41743e96	-2.66186
5	0x3fc4b91b3f20a73f	0.161899
6	0x3fe95afd113836a8	0.792357
7	0x3fecc8259e1f3a58	0.899432
8	0xbfb8c2084dac5b3d	-0.0967107
9	0xbfe2d18d25edd053	-0.58808
10	0x3fd86451b93037d6	0.381123
11	0x3f9da3cf7d81351f	0.0289452
12	0x3fdc8cda6e75ff61	0.446097
13	0xbfd51e321a2e7f6f	-0.329968
14	0xc0039c91d14e3bcd	-2.45145
15	0xbfcd8c9fb6134ce4	-0.230854
16	0x3fe3be8576cce5f7	0.617007
17	0xbff828cbd1244a62	-1.50996
18	0x3fdab4aa9717df1a	0.417277
19	0x3fece53868fd199c	0.902981
20	0x3fcc9fbe76c8b439	0.223625
21	0x3fd263cb81733227	0.287341
22	0x3fcf232d2bb23572	0.243261
23	0x3fe4e36b09635611	0.652761
24	0xbfe41ee2435696e6	-0.62877
25	0x3fd2b93469941850	0.292554
26	0xc00261426fe718a8	-2.29749
27	0xbff62363b256ffc1	-1.38364
28	0xbfcf4794ea077037	-0.244372
29	0xc013b6d86ec17ebb	-4.92856
30	0xbfdc01d5c31593e6	-0.437612
31	0x3ff264d7f0ed3d86	1.14962
32	0xc00252dcb1465e89	-2.29046
33	0xbfdc210be9424e59	-0.439517
34	0xbfe13779e9d0e992	-0.538022
35	0x3fcfd8a548238540	0.248799
36	0xbfea182235b4edb3	-0.815446
37	0xbfb65067f7601e4e	-0.0871644
38	0x3fbe8e820e629952	0.119362
39	0xc00d536a400fba88	-3.66573
40	0xbfc64e2f37fbefd0	-0.174261
41	0xbfb11270450c798b	-0.0666876
42	0xbfe53fec13b9f128	-0.664053
43	0x3fe00b2e9ccb7d41	0.501365
44	0xc011794317acc4f0	-4.36842
45	0xbff932a0663c74fb	-1.57486
46	0x3ff3f8ab0c88a47f	1.24821
47	0xc01cb916872b020c	-7.18075
48	0xbfed60008637bd06	-0.917969
49	0x3fe8de8f6cefed63	0.777168
50	0xbfc9a26a22b3892f	-0.200269
51	0xbfae94ff0025bfad	-0.0597305
52	0xbfab98775aaa7081	-0.0538976
53	0x3fed7cc7d1bb4917	0.921482
54	0x3ff3e6c4c5974e66	1.24384
55	0xbff006b7aa25d8d8	-1.00164
56	0xbff148c9320d9946	-1.08027
57	0xbfce7f4dbdf8f473	-0.23826
58	0x3fc984db9c7368ad	0.199367
59	0x3fe8b152f3c2dadc	0.771646
60	0xbfe867c286f8ad25	-0.762666
61	0x3fd3bcc2938de6de	0.308396
62	0x3ff27290abb44e51	1.15297
63	0xbffa0d10f51ac9b0	-1.62819
64	0xbffbbffac1d29dc7	-1.73437
65	0xbffc10624dd2f1aa	-1.754
66	0xbfd3df2a9d627bf6	-0.310496
67	0x3fd511a11233df2b	0.329201
68	0x3fde170d62bf11f9	0.470157
69	0x3fe8d4046412cf10	0.775881
70	0xbfd8575c0767d34e	-0.380332
71	0xbfc1fa4c61d8622c	-0.140451
72	0xbfe4cb1ab0856e69	-0.649793
73	0xbff0e1719f7f8ca8	-1.05504
74	0xbfe70d1d8a548238	-0.720351
75	0x3fb06e75ff609dd0	0.0641855
76	0xbff31835158b8280	-1.19341
77	0x3fcb64cf8d716d2b	0.214014
78	0xbfee24f440af1cb9	-0.942011
79	0x3fcd8726d04e618d	0.230687
80	0x3fc4c28b2a6b0d95	0.162187
81	0xbfe8d0fc71d60631	-0.775511
82	0x3ffa9c62a1b5c7ce	1.66318
83	0xbfd9b95e5aff2a17	-0.401939
84	0xc00e43419e300150	-3.78284
85	0xc0030aa64c2f837b	-2.3802
86	0x3ff0800000000000	1.03125
87	0x3fd0dfdef8487b9a	0.263664
88	0xbfe65cbbc2b94d94	-0.69882
89	0xc007eb4b72c5197a	-2.98989
90	0xbfd1c2b0ea18372e	-0.277508
91	0x3ff531f8a0902de0	1.3247
92	0x3ffd5072085b1855	1.83214
93	0x3fe9140bbb1f255f	0.783697
94	0xbfe8f96bfca85cab	-0.780447
95	0x3ff4910a137f38c5	1.28541
96	0xc0052d03d9a95422	-2.64698
97	0xbffd89b52007dd44	-1.84612
98	0x3fb5af690eb752e8	0.0847078
99	0xbfcdf5be5d9e40c8	-0.234062
100	0xbfa5d2ab331f113d	-0.0426229
101	0xbfdca2b5a20ddc62	-0.447431
102	0x3fdc2dc6e2a80065	0.440294
103	0xc0088e26d4801f75	-3.06941
104	0xbfe140229a5ebb77	-0.539079
105	0x40039b4245f5ad97	2.45081
106	0xbfefd93c46d82ba6	-0.995268
107	0xbff1a8eb463497b7	-1.10374
108	0x3fd0530489d27c39	0.255067
109	0xbfb9b024f6598e11	-0.100344
110	0xc0048f32378ab0c9	-2.56992
111	0x3fb2f4f5e0c24d17	0.0740503
112	0xc002167caea747d8	-2.26098
113	0x3ffa91c6d1e108c4	1.66059
114	0x3fc089d27c393682	0.129206
115	0x4010c97e132b55ef	4.19677
116	0xbff272c5197a2489	-1.15302
117	0x3fde59ddc1e7967d	0.474235
118	0xbfd380c308feac43	-0.304734
119	0x40146b6d86ec17ec	5.10491
120	0x3ff70789613d31ba	1.43934
121	0x3ffe35f1bef49cf5	1.88817
122	0xc01ccec17ebaf102	-7.20191
123	0xc00ec8fd9fd36f7e	-3.84814
124	0xc0021a36e2eb1c43	-2.2628
125	0x3fe774e65bea0ba2	0.73302
126	0x3ff090f51ac9afe2	1.03539
127	0xc0105d1782d38477	-4.09091
128	0xbfeb3280f12c27a6	-0.849915
129	0x4003001f75104d55	2.37506
130	0xbfd3df4c2b51bd62	-0.310504
131	0xc00f4a0e410b630b	-3.91116
132	0x3fedb0f49491f2dc	0.927851
133	0xc0129d3996fa82e8	-4.65354
134	0xc016607b352a8438	-5.59422
135	0x3fd137a3db3bfb59	0.269021
136	0xbfa15b75719c248e	-0.0339009
137	0x3fe1df99c38b04ab	0.558545
138	0xbfb8938de6ddf00b	-0.0960015
139	0xc00816abde3fbbd8	-3.01107
140	0xbfd7f162ae4b0186	-0.374108
141	0x3fee18bd66277c46	0.94052
142	0x4004616c61522a6f	2.54757
143	0xc0112defc7a39820	-4.29486
144	0xc00918b2e9ccb7d4	-3.13706
145	0x3fdd573647baa9b5	0.458448
146	0xc009572474538ef3	-3.16755
147	0xbfdbf284167a95c8	-0.436677
148	0xc000f6c3760bf5d8	-2.12049
149	0x3ff06c61522a6f3f	1.02646
150	0xbfc45b20b8066c2b	-0.159031
151	0x3ff8f5d78811b1d9	1.56002
152	0xbfdfce67d77fae36	-0.496973
153	0xbfa84b3c3e74afd5	-0.047449
154	0x3fd57c243dccea29	0.335702
155	0x3fe8f62b6ae7d567	0.78005
156	0x3fd1b280f12c27a6	0.27652
157	0xbfc61c79b34a44c8	-0.172744
158	0xbfbd56191148fda0	-0.114595
159	0x3f956055ab2d3fd4	0.0208753
160	0x3fce8a8b08dd1e54	0.238603
161	0x3fd7ed634549b62c	0.373864
162	0x3fd3af31b152f3c3	0.307568
163	0x3fcba98676a7264a	0.216111
164	0xbfd160913a4f8727	-0.271519
165	0xbfec617a02fb5d03	-0.886899
166	0x3fd90728e92d55a4	0.391062
167	0x3fd51244a6223e18	0.32924
168	0x3fd045b6c3760bf6	0.254255
169	0xbff9a7525460aa65	-1.60335
170	0x3fbe81ba7fc32ebe	0.119167
171	0x3fd1bf5d78811b1e	0.277305
172	0xbfe5fa1c25d07421	-0.686781
173	0x3ffbb8b04ab606b8	1.73259
174	0x3fe85814940bbb1f	0.760752
175	0xbfc46362a5e785b6	-0.159283
176	0xc00108754f3775b8	-2.12913
177	0x3fe3f4adbc664d3c	0.623618
178	0xbfbd276fb09203a3	-0.113883
179	0x3fbb9c4113c68662	0.107853
180	0xbfd943aa79bbadc1	-0.394755
181	0xc00a1c2e33eff195	-3.26376
182	0xbfdd5fbf83382e45	-0.458969
183	0xbfd14e50c5eb313c	-0.270405
184	0xbfdff687b139c94f	-0.499422
185	0x3ff1024b33daf8df	1.06306
186	0xbfd186940357a355	-0.273839
187	0x3fe215f45e0b4e12	0.56518
188	0x3fe016a487336588	0.502764
189	0xbffa350092ccf6be	-1.63794
190	0x3f8f37684c19b406	0.0152424
191	0x3fe24aeea63b688c	0.571647
192	0xbff258255b035bd5	-1.14652
193	0xbffb9b280f12c27a	-1.72538
194	0xbfc7a604e1e71045	-0.184754
195	0xbfaa2915a2ff73e9	-0.0510947
196	0xc00033d07c84b5dd	-2.0253
197	0xbff895379fa97e13	-1.53643
198	0x3ff07fa1a0cf1801	1.03116
199	0xbfe0235d67ba237d	-0.504317
200	0xbfd122d5171e29b7	-0.267751
201	0x3fe37bbd7b2031cf	0.608855
202	0xbfd167caea747d80	-0.27196
203	0xbfcef87ad080b674	-0.241958
204	0xbfc0dd4845132f88	-0.131753
205	0xbfe2d4bad7d7c2ca	-0.588468
206	0xbffec1e7967caea7	-1.92234
207	0xbfdec968943e1006	-0.481043
208	0xbfe246759ab6d00b	-0.571101
209	0x3fc53365881a1555	0.165631
210	0x3fc74e874c8ffb8b	0.182084
211	0xbfd47903211cb03a	-0.319886
212	0x3fcab92c061847f5	0.208776
213	0x3fd515df6555c52e	0.32946
214	0x3fe1c545846e8f2a	0.555331
215	0xc000dad96a6a0126	-2.10686
216	0x3fb6b426e39997ec	0.0886864
217	0x3fdaf36694898f60	0.421106
218	0xbfb0932c980e7f1f	-0.0647457
219	0xc000c5e5f30e7ff6	-2.09663
220	0xbfa1d656b94a3909	-0.0348384
221	0x3f8e215336deb95e	0.014712
222	0xbfc50917d6b65a9b	-0.16434
223	0xbfe32b6d00b45ae6	-0.599051
224	0xbfe66e99a62ed352	-0.701001
225	0xbfe56490a350d280	-0.668526
226	0xc0076cd9e83e425b	-2.92815
227	0xbfe89ee88df3732a	-0.769398
228	0xbfc98dac258d5843	-0.199636
229	0x3fea0c1db0142f62	0.813979
230	0x3fc56f9767903212	0.167468
231	0xbff8d73eab367a10	-1.55255
232	0xbff82c1d29dc725c	-1.51077
233	0xc00f7f727136a401	-3.93723
234	0xc00afa82e87d2c7c	-3.37232
235	0xbfec415d2d01c0ca	-0.882979
236	0xbff05bc01a36e2eb	-1.0224
237	0xbfe205c03361565c	-0.563202
238	0xbfb6384d4e676c20	-0.0867966
239	0xbffc12839042d8c3	-1.75452
240	0xbfce4577d955714c	-0.236495
241	0xbff5abc947064ecf	-1.35444
242	0xbfe89146e4c0df59	-0.767734
243	0x3fcc0b5ed8d36b4c	0.219097
244	0x3fd00014f8b588e3	0.250005
245	0xbfcc46ae3a3a8e71	-0.220907
246	0xbfeddd80e496edee	-0.933289
247	0xc00b449ba5e353f8	-3.4085
248	0xbfec0dd82fd75e20	-0.87669
249	0xbfb2fa53ee949db1	-0.0741322
250	0x3fdc2ef4e0114d2f	0.440366
251	0x3fea84ad794a6eb9	0.828696
252	0x3fe3af294dd72368	0.615132
253	0x3fe6caa326e11559	0.712236
254	0xbfd1ea24cc6822ff	-0.279916
255	0xbfd2f81e8a2ec28b	-0.296394
