examples/submissions/2023_SoftComputing/data/ACAS XU/Networks/ACAS_XU_4_1.onnx (onnx, 108361 bytes, 14 tensors)

FC0_bias f8 [50]
00000000: 63d2 df4b e141 c13f 4d20 36a2 c563 98bf
00000010: ed9e 3c2c d49a bebf 5f99 b7ea 3a54 d8bf
00000020: e128 7975 8e01 ddbf 7e6f d39f fd48 e9bf
00000030: 3b8a 73d4 d1f1 e2bf 2335 481c 0d3b afbf
00000040: 575f b8ce 1a17 a53f 768c 2b2e 8eca c13f
00000050: 9a0a f148 bcbc e03f 8f17 d2e1 218c c53f
00000060: 6397 a8de 1ad8 cabf f2cf 0ce2 033b d3bf
00000070: 2eae f199 ec1f e5bf 7097 fdba d39d d53f
00000080: 8d44 6804 1b57 e7bf 3960 5793 a7ac d6bf
00000090: ebac 16d8 6322 d53f fd6d aa49 4b40 87bf
000000a0: e4ea 11b4 136f a2bf 17b7 d100 de02 99bf
000000b0: 9fe4 0e9b c8cc cd3f 9756 43e2 1e4b c73f
000000c0: 2a0d eb7c 2e09 a23f d046 ae9b 525e dd3f
000000d0: 7252 98f7 38d3 c6bf a162 4106 9733 ac3f
000000e0: a317 ff88 70dd 8ebf f4dc 4257 2250 ddbf
000000f0: 64e6 0297 c79a a9bf a995 534c ef2c b13f
00000100: 89b1 4cbf 44bc d4bf 9ad2 fa5b 02f0 cd3f
00000110: 31cd 74af 93fa c63f f65d 11fc 6f25 debf
00000120: 1f86 5627 6728 be3f a393 a5d6 fb8d c4bf
00000130: 5c49 e130 8793 9abf 1c7b f65c a626 c9bf
00000140: 6d08 e984 2bfb b73f 7d5a 457f 68e6 d0bf
00000150: 0d72 1761 8a72 d6bf e86b 96cb 46e7 e5bf
00000160: ad14 02b9 c491 cbbf e8bb 5b59 a233 e33f
00000170: d924 3fe2 57ac d13f 23f8 df4a 766c e2bf
00000180: 724d 81cc cea2 e2bf 2ee2 3b31 ebc5 bc3f
0.134823 -0.0238181 -0.11955 -0.380141 -0.45322 -0.79016 -0.592019 -0.0609974
0.0411919 0.138994 0.523039 0.168339 -0.20972 -0.300477 -0.660147 0.337758
-0.729383 -0.354288 0.330224 -0.0113531 -0.0360037 -0.024425 0.232812 0.18198
0.0352263 0.458882 -0.178321 0.0550811 -0.0150708 -0.458016 -0.050009 0.0670919
-0.323991 0.233887 0.179522 -0.471035 0.117804 -0.160583 -0.0259534 -0.196492
0.0936763 -0.264063 -0.350741 -0.684482 -0.215386 0.600053 0.276144 -0.57574
-0.582374 0.112395

FC0_weight f8 [5, 50]
00000000: a1ae ff84 c487 933f 12be f737 68af 8e3f
00000010: d3de e00b 9329 f1bf 5ad8 d30e 7fcd f9bf
00000020: 4e28 44c0 2154 bdbf 511a c5cd 041e b5bf
00000030: 296e 26f0 98cb a33f 3e96 3e74 417d bbbf
00000040: 8d80 0a47 904a cdbf 5b9a 5b21 acc6 923f
00000050: ab3d ec85 02b6 c13f 79be b046 87d1 a93f
00000060: b18d f479 f78d 603f 4d32 7216 f6b4 bbbf
00000070: dd61 6e52 2c12 8e3f 2a88 26f5 0ab0 a03f
00000080: 0d54 c6bf cfb8 eabf 96f9 7919 e680 64bf
00000090: 9591 c4dc ff11 97bf de9f bdc0 cd5e 7d3f
000000a0: 57ee 0566 8522 a5bf da38 622d 3e85 e5bf
000000b0: 6bb7 5d68 aed3 903f 37e7 3b53 4376 b9bf
000000c0: 0586 ac6e f59c d9bf 4df3 8e53 7424 87bf
000000d0: 02a4 4f0e 13cb 65bf 1269 1b7f a2b2 d9bf
000000e0: 9566 f338 0ce6 d0bf 1902 3e47 fd58 65bf
000000f0: cbd8 d0cd fec0 e1bf 2f52 280b 5f5f 8b3f
00000100: f4f8 bd4d 7f76 f9bf a216 9c24 0aeb 7ebf
00000110: 909f 8d5c 37a5 943f f129 00c6 3328 00c0
00000120: cc74 f920 1510 943f e3a6 069a cfb9 e1bf
00000130: 01a6 0c1c d0d2 d8bf edb8 e177 d32d c5bf
00000140: 9f03 cb11 3290 c73f 1119 56f1 46e6 f4bf
00000150: f9e5 1fbf af78 77bf 855f eae7 4d45 d03f
00000160: 83fa 9639 5d16 f3bf 48dc 63e9 4317 f73f
00000170: 997e 8978 ebfc d73f f8a9 2a34 10cb d3bf
00000180: 9c11 4a04 4fc6 adbf d09d 60ff 756e 9a3f
00000190: 626a 4b1d e4f5 e8bf 8bb8 2e6c 353a 43bf
000001a0: 3d78 9219 1472 8abf 4cdc cfce 0e5d b9bf
000001b0: d13f c1c5 8a9a f23f 9b73 115b 51b5 73bf
000001c0: a642 e158 bcfd 9e3f 9832 7040 4b57 503f
000001d0: d511 7640 c868 afbf 1b1a 0577 56c1 9e3f
000001e0: 84f5 7f0e f3e5 fb3f f042 84c9 9e4e 93bf
000001f0: 8a94 66f3 380c 9e3f 8d26 1763 609d ebbf
00000200: a3e4 7a80 9312 873f 3e95 d39e 9273 edbf
00000210: 9db0 0e91 e403 a0bf 8d92 fc2d a63e 85bf
00000220: 857b 65de aaeb cabf 1868 eb9e 449d 1cbf
00000230: b22a c24d 4695 c1bf 5070 b1a2 0653 e1bf
00000240: a38f f980 4067 be3f 71af cc5b 759d e23f
00000250: 78fd 3850 9610 aa3f be4d 7ff6 2345 bc3f
00000260: 8f6c ae9a e788 c4bf 8ec8 7729 75c9 903f
00000270: c6be 64e3 c116 bf3f f4c5 3945 a22b 8cbf
00000280: ca8b 4cc0 af11 e0bf 2928 a0e4 6954 ab3f
00000290: 77a0 4e79 7423 a4bf 7951 05ed 1f55 8ebf
000002a0: 6398 13b4 c961 ecbf c31b 04e3 01e1 6a3f
000002b0: 9445 aba4 5f6c a7bf 7b16 84f2 3e8e c0bf
000002c0: aa49 4b40 a77b 983f 624e d026 874f e6bf
000002d0: cc7f 48bf 7d1d 04c0 e2b0 34f0 a31a c83f
000002e0: a2d1 1dc4 ce14 8abf c890 0832 a770 81bf
000002f0: ada2 3f34 f3e4 bebf c7d6 3384 6396 8dbf
00000300: d734 ef38 45c7 0040 59db 148f 8b6a adbf
00000310: 1cb7 989f 1b9a c2bf 17b2 802a eaa3 6ebf
00000320: 153a afb1 4b54 e33f 0215 a7bd 356e 69bf
00000330: 3e81 66c6 91bd 94bf ffec a243 3b02 833f
00000340: fad0 05f5 2d73 e53f c6cd 80e5 ce6d 6ebf
00000350: 80b7 4082 e2c7 bcbf 270b a9ec 05b0 623f
00000360: 9a14 d511 7640 b6bf df1a d82a c1e2 f43f
00000370: 2dcc 423b a7d9 e4bf b9a9 81e6 73ee c4bf
00000380: 419a b168 3a3b bdbf 5a10 cafb 389a cdbf
00000390: 5e86 5a2e 7656 96bf b64e b747 ca71 b03f
000003a0: bca2 4a83 914d 883f 60e6 3bf8 8903 883f
000003b0: ce51 47c7 d548 e63f 1f49 2348 a01f 28bf
000003c0: b5a6 79c7 293a f2bf a316 b5c1 aaf6 80bf
000003d0: 323a 2009 fb76 e4bf 9d7f bbec d71d eebf
000003e0: 674c 1cd4 d924 9a3f aa44 d95b caf9 babf
000003f0: 6a63 91cb 248f b83f 7a89 b14c bf44 ca3f
00000400: e2cd 1abc af4a e43f 7b6b bb64 77dc 933f
00000410: 1a30 48fa b40a e13f c74b 3789 4120 0140
00000420: 547a 9e26 d0b3 5bbf 5c5c 3eed 4b91 a33f
00000430: 99c8 bbd9 d59a ac3f 1676 32e7 025f 4d3f
00000440: 0210 77f5 2ab2 ed3f 3a3e 5a9c 31cc db3f
00000450: b513 ca67 1e65 b3bf 4bab 2171 8f25 f2bf
00000460: 083e 062b 4eb5 d23f ab71 db63 8e8a b8bf
00000470: 9e0b 0768 7923 453f 5f72 ed55 75a0 903f
00000480: 9df4 bef1 b567 b23f 1949 ccfd 1f71 593f
00000490: 30e8 ce5d 5cf4 a73f 2c94 f194 7abb a63f
000004a0: 47e6 913f 1878 f83f 8d0a 9c6c 0377 ecbf
000004b0: 2aaa 7ea5 f3e1 d1bf 91ec b6b0 1303 893f
000004c0: ad13 97e3 1588 c0bf 4cd8 2379 5336 a9bf
000004d0: 0f7e e200 fafd e4bf b9e1 77d3 2d3b d8bf
000004e0: d999 42e7 35f6 e7bf dbe8 5212 c8db a0bf
000004f0: 0c7e 761b 2f38 b63f 30a3 710b 0a41 763f
00000500: 082d 358c cc6d 9cbf 33a8 3638 11fd ecbf
00000510: 76c3 b645 990d f9bf 7e90 65c1 c41f d0bf
00000520: 7bbe 66b9 6cf4 eabf 64ce 33f6 251b d6bf
00000530: 77f6 9507 e929 ecbf d6ff 39cc 9797 f9bf
00000540: 789a cc78 5be9 d3bf 2b03 ff42 2cee 713f
00000550: ffc8 192f 826b b33f 872f b88b d58b 9e3f
00000560: 1fbc 7669 c361 d1bf 020c cb9f 6f0b ce3f
00000570: 9356 7c43 e1b3 c7bf b4e9 08e0 6671 e0bf
00000580: 34bf 9a03 0473 f1bf 6424 7b84 9a21 e8bf
00000590: be89 2139 99b8 c73f 5760 c8ea 564f fcbf
000005a0: a79c e568 441f ae3f 285f 7589 8ff4 a23f
000005b0: b5de 6fb4 e386 c1bf a94a 5b5c e333 c73f
000005c0: a9a0 a2ea 573a cb3f 7e27 b905 4304 69bf
000005d0: 7a6c cb80 b394 debf 82ac a756 5f5d d1bf
000005e0: 016e 162f 1686 c43f 55f6 5d11 fc6f a93f
000005f0: b6f4 68aa 27f3 a7bf eeb2 5f77 baf3 a83f
00000600: c9b0 8a37 320f febf c32a dec8 3c72 ecbf
00000610: e253 a5d2 f47e 883f 3254 6a9b 87b8 b0bf
00000620: bc5a eecc 04c3 99bf 4451 a04f e449 f4bf
00000630: e7fc 14c7 8157 d33f df6b 088e cb38 e3bf
00000640: c137 4d9f 1d70 cf3f d2c2 77f8 f1eb 453f
00000650: cc38 57de 9f9c ae3f ae2a fbae 08fe c1bf
00000660: cd3d 247c ef6f c23f 6b9a 779c a2a3 f9bf
00000670: 1bf5 108d eea0 f4bf 8b01 6d06 13da 8dbf
00000680: e679 7077 d66e d83f 920e 6a1a 6f86 86bf
00000690: d126 a0ec da9c 523f cbbf 9657 ae37 e43f
000006a0: 2497 ff90 7e7b f13f 34ff 9e0e 1ab0 b83f
000006b0: b471 c45a 7c0a fbbf 5f14 357f e940 783f
000006c0: 4d12 4bca dde7 d4bf dd0c 37e0 f343 e2bf
000006d0: e598 2cee 3f32 db3f 51e6 170c 4b8f 78bf
000006e0: 106a d0e1 6b19 8abf 41de 0610 994d b7bf
000006f0: 4b22 fb20 cb82 cf3f 247d 5a45 7f68 dfbf
00000700: 0534 1136 3cbd bebf 84ba 48a1 2cfc e4bf
00000710: 7dcb 9c2e 8b89 f6bf 3524 93f8 8150 b7bf
00000720: 4834 8122 1631 b6bf 9a7c b3cd 8de9 f0bf
00000730: 1e8a 027d 224f c8bf 9d47 c5ff 1d51 a1bf
00000740: 9c0a 0275 1431 b23f 7d41 0b09 185d ecbf
00000750: b307 5a81 21ab c7bf b44a 1bd4 9f79 50bf
00000760: feba d39d 279e cf3f e141 b3eb de0a e03f
00000770: 76eb ebaf 0dcb 9d3f 45f6 4196 0513 c53f
00000780: 25ae 635c 7171 c8bf 2e31 3b30 2537 b5bf
00000790: 66bd 18ca 89f6 f23f 813e 9127 4957 f2bf
000007a0: bbc6 78de d792 b5bf dcdf 34d8 2f33 b7bf
000007b0: ddea 39e9 7de3 c33f 5122 7832 eebc ab3f
000007c0: 62bd 512b 4c5f efbf 9948 6936 8fc3 d43f
0.0190726 0.014983 -1.07265 -1.61267 -0.114565 -0.0824893 0.0386627 -0.10738
-0.228838 0.018336 0.138367 0.0504267 0.00202082 -0.10823 0.0146831 0.0325931
-0.83506 -0.00250287 -0.0225296 0.00717049 -0.041279 -0.672515 0.0164325 -0.0994608
-0.400205 -0.0113 -0.00266031 -0.401528 -0.264041 -0.00260591 -0.554809 0.0133655
-1.59143 -0.00754837 0.0201615 -2.01963 0.0195926 -0.553932 -0.387867 -0.165461
0.184088 -1.30622 -0.00573033 0.25423 -1.19296 1.44318 0.374812 -0.309269
-0.0581536 0.025812 -0.780016 -0.000586773 -0.0129129 -0.0990762 1.16273 -0.00481159
0.0302648 0.000997375 -0.0613463 0.0300344 1.74364 -0.0188546 0.0293435 -0.862961
0.0112659 -0.920358 -0.0312797 -0.0103734 -0.210317 -0.000109155 -0.137368 -0.541385
0.118763 0.581721 0.0509078 0.11043 -0.160428 0.0163935 0.121441 -0.0137551
-0.502159 0.0533784 -0.039333 -0.0148108 -0.886937 0.00328112 -0.0457487 -0.129341
0.0239092 -0.697208 -2.5144 0.188313 -0.012735 -0.00851565 -0.120681 -0.014447
2.0973 -0.0574535 -0.145328 -0.00374027 0.60404 -0.00310431 -0.0202544 0.0092816
0.67031 -0.00371447 -0.112425 0.0022812 -0.0869211 1.30536 -0.651569 -0.163527
-0.114185 -0.231269 -0.0218142 0.0642363 0.0118667 0.0117255 0.696391 -0.000184048
-1.1392 -0.00828298 -0.639524 -0.941143 0.0255312 -0.105374 0.0959342 0.205223
0.634117 0.0193957 0.532557 2.14075 -0.00169082 0.0382179 0.0558688 0.000896336
0.927999 0.434338 -0.0757617 -1.13417 0.292316 -0.0958642 0.000645098 0.0162371
0.071895 0.00155285 0.0467862 0.0443991 1.52932 -0.889528 -0.279416 0.0122129
-0.129153 -0.0492426 -0.656003 -0.378612 -0.748805 -0.0329268 0.0867948 0.00543312
-0.0277626 -0.905892 -1.56582 -0.251939 -0.842337 -0.345407 -0.880116 -1.59951
-0.311118 0.00437753 0.0758592 0.0298303 -0.271592 0.234724 -0.185177 -0.513843
-1.09058 -0.754102 0.185321 -1.76937 0.0588323 0.0370221 -0.136929 0.181271
0.212718 -0.00305379 -0.477826 -0.271324 0.160342 0.0496825 -0.046777 0.0487345
-1.87871 -0.888945 0.0119609 -0.0653157 -0.025158 -1.26804 0.302216 -0.600683
0.245609 0.000668996 0.0597887 -0.140565 0.144041 -1.60245 -1.28929 -0.0145761
0.381765 -0.0109986 0.00113603 0.631797 1.09265 0.0964371 -1.69006 0.00592128
-0.326652 -0.570795 0.424942 -0.00599603 -0.0127438 -0.0910278 0.246179 -0.490753
-0.120075 -0.655783 -1.40858 -0.0910722 -0.0866865 -1.05702 -0.189915 -0.033822
0.0710614 -0.886364 -0.18491 -0.00100556 0.247014 0.501327 0.0290949 0.164643
-0.190962 -0.0828727 1.18519 -1.14631 -0.0842719 -0.0906248 0.15538 0.0541758
-0.980383 0.324436

FC1_bias f8 [50]
00000000: e350 bf0b 5bb3 db3f 2e04 3928 6126 f4bf
00000010: caa8 328c bb41 ddbf 5f45 4607 24e1 e4bf
00000020: 9a31 bbdd 81f0 873f 9083 1266 dafe ee3f
00000030: bde5 eac7 26f9 51bf 3370 404b 57b0 8dbf
00000040: 6fe8 77ab f8d0 8fbf 48a7 ae7c 96e7 c5bf
00000050: 261e 5036 e58a f53f 51c7 bebf 9c34 98bf
00000060: 72e1 4048 1630 f23f 251f bb0b 9494 efbf
00000070: 0054 71e3 16f3 c9bf c213 7afd 497c d23f
00000080: 8484 285f d042 c8bf cff8 beb8 54a5 e5bf
00000090: fb5d d89a adbc e8bf 5f41 9ab1 683a f43f
000000a0: 9335 ea21 1a5d e0bf a31e a2d1 1dc4 f53f
000000b0: 5498 adab b827 a6bf 404c c285 3c82 d1bf
000000c0: bc05 1214 3fc6 d33f 2efa af18 1af4 aabf
000000d0: 4182 e2c7 98bb f23f 3344 5f8b 27cc 85bf
000000e0: 4144 6ada c534 e0bf 4d15 8c4a ea04 c43f
000000f0: 091a 3389 7ac1 c73f 080c 48b1 9245 98bf
00000100: e7ff 5547 8e74 eebf 1138 1268 b0a9 d4bf
00000110: d179 8d5d a27a d8bf 9fca 694f c939 c1bf
00000120: e3a8 dc44 2dcd 8dbf d11e 2fa4 c343 d1bf
00000130: 1bd5 e940 d653 ecbf ef01 dc62 7521 1a3f
00000140: dadd a8ba ec7c 84bf 1327 f73b 1405 f43f
00000150: e200 fa7d ffe6 c53f 693b a6ee ca2e dabf
00000160: 0245 2c62 d861 e6bf a33b 889d 2974 dc3f
00000170: d463 5b06 9c25 e13f 3a1f 9e25 c808 a83f
00000180: b857 e6ad ba0e cb3f 4144 6ada c5b4 e23f
0.432822 -1.25937 -0.457137 -0.652483 0.0116892 0.96861 -0.001097 -0.0144965
-0.0155353 -0.17113 1.34641 -0.0236382 1.13674 -0.986887 -0.202731 0.288836
-0.189539 -0.676432 -0.773032 1.26426 -0.511365 1.36038 -0.0432718 -0.273574
0.308975 -0.0526436 1.1708 -0.0106433 -0.506442 0.1564 0.185592 -0.0237029
-0.951728 -0.322857 -0.382485 -0.134576 -0.0145515 -0.269761 -0.885234 9.96807e-05
-0.0100039 1.25124 0.171112 -0.409106 -0.699444 0.44459 0.535841 0.046942
0.211387 0.584567

FC1_weight f8 [50, 50]
00000000: b0cb f09f 6ea0 d0bf d8b6 28b3 4126 e03f
00000010: 118b 1876 1893 d33f 9d5c 9dad cd10 90bf
00000020: 8f53 7424 977f e3bf 179a eb34 d252 d5bf
00000030: 20e4 068d aa70 9dbf 192a b5cd 435c 8fbf
00000040: c69d 7708 88ee 963f 28b6 82a6 25d6 edbf
00000050: d3de e00b 9329 e7bf 8487 e5a6 38d4 60bf
00000060: 30f0 dc7b b8e4 ddbf 94a2 957b 8159 dfbf
00000070: 2bf7 02b3 4211 e13f 74b6 80d0 7af8 be3f
00000080: 5936 7348 6a21 e4bf 9be8 f351 465c bcbf
00000090: 06ba f605 f442 e33f 081e dfde 35e8 cbbf
000000a0: 1e89 97a7 7345 cdbf 967b 8159 a148 c3bf
000000b0: 988d 29b3 9cdf abbf b37a 87db a161 e6bf
000000c0: 349c 3237 df88 d3bf a0c0 3bf9 f458 e3bf
000000d0: 3462 0be6 54d7 a63f 4752 770a 5e99 8c3f
000000e0: 3465 a71f d445 ca3f 2d96 22f9 4a20 d73f
000000f0: 3d49 ba66 f2cd cabf 8e88 3102 8d46 6cbf
00000100: 9b20 ea3e 00a9 eebf b9c6 67b2 7f9e d4bf
00000110: 69a9 bc1d e134 ee3f f758 fad0 05f5 e1bf
00000120: 9f82 b2df c95d aabf f775 e09c 11a5 cd3f
00000130: b22f d978 b0c5 e73f 8c9f c6bd f90d dc3f
00000140: 8a0a 3087 3831 97bf 0411 d2e8 480d 71bf
00000150: 282d 5c56 6133 e5bf 4e0c c9c9 c4ad ca3f
00000160: 81ce a44d d5bd e73f 01fb e8d4 95cf e53f
00000170: d97c 5c1b 2ac6 bdbf 0326 70eb 6e9e e3bf
00000180: 024a 438d 4212 e4bf 7d22 4f92 ae99 f1bf
00000190: 34aa c255 54b3 8d3f 623c 39f9 e3ac 963f
000001a0: 12ff 0b5f baa4 953f 0fb0 fb33 283f a6bf
000001b0: c00c 2142 b7f2 a9bf fdb0 941b fb48 903f
000001c0: 59ba 27b4 5142 953f 060a 61da dc3d 9d3f
000001d0: 6e08 9ff7 109e a2bf 1825 a613 2243 7bbf
000001e0: 8154 2f64 1af2 94bf 7313 b534 b742 a43f
000001f0: 5b90 d211 6514 903f 3c23 5ba7 db23 a1bf
00000200: 89a6 8159 803a 7ebf 05ae 4403 25c3 813f
00000210: f289 2b1d 6272 913f 0ffa 884e 852e 97bf
00000220: 7f86 376b f0be 92bf 6010 470d 5cd4 9dbf
00000230: 94e3 a9a2 d34e 90bf 6f3b 7eb9 60ba 8abf
00000240: 96f6 bcd1 7def 9dbf 2df6 4d50 792a a63f
00000250: fc23 67bc 08ae 8dbf bdb4 9723 1a93 a43f
00000260: 745c 3233 d879 ac3f eccb 88c1 b288 973f
00000270: f35b cf6b 47cc a33f edb9 4c4d 8237 a03f
00000280: b3e4 3b42 171e a13f ce61 084a 1b58 88bf
00000290: 717f a270 457b 7f3f 46c4 ded5 bcf4 98bf
000002a0: fa4b e6b3 97c8 983f 1bcd db22 7a63 ae3f
000002b0: 9b0a 4c02 2f8e 9d3f d7ef d302 c5d9 aa3f
000002c0: 59c5 b86e 8c95 6f3f f261 516c 6006 9ebf
000002d0: 3199 2a18 95d4 a5bf 33b5 b63a 4a6f 99bf
000002e0: bf6b 2b51 5150 9dbf df0f e445 cb26 85bf
000002f0: 5a61 9fa5 d01e 54bf 2e40 3624 496b a3bf
00000300: d74a 8d75 1662 7abf c81a 3f9e a74b 98bf
00000310: 7ada e920 1232 7ebf 6b81 3d26 529a a1bf
00000320: b301 7dc7 951f b13f 4f3f a88b 14ca babf
00000330: 79a0 04ec 59c6 b6bf e9d1 544f e61f d4bf
00000340: 6c05 4d4b ac8c d03f 014f 5ab8 acc2 c43f
00000350: 05fd 851e 317a a63f f167 78b3 06ef 9b3f
00000360: ab03 c534 7804 9cbf f7ab 00df 6dde e2bf
00000370: 5166 834c 32f2 e7bf fc3b 365d aa2d a0bf
00000380: b436 3234 434f b5bf 1c0c 7558 e196 d8bf
00000390: d447 e00f 3fff b5bf 3621 ad31 e884 e33f
000003a0: 2d93 e178 3e83 ec3f 583a 1f9e 2548 ec3f
000003b0: 8a4d 7512 5b8b b8bf 4627 4bad f71b cbbf
000003c0: 57b4 39ce 6d42 e63f 431d 56b8 e523 c53f
000003d0: c11a 67d3 1140 e6bf 1aa2 0a7f 8637 c13f
000003e0: abec bb22 f8df bebf 2f32 01bf 4692 c83f
000003f0: cf84 2689 25e5 d23f c42d 11fa 2147 16bf
00000400: 533e 0455 a357 a73f e6cb 0bb0 8f4e d83f
00000410: 22c1 5433 6b29 c4bf 8f56 b5a4 a31c b0bf
00000420: 2f16 86c8 e9eb cfbf 4eb4 ab90 f293 d13f
00000430: 68eb e060 6f62 df3f 4069 a851 4832 d6bf
00000440: 8cd4 bd46 7983 6b3f 9a94 826e 2f69 e43f
00000450: d524 7843 1a15 d4bf 0113 b875 374f d4bf
00000460: 07b8 7b14 0901 94bf 718f a50f 5d50 e23f
00000470: 8be2 55d6 3645 e2bf 9cf5 ce0d f21f ab3f
00000480: cf4b c5c6 bc8e dc3f 06af a767 8bb5 a53f
00000490: bc41 b456 b439 d73f 62a3 0799 bf9d a33f
000004a0: 18d6 e830 ba17 b33f a932 8cbb 41b4 d23f
000004b0: 876f 61dd 7877 b8bf d055 0449 e9e3 a73f
000004c0: 73f4 f8bd 4d7f ff3f f4c2 9d0b 23bd db3f
000004d0: 6e6c 76a4 fa4e e2bf 890c ab78 23f3 ecbf
000004e0: 1f0d 6d21 4409 753f 8cf4 a276 bf0a 98bf
000004f0: b001 11e2 cad9 a33f 28d2 fd9c 82fc e23f
00000500: 4c16 f71f 990e dfbf a815 4b36 c3b2 a6bf
00000510: 698c d651 d504 f0bf 20ef 552b 137e c1bf
00000520: ed81 5660 c86a fe3f 1b2c 9ca4 f963 d3bf
00000530: 6611 8aad a0e9 ec3f 7843 1a15 38d9 d2bf
00000540: b1fa 230c 0316 eb3f 2d94 4c4e ed0c da3f
00000550: 809a 5ab6 d6d7 0040 e430 98bf 42e6 d33f
00000560: e23b 31eb c5d0 e33f 0bb3 d0ce 6916 d6bf
00000570: 4645 9c4e b2d5 ebbf ef3b 86c7 7e16 c73f
00000580: 7c7d ad4b 8dd0 e43f 719c ca58 2371 a13f
00000590: db14 8f8b 6a11 d03f bd3a c780 ecf5 ef3f
000005a0: b090 b932 a836 d9bf f507 14fb 157c a0bf
000005b0: 390e bc5a eecc d33f 2579 aeef c341 ca3f
000005c0: 4b3c a06c ca95 ff3f eba8 6a82 a87b f53f
000005d0: 99fd 7046 83ca aabf 9fe5 7970 7796 0040
000005e0: 526b f530 0ff4 a7bf ae6c 7aab 09fd afbf
000005f0: 6d9c 4f48 2bf1 32bf d9b5 bddd 929c ef3f
00000600: ea08 e066 f162 c93f a0cd c36c 7662 7ebf
00000610: e402 869b 429d b03f eeeb c039 234a c1bf
00000620: af5b 04c6 fa06 d4bf 4b59 8638 d645 e03f
00000630: 11e2 cad9 3ba3 c53f aad3 81ac a756 d0bf
00000640: 5b41 d312 2ba3 d4bf 30a0 17ee 5c18 de3f
00000650: 058a 58c4 b0c3 c6bf 7834 c467 a153 a6bf
00000660: 73fb 404d 8814 a63f 2428 7e8c b96b dbbf
00000670: 8c21 4ac5 104a a9bf e575 6968 a8f6 8ebf
00000680: 566a 7208 87a4 67bf 7508 77c2 a629 8dbf
00000690: 6a6c af05 bd37 ec3f d5b7 48b1 0e0d 7cbf
000006a0: d9ee 1ea0 fb72 e2bf c4e9 245b 5d4e b9bf
000006b0: 7fbf 982d 5915 c1bf 5f9b 8d95 9867 c9bf
000006c0: 72fc 5069 c4cc dc3f 83a3 e4d5 3906 c6bf
000006d0: 74ec a012 d731 c03f 0c3c f71e 2e39 c2bf
000006e0: c171 1937 35d0 b83f 0340 1537 6e31 d63f
000006f0: 6249 b9fb 1c1f d73f 7769 c361 69e0 d63f
00000700: 53e9 279c dd5a ccbf 1688 9e94 490d c5bf
00000710: cf6b ec12 d55b dd3f d090 f999 dd07 7ebf
00000720: d690 b8c7 d287 d4bf c22f f5f3 a622 d93f
00000730: 0fd2 53e4 1071 bf3f fc64 d69c cdf4 a0bf
00000740: 2c67 4a46 297c 993f 44a7 e7dd 5850 d63f
00000750: 29cb 10c7 bab8 f3bf 5d04 21b4 7977 b33f
00000760: d142 5dff 0989 a7bf 1d5b cf10 8e59 c63f
00000770: bc5d 2f4d 11e0 d43f 2218 0797 8eb9 e13f
00000780: 7bfb ce8a 0343 993f 5794 1282 55f5 cc3f
00000790: 5280 2898 3105 bbbf cac4 ad82 18e8 c8bf
000007a0: bd4a 8803 3285 b03f 91ae 3ec3 407c b1bf
000007b0: 959c 137b 681f c73f 4ed0 2687 4f3a e03f
000007c0: 1d01 dc2c 5e2c cabf b2da fcbf eac8 d7bf
000007d0: a1db 4b1a a3f5 0ec0 68e8 9fe0 6245 00c0
000007e0: 2979 758e 0159 ee3f d4c5 5c08 28c3 9fbf
000007f0: dd0b cc0a 45ba d7bf 221a dd41 ec4c f1bf
-0.259792 0.50467 0.305853 -0.0156891 -0.609325 -0.33318 -0.0287501 -0.0153127
0.0223943 -0.932391 -0.723825 -0.00205432 -0.467085 -0.489838 0.533357 0.120979
-0.629079 -0.110783 0.601923 -0.218024 -0.228682 -0.150654 -0.0544404 -0.699418
-0.305229 -0.604609 0.0446116 0.0139644 0.205256 0.361346 -0.20941 -0.00345161
-0.95813 -0.322174 0.943955 -0.56116 -0.0514968 0.2316 0.742882 0.438353
-0.0226487 -0.00416306 -0.662522 0.208428 0.741923 0.68159 -0.116305 -0.61309
-0.627229 -1.10002 0.0145022 0.0221439 0.0211362 -0.0434506 -0.0506799 0.0159034
0.0207608 0.0285563 -0.0363622 -0.00665582 -0.0204548 0.0395715 0.0157028 -0.0334767
-0.00738001 0.00867299 0.0170379 -0.0226384 -0.0183065 -0.0291304 -0.0159257 -0.0130508
-0.0292339 0.0432928 -0.0144921 0.0401848 0.0556171 0.0229824 0.0386679 0.0316735
0.0334327 -0.0118868 0.00768592 -0.0243711 0.0242027 0.0593527 0.0288627 0.0524427
0.00385549 -0.0293212 -0.0426375 -0.0248386 -0.0286267 -0.0103279 -0.00122805 -0.0379279
-0.0064412 -0.0237261 -0.00737197 -0.0343805 0.0668882 -0.104646 -0.0889641 -0.314447
0.258586 0.162191 0.043901 0.027279 -0.0273608 -0.589652 -0.748315 -0.0315984
-0.0832407 -0.384209 -0.085926 0.609974 0.891021 0.883807 -0.0958764 -0.211791
0.695609 0.165158 -0.695321 0.134507 -0.120605 0.191964 0.295236 -8.49833e-05
0.0455905 0.379795 -0.157514 -0.062937 -0.249387 0.274655 0.490383 -0.346819
0.00335859 0.63784 -0.313788 -0.317335 -0.0195352 0.57231 -0.570949 0.0529781
0.446212 0.0424007 0.362897 0.0383129 0.0745808 0.292252 -0.095573 0.0466607
1.96858 0.433419 -0.572141 -0.90468 0.00513579 -0.0234785 0.038771 0.593324
-0.485266 -0.0443326 -1.00118 -0.13666 1.90107 -0.302977 0.903519 -0.294508
0.846437 0.407039 2.10539 0.310929 0.619235 -0.345118 -0.869836 0.180374
0.650458 0.0340663 0.251063 0.99877 -0.393961 -0.0321967 0.309383 0.205132
1.97407 1.34269 -0.0523263 2.07347 -0.0467839 -0.0624774 -0.000289033 0.987863
0.198332 -0.00741812 0.0648996 -0.135075 -0.312926 0.508525 0.169044 -0.255289
-0.322459 0.470237 -0.177847 -0.0436068 0.0431254 -0.42845 -0.0493932 -0.0151189
-0.00288607 -0.0142396 0.881804 -0.00684839 -0.576536 -0.098852 -0.133464 -0.198474
0.449998 -0.172065 0.126521 -0.14237 0.096927 0.346767 0.361274 0.357447
-0.221523 -0.164468 0.45873 -0.00733172 -0.32079 0.39274 0.122819 -0.0331177
0.0248877 0.348654 -1.2326 0.0760418 -0.0459674 0.174608 0.326176 0.553901
0.0246697 0.226237 -0.105548 -0.194583 0.0645324 -0.0683022 0.180646 0.507118
-0.204479 -0.371638 -3.86994 -2.03388 0.948365 -0.0310179 -0.370744 -1.08128

FC2_bias f8 [50]
00000000: 4b72 c0ae 264f e83f acc6 12d6 c6d8 eabf
00000010: 419f c893 a4eb f1bf c172 840c e459 e0bf
00000020: b29d efa7 c64b c1bf 350a 4966 f58e eabf
00000030: 5a84 622b 68da e6bf 5eba 490c 022b f83f
00000040: 5d33 f966 9b1b d23f 2103 7976 f9d6 d2bf
00000050: 3848 88f2 052d ddbf 3a5c ab3d ec85 e7bf
00000060: 22a7 afe7 6b96 d7bf 0ada e4f0 4927 c2bf
00000070: a2b7 7878 cf81 efbf 9736 1c96 067e c2bf
00000080: 4910 ae80 423d e43f e606 431d 5638 e4bf
00000090: 1dd7 f125 757e 81bf c362 d4b5 f6be e33f
000000a0: a644 12bd 8ce2 f4bf 31b4 3a39 43f1 e43f
000000b0: b668 01da 56b3 ecbf 26bf ea6d d85b 973f
000000c0: 2d99 6379 573d d6bf 1215 aa9b 8bbf c1bf
000000d0: e8bc c62e 513d eabf 999e b0c4 034a f0bf
000000e0: a7eb 89ae 0b3f ecbf e622 be13 b35e f9bf
000000f0: c824 2367 61cf f1bf 6039 4206 f26c ecbf
00000100: c841 0933 6d7f f0bf a2f1 4410 e7e1 debf
00000110: 3f90 bc73 2843 d7bf c442 ad69 de71 e5bf
00000120: cc98 8235 cea6 e4bf 02ba 2f67 b62b d73f
00000130: 7f4d d6a8 87e8 f5bf ee94 0ed6 ff39 01c0
00000140: 7d76 c075 c58c d43f 7576 3238 4ade f73f
00000150: f33b 4d66 bcad c03f ae82 18e8 da97 e6bf
00000160: ef20 76a6 d079 f23f 0131 0917 f288 e7bf
00000170: 2635 b401 d880 cabf b1a6 b228 eca2 eebf
00000180: e92b 4833 16cd f4bf e15d 2ee2 3b31 c5bf
0.759662 -0.838962 -1.12003 -0.510973 -0.135125 -0.829951 -0.714161 1.5105
0.282935 -0.294371 -0.455873 -0.735098 -0.368556 -0.141824 -0.984596 -0.144471
0.632478 -0.631877 -0.00854198 0.617061 -1.30531 0.654451 -0.896892 0.0228113
-0.347494 -0.138658 -0.819985 -1.01807 -0.882696 -1.58562 -1.11313 -0.888299
-1.03111 -0.482538 -0.363474 -0.67015 -0.645362 0.362043 -1.36927 -2.15332
0.321092 1.49177 0.130302 -0.706037 1.15474 -0.735467 -0.207057 -0.957388
-1.30007 -0.165565

FC2_weight f8 [50, 50]
00000000: 84bd 8921 3999 e23f 2fc3 7fba 8102 d6bf
00000010: ebfe b110 1d82 e23f d36a 48dc 63e9 cf3f
00000020: 3c83 86fe 092e f03f 1ed9 017c 5cc0 a83f
00000030: 04fe f0f3 df83 d63f 0d18 247d 5a45 de3f
00000040: eb87 7da7 6ed3 b63f 94dc 6113 99b9 d53f
00000050: 6b74 18dd 8b79 a3bf c8ef 6dfa b31f c73f
00000060: 685b cd3a e3fb e1bf c4cc 3e8f 519e c5bf
00000070: 014d 840d 4faf d5bf d1e6 38b7 09f7 a2bf
00000080: 7aab ae43 3525 cdbf f7d7 e19e 9dc2 b8bf
00000090: fefc 6b37 c9a8 55bf 338b 506c 054d d33f
000000a0: f59e ca69 4fc9 debf 897b 2c7d e882 d4bf
000000b0: 5ef2 3ff9 bb77 eabf 1c25 afce 3120 d03f
000000c0: ffd1 9222 8d65 adbf 4a27 124c 35b3 d13f
000000d0: 01de 0209 8a1f d93f 1d71 c806 d2c5 e3bf
000000e0: ac54 5051 f52b c3bf 5c63 867c 8626 8f3f
000000f0: 6c7a 5050 8a56 ce3f 81b4 ff01 d62a e4bf
00000100: 6416 eb65 25f7 b7bf 8d98 d9e7 31ca e6bf
00000110: bf60 376c 5b94 bdbf 1c25 afce 3120 d3bf
00000120: 4279 1f47 73e4 e7bf 41dc 3065 3b3a b53f
00000130: 747a de8d 0505 e03f d4ef c2d6 6ce5 d93f
00000140: 6361 889c be9e e5bf 3a58 ffe7 30df f53f
00000150: 8acd c7b5 a162 d43f 1614 0665 1a4d d4bf
00000160: c9c7 ee02 2505 e3bf f818 ac38 d55a e5bf
00000170: c808 a870 04a9 ce3f 0ce7 1a66 683c d5bf
00000180: 2c83 6a83 13d1 bbbf 764f c35c f7fb a23f
00000190: 0283 a44f abe8 cf3f 9c6d 6e4c 4fd8 f13f
000001a0: 7d05 69c6 a2e9 e53f d9b2 7c5d 86ff c0bf
000001b0: 9d64 abcb 2901 d03f c9c8 59d8 d30e d9bf
000001c0: b4aa 251d e560 cabf 3413 0ce7 1ae6 e5bf
000001d0: 2d06 0fd3 beb9 d73f ab2f 01ae 1a3a 94bf
000001e0: 452e 3883 bf5f cc3f 3737 a627 2cf1 f23f
000001f0: 0454 3882 540a e53f 9606 7e54 c37e c1bf
00000200: ebff 1ce6 cb0b dabf ccf0 1b36 fc34 7fbf
00000210: 4030 478f df1b 00c0 7c80 eecb 99ed df3f
00000220: 48be b78e 160c a3bf 73b8 567b d80b cbbf
00000230: ca6c 9049 464e f23f 5604 49e9 e3eb 8cbf
00000240: 16c1 ff56 b2e3 fa3f f78e 1a13 622e ddbf
00000250: 3337 9d6c 1c14 713f 9d9f e238 f06a de3f
00000260: 4469 6ff0 85e9 10c0 ccb8 a981 e673 c83f
00000270: 630c ace3 f8a1 ef3f 1e32 e543 5035 d33f
00000280: 492d 944c 4eed c23f 0037 8b17 0bc3 e2bf
00000290: eb6e 9eea 909b ed3f a984 27f4 fa93 e1bf
000002a0: 68e8 9fe0 6245 fdbf 30d8 0ddb 1665 d93f
000002b0: 066f fe15 e8c9 7bbf ff78 af5a 9970 e23f
000002c0: 1cda b6de 2527 893f 2098 a3c7 ef6d d63f
000002d0: 2025 766d 6fb7 dd3f b2da fcbf eac8 c9bf
000002e0: e1d2 31e7 197b e23f e76f 4221 024e 0040
000002f0: c598 aa6a 381b b5bf d797 b6c9 f2bf b0bf
00000300: df86 bdf5 0604 ab3f da55 48f9 49b5 f2bf
00000310: ce70 033e 3f8c a8bf aa9d 616a 4b1d d1bf
00000320: c729 3a92 cb7f f8bf 2ba4 fca4 daa7 c7bf
00000330: 6c3a a7fe e66a b23f 3d61 8907 94cd f33f
00000340: 97ad f545 42db e83f 0f9a 5df7 5624 c0bf
00000350: c555 65df 15c1 f9bf ea41 4129 5ab9 bb3f
00000360: 6f2c 280c ca34 e8bf 3b00 e2ae 5ec5 e6bf
00000370: 7bf5 f1d0 77b7 d9bf 0ea1 4acd 1e68 f6bf
00000380: 889d 2974 5e63 f4bf 02b9 c491 0722 d63f
00000390: 9a7b 48f8 dedf c0bf a8c5 e061 da37 e5bf
000003a0: b116 9f02 60fc 07c0 3fa9 f6e9 78cc f03f
000003b0: 9e1b e43f ee6c 913f a5f7 8daf 3d33 f23f
000003c0: e86a 2bf6 971d 0fc0 567d aeb6 62ff febf
000003d0: 7099 d365 3131 f33f 19fe d30d 1478 bfbf
000003e0: 9e48 8b8e 3fac b0bf eeeb c039 23ca f53f
000003f0: 3c4d 66bc adf4 e13f 5d32 8e91 ec11 e7bf
00000400: 844c 8d2b 8947 b33f 9f8e c70c 54c6 d13f
00000410: 2975 c938 46b2 bbbf 0a2e 56d4 609a f43f
00000420: 9608 54ff 2092 e53f d712 f241 cfe6 f83f
00000430: b3b5 be48 684b e13f 1d00 7157 af22 c7bf
00000440: 323f 92ed d7f8 9f3f 4371 4bd4 a0a2 793f
00000450: 3010 04c8 d0b1 ee3f 19c9 1ea1 6648 cbbf
00000460: 6dac c43c 2b69 ec3f 8a93 fb1d 8a82 05c0
00000470: a33c f372 d87d cd3f e09e e74f 1bd5 c13f
00000480: 7e01 bd70 e742 e0bf 6668 3c11 c479 cebf
00000490: 9fa1 c90f a672 b83f 7bf7 c77b d5ca f2bf
000004a0: 5740 a19e 3e02 da3f 2b33 a5f5 b704 ed3f
000004b0: d89e 5912 a0a6 f33f a680 b4ff 0156 e83f
000004c0: f4e0 eeac ddf6 f4bf e31c 7574 5c8d dabf
000004d0: 9a4e a1a9 8da0 973f 614f 3bfc 3559 c3bf
000004e0: e42c ec69 873f f23f 01da 56b3 ce78 efbf
000004f0: e8d8 4125 ae63 ec3f 7b82 c476 f700 dd3f
00000500: 6d72 f8a4 1389 e03f d671 fc50 69c4 d0bf
00000510: ccd1 e3f7 36fd 0740 3810 9205 4ce0 f1bf
00000520: 40de ab56 267c f0bf fa29 8e03 af96 afbf
00000530: 56f1 46e6 91bf f03f 4da1 f31a bbc4 f13f
00000540: 95ba 641c 23d9 9bbf 789c a223 b97c e03f
00000550: eb73 b515 fb4b f53f dd07 20b5 8913 f2bf
00000560: 3dd1 75e1 07e7 ddbf 64b1 4d2a 1a6b d0bf
00000570: 098a 1f63 eeda f13f c8ea 56cf 49ef ed3f
00000580: 950e d6ff 39cc fdbf 7d21 e4bc ff8f dfbf
00000590: b79c 4b71 5559 e93f 79af 5a99 f0cb f43f
000005a0: 8080 b56a d784 e83f 9a99 9999 9919 f23f
000005b0: 3410 cb66 0e49 d7bf f702 b342 91ee d1bf
000005c0: 994a 3fe1 ecd6 ea3f 25d5 d237 c4d3 aebf
000005d0: b020 cd58 341d f7bf 9f8e c70c 54c6 d13f
000005e0: 1f83 15a7 5a0b bbbf de4f d724 896f 92bf
000005f0: ba11 1615 713a e73f ecc2 0fce a78e ecbf
00000600: 5d6d c5fe b2fb f13f ecf9 9ae5 b2d1 e93f
00000610: a0e0 6245 0d26 f83f f59c f4be f135 07c0
00000620: 3f3a 75e5 b33c b53f ad16 d863 2225 e03f
00000630: b248 13ef 004f 9abf a950 dd5c fc6d e43f
00000640: b799 0af1 48bc d63f 94bc df0d 0e9b b73f
00000650: 9736 1c96 06fe e23f a087 da36 8c82 c63f
00000660: b45b cb64 389e abbf 2711 e15f 048d c53f
00000670: 28f3 8fbe 49d3 eb3f 08cd ae7b 2b12 c93f
00000680: 6c94 f59b 89e9 d03f fca7 1b28 f04e ea3f
00000690: 05df 347d 76c0 b9bf 209a 7972 4d01 e33f
000006a0: a6d1 e462 0cac de3f 16a5 8460 55bd c83f
000006b0: 6d36 fba8 2b44 b8bf 2e3c 2f15 1bf3 e63f
000006c0: 3199 2a18 9554 f03f 0a4b 3ca0 6cca f5bf
000006d0: 987a 27b0 4a33 a3bf 766d 6fb7 2407 e83f
000006e0: db8a fd65 f764 f2bf 8733 bf9a 0304 d93f
000006f0: e5f1 b4fc c055 cc3f feb6 2748 6c77 de3f
00000700: b29b 19fd 6838 e03f ec6a f294 d574 b53f
00000710: b30a 9b01 2ec8 ce3f ab92 c83e c8b2 c03f
00000720: d4f9 4be6 b397 a43f 4f90 d8ee 1ea0 d7bf
00000730: 2c80 2903 07b4 e33f c363 3f8b a548 e33f
00000740: 0b7a 6f0c 01c0 bdbf 1bf3 3ae2 900d de3f
00000750: 0c46 dbe7 e73c 913f d7f7 e120 214a e73f
00000760: 8351 499d 80a6 f9bf 0b5e f415 a419 cfbf
00000770: 185d de1c aed5 c23f 766c 04e2 75fd d63f
00000780: d670 917b baba c73f d863 22a5 d93c e8bf
00000790: 3b71 395e 81e8 bdbf 4f79 7423 2c2a c8bf
000007a0: 4489 963c 9e96 debf e10d 6954 e064 cb3f
000007b0: eb58 00ae bf80 b1bf 8466 d7bd 1589 d4bf
000007c0: 5917 b7d1 00de d73f 427c 60c7 7f81 cabf
000007d0: 9ed3 2cd0 ee90 d33f b4a1 ac29 da66 a4bf
000007e0: 8ba9 f413 ceee ebbf bfae 70dc 73aa b2bf
000007f0: 5bcf 108e 59f6 e2bf 0abc 934f 8fed e83f
0.581204 -0.343903 0.578383 0.24931 1.01124 0.0483426 0.351799 0.472983
0.0891637 0.339453 -0.0380367 0.180655 -0.561998 -0.168894 -0.338825 -0.037041
-0.227698 -0.0967196 -0.00132198 0.301576 -0.481037 -0.32049 -0.827116 0.251965
-0.0574154 0.276563 0.39255 -0.617898 -0.149779 0.0152102 0.237016 -0.630229
-0.0936149 -0.712182 -0.115545 -0.29884 -0.746637 0.0829198 0.500613 0.404628
-0.675628 1.36699 0.31852 -0.317206 -0.594378 -0.667338 0.239533 -0.331812
-0.108659 0.0370786 0.249288 1.11531 0.68477 -0.132798 0.250071 -0.39153
-0.206082 -0.684339 0.370712 -0.0197529 0.221672 1.18388 0.657511 -0.136681
-0.40697 -0.00761889 -2.01361 0.498877 -0.0372016 -0.211299 1.14411 -0.0141218
1.68059 -0.455956 0.00416957 0.475277 -4.22805 0.191037 0.988522 0.300129
0.147867 -0.586309 0.92524 -0.549314 -1.82944 0.396795 -0.00678435 0.576245
0.0122817 0.35046 0.464321 -0.201444 0.577527 2.03809 -0.0824466 -0.0654289
0.0527651 -1.16926 -0.047945 -0.267413 -1.5312 -0.18481 0.0719437 1.23769
0.776765 -0.126109 -1.60964 0.108297 -0.756444 -0.711593 -0.401823 -1.40042
-1.27426 0.345827 -0.131832 -0.663068 -2.99823 1.04992 0.0170171 1.13751
-3.88945 -1.93735 1.19951 -0.122926 -0.0651283 1.36185 0.561118 -0.720938
0.0753103 0.27773 -0.108189 1.28769 0.674088 1.55635 0.540455 -0.180746
0.0312227 0.00625861 0.959206 -0.213147 0.887838 -2.68874 0.230403 0.139316
-0.508167 -0.238091 0.0954994 -1.17452 0.406387 0.906826 1.22818 0.760499
-1.31027 -0.414878 0.0230734 -0.15116 1.14051 -0.983497 0.887168 0.453184
0.516733 -0.261988 2.99864 -1.11726 -1.03031 -0.0616965 1.04677 1.11053
-0.0271955 0.515225 1.33105 -1.12977 -0.467226 -0.256537 1.11595 0.93546
-1.86236 -0.493164 0.792155 1.29979 0.766216 1.13125 -0.363834 -0.280186
0.838736 -0.0602094 -1.44463 0.27773 -0.105642 -0.0180036 0.725884 -0.892414
1.12395 0.806848 1.50929 -2.90134 0.0829575 0.504533 -0.025692 0.638426
0.355242 0.0922097 0.593509 0.175859 -0.0539415 0.168366 0.869542 0.195867
0.264254 0.822136 -0.100593 0.593909 0.479251 0.193278 -0.0947902 0.717176
1.02065 -1.36192 -0.0375007 0.750872 -1.14965 0.39087 0.221367 0.476039
0.506886 0.083814 0.240484 0.130456 0.0402199 -0.369148 0.615726 0.602618
-0.116211 0.469578 0.0168339 0.727799 -1.60315 -0.24297 0.147146 0.35922
0.185386 -0.757428 -0.116829 -0.188787 -0.477943 0.214016 -0.0683708 -0.320867
0.372925 -0.207077 0.305721 -0.0398472 -0.872901 -0.0729134 -0.592572 0.778999

FC3_bias f8 [50]
00000000: 2288 f370 02d3 e5bf b01b b62d caac 08c0
00000010: 1c40 bfef dfbc e23f b682 a625 5646 e1bf
00000020: 13d4 f02d ac9b e1bf 0584 7b0a 2538 9a3f
00000030: b54f c763 06aa fbbf 404f 0306 499f c0bf
00000040: fed1 3769 1a94 eabf d0ec bab7 2231 c9bf
00000050: 32c6 87d9 cbb6 e3bf a4a9 9ecc 3ffa d53f
00000060: ae81 ad12 2c8e f9bf af5f b01b b62d c43f
00000070: 787e 5182 fe42 ec3f 0fd1 e80e 6267 e6bf
00000080: d811 876c 205d d2bf 6020 0890 a163 e43f
00000090: 2d26 361f d706 f43f e8be 9cd9 aed0 87bf
000000a0: aa7e a5f3 e1d9 e1bf 205e d72f d80d f0bf
000000b0: dcba 9ba7 3ae4 f03f 944d b9c2 bbdc f3bf
000000c0: 52d1 58fb 3bdb c73f 3028 1585 4477 5c3f
000000d0: 4c8d d0cf d4eb ba3f 17f5 49ee b089 e13f
000000e0: 4def 8744 46ac b63f 3b54 5392 7538 c43f
000000f0: f6d6 1b10 7c67 b3bf 8929 9144 2f23 f43f
00000100: 6af6 402b 3064 f7bf 5fd1 add7 f420 e43f
00000110: eacc 3d24 7cef e7bf 3358 cc63 2882 b93f
00000120: 62db a2cc 0619 f03f db4c 8578 24de e83f
00000130: 1782 1c94 30d3 d43f 4772 f90f e937 fcbf
00000140: 3d98 141f 9f10 e1bf 1118 eb1b 98dc e8bf
00000150: 0308 1f4a b464 e7bf 950c 0055 dcb8 e43f
00000160: 4353 76fa 415d c2bf 2cb9 8ac5 6f0a e83f
00000170: 2c7e 5358 a9a0 dc3f 11e4 a084 99b6 f43f
00000180: 75ae 2825 04ab e1bf cedf 8442 049c f03f
-0.682008 -3.08437 0.585556 -0.539836 -0.550253 0.0256048 -1.72901 -0.129861
-0.830579 -0.196812 -0.616064 0.343399 -1.59721 0.157645 0.883178 -0.70012
-0.286934 0.637162 1.25167 -0.0116285 -0.557847 -1.00338 1.05572 -1.24139
0.186378 0.00173742 0.105161 0.548058 0.0885662 0.157973 -0.0757978 1.25859
-1.46196 0.629023 -0.747984 0.0996423 1.00611 0.777117 0.32539 -1.76365
-0.533279 -0.776928 -0.731043 0.647566 -0.143471 0.751274 0.447306 1.29458
-0.552126 1.03809

FC3_weight f8 [50, 50]
00000000: 6876 dd5b 9198 debf 3fef 7cf5 a743 a9bf
00000010: 01f6 d1a9 2b9f dcbf 4fca a486 3600 c73f
00000020: 0119 3a76 5089 c3bf 87f9 f202 eca3 b3bf
00000030: 0f45 813e 91a7 ea3f f9e4 d5f7 e991 813f
00000040: c190 d5ad 9e93 d63f c076 3062 9f00 d8bf
00000050: 5611 6e32 aa0c c1bf 5418 004f fffe b3bf
00000060: 4c4f 58e2 0165 cfbf c26c 020c cb9f bf3f
00000070: a374 e95f 92ca dabf 1c43 0070 ecd9 d03f
00000080: a6d0 798d 5da2 f03f 04e8 f7fd 9b17 cdbf
00000090: 39e0 a936 ee83 a63f 5e9d 6340 f67a 77bf
000000a0: cf2e dffa b0de c43f 1519 1d90 847d d4bf
000000b0: 4e46 9561 dc0d d4bf 47a4 1243 1779 aabf
000000c0: f8fe 06ed d5c7 e2bf 5ce4 9eae ee58 d6bf
000000d0: 63eb be08 bf79 aa3f ecc1 a4f8 f884 d3bf
000000e0: a6ed 5f59 6952 bebf 611a 868f 8829 dabf
000000f0: cbbc 76e5 8abd 5dbf f7e4 61a1 d634 c1bf
00000100: 8908 ff22 68cc ddbf e563 7781 9202 c7bf
00000110: afcf 9cf5 29c7 c2bf 5039 268b fb8f debf
00000120: 7154 6ea2 96e6 d4bf 5bd0 7b63 0800 e2bf
00000130: 33f9 669b 1bd3 93bf d80b 056c 0723 ba3f
00000140: 0114 234b e658 d43f 7a87 c204 c125 783f
00000150: d36c 1e87 c1fc 9d3f aec4 f29d 4e68 88bf
00000160: 286f 360c d583 b83f 6abd df68 c70d d5bf
00000170: bebf 417b f5f1 bcbf de75 36e4 9f19 c6bf
00000180: 9443 d5f9 0159 a9bf b2ba d573 d27b e4bf
00000190: 8524 b37a 87db c33f fad0 05f5 2d73 babf
000001a0: 060f d3be b93f e7bf 5bcf 108e 59f6 c63f
000001b0: 35ed 629a e95e c53f 0613 7f14 75e6 d9bf
000001c0: f69a 1e14 9422 ed3f fd6a 0e10 cc51 f8bf
000001d0: 0578 c196 0d21 b1bf ca6c 9049 46ce ddbf
000001e0: 9ce1 067c 7e98 f43f 0151 3063 0ad6 c2bf
000001f0: 6b0f 7ba1 806d e8bf 425f 7afb 73d1 ebbf
00000200: 6c78 7aa5 2c03 02c0 d3de e00b 9329 0fc0
00000210: dd44 2dcd ad10 c43f c2df 2f66 4bd6 e7bf
00000220: 1e33 5019 ff3e e7bf 1613 9b8f 6b83 06c0
00000230: 04fe f0f3 df83 bb3f 64b2 b8ff c8f4 e83f
00000240: 2254 a9d9 03ad f0bf 853e 58c6 866e dc3f
00000250: f2ef 332e 1c88 13c0 166d 8e73 9bf0 e4bf
00000260: 4fcb 0f5c e509 e0bf c58f 3177 2da1 f1bf
00000270: 6b98 041c 0079 783f cafb 389a 23ab edbf
00000280: fd9f c37c 7901 e2bf 47e1 1f5b 3bf6 a03f
00000290: 3508 73bb 977b e0bf 9984 0b79 0437 ddbf
000002a0: 34a2 b437 f8c2 fb3f c9c9 c4ad 8218 e9bf
000002b0: 6ff0 85c9 5401 0ac0 dc82 a5ba 8097 d43f
000002c0: e8bd 3104 0047 e1bf 4260 e5d0 22bb 1ec0
000002d0: e3fe 23d3 a1d3 cfbf eb73 b515 fbcb b83f
000002e0: 6c04 e275 fd82 fcbf 2237 c30d f8fc f13f
000002f0: 751d aa29 c93a da3f 4486 55bc 9179 f03f
00000300: 55c1 a8a4 4ec0 f1bf 5934 9d9d 0c8e f2bf
00000310: 6ade 718a 8ee4 d4bf 35ef 3845 4772 fabf
00000320: 2385 b2f0 f5b5 dc3f 9126 de01 9eb4 e13f
00000330: 9049 46ce c29e cc3f 2367 614f 3bfc cb3f
00000340: a705 2ffa 0ad2 d13f f7ad d689 cbf1 d93f
00000350: 4ad1 cabd c0ac d13f 5778 978b f84e d3bf
00000360: 3e25 e7c4 1eda dcbf c52b ff10 d19e b73f
00000370: d07e a488 0cab c63f 6823 d74d 29af dc3f
00000380: 8ded b5a0 f7c6 debf 2785 798f 334d d83f
00000390: 23c0 e95d bc1f cfbf 1bd7 bfeb 3367 e4bf
000003a0: 88ba 0f40 6ad3 01c0 7026 a60b b1fa e13f
000003b0: e42d 573f 36c9 d0bf 5a57 bbdc 161b b3bf
000003c0: a73e 90bc 7328 d2bf f4a6 2215 c616 c43f
000003d0: c284 d1ac 6c1f dbbf b24a e999 5e62 e73f
000003e0: 13d5 5b03 5ba5 f13f 66f7 e461 a1d6 f03f
000003f0: 4181 77f2 e9b1 d5bf 2ee3 a606 9acf d3bf
00000400: 41b1 ba7a ba5f aebf 9277 0e65 a88a d43f
00000410: b0c7 444a b379 d1bf abec bb22 f8df 13c0
00000420: 5bb2 2ac2 4d46 d9bf 419c 8713 984e e53f
00000430: ff59 f3e3 2f2d c23f 3047 8fdf dbf4 d2bf
00000440: 016e 162f 1686 dcbf 1b9b 1da9 bef3 e6bf
00000450: 1e35 26c4 5c52 c73f ba29 8afc 9f68 b33f
00000460: 98a3 c7ef 6dfa cd3f 43c9 e4d4 ce30 c1bf
00000470: f8fd 9b17 27be ec3f 9206 b7b5 8567 ee3f
00000480: 672a c423 f1f2 e3bf 5705 6a31 7898 e1bf
00000490: fce0 7cea 58a5 d13f e0f3 c308 e1d1 d33f
000004a0: a3af 20cd 5834 db3f 8714 0324 9a40 c93f
000004b0: 9b1f 7f69 511f e03f d237 691a 14cd c93f
000004c0: 96cb 46e7 fc14 b7bf 09ce cfc3 bfbe b0bf
000004d0: 1688 9e94 498d e8bf ab77 b81d 1a16 bbbf
000004e0: 016d ab59 677c ea3f 9128 b4ac fb47 edbf
000004f0: abea e577 9acc b8bf 9ab6 7f65 a549 c5bf
00000500: b6f8 1400 e399 0fc0 c627 ae74 88c9 b7bf
00000510: e738 b709 f7ca da3f 3316 4d67 2783 cfbf
00000520: 55fb 743c 6620 eabf fbcc 599f 724c e03f
00000530: 5f41 9ab1 68ba f0bf b9bb 1814 1791 92bf
00000540: f54a 5986 38d6 ed3f 7847 c66a f3ff d13f
00000550: adc9 ae0f 4647 a13f e659 492b bea1 ce3f
00000560: 5fa9 786d 80e3 9c3f 2e65 2a0e b10b a03f
00000570: 282b 86ab 0320 ee3f 7e73 7ff5 b8ef e23f
00000580: 8752 7b11 6dc7 c03f af5a 99f0 4bfd d2bf
00000590: 3540 69a8 5148 bebf 5400 8c67 d0d0 d03f
000005a0: 276b d443 34ba df3f 5fbb 0f9b 2386 b6bf
000005b0: 1bda 006c 4084 e53f 6b9d b81c af40 eebf
000005c0: 1c07 5e2d 7766 dcbf 944d b9c2 bb5c f03f
000005d0: 69fe 98d6 a6b1 de3f bef6 cc92 0035 ed3f
000005e0: 813d cb98 277c b7bf be89 2139 99b8 adbf
000005f0: 7638 1504 ea28 b8bf fe61 4b8f a67a e23f
00000600: 9d0f cf12 6484 e7bf 4a9a 3fa6 b569 dc3f
00000610: 0b24 cdc4 1968 a3bf 4c49 7b28 76d9 b8bf
00000620: 0664 af77 7fbc e23f 8acb f10a 444f c03f
00000630: 925e d4ee 5701 db3f 5e2b a1bb 24ce d83f
00000640: ee5f 5969 52ca 05c0 35ef 3845 47b2 0840
00000650: 035b 2558 1cce d2bf 4e61 a582 8aaa ed3f
00000660: a67b 9dd4 97a5 c73f 154d b1b4 9d00 a43f
00000670: 9a5f cd01 8239 d63f a437 dc47 6e4d e4bf
00000680: 7d24 253d 0cad d5bf 83c3 0b22 5253 e3bf
00000690: 1459 6b28 b517 d4bf 910d a48b 4d2b d3bf
000006a0: 098d 60e3 faf7 e2bf e887 11c2 a30d e2bf
000006b0: adbd 4f55 a101 eebf b668 01da 56b3 d33f
000006c0: 2925 04ab eae5 c53f 28ef e368 8eac dbbf
000006d0: 3196 e997 8837 e2bf 3770 07ea 9447 e43f
000006e0: d4d6 8860 1c5c ca3f d07e a488 0c6b 09c0
000006f0: ae10 5663 096b bf3f 0664 af77 7f1c 14c0
00000700: 5de2 c803 9145 d73f 9e25 c808 a870 cabf
00000710: 8bc1 c3b4 6fee d03f 8fa9 bbb2 0b06 e3bf
00000720: 707d 586f d40a cfbf 6259 1fc5 ef5c b4bf
00000730: f5b9 da8a fde5 e2bf 2219 726c 3d43 d6bf
00000740: 2c0e 677e 3507 dcbf 59fa d005 f5ad f1bf
00000750: 304b 3b35 971b dfbf 6c78 7aa5 2cc3 f0bf
00000760: 36e9 b644 2e38 c1bf 37e0 f3c3 0861 f1bf
00000770: ad30 7daf 2138 c23f 99d7 1187 6c20 bd3f
00000780: b7b8 c667 b27f d83f 214b 30e6 f8b2 b8bf
00000790: acc4 3c2b 69c5 d13f ea95 b20c 712c e93f
000007a0: 7a1d 71c8 06d2 d1bf 9609 bfd4 cf9b f2bf
000007b0: 9912 49f4 328a b93f ea03 c93b 8732 bcbf
000007c0: ee0a 7db0 8c0d adbf 8048 bf7d 1db8 e1bf
000007d0: d55a 9885 764e e0bf b22f d978 b045 e63f
000007e0: 6e6d e179 a9d8 ed3f cd92 0035 b56c d43f
000007f0: b533 4c6d a983 dc3f 21ce c309 4ca7 da3f
-0.478062 -0.0493443 -0.447215 0.179694 -0.152628 -0.07672 0.832955 0.00857909
0.35276 -0.375038 -0.133199 -0.0781097 -0.24527 0.123532 -0.418614 0.263301
1.03964 -0.227283 0.0439753 -0.0057325 0.163046 -0.320161 -0.313346 -0.0517051
-0.586894 -0.349178 0.0517101 -0.304991 -0.118445 -0.408785 -0.00181521 -0.134425
-0.465601 -0.179766 -0.146703 -0.477538 -0.326574 -0.562504 -0.01936 0.102097
0.317926 0.00589538 0.0292845 -0.0119177 0.0957616 -0.328966 -0.113067 -0.172657
-0.0495072 -0.640115 0.155137 -0.10332 -0.726529 0.179393 0.166959 -0.404691
0.910471 -1.51997 -0.0669106 -0.465715 1.28723 -0.147157 -0.763367 -0.869318
-2.25155 -3.8953 0.156759 -0.744909 -0.72644 -2.81417 0.107481 0.779881
-1.04224 0.444246 -4.88292 -0.654371 -0.501208 -1.10185 0.00597477 -0.927141
-0.56268 0.0331286 -0.515087 -0.456483 1.7351 -0.784242 -3.25065 0.321747
-0.539917 -7.68275 -0.248646 0.0968625 -1.78198 1.12426 0.409838 1.02968
-1.10945 -1.15968 -0.32645 -1.6529 0.448606 0.553298 0.223595 0.218635
0.278445 0.405383 0.276169 -0.301695 -0.450813 0.0922671 0.177095 0.448191
-0.480894 0.379712 -0.243156 -0.637598 -2.22823 0.561852 -0.262281 -0.0746321
-0.283719 0.156945 -0.423793 0.730758 1.10287 1.0524 -0.338984 -0.309546
-0.0593241 0.320963 -0.273053 -4.96872 -0.394916 0.665844 0.142004 -0.296195
-0.445684 -0.717254 0.182201 0.0758152 0.234205 -0.134302 0.898212 0.950137
-0.623406 -0.549862 0.275717 0.309685 0.42507 0.197284 0.503823 0.201571
-0.090164 -0.0654106 -0.767247 -0.105806 0.827686 -0.915037 -0.096872 -0.16631
-3.95014 -0.0929189 0.418638 -0.24619 -0.816455 0.509332 -1.04551 -0.0181316
0.9324 0.281247 0.0337469 0.239311 0.0282116 0.0313392 0.941408 0.591763
0.131086 -0.29671 -0.118291 0.262745 0.49574 -0.0879843 0.672394 -0.945396
-0.443754 1.02264 0.479593 0.91272 -0.0917382 -0.058049 -0.0943743 0.577472
-0.734911 0.443952 -0.0379036 -0.0970682 0.58551 0.127419 0.421957 0.387582
-2.72379 3.08705 -0.29383 0.927068 0.184741 0.0390672 0.34726 -0.634452
-0.338687 -0.603921 -0.313947 -0.299518 -0.592771 -0.564165 -0.937699 0.307821
0.171079 -0.432407 -0.569279 0.633738 0.205936 -3.17727 0.122727 -5.02783
0.363621 -0.206563 0.264553 -0.594488 -0.242518 -0.0795431 -0.590575 -0.347854
-0.43794 -1.10497 -0.486059 -1.04765 -0.134527 -1.08619 0.142338 0.113776
0.382794 -0.0964809 0.277674 0.786675 -0.278444 -1.16304 0.099765 -0.110146
-0.056744 -0.553725 -0.509578 0.696007 0.932698 0.319135 0.445536 0.416461

FC4_bias f8 [50]
00000000: 1a51 da1b 7c61 f2bf 221a dd41 ec4c f4bf
00000010: 58e2 0165 53ae dcbf e430 98bf 42e6 d93f
00000020: bc05 1214 3f46 f03f 17f5 49ee b089 d33f
00000030: 5167 ee21 e17b b53f b85b 9203 76b5 e03f
00000040: 50aa 7d3a 1e33 f1bf 836e 2f69 8cd6 f6bf
00000050: abb0 19e0 82ec e03f d8b8 fe5d 9f39 d2bf
00000060: 23d8 b8fe 5d9f dd3f dac9 e028 79f5 f6bf
00000070: ba2c 2636 1f57 f03f 003a cc97 17e0 f63f
00000080: 0588 8219 53b0 e1bf 3cf7 1e2e 39ee f6bf
00000090: a73d 25e7 c49e e43f 9300 35b5 6c2d f53f
000000a0: f854 4e7b 4ace d6bf 4d4a 41b7 9734 f5bf
000000b0: 8674 7808 e3a7 de3f 859e 2864 4227 b73f
000000c0: 1f0f 7d77 2b4b c8bf c4e7 f3f6 8ce9 b43f
000000d0: f985 5792 3cd7 c1bf 45f1 2a6b 9b62 e93f
000000e0: 2462 4a24 d14b eb3f 2eaa 4544 31f9 e93f
000000f0: 7bdc b75a 272e c13f 4703 780b 24a8 ecbf
00000100: f2e9 b12d 03ce da3f 9e5e 29cb 10c7 e13f
00000110: 83df 8618 af79 cd3f 3333 3333 33b3 f43f
00000120: b342 91ee e714 e53f 1d1d 5723 bbd2 d83f
00000130: 51da 1b7c 6132 c5bf 3be4 66b8 011f f03f
00000140: 82c5 e1cc afe6 c83f 4cfd bca9 4885 f0bf
00000150: 3a5a d592 8e72 c2bf 1025 5af2 785a db3f
00000160: cbb9 1457 957d f2bf aab7 06b6 4a30 f43f
00000170: 05c2 4eb1 6a10 d2bf 194d 1529 202f 84bf
00000180: cf30 b5a5 0e72 ec3f 910a 630b 418e 0340
-1.1488 -1.26878 -0.44814 0.404679 1.01715 0.305279 0.0839215 0.522151
-1.07498 -1.42738 0.528871 -0.284767 0.462852 -1.43493 1.02127 1.42971
-0.552774 -1.43316 0.644381 1.32359 -0.356341 -1.32534 0.478997 0.0904428
-0.189794 0.0816887 -0.139381 0.793287 0.853005 0.811669 0.134221 -0.895525
0.418824 0.55555 0.230276 1.29375 0.658802 0.387862 -0.1656 1.00757
0.19454 -1.03254 -0.144121 0.427397 -1.15566 1.26179 -0.282252 -0.00985551
0.888923 2.44446
