examples/benchmarks/ACAS XU/Networks/ACAS_XU_5_9.onnx (onnx, 108361 bytes, 14 tensors)

FC0_bias f8 [50]
0.000800951 -0.381617 -0.538821 0.0335832 0.0300302 -0.00931612 -0.254778 -0.113112
0.0366074 -0.0182462 0.155248 0.009714 -0.408956 -0.0282319 -0.160674 -0.334274
-0.00852013 0.0444366 -0.376109 0.53439 -0.526515 -0.170828 -0.218271 -0.552731
-0.342128 -0.114335 -0.490333 -0.166789 0.144332 -0.115535 -0.0958017 -0.0727127
-0.0667534 -0.0165737 -0.0309028 -0.278644 -0.179915 -0.539268 -0.0985641 -0.187146
-0.160475 -0.133024 -0.139899 -0.345217 0.0267532 -0.453696 0.0662925 -0.026964
-0.444177 0.0302395
00000000: 36b0 e32c dd3e 4a3f 9a3f a6b5 696c d8bf
00000010: 8cbc ac89 053e e1bf 9bda 6333 d131 a13f
00000020: 5ec1 919b 3cc0 9e3f 6a0d ce75 5414 83bf
00000030: e160 6f62 484e d0bf b9ff c874 e8f4 bcbf
00000040: 564b 9583 34be a23f e3e7 1ac1 21af 92bf
00000050: f67b 629d 2adf c33f 80ba 8102 efe4 833f
00000060: c230 60c9 552c dabf 47d6 d0bc d2e8 9cbf
00000070: f9a3 a833 f790 c4bf 75cc 79c6 be64 d5bf
00000080: 184e a97d 0073 81bf 79a9 7ddf 64c0 a63f
00000090: 08cd ae7b 2b12 d8bf efe6 a90e b919 e13f
000000a0: 614f 3bfc 35d9 e0bf f9db 9e20 b1dd c5bf
000000b0: cc25 55db 4df0 cbbf 3388 0fec f8af e1bf
000000c0: d4ef c2d6 6ce5 d5bf dbc4 c9fd 0e45 bdbf
000000d0: 8692 c9a9 9d61 dfbf cd90 2a8a 5759 c5bf
000000e0: 3315 e291 7879 c23f a419 8ba6 b393 bdbf
000000f0: 41b5 66d0 7586 b8bf ebfc 80ac 4c9d b2bf
00000100: 1b95 e535 c016 b1bf 9915 e52d b2f8 90bf
00000110: 3e58 6bcd fba4 9fbf 0281 cea4 4dd5 d1bf
00000120: d6a8 8768 7407 c7bf 41f0 f8f6 ae41 e1bf
00000130: c546 0f32 7f3b b9bf 37e2 c96e 66f4 c7bf
00000140: 43ad 69de 718a c4bf 27a3 ca30 ee06 c1bf
00000150: 081e dfde 35e8 c1bf a27c 410b 0918 d6bf
00000160: 17de 40dc 3065 9b3f 72dd 94f2 5a09 ddbf
00000170: 2a57 7897 8bf8 b03f 8368 ad68 739c 9bbf
00000180: 43aa 285e 656d dcbf 8787 307e 1af7 9e3f

FC0_weight f8 [5, 50]
0.0357794 0.135806 0.0338845 0.0474674 0.00525699 -0.00111226 -0.012305 0.448507
0.00246414 0.00911375 -0.016659 0.00520811 0.00211714 0.0104706 0.0378895 0.101165
0.28998 0.00908468 -2.58884 1.89565 0.163195 -0.269914 0.395368 0.0106748
-0.185525 0.00142621 0.0277334 0.0418198 -0.0681054 -0.049725 -0.0261464 -0.316412
-0.0165045 -0.0101201 0.0259434 0.172192 0.0290936 -0.00553881 -0.018295 -0.420475
-0.078511 0.0948687 -0.106589 0.00200226 0.0476455 -0.0374444 -0.0883025 -0.124933
0.0713646 0.0367154 -0.139394 -1.15996 -3.24801 0.545881 0.00632481 0.00197888
-0.873363 -0.345693 0.448821 0.0105987 0.0583973 -0.574826 -1.2877 0.0180645
-1.57118 1.03595 0.0315196 -0.479983 0.0099417 0.00420523 2.95084 -1.00466
-0.161354 -0.0386815 1.46482 0.831342 0.00901888 -0.824041 -0.556525 1.56521
-0.623777 -0.193841 0.830261 -0.0111447 -3.48698 -1.10393 0.734078 -1.14308
-0.12664 1.45527 -0.819207 0.65835 0.330737 -0.579549 -0.885499 0.854988
0.0104757 -0.580759 -0.00691236 -0.207163 0.961713 1.04859 0.141258 -0.856967
-0.15113 -0.00447483 -0.832744 -0.116587 0.675356 -0.0104247 -0.221352 -0.926931
1.68041 -0.0178875 0.31175 -0.892014 0.00245894 -0.287184 -0.0158725 -0.0029632
-1.92867 0.956131 -0.0752925 -0.000334984 -1.61424 0.171892 -0.0201962 -0.0996173
0.48295 -0.253892 -0.735514 -0.150205 0.989069 -0.00206853 -0.0297857 0.974309
0.724382 1.50305 -0.77063 -1.55266 1.3037 0.0107732 -0.276603 0.733454
-0.1113 -1.31488 -0.0172861 0.766871 0.0522175 0.338277 -0.0962604 0.106043
-0.033419 0.185359 -0.36616 0.00367966 0.342351 0.0176218 -0.105905 -0.000209814
0.79135 -0.0383245 -0.237507 -0.00627017 0.395358 0.118332 -0.00327762 0.198024
0.0139805 0.0254791 0.373181 -0.0400336 -0.956627 -0.029133 -0.311346 0.358562
-0.17408 0.118749 0.206729 0.28693 0.285966 -0.369345 0.443644 0.005682
0.0188706 0.137734 0.336999 -0.119779 -0.255106 0.122124 0.0488925 0.0201066
0.0173694 -0.0740563 0.0876144 -0.0520026 0.271831 0.24635 -1.03331 -0.380108
0.121333 0.0409276 -0.878794 -0.174329 0.396113 -0.00332398 -0.201169 -0.143402
0.0483438 -0.00203018 -0.894777 0.0639834 0.569375 4.44063e-06 -0.533458 -0.0093297
-0.0712617 0.00280485 0.0128027 0.0359534 -0.498614 0.262827 -0.0768288 -1.60123
0.543926 -0.474279 -1.0025 -0.588915 -0.338854 -0.420715 -0.158666 -0.0684237
-0.201368 0.00219493 -0.0140108 -0.265212 -0.160363 0.384963 0.13096 0.0223264
-0.235535 -0.362316 -0.479342 0.129443 -0.2627 0.226943 0.231148 -0.257914
-0.13057 0.446449
00000000: 7eb2 bd71 ad51 a23f addf 4c4c 1762 c13f
00000010: 72c0 ae26 4f59 a13f c996 40a5 a54d a83f
00000020: 6ca2 0182 5a88 753f 6e0c c714 2839 52bf
00000030: fa44 9e24 5d33 89bf 8cbb 41b4 56b4 dc3f
00000040: 78f9 ce16 ad2f 643f ee25 8dd1 3aaa 823f
00000050: 467b bc90 0e0f 91bf 8ec8 fb61 1955 753f
00000060: 5826 f4e1 f657 613f c254 8e24 9c71 853f
00000070: cd3c b9a6 4066 a33f 84f5 7f0e f3e5 b93f
00000080: 029f 1f46 088f d23f 19fe f41b fd9a 823f
00000090: f59c f4be f1b5 04c0 3199 2a18 9554 fe3f
000000a0: c173 efe1 92e3 c43f 00e2 ae5e 4546 d1bf
000000b0: a9a2 7895 b54d d93f 4977 2167 abdc 853f
000000c0: 3a92 cb7f 48bf c7bf 4da0 a953 f55d 573f
000000d0: 3a0d 07f8 2466 9c3f 9588 a6a2 6769 a53f
000000e0: e955 ae01 5b6f b1bf bd52 9621 8e75 a9bf
000000f0: fced a133 1fc6 9abf 06f7 031e 1840 d4bf
00000100: 1684 f23e 8ee6 90bf 140c 42d4 d8b9 84bf
00000110: ee2c 301a e890 9a3f a400 5130 630a c63f
00000120: 9174 1772 b6ca 9d3f faab f0fc dcaf 76bf
00000130: cea5 b8aa ecbb 92bf 4547 72f9 0fe9 dabf
00000140: 5052 6001 4c19 b4bf 36fe e9ab 5049 b83f
00000150: 1d04 1dad 6a49 bbbf b395 fa26 0b67 603f
00000160: 1f67 9ab0 fd64 a83f fa30 d692 e92b a3bf
00000170: b4b0 a71d fe9a b6bf 63f0 30ed 9bfb bfbf
00000180: 4895 174f f344 b23f d7e4 8464 5ccc a23f
00000190: 971a a19f a9d7 c1bf c9b0 8a37 328f f2bf
000001a0: cea5 b8aa ecfb 09c0 b33f 506e db77 e13f
000001b0: 3095 a741 0be8 793f db25 3f1c 0336 603f
000001c0: 952a 51f6 96f2 ebbf 3331 5d88 d51f d6bf
000001d0: 5683 30b7 7bb9 dc3f d779 0a6f c5b4 853f
000001e0: 6272 593b 40e6 ad3f f17e dc7e f964 e2bf
000001f0: 7cf2 b050 6b9a f4bf 95d6 df12 807f 923f
00000200: 8811 c2a3 8d23 f9bf c1a8 a44e 4093 f03f
00000210: 63b2 5d46 5623 a03f b3b3 e89d 0ab8 debf
00000220: a1e2 ee62 505c 843f 3b8f 27d5 8039 713f
00000230: 41d4 7d00 529b 0740 fb96 395d 1613 f0bf
00000240: 9815 8a74 3fa7 c4bf 7ba2 ebc2 0fce a3bf
00000250: 726d a818 e76f f73f c651 b989 5a9a ea3f
00000260: 9c21 2c95 7d78 823f 3605 323b 8b5e eabf
00000270: 3b01 4d84 0dcf e1bf 5ef4 15a4 190b f93f
00000280: 5ce7 df2e fbf5 e3bf 23dd cf29 c8cf c8bf
00000290: bf9d 4484 7f91 ea3f fc99 3050 08d3 86bf
000002a0: da72 2ec5 55e5 0bc0 282c f180 b2a9 f1bf
000002b0: 9ed1 5625 917d e73f 0b63 0b41 0e4a f2bf
000002c0: bdc6 2e51 bd35 c0bf 4699 0d32 c948 f73f
000002d0: ccef 3499 f136 eabf 8c4a ea04 3411 e53f
000002e0: 0ff0 a485 cb2a d53f 7fbe 2d58 aa8b e2bf
000002f0: a680 b4ff 0156 ecbf 4b1e 4fcb 0f5c eb3f
00000300: 8dbe 38a7 4874 853f fc71 fbe5 9395 e2bf
00000310: b9fa 3582 2250 7cbf d17a f832 5184 cabf
00000320: e46a 6457 5ac6 ee3f 2c9a ce4e 06c7 f03f
00000330: ec30 26fd bd14 c23f 180a d80e 466c ebbf
00000340: b8e4 b853 3a58 c3bf 5122 1508 3354 72bf
00000350: 5116 bebe d6a5 eabf 4085 2348 a5d8 bdbf
00000360: 3909 a52f 849c e53f 9b9c 908c 8b59 85bf
00000370: 90bc 7328 4355 ccbf 22c1 5433 6ba9 edbf
00000380: 17f1 9d98 f5e2 fa3f 705f 07ce 1951 92bf
00000390: c1ca a145 b6f3 d33f 635f b2f1 608b ecbf
000003a0: d11c 405c c524 643f 42ce fbff 3861 d2bf
000003b0: 8d7f 9f71 e140 90bf 82a0 ede2 4746 68bf
000003c0: cf6b ec12 d5db febf 0723 f609 a098 ee3f
000003d0: 1153 2289 5e46 b3bf 4071 1e53 19f4 35bf
000003e0: 1552 7e52 edd3 f9bf 0ad6 389b 8e00 c63f
000003f0: 018f 030a 50ae 94bf 6fa6 9df5 8480 b9bf
00000400: d49a e61d a7e8 de3f 78d3 2d3b c43f d0bf
00000410: 2e01 f8a7 5489 e7bf 0b0c 59dd ea39 c3bf
00000420: fa98 0f08 74a6 ef3f 62e9 6c96 05f2 60bf
00000430: 58ca 8d7d 2480 9ebf d159 6611 8a2d ef3f
00000440: 4df4 f928 232e e73f 780b 2428 7e0c f83f
00000450: 9b20 ea3e 00a9 e8bf f2ea 1c03 b2d7 f8bf
00000460: 24b9 fc87 f4db f43f ead9 626d 4210 863f
00000470: 656e be11 ddb3 d1bf 30da e385 7478 e73f
00000480: 0378 0b24 287e bcbf b6a1 629c bf09 f5bf
00000490: 4898 b388 72b3 91bf af06 280d 358a e83f
000004a0: 5cc9 8e8d 40bc aa3f a54b ff92 54a6 d53f
000004b0: 6e5e e685 85a4 b8bf 1840 f850 a225 bb3f
000004c0: d34a 2190 4b1c a1bf 3e77 82fd d7b9 c73f
000004d0: 739d 465a 2a6f d7bf 3d64 886b ce24 6e3f
000004e0: 732f 302b 14e9 d53f 5a5f c9fa 720b 923f
000004f0: 069e 7b0f 971c bbbf a023 5789 3080 2bbf
00000500: 3411 363c bd52 e93f 1267 45d4 449f a3bf
00000510: e318 c91e a166 cebf aa1d 72f1 bfae 79bf
00000520: e290 0da4 8b4d d93f 59fd 1186 014b be3f
00000530: 2ccc add6 aad9 6abf 795b e9b5 d958 c93f
00000540: 9cfa 40f2 cea1 8c3f e711 ed74 3117 9a3f
00000550: d444 9f8f 32e2 d73f 7077 7bb5 487f a4bf
00000560: 170f ef39 b09c eebf 2afe ef88 0ad5 9dbf
00000570: fa62 efc5 17ed d3bf 8fa7 e507 aef2 d63f
00000580: 809f 71e1 4048 c6bf b0c5 6e9f 5566 be3f
00000590: 9a40 118b 1876 ca3f 2271 8fa5 0f5d d23f
000005a0: dd25 7156 444d d23f 4f3b fc35 59a3 d7bf
000005b0: 9143 c4cd a964 dc3f 295f d042 0246 773f
000005c0: 6c70 6c87 d052 933f bf0c c688 44a1 c13f
000005d0: 9738 f240 6491 d53f aa61 bf27 d6a9 bebf
000005e0: 27db c01d a853 d0bf 2784 0eba 8443 bf3f
000005f0: 7f13 0a11 7008 a93f e729 bc15 d396 943f
00000600: 46f8 cdb3 48c9 913f 5b11 908a 5af5 b2bf
00000610: 199e a8b6 e56d b63f 1f2b 9db4 15a0 aabf
00000620: 957e c2d9 ad65 d13f 0e4f af94 6588 cf3f
00000630: 7f13 0a11 7088 f0bf 82ab 3c81 b053 d8bf
00000640: 06f2 ecf2 ad0f bf3f 17ee 015f 76f4 a43f
00000650: 0779 3d98 141f ecbf fa47 dfa4 6950 c6bf
00000660: 054f 2157 ea59 d93f f6d5 8f2c e43a 6bbf
00000670: fa08 fce1 e7bf c9bf bf2a 172a ff5a c2bf
00000680: 39c1 edbf 84c0 a83f 114e 8f96 98a1 60bf
00000690: d5d0 0660 03a2 ecbf 96a4 7c52 3761 b03f
000006a0: b81e 85eb 5138 e23f 3629 7514 17a0 d23e
000006b0: 2444 f982 1612 e1bf 424b 0d23 731b 83bf
000006c0: c115 f5ee 343e b2bf 455c a560 32fa 663f
000006d0: 206c 674e 4d38 8a3f cd29 5cea 7b68 a23f
000006e0: c2f9 d4b1 4ae9 dfbf e55e 6056 28d2 d03f
000006f0: a613 645f 0dab b3bf 3bfc 3559 a39e f9bf
00000700: 0936 ae7f d767 e13f 4e7e 8b4e 965a debf
00000710: 0ad7 a370 3d0a f0bf 7ff6 2345 64d8 e2bf
00000720: 289a 07b0 c8af d5bf e9f1 7b9b feec dabf
00000730: 795a 7ee0 2a4f c4bf ea74 c531 3784 b1bf
00000740: b0ff 3a37 6dc6 c9bf a5f0 2412 1afb 613f
00000750: 468d 53be b1b1 8cbf a06e a0c0 3bf9 d0bf
00000760: 7785 3e58 c686 c4bf 11e2 cad9 3ba3 d83f
00000770: c1c5 8a1a 4cc3 c03f 2983 5957 bbdc 963f
00000780: 2e1c 08c9 0226 cebf 8352 b472 2f30 d7bf
00000790: d159 6611 8aad debf b91a d995 9691 c03f
000007a0: 5530 2aa9 13d0 d0bf 342f 87dd 770c cd3f
000007b0: 5b95 44f6 4196 cd3f 088e cbb8 a981 d0bf
000007c0: 2d5b eb8b 84b6 c0bf ea3d 95d3 9e92 dc3f

FC1_bias f8 [50]
-0.373616 1.49412 -0.252122 0.096212 -0.987913 0.0179958 -0.0150784 -0.551421
-0.15711 -0.014369 -0.498937 0.0631877 0.15578 0.485763 -0.0270982 -1.2357
0.529035 -0.0219647 -0.371105 0.788723 0.0540004 -0.0143503 -1.64348 -0.0438412
1.27332 -0.154477 0.194304 -0.014762 0.891144 0.0129668 -0.312985 0.0311622
0.438241 0.70247 -0.0160894 -0.350932 -0.618372 0.0562719 0.662022 -0.00683701
-0.103312 1.09441 0.0334995 -0.282476 -1.77125 -0.0599637 0.323513 0.520769
0.170113 -0.0151895
00000000: 1dca 5015 53e9 d7bf d5ca 845f eae7 f73f
00000010: 0189 2650 c422 d0bf a395 7b81 59a1 b83f
00000020: 4a62 49b9 fb9c efbf 7e86 dcb1 7d6d 923f
00000030: a50f 0297 6ce1 8ebf d57b 2aa7 3da5 e1bf
00000040: 95f1 ef33 2e1c c4bf 541b 9c88 7e6d 8dbf
00000050: 25eb 7074 95ee dfbf eb6b 02b1 112d b03f
00000060: ff78 af5a 99f0 c33f 99d6 a6b1 bd16 df3f
00000070: cb32 1f6b a1bf 9bbf daac fa5c 6dc5 f3bf
00000080: 3d0f eece daed e03f 2f72 aa10 ea7d 96bf
00000090: 0074 982f 2fc0 d7bf d74b 5304 383d e93f
000000a0: 371c f1bf f0a5 ab3f 6a97 80a9 b063 8dbf
000000b0: cf14 3aaf b14b fabf 6c4e 6f90 5a72 a6bf
000000c0: c87b d5ca 845f f43f 01fa 7dff e6c5 c3bf
000000d0: a7b1 bd16 f4de c83f a2d5 c919 8a3b 8ebf
000000e0: 1bda 006c 4084 ec3f e05d 786f 568e 8a3f
000000f0: 2bde c83c f207 d4bf 3853 7cd7 fbe8 9f3f
00000100: a60b b1fa 230c dc3f d179 8d5d a27a e63f
00000110: b7c1 3f5b bd79 90bf fcab c77d ab75 d6bf
00000120: 3963 9813 b4c9 e3bf ba18 5ea4 abcf ac3f
00000130: bd70 e7c2 482f e53f 5b88 a3e5 1f01 7cbf
00000140: 4bcb 48bd a772 babf 51a5 660f b482 f13f
00000150: 3e5d ddb1 d826 a13f d1e9 7937 1614 d2bf
00000160: d7a3 703d 0a57 fcbf 87f1 e4e4 8fb3 aebf
00000170: 9d2c b5de 6fb4 d43f f4a8 f8bf 23aa e03f
00000180: e9ed cf45 43c6 c53f 13d4 f02d ac1b 8fbf

FC1_weight f8 [50, 50]
-0.975145 -0.0706223 0.533907 -0.063805 0.532301 -0.463791 -0.0327915 0.604144
0.269548 -0.0510414 -0.0114126 -0.309265 0.285734 0.19006 0.0121026 0.488512
-1.93844 -0.00537314 -0.159891 -0.305501 -3.95375 0.0241393 -0.880328 0.861976
-0.416598 1.0461 0.0124296 -0.0220498 -2.91697 -1.47447 -1.31306 -0.0217276
1.64593 1.06404 0.0129166 -1.03378 0.3151 0.46602 -1.30922 0.0359697
-0.25399 -0.329743 -0.945439 0.73165 0.97736 -0.278963 0.315584 -0.57462
0.0852082 -0.0172048 1.22984 -0.423934 -1.04167 0.0229524 -0.0361703 -0.388117
-0.0142198 0.331903 0.140459 -0.00272913 -1.46956 -0.0880159 -0.224306 1.06452
0.014108 -1.20439 -0.470684 0.0225016 0.414233 0.192767 -0.29775 0.0288309
0.351776 0.374662 -2.20269 -1.3015 0.364632 -0.0451233 0.509098 -0.292805
0.214995 -0.071532 -1.31449 -0.876804 0.00649251 -0.863617 0.786177 -1.50644
0.326875 0.0333927 -0.576434 -2.28656 -0.218736 -0.161456 -0.261199 -2.01179
-2.29575 0.612134 0.0488574 -0.0122423 -0.4583 -0.237997 -0.089358 -0.477076
0.564425 -0.368619 0.0196034 0.217066 0.773606 -0.0350976 -0.1426 0.134802
0.32597 0.395084 -0.0324483 0.340243 0.202107 0.0159991 0.440024 -0.17846
-0.308167 -0.0295932 -0.138679 0.272996 0.465603 -0.260157 0.100738 -0.0113144
0.160728 0.243072 -0.0420127 -0.0318974 0.243526 0.165281 -0.0484321 0.650638
-0.251865 0.101456 -0.185928 -0.0350298 -0.0632514 -0.819942 -0.479914 -2.74232
0.211592 0.458363 0.469961 -0.365376 -0.175164 -0.0516034 -0.220113 0.0400468
0.353945 0.642654 1.13554 0.974193 0.0139593 -0.354543 -1.11443 -0.0270697
0.0230158 -0.160218 0.408099 0.319428 0.00083375 1.78538 0.728348 -0.0179215
0.589232 -1.43128 -0.196714 -0.00633103 0.186025 0.750441 -1.33743 -0.280854
0.715051 0.0268519 -2.0624 -1.02484 -1.84621 -0.0311883 -0.971174 -1.14289
0.0369663 -0.479222 0.712429 -0.179369 0.0480673 -0.0521985 0.151199 -1.40232
0.642254 -0.00742312 0.732969 -0.0830364 0.231769 0.0648694 -1.07742 -0.0230815
-1.97123 0.0717974 0.309335 -0.409474 0.542142 -0.345958 -0.0310299 1.32844
-0.792185 0.015909 0.312612 -0.732045 -0.594119 -1.67703 0.0258508 0.266626
-5.02354 0.00429985 -0.548566 1.66934 -0.868769 -0.00966305 -1.36482 -0.621394
2.07749 -0.0923733 -2.77745 0.0248289 -1.53425 0.271292 1.08479 0.0597588
0.448054 0.2085 0.0148414 0.836863 -0.809346 -2.26399 0.314143 0.00639615
0.196371 1.63553 -1.27057 -0.540631 0.423588 1.30295 0.296234 0.079495
0.359742 -0.0152648 -0.00277717 0.0300014 0.0248146 -0.0113699 -0.0185301 -0.0133598
00000000: 1574 7b49 6334 efbf f648 de94 4d14 b2bf
00000010: 0760 0322 c415 e13f 683f 5244 8655 b0bf
00000020: 5d19 541b 9c08 e13f f776 4b72 c0ae ddbf
00000030: f46e 2c28 0cca a0bf 5263 42cc 2555 e33f
00000040: faf0 2c41 4640 d13f 8eee 7b2f 1922 aabf
00000050: 4340 193e 7d5f 87bf 4209 336d ffca d3bf
00000060: a5bc 5642 7749 d23f a48d 23d6 e253 c83f
00000070: 1593 9279 3fc9 883f ff06 edd5 c743 df3f
00000080: c021 54a9 d903 ffbf 82b1 3a49 2502 76bf
00000090: c05d f6eb 4e77 c4bf 884c f910 548d d3bf
000000a0: e17a 14ae 47a1 0fc0 277e 3100 f9b7 983f
000000b0: 4c19 38a0 a52b ecbf 0dfb 3db1 4e95 eb3f
000000c0: 780e 65a8 8aa9 dabf 9487 855a d3bc f03f
000000d0: 29d6 04ac b074 893f 7e8a 8807 3994 96bf
000000e0: 124e 0b5e f455 07c0 0fee ceda 6d97 f7bf
000000f0: dff8 da33 4b02 f5bf cca9 ae8d c23f 96bf
00000100: a015 18b2 ba55 fa3f 672c 9ace 4e06 f13f
00000110: e0a6 9ab4 0474 8a3f 5f24 b4e5 5c8a f0bf
00000120: ed0d be30 992a d43f fa0a d28c 45d3 dd3f
00000130: 514e b4ab 90f2 f4bf 913a 4bda 9e6a a23f
00000140: e1b4 e045 5f41 d0bf 766f 4562 821a d5bf
00000150: 3d9d 2b4a 0941 eebf efc9 c342 ad69 e73f
00000160: d864 8d7a 8846 ef3f afd1 72a0 87da d1bf
00000170: ea03 c93b 8732 d43f a514 747b 4963 e2bf
00000180: ebdc 5960 34d0 b53f fa3d 5695 229e 91bf
00000190: 9300 35b5 6cad f33f cf65 6a12 bc21 dbbf
000001a0: d196 7329 aeaa f0bf a576 757d d580 973f
000001b0: e24a 2cdf e984 a2bf 6b62 81af e8d6 d8bf
000001c0: 7d31 a53f 451f 8dbf 376f 9c14 e63d d53f
000001d0: 04e5 b67d 8ffa c13f 49cb 1683 665b 66bf
000001e0: fa27 b858 5183 f7bf 6d2b 07c4 3588 b6bf
000001f0: 34f6 251b 0fb6 ccbf b801 9f1f 4608 f13f
00000200: 7b4f e5b4 a7e4 8c3f 3012 da72 2e45 f3bf
00000210: 9a07 b0c8 af1f debf fd41 6ed0 a80a 973f
00000220: 4b22 fb20 cb82 da3f 83bf 5fcc 96ac c83f
00000230: 7593 1804 560e d3bf 02fd 74f2 d885 9d3f
00000240: ee21 e17b 7f83 d63f f373 4353 76fa d73f
00000250: 57cf 49ef 1b9f 01c0 6de7 fba9 f1d2 f4bf
00000260: fbcd c474 2156 d73f e33f 93b3 661a a7bf
00000270: 32b0 8ee3 874a e03f e8bc c62e 51bd d2bf
00000280: bed9 e6c6 f484 cb3f a512 9ed0 eb4f b2bf
00000290: 63b4 8eaa 2608 f5bf 4110 2043 c70e ecbf
000002a0: 383b e7e1 e397 7a3f d3a0 681e c0a2 ebbf
000002b0: adc1 fbaa 5c28 e93f 0a2e 56d4 601a f8bf
000002c0: ec51 b81e 85eb d43f d8ab d914 d918 a13f
000002d0: c9ad 49b7 2572 e2bf edbb 22f8 df4a 02c0
000002e0: 079b 3a8f 8aff cbbf d619 df17 97aa c4bf
000002f0: a9dd af02 7cb7 d0bf d55b 035b 2518 00c0
00000300: 0456 0e2d b25d 02c0 16a1 d80a 9a96 e33f
00000310: 69ce 554e d603 a93f e9c6 05b1 7d12 89bf
00000320: 696f f085 c954 ddbf ffe6 c589 af76 cebf
00000330: cdce a277 2ae0 b6bf 3b37 6dc6 6988 debf
00000340: 006f 8104 c50f e23f 53ca 6b25 7497 d7bf
00000350: b2c6 8fe7 e912 943f a169 8995 d1c8 cb3f
00000360: f8a8 bf5e 61c1 e83f d70f 5608 50f8 a1bf
00000370: c66d 3480 b740 c2bf edba b722 3141 c13f
00000380: 2289 5e46 b1dc d43f 3410 cb66 0e49 d93f
00000390: c220 9f46 109d a0bf ef58 6c93 8ac6 d53f
000003a0: 4776 a565 a4de c93f d3cd 0f6d 1162 903f
000003b0: 6d20 5d6c 5a29 dc3f d673 d2fb c6d7 c6bf
000003c0: 2f36 ad14 02b9 d3bf 2467 bc08 ae4d 9ebf
000003d0: 882c d2c4 3bc0 c1bf 9015 fc36 c478 d13f
000003e0: e4d8 7a86 70cc dd3f 89d4 b48b 69a6 d0bf
000003f0: 10e6 762f f7c9 b93f 5f78 ca0f 012c 87bf
00000400: 2997 c62f bc92 c43f 4a62 49b9 fb1c cf3f
00000410: 8e87 0849 b082 a5bf f5a4 a723 db54 a0bf
00000420: 9be3 dc26 dc2b cf3f f838 d384 ed27 c53f
00000430: 5338 279b 17cc a8bf 7a1d 71c8 06d2 e43f
00000440: 5873 8060 8e1e d0bf 51a4 fb39 05f9 b93f
00000450: 6d91 b41b 7dcc c7bf e055 c50a 6def a1bf
00000460: 631c 6d66 3e31 b0bf 16bd 5301 f73c eabf
00000470: 711f b935 e9b6 debf 7155 d977 45f0 05c0
00000480: 9030 0c58 7215 cb3f 9b92 acc3 d155 dd3f
00000490: 274f 594d d713 de3f 2992 af04 5262 d7bf
000004a0: ace0 b721 c66b c6bf 558d b9c6 c26b aabf
000004b0: 5054 36ac a92c ccbf 9970 9ea0 0381 a43f
000004c0: 494b e5ed 08a7 d63f 3d98 141f 9f90 e43f
000004d0: 25cc b4fd 2b2b f23f 83bf 5fcc 962c ef3f
000004e0: 7be8 cc87 b196 8c3f 87a5 811f d5b0 d6bf
000004f0: 86e6 3a8d b4d4 f1bf c7a1 d9d0 28b8 9bbf
00000500: 7744 2a31 7491 973f f181 1dff 0582 c4bf
00000510: 80f0 a144 4b1e da3f db4e 5b23 8271 d43f
00000520: 3541 d47d 0052 4b3f 70eb 6e9e ea90 fc3f
00000530: 9c6c 0377 a04e e73f 16c0 9481 035a 92bf
00000540: a836 3811 fdda e23f bcb3 76db 85e6 f6bf
00000550: fe29 55a2 ec2d c9bf 6ec7 ccec 90ee 79bf
00000560: e483 9ecd aacf c73f 2d7b 12d8 9c03 e83f
00000570: 4a07 ebff 1c66 f5bf a5d9 3c0e 83f9 d1bf
00000580: 691b 7fa2 b2e1 e63f 7583 5781 107f 9b3f
00000590: c729 3a92 cb7f 00c0 4b1f baa0 be65 f0bf
000005a0: 43c5 387f 138a fdbf cf43 1262 d3ef 9fbf
000005b0: 5437 177f db13 efbf 9ace 4e06 4749 f2bf
000005c0: 3fb6 1b33 3fed a23f 7f84 61c0 92ab debf
000005d0: 7e1a f7e6 37cc e63f d446 753a 90f5 c6bf
000005e0: 3b98 03f3 469c a83f 5bee cc04 c3b9 aabf
000005f0: 3d0d 1824 7d5a c33f 726d a818 e76f f6bf
00000600: b534 b742 588d e43f 7a06 269a b467 7ebf
00000610: 1a6b 7f67 7b74 e73f b7a8 609e df41 b5bf
00000620: 0402 9d49 9baa cd3f 3ada 82ef 479b b03f
00000630: b0e6 00c1 1c3d f1bf 070c 923e ada2 97bf
00000640: 274e ee77 288a ffbf a715 f07c 5061 b23f
00000650: b285 2007 25cc d33f cafc a36f d234 dabf
00000660: 8f37 f92d 3a59 e13f 4888 f205 2d24 d6bf
00000670: f0e7 ca56 4dc6 9fbf fe2b 2b4d 4a41 f53f
00000680: 6137 6c5b 9459 e9bf 4e27 d9ea 724a 903f
00000690: e693 15c3 d501 d43f 0569 c6a2 e96c e7bf
000006a0: c7d4 5dd9 0503 e3bf f792 c668 1dd5 fabf
000006b0: 4e3f 4dd2 a178 9a3f d7d9 907f 6610 d13f
000006c0: 6397 a8de 1a18 14c0 0715 0b32 b89c 713f
000006d0: 3752 b648 da8d e1bf 6879 1edc 9db5 fa3f
000006e0: 7dea 58a5 f4cc ebbf 3c3f d69d 38ca 83bf
000006f0: d8d3 0e7f 4dd6 f5bf acc7 7dab 75e2 e3bf
00000700: e622 be13 b39e 0040 710a 86ce c6a5 b7bf
00000710: 9c33 a2b4 3738 06c0 d48c fb45 bf6c 993f
00000720: 3f35 5eba 498c f8bf d2a6 ea1e d95c d13f
00000730: 0872 50c2 4c5b f13f 80e1 4b97 b498 ae3f
00000740: 11e3 35af eaac dc3f e3a5 9bc4 20b0 ca3f
00000750: 3dcc 03fd 2a65 8e3f 3770 07ea 94c7 ea3f
00000760: d3bf 2495 29e6 e9bf b1c4 03ca a61c 02c0
00000770: e71b d13d eb1a d43f ccfd 1f71 d932 7a3f
00000780: 1d00 7157 af22 c93f b307 5a81 212b fa3f
00000790: a375 5435 4154 f4bf 5585 0662 d94c e1bf
000007a0: 5798 bed7 101c db3f d42b 6519 e2d8 f43f
000007b0: 1ea6 7d73 7ff5 d23f 990d 32c9 c859 b43f
000007c0: 34d9 3f4f 0306 d73f 9366 3dc6 2643 8fbf
000007d0: 0af1 69ca 25c0 66bf 4d3c 56df afb8 9e3f
000007e0: fa70 da9d ff68 993f e733 4525 1a49 87bf
000007f0: 8268 f7f5 8df9 92bf 2d18 a600 625c 8bbf

FC2_bias f8 [50]
-1.40871 -0.303571 -0.0287658 -1.0705 0.45335 0.523295 -1.75119 -0.232092
-1.91032 -0.212573 -0.00977347 -0.0103095 0.161032 -1.10124 1.32843 -1.95697
0.523137 -2.82033 -1.46322 0.311818 -2.67146 -0.0198091 -0.703951 -0.00698505
-2.2806 0.537535 -0.8202 -2.81087 -0.0265346 -1.48424 -0.0947355 -1.27965
0.226089 -0.110842 0.942437 -0.506169 0.524182 -2.03088 1.08631 0.627512
-3.17754 -0.839519 0.608267 -0.914117 -0.533321 -2.01099 1.04573 -0.549996
0.601133 0.0359823
00000000: 43c5 387f 138a f6bf a3e5 400f b56d d3bf
00000010: 8e1d f928 c874 9dbf 54e3 a59b c420 f1bf
00000020: f90f e9b7 af03 dd3f 5721 e527 d5be e03f
00000030: db50 31ce df04 fcbf c9e4 d4ce 30b5 cdbf
00000040: c650 4eb4 ab90 febf 249d 8191 9735 cbbf
00000050: 5cc2 25f0 1c04 84bf 1074 b4aa 251d 85bf
00000060: 2e03 ce52 b29c c43f adc0 90d5 ad9e f1bf
00000070: 8c67 d0d0 3f41 f53f c80c 54c6 bf4f ffbf
00000080: 4e7b 4ace 89bd e03f e36b cf2c 0990 06c0
00000090: 61a6 ed5f 5969 f7bf d576 137c d3f4 d33f
000000a0: c993 a46b 265f 05c0 391c a732 d648 94bf
000000b0: 6091 5f3f c486 e6bf 488c f914 5b9c 7cbf
000000c0: 910f 7a36 ab3e 02c0 4f92 ae99 7c33 e13f
000000d0: 02bc 0512 143f eabf cd75 1a69 a97c 06c0
000000e0: 4a8a d9dc e22b 9bbf 01a4 3671 72bf f7bf
000000f0: 5a2c 45f2 9540 b8bf ef38 4547 7279 f4bf
00000100: c11f 7efe 7bf0 cc3f 88f2 052d 2460 bcbf
00000110: 904a b1a3 7128 ee3f 01f8 a754 8932 e0bf
00000120: 23dc 6454 19c6 e03f c8cd 7003 3e3f 00c0
00000130: 8c15 3598 8661 f13f 251f bb0b 9414 e43f
00000140: cfda 6d17 9a6b 09c0 27dc 2bf3 56dd eabf
00000150: 938d 075b ec76 e33f d7f6 764b 7240 edbf
00000160: f9a3 a833 f710 e1bf 11aa d4ec 8116 00c0
00000170: 2523 6761 4fbb f03f 3fc9 1d36 9199 e1bf
00000180: d97b f145 7b3c e33f ad3f 78a3 456c a23f

FC2_weight f8 [50, 50]
0.13146 -0.428291 -0.0170651 0.697044 -0.293586 0.237521 -2.74626 0.40431
0.462517 -1.01765 -0.0550041 0.0203586 1.3542 -3.10322 -0.0842616 -0.831421
-0.207777 0.387457 0.308794 -0.81289 0.948606 -0.0254395 -0.158569 -0.038812
0.111697 -0.766107 -1.34667 -0.0218017 -0.0387321 -0.0904034 0.33265 -0.392282
-0.442532 0.859879 -1.00614 0.471305 -1.35666 0.35501 0.177461 -0.067799
0.872889 1.00321 -2.66874 0.406319 0.568948 -0.208544 3.7026 0.282111
-0.255273 -0.438176 -0.00838111 0.0770512 -0.00951591 0.314217 0.0484582 -0.138597
1.24244 0.348601 -0.0199312 0.200624 -0.0254468 -0.076602 0.0885665 0.0978731
1.33932 0.0675733 -2.02634 -0.2646 0.211023 -0.168772 0.23931 0.013885
0.786011 -0.0508341 0.0676111 -0.585324 0.274167 -0.130588 0.00671967 -0.136898
-0.310927 0.0410847 0.0679981 -0.0781577 -1.16378 -1.56474 -0.347288 0.0883564
-0.247864 -0.400068 0.0206089 0.0197562 0.064239 0.205876 0.197124 0.0362438
2.65223 -0.252196 0.363898 0.0131777 1.44243 -1.89004 -0.0369265 1.67249
1.46581 -1.56543 0.753835 -0.973343 0.419771 -0.876172 -0.0338776 -0.00311988
-1.10979 0.31866 -0.183268 0.328022 0.946731 0.888783 2.01617 2.06093
0.607533 -0.00482977 1.85531 -0.0196959 -1.32586 0.325818 -0.365264 -0.64365
-0.0175556 0.614488 -1.06107 0.831615 1.32666 -0.91444 0.625968 0.251619
0.0428238 -0.990467 0.772458 0.955945 0.297316 0.29225 -0.380224 -0.844027
0.898345 1.68755 2.09604 -0.520744 0.677393 0.156208 0.949175 0.570398
-0.0160709 -2.19922 1.11108 0.509518 -2.50892 -0.803836 -0.608677 0.347394
0.00543245 -0.0451064 -0.412356 0.462315 0.621358 1.81002 -2.3924 0.950778
-0.0857794 2.29652 4.08727 -0.101138 -4.90642 -0.0509721 2.7209 -3.16401
1.01235 3.78695 -0.0675706 0.888749 1.18408 1.40044 1.1555 -0.873449
-1.95377 1.65415 0.856542 2.33843 0.0675734 0.854229 1.38338 0.265922
1.3675 1.00684 -2.89496 1.56634 3.00891 1.35986 -0.487079 0.77781
0.0734691 -0.0314172 -0.0183239 -2.33936 0.157791 -2.09497 0.106594 0.111597
1.55304 -0.991402 -0.0283839 0.0336728 -2.43948 0.680784 -1.49852 1.49803
-0.258225 -1.87843 0.361221 -0.795945 -0.0230072 0.0391209 -2.06382 0.014031
0.22057 0.424623 -4.36709 1.75454 0.0278215 0.451554 -3.7627 0.753071
0.847214 0.334904 0.672619 0.370221 1.1753 0.891378 0.262128 0.312184
0.330223 0.494148 -5.37045 0.200912 -2.28023 1.43656 1.8135 -1.14074
-1.76368 0.24665 0.0966265 1.52181 -0.0252186 -0.972627 0.645371 -0.582494
00000000: 6bb7 5d68 aed3 c03f e4f3 8aa7 1e69 dbbf
00000010: 10a4 9c79 8379 91bf d0ef fb37 2f4e e63f
00000020: aa0f 24ef 1cca d2bf dd7d 8e8f 1667 ce3f
00000030: f180 b229 57f8 05c0 5587 dc0c 37e0 d93f
00000040: 9f04 36e7 e099 dd3f f163 cc5d 4b48 f0bf
00000050: 30b5 4a55 7f29 acbf 3ff6 c484 e2d8 943f
00000060: 26e4 839e cdaa f53f 4f58 e201 65d3 08c0
00000070: 9d02 4f10 2b92 b5bf caa4 8636 009b eabf
00000080: fc34 eecd 6f98 cabf 29cd e671 18cc d83f
00000090: 94dd cce8 47c3 d33f a5da a7e3 3103 eabf
000000a0: 9142 59f8 fa5a ee3f ef3a 1bf2 cf0c 9abf
000000b0: 0168 942e fd4b c4bf f67b 629d 2adf a3bf
000000c0: 25b2 0fb2 2c98 bc3f d192 c7d3 f283 e8bf
000000d0: b211 88d7 f58b f5bf d622 fd51 2f53 96bf
000000e0: 995d 9c9d b1d4 a3bf 1e7c 725e ad24 b7bf
000000f0: eeeb c039 234a d53f 64ce 33f6 251b d9bf
00000100: 01be dbbc 7152 dcbf c58c f0f6 2084 eb3f
00000110: b728 b341 2619 f0bf ee3d 5c72 dc29 de3f
00000120: 69a9 bc1d e1b4 f5bf 7f30 f0dc 7bb8 d63f
00000130: dd60 a8c3 0ab7 c63f c495 b377 465b b1bf
00000140: 7a38 81e9 b4ee eb3f 9352 d0ed 250d f03f
00000150: 6137 6c5b 9459 05c0 4294 2f68 2101 da3f
00000160: cafc a36f d234 e23f 8675 e3dd 91b1 cabf
00000170: 575b b1bf ec9e 0d40 f8e0 b54b 1b0e d23f
00000180: d350 a390 6456 d0bf 1a18 7959 130b dcbf
00000190: 925b d58a 1d2a 81bf 1918 1ea0 a0b9 b33f
000001a0: 97f5 eed1 137d 83bf 0d39 b69e 211c d43f
000001b0: 9f30 7260 83cf a83f 656f 29e7 8bbd c1bf
000001c0: 37e0 f3c3 08e1 f33f d995 9691 7a4f d63f
000001d0: b51d ae30 d868 94bf 5377 6517 0cae c93f
000001e0: e2c2 26d7 b90e 9abf ace5 ce4c 309c b3bf
000001f0: 516c 054d 4bac b63f b57b a823 360e b93f
00000200: 3d0f eece da6d f53f 2c32 95d9 7b4c b13f
00000210: f59c f4be f135 00c0 e561 a1d6 34ef d0bf
00000220: 6116 da39 cd02 cb3f 6b81 3d26 529a c5bf
00000230: 8b89 cdc7 b5a1 ce3f ab5b 3d27 bd6f 8c3f
00000240: ee7a 698a 0027 e93f 510e 0b5a ed06 aabf
00000250: d5b9 5807 f64e b13f 800b b265 f9ba e2bf
00000260: 9b1d a9be f38b d13f 9301 a08a 1bb7 c0bf
00000270: b314 3dae 1586 7b3f b1a3 71a8 df85 c1bf
00000280: 8960 1c5c 3ae6 d3bf 9460 bbc5 0d09 a53f
00000290: dcac b0cf 5268 b13f 703a 6e9d 2402 b4bf
000002a0: 74d2 fbc6 d79e f2bf 7ee3 6bcf 2c09 f9bf
000002b0: 93c4 9272 f739 d6bf 686d 6468 869e b63f
000002c0: 0589 edee 01ba cfbf ae45 0bd0 b69a d9bf
000002d0: f4b0 06de 7f1a 953f 40ac 9223 f83a 943f
000002e0: d5b3 2094 f771 b03f 8201 840f 255a ca3f
000002f0: addb a0f6 5b3b c93f 5993 5d1f 8c8e a23f
00000300: b9c2 bb5c c437 0540 26a6 0bb1 fa23 d0bf
00000310: 931b 45d6 1a4a d73f 18c0 4af4 e8fc 8a3f
00000320: f94e cc7a 3114 f73f 041c 4295 9a3d febf
00000330: 1424 b6bb 07e8 a2bf 5131 cedf 84c2 fa3f
00000340: 6b65 c22f f573 f73f 24d6 e253 000c f9bf
00000350: ac90 f293 6a1f e83f 014c 1938 a025 efbf
00000360: 32ca 332f 87dd da3f 1c78 b5dc 9909 ecbf
00000370: d749 22a0 6758 a1bf 5381 28d2 dc8e 69bf
00000380: 6fd8 b628 b3c1 f1bf 69c6 a2e9 ec64 d43f
00000390: 40a0 3369 5375 c7bf b395 97fc 4ffe d43f
000003a0: 0280 63cf 9e4b ee3f 5fb4 c70b e970 ec3f
000003b0: 1a69 a9bc 1d21 0040 22c3 2ade c87c 0040
000003c0: 5fb4 c70b e970 e33f 33bd 2783 61c8 73bf
000003d0: 7311 df89 59af fd3f a30d 7679 292b 94bf
000003e0: 6631 b1f9 b836 f5bf 21ae 9cbd 33da d43f
000003f0: 43fe 9941 7c60 d7bf b840 82e2 c798 e4bf
00000400: 5f56 725f 18fa 91bf 331a f9bc e2a9 e33f
00000410: 7c44 4c89 24fa f0bf 069e 7b0f 979c ea3f
00000420: ee94 0ed6 ff39 f53f 89ef c4ac 1743 edbf
00000430: fdf5 0a0b ee07 e43f a357 0394 861a d03f
00000440: 951b fb48 00ed a53f 2a8d 98d9 e7b1 efbf
00000450: fd12 f1d6 f9b7 e83f 82ca f8f7 1997 ee3f
00000460: 5af6 24b0 3907 d33f 4e62 1058 39b4 d23f
00000470: 1ee0 490b 9755 d8bf 9b1c 3ee9 4402 ebbf
00000480: c8cd 7003 3ebf ec3f 39d6 c56d 3400 fb3f
00000490: dbdc 989e b0c4 0040 bbd2 3252 efa9 e0bf
000004a0: 2d42 b115 34ad e53f 14d1 afad 9ffe c33f
000004b0: 1dc9 e53f a45f ee3f 9885 764e b340 e23f
000004c0: 204d abd7 e374 90bf 47ac c5a7 0098 01c0
000004d0: bbd5 73d2 fbc6 f13f 8125 57b1 f84d e03f
000004e0: 183e 22a6 4412 04c0 5c1e 6b46 06b9 e9bf
000004f0: ff79 1a30 487a e3bf 68e7 340b b43b d63f
00000500: dafc 6431 5640 763f 113b aea1 2f18 a7bf
00000510: d1cc 936b 0a64 dabf bbd0 5ca7 9196 dd3f
00000520: 7974 232c 2ae2 e33f d9b1 1188 d7f5 fc3f
00000530: 6b9a 779c a223 03c0 8333 f8fb c56c ee3f
00000540: 0ca6 ab85 a3f5 b5bf 1ee1 b4e0 455f 0240
00000550: 0cb0 8f4e 5d59 1040 5402 6212 2ee4 b9bf
00000560: e3c2 8190 2ca0 13c0 7552 04dd 0319 aabf
00000570: bf7d 1d38 67c4 0540 56bc 9179 e44f 09c0
00000580: 8ab0 e1e9 9532 f03f 96b2 0c71 ac4b 0e40
00000590: 0dcd 2b8d 4e4c b1bf 5a49 2bbe a170 ec3f
000005a0: 1990 bdde fdf1 f23f f129 00c6 3368 f63f
000005b0: b072 6891 ed7c f23f 392a 3751 4bf3 ebbf
000005c0: a67e de54 a442 ffbf bada 8afd 6577 fa3f
000005d0: 57d0 b4c4 ca68 eb3f dae1 afc9 1ab5 0240
000005e0: d85b 1487 7d4c b13f df6e 490e d855 eb3f
000005f0: 350c 1f11 5322 f63f c45c 52b5 dd04 d13f
00000600: e17a 14ae 47e1 f53f cedf 8442 041c f03f
00000610: 46d3 d9c9 e028 07c0 8faa 2688 ba0f f93f
00000620: e0db f467 3f12 0840 8b37 328f fcc1 f53f
00000630: 6760 e465 4d2c dfbf 6b0e 10cc d1e3 e83f
00000640: db3c c4f5 dece b23f 0b54 104d ea15 a0bf
00000650: 8fd1 f01c 80c3 92bf 8290 2c60 02b7 02c0
00000660: 8f33 4dd8 7e32 c43f 18cf a0a1 7fc2 00c0
00000670: aa27 f38f be49 bb3f 14eb 54f9 9e91 bc3f
00000680: d313 9678 40d9 f83f 390c e6af 90b9 efbf
00000690: 5b86 ee48 ab10 9dbf 288d 87ad 8f3d a13f
000006a0: f9f7 1917 0e84 03c0 677b f486 fbc8 e53f
000006b0: 446e 861b f0f9 f7bf 80d4 264e eef7 f73f
000006c0: 499d 8026 c286 d0bf 5934 9d9d 0c0e febf
000006d0: f837 68af 3e1e d73f 6345 0da6 6178 e9bf
000006e0: 9e45 4a0e 338f 97bf ce1f 2e94 a707 a43f
000006f0: 51a5 660f b482 00c0 b799 0af1 48bc 8c3f
00000700: b246 3d44 a33b cc3f 3848 88f2 052d db3f
00000710: 2bc1 e270 e677 11c0 a661 f888 9812 fc3f
00000720: 10ae 8042 3d7d 9c3f e430 98bf 42e6 dc3f
00000730: 0b46 2575 021a 0ec0 ce1c 925a 2819 e83f
00000740: b7d3 d688 601c eb3f 622c d32f 116f d53f
00000750: 1762 f547 1886 e53f f2b6 d26b b3b1 d73f
00000760: 20d2 6f5f 07ce f23f e4f6 cb27 2b86 ec3f
00000770: b66a d784 b4c6 d03f dc67 9599 d2fa d33f
00000780: bdc4 58a6 5f22 d53f 4f90 d8ee 1ea0 df3f
00000790: 7a36 ab3e 577b 15c0 a9dd af02 7cb7 c93f
000007a0: 59dd ea39 e93d 02c0 40de ab56 26fc f63f
000007b0: 6abc 7493 1804 fd3f 1cd3 1396 7840 f2bf
000007c0: 9cbf 0985 0838 fcbf a779 c729 3a92 cf3f
000007d0: 344c 6da9 83bc b83f b79c 4b71 5559 f83f
000007e0: 66ed 0099 e7d2 99bf 679c 86a8 c21f efbf
000007f0: 992d 5915 e1a6 e43f 1bb8 0375 caa3 e2bf

FC3_bias f8 [50]
3.77215 0.988099 -1.84134 1.37509 -2.30029 0.261417 0.340137 -4.08366
1.2629 -0.0343112 1.31115 -3.46033 -0.0169115 -0.961446 1.52701 5.44394
0.628332 -0.0118671 -1.30264 -0.0733978 2.08924 0.52902 -0.0349811 -0.616024
4.40783 -4.01264 1.37914 1.78906 -3.38469 0.0975764 1.39363 1.05138
-0.429449 -0.736721 -0.949904 1.51685 -0.913674 0.680071 0.83974 1.50335
-0.777478 -1.07343 3.67148 -1.23197 -3.3108 0.867039 0.214098 -0.964446
-0.0273296 -2.31379
00000000: e8d9 acfa 5c2d 0e40 cfba 46cb 819e ef3f
00000010: f510 8dee 2076 fdbf ffe7 305f 5e00 f63f
00000020: d786 8a71 fe66 02c0 6494 675e 0ebb d03f
00000030: 1a36 cafa cdc4 d53f f6ee 8ff7 aa55 10c0
00000040: f7e4 61a1 d634 f43f 52e5 c5d3 3c91 a1bf
00000050: 0a68 226c 78fa f43f 02f1 ba7e c1ae 0bc0
00000060: 0989 b48d 3f51 91bf 2cd7 db66 2ac4 eebf
00000070: ada3 aa09 a26e f83f 828b 1535 98c6 1540
00000080: fdf7 e0b5 4b1b e43f 35d8 2f33 c74d 88bf
00000090: 0f62 670a 9dd7 f4bf 632d 99be 32ca b2bf
000000a0: d8f5 0b76 c3b6 0040 e8c1 dd59 bbed e03f
000000b0: 42ca f4f0 0ae9 a1bf a5a2 b1f6 77b6 e3bf
000000c0: 8b4f 0130 9ea1 1140 5b7c 0a80 f10c 10c0
000000d0: e2af c91a f510 f63f e44e e960 fd9f fc3f
000000e0: 32c9 c859 d813 0bc0 a785 dc56 c4fa b83f
000000f0: 7897 8bf8 4e4c f63f 18b2 bad5 73d2 f03f
00000100: a131 93a8 177c dbbf 66d8 28eb 3793 e7bf
00000110: dfdd ca12 9d65 eebf 6900 6f81 0445 f83f
00000120: 7d93 a641 d13c edbf 11a8 fe41 24c3 e53f
00000130: c993 a46b 26df ea3f cb10 c7ba b80d f83f
00000140: ed80 eb8a 19e1 e8bf 78b9 88ef c42c f1bf
00000150: 3a58 ffe7 305f 0d40 2e73 ba2c 26b6 f3bf
00000160: 3fc6 dcb5 847c 0ac0 cf68 ab92 c8be eb3f
00000170: 04cb 1132 9067 cb3f ab41 98db bddc eebf
00000180: 2dde d968 4afc 9bbf a67e de54 a482 02c0

FC3_weight f8 [50, 50]
0.824331 1.26202 -0.0507565 0.303005 -0.353576 -0.255415 0.515179 -0.386872
1.6909 -0.0416981 -0.471725 0.260425 0.00621664 -3.47601 -2.87247 2.02009
1.91271 0.0140337 -0.459797 -0.233357 -0.244828 -0.298678 0.00960827 1.03837
-0.0475618 -0.137809 1.20006 1.36919 -0.816642 0.671622 -0.302981 0.364805
-1.21924 -1.86542 0.0586427 -0.282684 -1.09196 -0.319526 2.45277 2.57368
-3.28367 2.03421 1.64709 0.983753 0.00806348 -0.295627 -0.0477879 3.39048
0.0236083 0.202341 -0.360503 -0.421346 0.782809 -0.236605 -1.23092 -0.0855893
-0.311209 2.44386 0.168291 -0.0574802 1.32632 1.13411 -0.00382413 0.672379
0.148168 1.76946 0.0941205 0.0282763 -0.0036582 0.858803 0.0547689 0.328484
-0.0398292 -1.4782 -0.157043 1.49798 0.124037 0.909951 0.972952 0.0493648
0.810195 0.168275 -1.0935 -0.656996 -0.0359408 -0.26458 1.33066 1.99316
-0.641194 -0.0352983 1.04622 -0.0144904 0.189605 0.330128 0.350294 0.378721
1.44549 -0.0792858 -0.0437038 0.971162 0.0310157 0.0440676 2.64399e-05 -0.00717742
-0.00465258 0.0105694 0.0388771 -0.0399844 0.00979305 -0.030583 -0.00578555 -0.0250279
-0.0389901 0.0120229 0.0324647 -0.0188044 -0.0470751 -0.0442904 0.0423675 0.0056343
-0.00132069 0.0392913 0.0333426 -0.020539 0.0337524 0.0364692 -0.0285246 -0.0378782
0.017779 0.0157086 0.0419114 -0.00958456 0.00112389 0.0122414 -0.0130582 -0.0401854
0.0106264 0.0202531 0.0297701 0.0272886 -0.03638 -0.0340943 0.0325623 0.0131622
-0.015421 -0.00735522 0.0156498 0.0287658 0.00995809 0.0271014 0.573937 1.68142
-1.12361 0.359309 -0.70679 0.486354 -0.252178 1.61212 1.53874 0.0347072
0.179362 0.92278 0.00616149 -3.04508 -0.206317 -0.746124 1.60945 0.00666936
-3.0796 1.06591 2.66335 0.499568 -0.0149527 1.69419 0.424118 4.69609
3.11361 2.0769 0.803436 0.899295 0.788381 1.63847 -1.26318 -0.258007
2.04183 0.338959 -3.02621 0.769159 1.37207 -1.13328 0.415122 1.33757
0.738801 -0.985568 0.580326 -0.0971223 -4.36369 -0.416002 -0.0405869 -0.881204
-0.183983 0.0828596 0.824008 1.16525 1.87002 0.0565426 1.49613 0.164044
0.163979 0.0157107 0.597688 -1.31416 -0.0242351 -0.153073 1.81801 0.524856
1.62721 0.0107886 0.0104486 -0.84753 0.726957 0.102987 -0.0328958 2.03566
0.15229 -0.325756 0.529738 0.699943 -1.50967 -0.474039 -1.86951 0.684413
1.51517 2.71623 0.709594 -0.291126 1.18937 -0.0654881 0.348951 0.159123
2.36655 1.37181 -1.91608 0.924415 -0.0296616 -0.670682 -0.453825 1.13532
-0.0118805 1.73951 -0.344828 -0.329015 -0.00370233 0.151997 -0.549905 0.300192
00000000: f986 c267 eb60 ea3f e15d 2ee2 3b31 f43f
00000010: d36c 1e87 c1fc a9bf 1591 6115 6f64 d33f
00000020: baa1 293b fda0 d6bf 0d1a fa27 b858 d0bf
00000030: 62c0 92ab 587c e03f 3a3d efc6 82c2 d8bf
00000040: 04e7 8c28 ed0d fb3f 3655 9c0f 7459 a5bf
00000050: 8d28 ed0d be30 debf 26e4 839e cdaa d03f
00000060: 8528 db97 9e76 793f 3b8d b454 dece 0bc0
00000070: d0ed 258d d1fa 06c0 29d0 27f2 2429 0040
00000080: edb6 0bcd 759a fe3f aac2 5554 b3bd 8c3f
00000090: 6021 7365 506d ddbf 4776 a565 a4de cdbf
000000a0: 3e92 921e 8656 cfbf 5438 8254 8a1d d3bf
000000b0: 8f7d 5e2b 80ad 833f 3e5c 72dc 299d f03f
000000c0: c2e9 132f 055a a8bf 6517 0cae b9a3 c1bf
000000d0: ddcd 531d 7233 f33f f129 00c6 33e8 f53f
000000e0: f147 5167 ee21 eabf 87c5 a86b ed7d e53f
000000f0: d1cc 936b 0a64 d3bf b7b4 1a12 f758 d73f
00000100: c499 5fcd 0182 f3bf 7fde 54a4 c2d8 fdbf
00000110: f95b 4c7d 6a06 ae3f c58e c6a1 7e17 d2bf
00000120: 7fa4 880c ab78 f1bf 4430 0e2e 1d73 d4bf
00000130: 1ee1 b4e0 459f 0340 49f4 328a e596 0440
00000140: bed9 e6c6 f444 0ac0 bc91 79e4 0f46 0040
00000150: 2619 390b 7b5a fa3f bff0 4a92 e77a ef3f
00000160: b9b6 22f7 9583 803f 4622 3482 8deb d2bf
00000170: 51fe 49d7 a777 a8bf c8ef 6dfa b31f 0b40
00000180: b818 a831 c62c 983f 6ce9 d154 4fe6 c93f
00000190: 6808 c72c 7b12 d7bf 043a 9336 55f7 dabf
000001a0: 7d76 c075 c50c e93f 62f8 8898 1249 cebf
000001b0: 8be0 7f2b d9b1 f3bf 5935 632c 2ee9 b5bf
000001c0: a322 4e27 d9ea d3bf 3e05 c078 068d 0340
000001d0: 8106 9b3a 8f8a c53f b3c7 5576 0b6e adbf
000001e0: d47d 0052 9b38 f53f a110 0187 5025 f23f
000001f0: ab10 2429 c853 6fbf c58c f0f6 2084 e53f
00000200: 3d28 2845 2bf7 c23f 5648 f949 b54f fc3f
00000210: 4c17 62f5 4718 b83f 17ee 015f 76f4 9c3f
00000220: 7f5d 972b cdf7 6dbf 309d d66d 507b eb3f
00000230: 7f00 ad54 ab0a ac3f c897 50c1 e105 d53f
00000240: 1f08 da2e 7e64 a4bf bb27 0f0b b5a6 f7bf
00000250: c669 882a fc19 c4bf 48fe 60e0 b9f7 f73f
00000260: a373 7e8a e3c0 bf3f c4cc 3e8f 511e ed3f
00000270: 467d 923b 6c22 ef3f 62ac 25d3 5746 a93f
00000280: 3e3f 8c10 1eed e93f d200 de02 098a c53f
00000290: e5d0 22db f97e f1bf 454a b379 1c06 e5bf
000002a0: b124 2f21 d566 a2bf 573e cbf3 e0ee d0bf
000002b0: 9886 e123 624a f53f 3220 7bbd fbe3 ff3f
000002c0: 8c86 8c47 a984 e4bf 7f73 3568 9e12 a2bf
000002d0: e8bc c62e 51bd f03f b800 d990 24ad 8dbf
000002e0: f73b 1405 fa44 c83f dc9b df30 d120 d53f
000002f0: a20a 7f86 376b d63f 16bd 5301 f73c d83f
00000300: e21e 4b1f ba20 f73f bb85 09fe 124c b4bf
00000310: 56fe 6b2f 5860 a6bf 43c6 a354 c213 ef3f
00000320: c672 a664 94c2 9f3f 025d a049 0790 a63f
00000330: 93b6 cb17 68b9 fb3e 8ce9 b602 1266 7dbf
00000340: 6c87 126f 950e 73bf dcec b4da 68a5 853f
00000350: b06b 2002 b3e7 a33f 1c4b b3d4 d578 a4bf
00000360: 5122 d3eb 600e 843f f817 4163 2651 9fbf
00000370: 6045 a1c0 96b2 77bf 8242 f3ef e9a0 99bf
00000380: 4c4c bca8 82f6 a3bf 5eb4 6c52 769f 883f
00000390: de84 8c91 369f a03f 7067 15ec 7541 93bf
000003a0: 9b6f e93d 3a1a a8bf 47b3 0d37 3bad a6bf
000003b0: 7099 d365 31b1 a53f 960d c6e3 fd13 773f
000003c0: c3ff eb16 60a3 55bf ccde 0841 fd1d a43f
000003d0: 7091 2001 4812 a13f a890 2bf5 2c08 95bf
000003e0: 7eb1 529c fe47 a13f 8360 9f4a 17ac a23f
000003f0: 1da3 8680 8d35 9dbf 2473 767c c564 a3bf
00000400: 03eb 387e a834 923f 0b54 104d ea15 903f
00000410: fabd a838 6975 a53f 15ef f8dd 11a1 83bf
00000420: b5d5 d5b2 ef69 523f 980e 42e5 0412 893f
00000430: b598 8eef 41be 8abf cba8 8d45 2e93 a4bf
00000440: eb30 cb43 4bc3 853f 590a 9288 3abd 943f
00000450: 9a37 9897 0d7c 9e3f a1e9 36f2 8af1 9b3f
00000460: 55fb 743c 66a0 a2bf 3dc4 f5de ce74 a1bf
00000470: ca42 2a7b 01ac a03f f9e7 5894 c8f4 8a3f
00000480: 3678 5f95 0b95 8fbf 059c add5 8120 7ebf
00000490: b279 c14c 8006 903f 8e1d f928 c874 9d3f
000004a0: ee84 0b37 e864 843f b108 b42a 78c0 9b3f
000004b0: f9db 9e20 b15d e23f f371 6da8 18e7 fa3f
000004c0: 4356 b77a 4efa f1bf 4624 0a2d ebfe d63f
000004d0: 9279 e40f 069e e6bf 99d7 1187 6c20 df3f
000004e0: f452 b131 af23 d0bf eca3 5357 3ecb f93f
000004f0: adc0 90d5 ad9e f83f 2918 df61 24c5 a13f
00000500: 5794 1282 55f5 c63f 65e4 2cec 6987 ed3f
00000510: 0acf b660 ca3c 793f 23a1 2de7 525c 08c0
00000520: 35ee cd6f 9868 cabf b057 5870 3fe0 e7bf
00000530: 55c1 a8a4 4ec0 f93f b12f 5db1 5451 7b3f
00000540: c217 2653 05a3 08c0 75ab e7a4 f70d f13f
00000550: ad69 de71 8a4e 0540 4033 880f ecf8 df3f
00000560: 682b e56b 859f 8ebf 255d 33f9 661b fb3f
00000570: 8046 e9d2 bf24 db3f 624a 24d1 cbc8 1240
00000580: 0dfd 135c ace8 0840 cc7f 48bf 7d9d 0040
00000590: d4ba 0d6a bfb5 e93f 2c9a ce4e 06c7 ec3f
000005a0: 7635 79ca 6a3a e93f 49a2 9751 2c37 fa3f
000005b0: 6761 4f3b fc35 f4bf 8ee6 c8ca 2f83 d0bf
000005c0: f6ee 8ff7 aa55 0040 d0d4 eb16 81b1 d53f
000005d0: 12a0 a696 ad35 08c0 ef91 cd55 f39c e83f
000005e0: dc29 1dac fff3 f53f c45f 9335 ea21 f2bf
000005f0: 3c68 76dd 5b91 da3f 82c5 e1cc af66 f53f
00000600: 2c11 a8fe 41a4 e73f fa7d ffe6 c589 efbf
00000610: 8597 e0d4 0792 e23f 5859 36ce 01dd b8bf
00000620: 6a87 bf26 6b74 11c0 9484 44da c69f dabf
00000630: 73c3 4a60 cec7 a4bf 1d57 23bb d232 ecbf
00000640: 508e 0244 c18c c7bf 46de 2868 4936 b53f
00000650: 478e 7406 465e ea3f be9f 1a2f dda4 f23f
00000660: cfda 6d17 9aeb fd3f e05f a9d3 26f3 ac3f
00000670: 1c08 c902 26f0 f73f 6d71 8dcf 64ff c43f
00000680: 558a 1d8d 43fd c43f 6a00 ca3a 7716 903f
00000690: d2c5 a695 4220 e33f bb61 dba2 cc06 f5bf
000006a0: ad41 a907 16d1 98bf 1f47 7364 e597 c3bf
000006b0: bbd0 5ca7 9116 fd3f 0280 63cf 9ecb e03f
000006c0: 2996 5b5a 0d09 fa3f ab64 5b61 5518 863f
000006d0: afd7 4f5a 1366 853f c91f 0c3c f71e ebbf
000006e0: 0b25 9353 3b43 e73f 54c4 e924 5b5d ba3f
000006f0: ccfc 59e2 b7d7 a0bf f033 2e1c 0849 0040
00000700: e700 c11c 3d7e c33f 1d73 9eb1 2fd9 d4bf
00000710: b059 2e1b 9df3 e03f 560d c2dc ee65 e63f
00000720: 8109 dcba 9b27 f8bf aad3 81ac a756 debf
00000730: 28b8 5851 83e9 fdbf c7a1 7e17 b6e6 e53f
00000740: ca15 dee5 223e f83f 0950 53cb d6ba 0540
00000750: a702 ee79 feb4 e63f 9cfa 40f2 cea1 d2bf
00000760: 0f7f 4dd6 a807 f33f 1cf5 c6ff d3c3 b0bf
00000770: 0804 3a93 3655 d63f db4c 8578 245e c43f
00000780: 58ca 32c4 b1ee 0240 5036 e50a eff2 f53f
00000790: 9c50 8880 43a8 febf a2d1 1dc4 ce94 ed3f
000007a0: 2dc3 c947 9c5f 9ebf 0682 0019 3a76 e5bf
000007b0: 5ddc 4603 780b ddbf 60ea e74d 452a f23f
000007c0: 9757 aeb7 cd54 88bf 130a 1170 08d5 fb3f
000007d0: 86af af75 a911 d6bf 1f2e 39ee 940e d5bf
000007e0: 38a5 9b48 5954 6ebf ca88 0b40 a374 c33f
000007f0: 2905 dd5e d298 e1bf 5055 a181 5836 d33f

FC4_bias f8 [50]
4.52985 -0.00113093 -6.16978 -0.741488 -1.12771 -3.68967 -2.24331 0.814158
-5.42807 -1.86609 -0.609118 4.00634 0.37689 0.424089 1.33899 -0.76979
-3.57137 2.65112 -4.66032 0.656151 -2.39697 0.846704 1.7187 0.73747
-0.680854 0.994954 -0.747649 -1.06675 1.5786 0.546882 1.87087 1.48727
-2.90297 -2.76863 -4.68143 1.58632 0.246395 1.12568 -8.18016 2.57049
1.77187 1.51214 -0.333555 -0.0555261 -0.118156 -0.144319 -1.2462 -7.36073
4.38281 -5.64563
00000000: 7424 97ff 901e 1240 76d8 4cd7 7687 52bf
00000010: 3d0f eece daad 18c0 dd0b cc0a 45ba e7bf
00000020: 5ef4 15a4 190b f2bf 3142 78b4 7184 0dc0
00000030: 6e51 6683 4cf2 01c0 49db f813 950d ea3f
00000040: 4a98 69fb 57b6 15c0 4148 1630 81db fdbf
00000050: 2cf5 2c08 e57d e3bf 66a0 32fe 7d06 1040
00000060: c91f 0c3c f71e d83f 59f9 6530 4624 db3f
00000070: 94bc 3ac7 806c f53f fc35 59a3 1ea2 e8bf
00000080: fc52 3f6f 2a92 0cc0 132c 0e67 7e35 0540
00000090: 3194 13ed 2aa4 12c0 359b c761 30ff e43f
000000a0: e9f1 7b9b fe2c 03c0 698e acfc 3218 eb3f
000000b0: c729 3a92 cb7f fb3f effe 78af 5a99 e73f
000000c0: 9f39 eb53 8ec9 e5bf c1c7 60c5 a9d6 ef3f
000000d0: 2863 7c98 bdec e7bf c520 b072 6811 f1bf
000000e0: 1973 d712 f241 f93f 9fac 18ae 0e80 e13f
000000f0: 9014 9161 15ef fd3f 9626 a5a0 dbcb f73f
00000100: 2827 da55 4839 07c0 bccb 457c 2726 06c0
00000110: 990d 32c9 c8b9 12c0 fdd9 8f14 9161 f93f
00000120: 0bef 7211 df89 cf3f 342e 1c08 c902 f23f
00000130: 4018 78ee 3d5c 20c0 718f a50f 5d90 0440
00000140: 6137 6c5b 9459 fc3f 3693 6fb6 b931 f83f
00000150: b7b4 1a12 f758 d5bf 1d1b 26bf ea6d acbf
00000160: 4580 d3bb 783f bebf 9580 9884 0b79 c2bf
00000170: 3867 4469 6ff0 f3bf 8cbe 8234 6371 1dc0
00000180: b953 3a58 ff87 1140 1344 dd07 2095 16c0
