examples/benchmarks/ACAS XU/Networks/ACAS_XU_1_6.onnx (onnx, 108361 bytes, 14 tensors)

FC0_bias f8 [50]
00000000: f58c 333c ac26 9e3f 7fc5 75e7 e4a0 8fbf
00000010: 049a 21b8 3e6a 5b3f 8791 b98d 61a9 91bf
00000020: 95ff 7f52 a346 9f3f b0e8 3125 eda1 b43f
00000030: 3fce 8f1a 6e1b b73f fe59 3d71 4a8a b33f
00000040: b5a3 3847 1d1d 573f 65fc fb8c 0b07 a23f
00000050: 7502 9a08 1b9e d4bf 07b4 7405 db88 d1bf
00000060: 6a31 7898 f6cd cfbf 2d9b 94dd 27a2 b23f
00000070: 013f 9935 6733 95bf 2f6d 382c 0dfc c8bf
00000080: fcbc 4e8f 1260 953f b083 94e9 e115 92bf
00000090: edf6 b41e 1906 97bf 2426 a8e1 5b58 d4bf
000000a0: b01b b62d ca6c bc3f 7ce6 f6dc 5383 b6bf
000000b0: 0f48 c2be 9d44 d1bf 8d28 ed0d be30 c7bf
000000c0: 7892 1914 724a a1bf fc56 467e 58ca 8dbf
000000d0: 2d4a bf33 901d 92bf d837 e62b 3707 aabf
000000e0: 0dc5 1d6f f25b c8bf b152 4145 d5af a03f
000000f0: 34a2 b437 f8c2 c03f e94e 8780 09fd 783f
00000100: b62c 5f97 e13f c1bf e815 4f3d d2e0 d3bf
00000110: df70 1fb9 35e9 863f 59e0 2bba f59a be3f
00000120: 0ae4 c8b9 032b a93f acf5 8fcf 752b 853f
00000130: e3f0 93b4 2ca9 b03f 9840 5b18 33d3 87bf
00000140: 7502 9a08 1b9e ba3f 34b7 08ad 03f7 7e3f
00000150: b8ea 3a54 5392 cd3f bfb9 bf7a dcb7 ca3f
00000160: 6b13 82b0 ae65 95bf 01ba d4ad 43da a7bf
00000170: adfc 3218 2312 d4bf d7f0 3ed8 73e3 9fbf
00000180: 9dc9 ed4d c23b b73f 16cc 4ef5 1a71 9fbf
0.0294444 -0.0154436 0.00167328 -0.0172477 0.0305429 0.0805958 0.0902623 0.0763289
0.00141075 0.03521 -0.32215 -0.273978 -0.248473 0.0727868 -0.0207039 -0.195192
0.0208743 -0.0176616 -0.0224842 -0.317893 0.111035 -0.0879414 -0.269813 -0.181175
-0.0337711 -0.0145461 -0.0176909 -0.0508363 -0.190306 0.0325915 0.13095 0.00610069
-0.134762 -0.310597 0.011187 0.119552 0.0491563 0.0103368 0.0650814 -0.0116333
0.103975 0.00755979 0.231028 0.208736 -0.0208957 -0.0465871 -0.313607 -0.0311411
0.0907556 -0.0307049

FC0_weight f8 [5, 50]
00000000: 7ec7 f0d8 cf62 b33f 6956 b60f 79cb a13f
00000010: 8a57 59db 148f d23f 0ac6 7718 4971 a83f
00000020: b666 2b2f f99f c0bf 51a5 03e5 f899 81bf
00000030: 5dbd 2fd3 9bf6 913f 2d40 db6a d619 cf3f
00000040: d5e7 6a2b f697 f23f 8b92 88d7 92e1 82bf
00000050: f12e 17f1 9d98 f9bf 4d80 0640 811c 913f
00000060: 704f e320 1959 7fbf 7907 78d2 c265 c1bf
00000070: 0fb7 01a7 908e 6fbf d383 8252 b472 abbf
00000080: 94b6 0254 820f 9fbf 47fb 48df de14 6a3f
00000090: ae2d 3c2f 151b bfbf 8757 edf5 4949 b43f
000000a0: cd06 9964 e42c dbbf 79b0 c56e 9f55 c6bf
000000b0: b3fa d97e e838 953f 24d1 cb28 96db f5bf
000000c0: ddef 5014 e813 dcbf e34b b50a f302 42bf
000000d0: aad4 ec81 5660 de3f 0389 377c 1c17 973f
000000e0: 28b6 82a6 2556 d43f 03b8 b475 cb69 7a3f
000000f0: f894 5286 600b 903f 9f05 a1bc 8fa3 bdbf
00000100: e1ab e319 b0bb 7b3f c6f2 f807 db99 abbf
00000110: a527 767e 9b0f 593f f7c8 e6aa 798e c2bf
00000120: b702 5482 0f6f 873f 097c 348b 06df 823f
00000130: 13f0 6b24 09c2 b33f 7ad8 b04b f9b5 a63f
00000140: 29f9 22eb ba01 b4bf e755 9dd5 027b ccbf
00000150: 7251 caf7 ce60 7a3f 7f12 9f3b c1fe d43f
00000160: 2d09 5053 cbd6 7a3f f7db e8ad cb3a a5bf
00000170: 13d4 f02d ac1b c73f 810a a249 bd02 a03f
00000180: a75d c8fa 3860 683f 8195 438b 6ce7 d6bf
00000190: 3c4e d191 5cfe d83f 4356 b77a 4e7a c53f
000001a0: 6e19 cb4f 0537 a5bf dcd8 ec48 f59d edbf
000001b0: 26e3 18c9 1ea1 c43f f522 e2ff f1d2 7bbf
000001c0: 6d61 cc4c 1f70 633f 9231 8859 7913 7dbf
000001d0: 25b3 d540 4ef3 89bf 2db0 c744 4ab3 dcbf
000001e0: 3dee 00f4 a045 a33f d87d c7f0 d8cf e8bf
000001f0: 8e77 68d4 5316 83bf 73f3 8de8 9e75 bdbf
00000200: 249e 893c 8bd6 68bf 5e68 aed3 48cb efbf
00000210: c03d cf9f 36aa e4bf 1f95 cde2 e6d0 69bf
00000220: 0632 9644 51fb b4bf e048 a0c1 a6ce e3bf
00000230: 28de b710 9a13 9a3f 11e5 0b5a 48c0 c2bf
00000240: ea3c 2afe ef08 e93f c684 3d92 3765 933f
00000250: e90d f791 5b93 be3f 9eca 2fa4 3f0b 64bf
00000260: 950f 41d5 e8d5 c2bf bf62 0d17 b927 ef3f
00000270: 88f5 46ad 307d cdbf bcaf ca85 ca3f ee3f
00000280: 21af 0793 e2e3 e73f 7206 5640 67f3 743f
00000290: 0fee ceda 6d17 f0bf ccc8 6a04 2c03 903f
000002a0: 1404 8f6f ef1a 94bf b868 1206 afa7 873f
000002b0: ec1d c940 f916 b3bf 39b9 dfa1 28d0 d1bf
000002c0: eb74 20eb a9d5 d93f 3c7f 7fef dbb5 993f
000002d0: e42c ec69 873f f63f b79a 75c6 f7c5 bdbf
000002e0: d3bd 4eea cbd2 d9bf 88ed d564 1924 653f
000002f0: e878 9a06 24e5 573f 9ac9 dc21 6a47 ae3f
00000300: 2db4 739a 05da c73f 56f2 b1bb 40c9 ec3f
00000310: 1fd8 f15f 2088 e7bf 9b01 2ec8 96e5 c3bf
00000320: 7c0c 569c 6a2d e13f bf45 274b adf7 afbf
00000330: 4979 f711 09f0 abbf 778e b74b d180 b6bf
00000340: 4cdf 6b08 8ecb ea3f 1f0e 12a2 7c41 93bf
00000350: bb09 be69 faec b0bf 1c73 5a94 32d9 4a3f
00000360: 5131 add1 9b1f 69bf f5bd 86e0 b88c c5bf
00000370: 86a7 99e6 040a 803f 6f66 f4a3 e194 e83f
00000380: a321 e351 2ae1 89bf 0ef4 50db 86d1 e4bf
00000390: f92b 09f5 9958 9dbf 780b 2428 7e8c efbf
000003a0: f244 10e7 e104 e93f 10ee 8cbe 9bd1 733f
000003b0: a321 e351 2ae1 dfbf 5471 e316 f373 dc3f
000003c0: 0315 fdbd ee56 31bf fe71 0c12 ec09 a83f
000003d0: e4d8 7a86 70cc e6bf f631 f690 b612 663f
000003e0: 083d 9b55 9fab c3bf d480 b8e0 4961 37bf
000003f0: 226d e34f 5436 c6bf 1748 50fc 1873 f0bf
00000400: a37c 9cc4 7b69 a13f 818c ca97 61ed 91bf
00000410: 9dd7 d825 aab7 c23f fb5e bf37 b83a 81bf
00000420: 90f7 aa95 093f f03f 81fe 8c1c 339a a63f
00000430: 4ab4 e4f1 b47c eabf fc99 a2a5 f075 493f
00000440: 3961 c268 56b6 d6bf c00d 8c17 66fc 9ebf
00000450: 734c 16f7 1f99 de3f b16e bc3b 3256 c73f
00000460: 6c24 09c2 1550 c03f 0f25 ff38 0609 a63f
00000470: 923e ada2 3f34 dd3f 4b74 9659 8462 8bbf
00000480: 60cb 2bd7 db66 92bf 5075 86b1 9ebd 77bf
00000490: 7289 230f 4416 c1bf ffae cf9c f529 c73f
000004a0: dd5b 9198 a086 d5bf f2ea 1c03 b2d7 c13f
000004b0: c4d2 c08f 6ad8 d73f b760 a92e e065 d53f
000004c0: 4300 70ec d973 c93f f3aa ce6a 813d 9e3f
000004d0: 0231 64d0 645a a63f 78cf 81e5 0819 dabf
000004e0: 55de 8e70 5af0 dc3f 840c e4d9 e55b a73f
000004f0: a6a1 a1da 3bfe b2bf a014 5223 997a b6bf
00000500: 959d 1b26 5cc0 72bf d1d1 0550 e7e5 9b3f
00000510: a0b7 c205 eade acbf b361 4d65 51d8 c73f
00000520: 1192 c32f 0e91 773f 5e81 e849 99d4 e13f
00000530: 7e71 a94a 5b5c bf3f 5624 cbee 6e0a 90bf
00000540: 9fe9 807f a54e b5bf c7d9 7404 70b3 d9bf
00000550: 5caf e941 4129 ba3f c675 429e 1331 b9bf
00000560: 037a e1ce 8591 8e3f afed cc88 fb5d 52bf
00000570: a6b7 3f17 0d19 cd3f 5474 0389 166e 633f
00000580: ccb5 6801 da56 c1bf 603c 8386 fe09 be3f
00000590: 373a 4261 ab5f b03f 3f4f c95a bf70 49bf
000005a0: 600d 48a9 21fd 783f 2459 2cea 3823 b13f
000005b0: b591 4660 0729 b73f 60e5 d022 db79 e7bf
000005c0: 4d9c 1e0c 235a 6e3f fca5 457d 923b c03f
000005d0: a31e a2d1 1dc4 cabf eec4 f6a4 5d96 acbf
000005e0: 89ce d7d1 dd1a b5bf efca 2e18 5c73 d53f
000005f0: 71ff 91e9 d0e9 d33f fcc8 ad49 b725 92bf
00000600: 13a4 ada5 db6d a6bf ead0 e979 3716 ca3f
00000610: eb11 72f7 9c68 553f b5c5 353e 93fd ddbf
00000620: c685 0321 59c0 c6bf ac9d 7296 a311 ad3f
00000630: ad17 4339 d1ae d43f fb20 cb82 893f ce3f
00000640: 7935 8af6 c2ae a7bf 8672 a25d 8594 dbbf
00000650: 983c 5409 055b 93bf 532e 43d2 5dc8 b7bf
00000660: 6bd3 d85e 0b7a 973f 916c 640d cd2b 953f
00000670: 1041 d5e8 d580 e1bf 2863 7c98 bd6c 9bbf
00000680: f987 2d3d 9aea e9bf e768 5dbc 82e1 6a3f
00000690: a96c 5853 5914 96bf 48a7 ae7c 96e7 b93f
000006a0: 452b f702 b3c2 ef3f 9faf 592e 1b9d 633f
000006b0: 2b48 fe23 7da1 3a3f 9da7 f056 4c5b aebf
000006c0: 85ce 6bec 12d5 dabf 5909 69cf 5df9 79bf
000006d0: 2418 bd09 74dc a33f 821f d5b0 df13 cf3f
000006e0: 0abc 934f 8f6d d83f 2843 554c a59f c2bf
000006f0: 01da fbf9 5ba7 b83f 368c 2727 7f9c 853f
00000700: fddc d094 9d7e d4bf c37f fc9d d434 6b3f
00000710: a06f 0b96 ea02 c4bf 8b50 6c05 4d4b c2bf
00000720: 6534 f279 c553 e8bf 248c 5539 a39c 7ebf
00000730: c7c5 072c 6ffd 8a3f ddb3 aed1 72a0 cd3f
00000740: b7df 90fc 7733 a53f 67d5 e76a 2bf6 c9bf
00000750: f75a d07b 6308 703f d769 a4a5 f276 ca3f
00000760: 3a52 c774 3282 b33f b98e 71c5 c551 c13f
00000770: 6ca2 85ba fe13 a23f 41d3 122b a391 d1bf
00000780: 1185 3bbc 8c07 acbf 1007 0951 bea0 cb3f
00000790: 03f0 aa62 85b6 b13f dad7 cb00 61f1 b3bf
000007a0: cf48 8446 b071 6d3f 7e55 2e54 feb5 d53f
000007b0: 8813 984e eb36 ecbf 2aa7 3d25 e7c4 c6bf
000007c0: 69cd ea78 27fa 97bf a3ca 30ee 06d1 d4bf
0.0757265 0.0347555 0.289983 0.0477393 -0.129882 -0.00859446 0.0175423 0.242976
1.1621 -0.00921931 -1.59976 0.0167103 -0.00765333 -0.135918 -0.00385216 -0.0536095
-0.0303326 0.00318378 -0.121507 0.0792433 -0.424615 -0.174488 0.0207249 -1.36611
-0.438715 -0.000549668 0.47463 0.0225491 0.317758 0.00644855 0.0156684 -0.115777
0.00677079 -0.0539082 0.0015296 -0.144973 0.0114423 0.00921445 0.0771795 0.0443571
-0.0781514 -0.222504 0.00643998 0.328049 0.0065525 -0.0414642 0.180532 0.0312709
0.00297557 -0.357875 0.390525 0.167795 -0.0414354 -0.925532 0.161167 -0.00679297
0.0023728 -0.00709865 -0.0126711 -0.448443 0.0376406 -0.775372 -0.00931993 -0.115076
-0.00303199 -0.993565 -0.645778 -0.00315137 -0.0819598 -0.618976 0.0254654 -0.146493
0.782341 0.0189408 0.119436 -0.00244677 -0.147153 0.973599 -0.230383 0.945287
0.746568 0.00511494 -1.00572 0.0156371 -0.019634 0.0115503 -0.0745693 -0.27833
0.403666 0.0251078 1.39051 -0.116302 -0.403491 0.00258069 0.00145844 0.0591386
0.186341 0.899567 -0.735367 -0.155444 0.536794 -0.0624365 -0.0545657 -0.0879031
0.837348 -0.0188045 -0.066116 0.000819349 -0.00306683 -0.168357 0.00783161 0.768174
-0.0126365 -0.650577 -0.0286583 -0.9859 0.781846 0.00483857 -0.498118 0.444577
-0.000264581 0.0469507 -0.712456 0.00269447 -0.153675 -0.000356751 -0.173533 -1.0281
0.0340079 -0.0175071 0.14623 -0.00841278 1.01539 0.0441452 -0.827723 0.000776999
-0.354879 -0.0302597 0.478096 0.182318 0.127444 0.0430376 0.456314 -0.0133715
-0.0179705 -0.00579607 -0.133492 0.180968 -0.336342 0.139395 0.372584 0.334343
0.198848 0.0295315 0.0436584 -0.407778 0.45217 0.045623 -0.0741918 -0.0878082
-0.00457798 0.0272442 -0.0563882 0.186289 0.00575357 0.557202 0.122503 -0.0156648
-0.0832313 -0.401577 0.102192 -0.0984051 0.014926 -0.00112104 0.227327 0.00237183
-0.135463 0.11734 0.0639598 -0.00077638 0.00610078 0.0669437 0.0904698 -0.733625
0.00370509 0.126818 -0.20911 -0.0558347 -0.0824412 0.335166 0.311146 -0.017722
-0.0438069 0.203803 0.00130668 -0.468602 -0.177745 0.0567752 0.32317 0.236314
-0.0462552 -0.43094 -0.0189019 -0.0929011 0.0229265 0.0206749 -0.546977 -0.026782
-0.809888 0.00328136 -0.021562 0.10119 0.992517 0.00239425 0.000406354 -0.0592903
-0.419255 -0.00634133 0.0387913 0.242794 0.381687 -0.145497 0.0963037 0.0105524
-0.320228 0.00332109 -0.156339 -0.142923 -0.760226 -0.0074736 0.0131787 0.231459
0.0414083 -0.202825 0.00391425 0.206755 0.0762054 0.135308 0.0353088 -0.274514
-0.0547451 0.215843 0.0691913 -0.0779019 0.00359425 0.339233 -0.881704 -0.177884
-0.0234152 -0.325258

FC1_bias f8 [50]
00000000: 5d23 38e4 558c 81bf 0c14 c2b4 b97b b83f
00000010: 87c1 fc15 3257 d4bf 5dfc 6d4f 90d8 cebf
00000020: 1b85 24b3 7a87 9b3f 7d09 151c 5e10 cd3f
00000030: ebfc db65 bfee ddbf 492d 944c 4eed ccbf
00000040: e7d8 8bb2 c8c0 afbf dffe 5c34 643c d5bf
00000050: 20ee ea55 6474 d3bf 768a 5583 30b7 93bf
00000060: f86b b246 3d44 d93f 059e 2056 24cb 7ebf
00000070: 705e 9cf8 6a47 cb3f 0db9 63fb da44 a7bf
00000080: 4640 8523 48a5 d43f 772f f7c9 5180 cebf
00000090: b697 7ed3 0506 92bf ac25 d357 46d9 91bf
000000a0: dee5 22be 13b3 d1bf 379f 84e3 439a b83f
000000b0: 3fc6 dcb5 847c c43f 1e18 40f8 50a2 c7bf
000000c0: d80d db16 6536 cabf 4be8 2e89 b322 92bf
000000d0: 25ae 635c 7171 d33f 3605 323b 8bde b5bf
000000e0: d330 7c44 4c89 bc3f 2942 ea76 f695 cb3f
000000f0: 97f2 6b35 351a 8abf 87b1 3b93 ecc7 8cbf
00000100: 3ae6 3c63 5fb2 d93f 36d8 48d0 6759 6abf
00000110: 2251 6859 f78f b1bf b29b 19fd 6838 adbf
00000120: 51c0 7630 629f c63f 85ce 6bec 12d5 d1bf
00000130: 547e 0860 b994 91bf 6cc1 9cea da28 b2bf
00000140: 7ce7 bc6b 75de 93bf 9488 f02f 82c6 cabf
00000150: 118c 834b c79c 77bf 1adf 1797 aab4 da3f
00000160: d6ad 9e93 de37 d2bf 5ca2 a3ea 91e5 80bf
00000170: ca51 8028 9831 c1bf 2fc1 a90f 24ef c8bf
00000180: d49b 51f3 5572 e0bf bc96 900f 7a36 d5bf
-0.00856845 0.0956379 -0.317822 -0.240984 0.026884 0.227062 -0.467697 -0.225992
-0.0620177 -0.331811 -0.303979 -0.0192535 0.39479 -0.00751795 0.213117 -0.0454472
0.322588 -0.238291 -0.0176011 -0.0174304 -0.276555 0.0961039 0.16005 -0.184641
-0.204785 -0.0177105 0.303799 -0.085427 0.11147 0.215514 -0.0127453 -0.0140532
0.401512 -0.00321646 -0.068603 -0.057071 0.176739 -0.27863 -0.0171689 -0.0709359
-0.0194033 -0.209183 -0.00576475 0.417277 -0.28466 -0.00825037 -0.134326 -0.194798
-0.513957 -0.33145

FC1_weight f8 [50, 50]
00000000: 9a77 9ca2 23b9 a0bf 5839 b4c8 76be 6f3f
00000010: ee5a 423e e8d9 8cbf c8d1 1c59 f965 b2bf
00000020: 1ea4 a7c8 2162 ec3f a881 3001 09d4 b4bf
00000030: 1b2c 9ca4 f963 be3f cbf1 af8a dc78 a03f
00000040: 4a0a 2c80 2903 d0bf 4792 205c 0105 e4bf
00000050: edf4 83ba 48a1 da3f 59c2 da18 3be1 c3bf
00000060: bfeb d8ad 0a79 b3bf 506b 3fbe 2951 9bbf
00000070: 34d7 69a4 a5f2 ccbf 4e7d 2079 e750 da3f
00000080: 6935 24ee b1f4 b9bf a3e5 400f b56d ebbf
00000090: 9023 e70e acf4 9cbf 532d d8fc aebe a8bf
000000a0: 5dc2 a1b7 7878 d4bf 9e7b 0f97 1c77 c6bf
000000b0: 82e5 0819 c8b3 d43f d81c 31c4 fbbb b83f
000000c0: 4326 74f2 7dcc b2bf 106f e70c d649 9f3f
000000d0: 8fa8 50dd 5cfc da3f 42bb f9fc e6b4 b33f
000000e0: 7d94 1117 8046 d13f ad53 4035 b973 b63f
000000f0: 47ba 55c6 7542 8ebf 7b6f 67ba 3203 903f
00000100: 8140 67d2 a6ea e2bf 01fb e8d4 95cf d2bf
00000110: 5474 2497 ff90 bebf 0536 e7e0 99d0 e3bf
00000120: 4fb5 711f 14ef 833f 496f 1349 4fec 9c3f
00000130: 9cf0 5c29 159e a13f af5c 6f9b a910 cd3f
00000140: 23dd 8d0d f689 703f 9370 218f e046 d8bf
00000150: 156b 5d0f cb0b 9d3f 950f 41d5 e8d5 c4bf
00000160: f59c f4be f1b5 d0bf f508 da89 37d7 95bf
00000170: 4d15 8c4a ea04 e73f 198d 7c5e f154 e03f
00000180: a98e b003 4246 ab3f df15 c1ff 56b2 d7bf
00000190: 7d66 fff2 7ffd a23f c2de c490 9c4c dc3f
000001a0: 3604 c765 dcd4 e23f b179 0bda 9a63 b5bf
000001b0: 74a0 e293 a9dd b2bf a19e 3e02 7ff8 dcbf
000001c0: 5401 f73c 7fda e6bf a182 c30b 22d2 e93f
000001d0: 6c95 6071 38b3 07c0 53bd eb22 3b25 9e3f
000001e0: 5fd0 4202 4697 bfbf d828 eb37 13d3 de3f
000001f0: 3ca1 d79f c4e7 ee3f 9272 7b72 e2e5 80bf
00000200: 49f4 328a e516 f03f dcba 9ba7 3ae4 e6bf
00000210: 5a8a 3fe5 f3e5 a83f 7bbc 900e 0f61 ec3f
00000220: 954e 7f51 ddb7 95bf ad47 86c1 a15c abbf
00000230: f0c0 00c2 8712 e9bf 4910 ae80 423d dc3f
00000240: 7902 61a7 5835 dcbf a9da 6e82 6f9a c2bf
00000250: 342d b132 1af9 e13f f630 6aad 1ee6 91bf
00000260: 227b 736e c960 afbf c178 61c6 6f65 a0bf
00000270: fb96 395d 1613 f63f 4356 b77a 4e7a bb3f
00000280: 4dd5 e2f8 4619 86bf 7479 18ff e329 a0bf
00000290: aab6 9be0 9ba6 e13f c323 9639 025d a4bf
000002a0: e2af c91a f510 df3f 5437 177f db13 d1bf
000002b0: 0612 143f c6dc d0bf 0051 d5a9 9784 a83f
000002c0: 94ed 2a41 d2e9 813f 7d04 fef0 f3df eabf
000002d0: 2e9d 6217 3d9e 63bf d0d0 3fc1 c58a fabf
000002e0: de3d ddcc 2a64 653f cdac a580 b47f e43f
000002f0: ab42 03b1 6ce6 d33f d94a 9ea1 6e56 a3bf
00000300: 7aba 04f1 cbaa b5bf 0740 dcd5 ab48 ee3f
00000310: 0ce5 44bb 0a29 bb3f 95b7 239c 163c f0bf
00000320: 0b38 9556 8d6f b5bf 0ccd 751a 69a9 f63f
00000330: caa5 f10b af24 c73f f8fa 5a97 1aa1 bbbf
00000340: 4703 780b 24a8 f43f 8e7e ea0e 18da 97bf
00000350: 577c 43e1 b375 d3bf f39c e392 99c1 a2bf
00000360: a531 5a47 5593 f0bf 0bd4 62f0 30ed cbbf
00000370: afd1 72a0 87da d63f 78b3 06ef ab72 d23f
00000380: 3c4e d191 5c7e ee3f e438 a6dd 9ed6 a33f
00000390: 86ec 1747 40e0 7c3f 7a6d 3656 629e e8bf
000003a0: e59b 6d6e 4c4f e5bf 45d4 449f 8f32 dc3f
000003b0: aa51 dd96 a7f7 6dbf c8d0 f39f 1ca2 7dbf
000003c0: 73a1 f2af e595 d3bf 3656 629e 95b4 d83f
000003d0: 91d5 ad9e 93de d63f 22e1 7b7f 83f6 d6bf
000003e0: f757 8a42 9d82 443f 57f7 7e59 901c afbf
000003f0: b570 5985 cd00 cfbf 83c3 0b22 52d3 d33f
00000400: 18b2 bad5 73d2 b53f b803 75ca a31b a5bf
00000410: 3390 a142 f9ab 55bf 1330 1576 acad 9bbf
00000420: 73f7 393e 5a9c c33f e065 868d b27e cfbf
00000430: 145c aca8 c134 f3bf 821d ff05 8200 d6bf
00000440: 5989 7956 d28a d93f af98 11de 1e84 c03f
00000450: 8a76 40d2 da46 39bf 7ea9 9f37 1529 f83f
00000460: 5fab 4e18 def6 a6bf 21e5 27d5 3e9d f4bf
00000470: 374c d98e 4e02 a43f 2881 cd39 7826 e9bf
00000480: a299 27d7 14c8 c23f 4de9 aa8a ba20 a0bf
00000490: 1db0 abc9 5356 cf3f 240c 0396 5c45 e33f
000004a0: 1495 0d6b 2a8b c4bf 90dc 9a74 5b22 c1bf
000004b0: c546 0f32 7f3b a3bf 4642 5bce a538 03c0
000004c0: 48fb 1f60 adda c5bf 8ae6 012c f2eb c13f
000004d0: 2ffa 0ad2 8c45 dcbf d64e 39cb d188 b83f
000004e0: 8a47 9858 cfff a13f e8f8 6871 c630 c13f
000004f0: 868d b27e 3331 c33f 0af8 3592 04e1 d8bf
00000500: d788 601c 5c3a babf cf31 207b bdfb fbbf
00000510: 0e84 6401 13b8 ebbf 1520 651f bf12 a3bf
00000520: 15ff 7744 85ea ca3f a989 3e1f 6544 e33f
00000530: 656f 29e7 8b3d e73f 079b 3a8f 8aff d03f
00000540: f439 359f 8c54 843f 3fe4 2d57 3f36 91bf
00000550: e750 86aa 984a e23f 003a cc97 1760 dc3f
00000560: 1c9a b2d3 0fea d8bf 079a cfb9 dbf5 c0bf
00000570: 1006 9e7b 0f17 f6bf 9dac 0782 b68b 9fbf
00000580: 6831 676c 9ed9 ac3f 97c5 c4e6 e3da c23f
00000590: 1617 47e5 266a c7bf 4ca4 d9e1 5410 b63f
000005a0: 9709 7547 b53e a3bf 9d6e 8f94 e304 a8bf
000005b0: 3a58 ffe7 305f f2bf 31b3 cf63 9467 ce3f
000005c0: 4e28 44c0 2154 da3f bbb6 b75b 9203 d5bf
000005d0: 5d50 df32 a7cb df3f ad88 9ae8 f351 cabf
000005e0: b3bb 9b02 f456 983f 94a5 d6fb 8d76 cc3f
000005f0: 0af0 822d 1b42 a2bf b797 3446 eba8 d23f
00000600: da90 7f66 101f 90bf 37fc 6eba 6507 e4bf
00000610: 6364 c91c cbbb ce3f 5cb8 6235 4c23 9cbf
00000620: 6325 e659 492b cc3f b4c8 76be 9f1a f3bf
00000630: 3ca0 6cca 15de dc3f 9755 d80c 7041 be3f
00000640: 3fb2 1424 1175 92bf fd67 cd8f bfb4 d53f
00000650: f661 bd51 2b4c e43f 041c 4295 9a3d ca3f
00000660: edf0 d764 8d7a f23f efe3 688e ac7c e7bf
00000670: 325a 4755 1344 d73f af05 bd37 8600 b8bf
00000680: 9a8e 4afb 308c 853f 45eb 4db1 0f57 b53f
00000690: 48bc e1e3 b8f8 b2bf aa80 7b9e 3f6d ca3f
000006a0: add4 fdad ae54 adbf 7d2e 0906 c6b0 a5bf
000006b0: 77f3 5487 dc0c d0bf e485 7478 08e3 cf3f
000006c0: 4507 6eee f9ab b5bf 268c 6665 fb90 bfbf
000006d0: 2353 99bd c7f4 abbf e415 889e 9449 8d3f
000006e0: 9c6c 0377 a04e d03f 4392 59bd c3ed c4bf
000006f0: 7548 2014 4a15 b93f 629d 2adf 3312 c5bf
00000700: fcde a63f fb91 f4bf 126a 8654 51bc a6bf
00000710: 29b1 6b7b bb25 d63f 6be7 4537 0c30 9d3f
00000720: 4cc4 5be7 df2e d13f a1f2 afe5 95eb e3bf
00000730: 567c e827 4124 a43f dfe3 a7cc 28f1 a0bf
00000740: 429d 4da2 b9a9 943f 9fbc 3c5b 0f78 73bf
00000750: 9d79 de32 4c12 ac3f 6343 37fb 03e5 d6bf
00000760: b40b bc49 c274 b2bf a6d6 fb8d 76dc d03f
00000770: 8709 59cc bee1 9c3f 6328 27da 5548 e8bf
00000780: ff71 67cb 5e5b 9c3f 8029 0307 b474 d23f
00000790: 984a a20b a83f 543f 2a6f 4738 2d78 de3f
000007a0: 791e 3fc8 7044 60bf 6ad9 5a5f 24b4 9d3f
000007b0: 21ea 3e00 a94d da3f de73 6039 4206 d73f
000007c0: 16d3 9684 5506 af3f a185 048c 2e6f d5bf
000007d0: 2b54 92d0 f12c 8cbf f774 75c7 629b d53f
000007e0: 215c 0185 7afa ca3f b935 e9b6 442e e6bf
000007f0: 90bc 7328 43d5 e73f 1b2d 077a a86d d03f
-0.0326625 0.003875 -0.0140875 -0.0718685 0.886979 -0.0813604 0.118713 0.0321721
-0.250193 -0.625611 0.416094 -0.155311 -0.0760657 -0.0266768 -0.226155 0.411188
-0.10139 -0.857142 -0.0282771 -0.0483298 -0.319853 -0.17551 0.323473 0.0966184
-0.0734328 0.0305551 0.421653 0.0769791 0.269928 0.0877033 -0.0147752 0.0156372
-0.591144 -0.29392 -0.1194 -0.619214 0.00973335 0.0282452 0.0344092 0.227071
0.00403782 -0.379326 0.0283653 -0.162778 -0.261105 -0.0213288 0.71935 0.510369
0.0532704 -0.37026 0.0370903 0.442176 0.588484 -0.0835511 -0.0736948 -0.452667
-0.714172 0.806901 -2.96251 0.0294389 -0.123402 0.481633 0.965792 -0.00825097
1.00559 -0.71536 0.0486294 0.886848 -0.0212092 -0.0534411 -0.783512 0.441239
-0.440756 -0.145338 0.561658 -0.0174794 -0.0612853 -0.0320239 1.37966 0.107335
-0.0107904 -0.0315696 0.551588 -0.0397721 0.48541 -0.266837 -0.263475 0.0478866
0.00874676 -0.839838 -0.00239479 -1.65888 0.00261124 0.640589 0.310939 -0.0377688
-0.0846374 0.946371 0.106095 -1.01467 -0.0837334 1.41636 0.180807 -0.107927
1.29105 -0.0232929 -0.304059 -0.0366333 -1.03597 -0.218176 0.357088 0.288249
0.952925 0.0387468 0.0070498 -0.769334 -0.66593 0.440586 -0.00365813 -0.00723468
-0.306024 0.386022 0.357335 -0.358796 0.000625922 -0.0607648 -0.242212 0.309773
0.0852425 -0.0412265 -0.00132274 -0.0270297 0.153209 -0.246054 -1.20038 -0.343781
0.399098 0.129032 -0.000385693 1.51003 -0.0448522 -1.28839 0.0390801 -0.785946
0.146731 -0.0314997 0.244822 0.602217 -0.160497 -0.133861 -0.0375633 -2.40266
-0.170736 0.140013 -0.441745 0.0958377 0.0351548 0.134301 0.149939 -0.388734
-0.102453 -1.74896 -0.86622 -0.0372524 0.210282 0.602099 0.726263 0.265597
0.00992689 -0.0168085 0.571606 0.443365 -0.389286 -0.132503 -1.38063 -0.0308064
0.0563478 0.147305 -0.182927 0.0861867 -0.0375878 -0.0469123 -1.14824 0.237536
0.411385 -0.328343 0.496805 -0.205626 0.0237692 0.222368 -0.0356606 0.29156
-0.0157435 -0.625903 0.240106 -0.0274784 0.220071 -1.194 0.451055 0.118186
-0.0180247 0.339157 0.634298 0.205005 1.15492 -0.733969 0.36353 -0.093758
0.0105213 0.0833597 -0.0741077 0.206459 -0.0572867 -0.0423643 -0.250785 0.249116
-0.0846554 -0.123306 -0.0546019 0.0143005 0.254799 -0.163506 0.0979811 -0.164618
-1.28564 -0.0444055 0.346053 0.0285036 0.268486 -0.622508 0.0393391 -0.0330899
0.0201787 -0.00475317 0.0548271 -0.357728 -0.0720941 0.263456 0.0282049 -0.75883
0.0276923 0.288373 0.00123588 0.476085 -0.00198576 0.0290075 0.41099 0.359757
0.0605952 -0.334911 -0.0137576 0.337609 0.210769 -0.693148 0.744783 0.256693

FC2_bias f8 [50]
00000000: 6a6b 4430 0e2e d3bf 2c1d 4164 7018 65bf
00000010: 6ef7 729f 1c05 d4bf 08e1 760d 9f19 91bf
00000020: e25c c30c 8d27 dc3f a819 5245 f12a a3bf
00000030: 0f0e f626 86e4 d4bf a6b5 696c af05 c9bf
00000040: 8ab4 e8f8 c32a ad3f 34da aa24 b20f e0bf
00000050: c3d4 963a c8eb d7bf 4d48 1053 c7cf b53f
00000060: a263 0795 b88e d13f 78f1 7edc 7ef9 cabf
00000070: 6940 738c 1a02 86bf efad 484c 50c3 cd3f
00000080: 4e7b 4ace 893d dbbf 00a7 1c38 0c8b ae3f
00000090: d994 2bbc cb45 a8bf 75c9 3846 b247 ce3f
000000a0: 7c48 f8de dfa0 c9bf 1efb 592c 45f2 d0bf
000000b0: bf4f b05a f4a9 a2bf 6a95 aafe 5250 933f
000000c0: 0e9e 094d 124b babf 7a38 60db cb4b 80bf
000000d0: 0090 1326 8c66 d53f c24e b16a 10e6 d63f
000000e0: 6346 787b 1002 ce3f 95d5 743d d175 cdbf
000000f0: 9e5e 29cb 10c7 ba3f 83f8 c08e ff02 d83f
00000100: 1b86 ea41 9ce2 b0bf f168 e388 b5f8 bcbf
00000110: ccdd 9d6b 4e14 a7bf 49e1 d5cd 2099 b3bf
00000120: 1343 7232 71ab c23f 7fbe 2d58 aa0b c83f
00000130: 0af5 f411 f8c3 8fbf 591f c5ef 5cce 93bf
00000140: c66a f3ff aa23 cd3f 855f eae7 4d45 8abf
00000150: 5b95 44f6 4196 cb3f 793b c269 c18b ccbf
00000160: 8925 e5ee 737c b43f 2d76 3dc9 0499 803f
00000170: d350 a390 6456 d33f b379 1c06 f357 d7bf
00000180: ec15 16dc 0f78 d1bf 4aea a97a 9ee4 b33f
-0.299686 -0.00257513 -0.312812 -0.0166993 0.439914 -0.037437 -0.326448 -0.195486
0.0569669 -0.501916 -0.373766 0.0852017 0.274336 -0.210739 -0.0107462 0.232523
-0.425631 0.0596546 -0.0474075 0.236563 -0.200222 -0.264787 -0.0364529 0.0188611
-0.102708 -0.00795707 0.334384 0.357792 0.234438 -0.230158 0.1046 0.375183
-0.0659578 -0.11317 -0.0450768 -0.0765553 0.145857 0.187856 -0.0155105 -0.0193419
0.227651 -0.0128275 0.215523 -0.223015 0.080024 0.00810436 0.302148 -0.364743
-0.272953 0.0777072

FC2_weight f8 [50, 50]
00000000: 2cf2 eb87 d860 81bf 34f2 1e0c e13d 7cbf
00000010: bc98 c173 4a9b 9dbf 10f0 ff3e 3e7c a4bf
00000020: 81bb 813c 9a6e 723f b3e9 ad26 f49f 8abf
00000030: 3b7b 1d27 3bec a8bf 993d 3ba6 0fd9 77bf
00000040: c7ed 3c96 e3ba a2bf 9c6f 44f7 ac6b a8bf
00000050: 66db 696b 4430 a23f a5c4 09a7 60e8 a03f
00000060: a6a2 0cb0 ea07 983f 87af 65e8 8eb4 92bf
00000070: 340d ed10 bd94 733f 3efc 4685 fb12 abbf
00000080: 00d0 1731 a2a3 9bbf c860 838d 047d 663f
00000090: 9cfd 8172 dbbe a3bf 1629 de12 ca0c a5bf
000000a0: 2534 b4c7 2cf7 813f f66b a11a e54f 8a3f
000000b0: 5411 b8bf c469 a23f e200 9fc4 8c95 95bf
000000c0: ccb7 3eac 376a 9d3f fb01 b452 ad2a a83f
000000d0: b1e8 8cde 5ff3 90bf c38e b575 2623 9dbf
000000e0: af0a d462 f030 8d3f ddb6 ef51 7fbd 923f
000000f0: 81d1 4087 54ac a1bf 4432 e4d8 7a86 98bf
00000100: 025a 0410 8821 93bf 1dc1 d721 48ef a53f
00000110: 2de4 b622 d687 a23f bf62 0d17 b9a7 8b3f
00000120: a3bd 0ba5 40b0 743f c6be c70d 7d7f 7c3f
00000130: 8ff6 e406 e863 a3bf 83f1 78ff c46d a53f
00000140: 6645 587d 431b 6f3f 25f0 e258 7270 a8bf
00000150: a627 2cf1 80b2 89bf 022e 2350 583d a7bf
00000160: f8f8 0825 6119 6a3f 4ff1 1362 8962 953f
00000170: 859f eef2 6382 90bf b129 a105 b2e8 a73f
00000180: 76e1 07e7 53c7 92bf 31f5 a919 08b8 86bf
00000190: b293 9989 24a5 493f 4e98 309a 95ed bf3f
000001a0: 6379 fc83 edcc 91bf b474 05db 8827 d5bf
000001b0: bc96 900f 7a36 f33f b396 02d2 fe07 d53f
000001c0: a0dd 21c5 0089 d93f 2860 3b18 b14f d33f
000001d0: d141 9770 e82d b03f 7e57 04ff 5bc9 dd3f
000001e0: 395f ecbd f8a2 d7bf f1b9 13ec bfce c3bf
000001f0: be31 0400 c79e b93f b91a d995 9691 cabf
00000200: 15e4 6723 d74d dd3f e4bb 94ba 641c d1bf
00000210: c689 af76 1467 e9bf b726 dd96 c805 d4bf
00000220: d8fb 43e9 c193 acbf 534b 299e 6978 99bf
00000230: 9208 8d60 e3fa d23f 7db1 f7e2 8bf6 d6bf
00000240: e4d7 0fb1 c1c2 bd3f 05db 8827 bb99 c7bf
00000250: 22e3 512a e109 e8bf 68cb b914 5795 95bf
00000260: e63d ce34 61fb e53f 8fa5 0f5d 50df dcbf
00000270: 44f8 1741 63a6 e3bf 9f20 b1dd 3d40 d0bf
00000280: 322c 3531 13fb b63f bde1 3e72 6bd2 d23f
00000290: 6889 df5e e344 b73f a890 2bf5 2c88 e13f
000002a0: 5c73 47ff cbb5 d93f 4fc9 39b1 87f6 d33f
000002b0: f966 9b1b d313 c0bf efb4 90db 8a58 b53f
000002c0: f816 d68d 7747 d53f 46f1 8524 0e34 8a3f
000002d0: 3200 5471 e316 de3f 5995 12bc 007f 81bf
000002e0: b213 5e82 531f c43f a7d1 3f1c 7ffd 933f
000002f0: 06bc ccb0 51d6 d13f 5ce6 7459 4c6c d13f
00000300: 8dec 4acb 483d e8bf 067f bf98 2d59 c1bf
00000310: db6b 41ef 8d21 cabf 11e4 a084 99b6 e1bf
00000320: 45b0 bb8a d69b 923f 016b d5ae 0969 d1bf
00000330: b5fd 2b2b 4d4a c1bf 3cc1 feeb dc34 e2bf
00000340: af95 d05d 1267 bd3f 34bb eead 484c d93f
00000350: 30af 6d9b f39d 993f 1c40 bfef df3c e33f
00000360: 0267 2959 4e42 d23f 4401 5789 e4f1 653f
00000370: 4d4b ac8c 463e d13f d2a9 2b9f e579 d9bf
00000380: 2716 f88a 6ebd d6bf cea7 8e55 4acf dcbf
00000390: 3bd5 6bc4 dd6a b1bf f4a9 6395 d233 debf
000003a0: be15 8909 6af8 d03f 9fe8 baf0 83f3 e3bf
000003b0: 0b62 a06b 5f40 d1bf 0f54 d7eb 27ad a53f
000003c0: 4145 d5af 743e c6bf 32ab 77b8 1d1a ddbf
000003d0: a9f9 2af9 d85d d4bf ad5e 8fd3 2181 acbf
000003e0: 0daa 0d4e 44bf e3bf 82c8 224d bc03 9c3f
000003f0: fd86 8906 2978 c4bf e204 a6d3 ba0d be3f
00000400: 959c 137b 681f d23f baf7 70c9 71a7 c4bf
00000410: e3fd b8fd f2c9 c4bf 7539 2520 26e1 ba3f
00000420: ec74 d65d 8f78 b6bf 04e6 2153 3e04 d0bf
00000430: dfe1 7668 588c d53f dd5f 3dee 5bad c53f
00000440: 6d35 90d3 7c3a 933f 03eb 387e a834 cabf
00000450: 6cda 7ba7 b860 b1bf 69c9 e369 f981 8b3f
00000460: 606c c60e cfb7 9abf 4b4a 8b44 b291 95bf
00000470: 3d29 931a da00 d6bf a2f1 4410 e761 e7bf
00000480: 4334 5fca 6548 b63f 8612 7706 578a b43f
00000490: 3fa7 203f 1bb9 bebf cee0 ef17 b3a5 edbf
000004a0: 4b33 2779 bf1b b03f d8d8 25aa b706 c8bf
000004b0: 54c4 e924 5b5d df3f 328f fcc1 c0f3 e73f
000004c0: 5795 7d57 04ff d0bf a6ed 5f59 6952 d93f
000004d0: f129 00c6 3368 e3bf 69c3 6169 e047 bdbf
000004e0: 5a46 8f84 2282 a23f 132a 38bc 20a2 ecbf
000004f0: 4be5 ed08 a705 d83f c1ec 54af 1177 a73f
00000500: 85cc 9541 b5c1 bd3f 58e6 adba 0ed5 d63f
00000510: fe48 1119 56f1 d4bf 24d3 a1d3 f36e d2bf
00000520: 52d3 2ea6 99ee d1bf c45e 2860 3b18 d43f
00000530: b109 7ab9 991b a1bf a27c 410b 0998 e53f
00000540: 5e10 919a 7631 cdbf cf81 e508 19c8 bfbf
00000550: 4ce2 ac88 9ae8 c3bf 29de 12ca 0c65 ae3f
00000560: 6151 11a7 936c cfbf c426 3273 81cb cfbf
00000570: 44dc 9c4a 0600 edbf e894 360b 6aae 79bf
00000580: 8368 ad68 739c c1bf 77bd 3445 8053 e13f
00000590: 4985 b185 2007 dabf 07b7 b585 e7a5 ca3f
000005a0: 5019 ff3e e3c2 db3f 211e 8997 a773 d43f
000005b0: 6dca 15de e522 f9bf c70e 2a71 1d63 e7bf
000005c0: 8dbe dded d522 8d3f 33dc 80cf 0f23 d2bf
000005d0: 083c 3080 f0a1 c83f 0892 770e 65a8 e2bf
000005e0: 70eb 6e9e ea90 d73f 1723 5c12 b1d2 a6bf
000005f0: 1bf5 108d ee20 c2bf de2d 7f74 a03d a1bf
00000600: 336a be4a 3e76 c9bf 21e8 6855 4b3a d2bf
00000610: e63d ce34 61fb dfbf 0134 4a97 fe25 d23f
00000620: 9e08 e23c 9cc0 d9bf 5837 de1d 192b e83f
00000630: 67b4 5549 641f e53f 446e 861b f0f9 bd3f
00000640: 4b57 b08d 78b2 c3bf 8382 f7fa ffdd 87bf
00000650: 1479 9274 cde4 d8bf 9baa 7b64 73d5 c63f
00000660: d1cd fe40 b96d bb3f 7ff7 8e1a 1362 b83f
00000670: c191 bc4a a911 5b3f aad7 2d02 637d c3bf
00000680: 4b1d e4f5 60d2 e2bf 15f5 937b cbe6 b53f
00000690: 1a51 da1b 7c61 c03f fef1 5eb5 32e1 bf3f
000006a0: d589 157f 25a1 aabf b587 6297 4d25 b23f
000006b0: 8107 0610 3e94 db3f 4223 d8b8 fe5d dcbf
000006c0: 581f 0f7d 772b d1bf e125 38f5 81e4 e03f
000006d0: 6b9e 23f2 5d4a de3f add4 5867 21a6 adbf
000006e0: 05bf 0d31 5ef3 d83f 9cf8 6a47 718e c23f
000006f0: 31d0 b52f a097 e8bf cf87 6709 3202 d4bf
00000700: 40db 6ad6 19df d73f b8dc aa35 de67 863f
00000710: 5f43 705c c64d d2bf f99f fcdd 3b6a ce3f
00000720: e5f0 4927 124c c73f 137d 3eca 880b c23f
00000730: 1dcf c2f9 2f6b a5bf 23f5 9eca 694f cb3f
00000740: 5c56 6133 c005 e3bf c2ae dcc1 3ef0 abbf
00000750: c34a 0515 55bf d5bf 33a4 8ae2 55d6 e0bf
00000760: 1cf8 0780 e0e0 b73f 7019 81c2 ead9 8dbf
00000770: 10eb 8d5a 61fa ecbf d421 dc09 9ba6 a03f
00000780: bd4d 243d b1f3 a73f 6dbe 5b6a ce0b 913f
00000790: 2106 baf6 05f4 c4bf 5111 a793 6c75 cf3f
000007a0: ecbf ce4d 9b71 dcbf 3194 13ed 2aa4 d63f
000007b0: 04c7 65dc d440 d5bf 4678 7b10 02f2 d7bf
000007c0: 6798 da52 07f9 e13f a169 8995 d1c8 c33f
000007d0: aaf4 13ce 6e2d c9bf b673 5078 bfc0 a6bf
000007e0: 8a75 aa7c cf48 a03f bb29 e5b5 123a e4bf
000007f0: 8236 397c d289 ca3f fcc6 d79e 5912 d6bf
-0.0084855 -0.00689495 -0.0289127 -0.0400104 0.00450001 -0.0130004 -0.0486773 -0.00582224
-0.0365821 -0.0476965 0.0355245 0.0330229 0.0234677 -0.0182669 0.00478052 -0.0528792
-0.0269914 0.00274516 -0.0385655 -0.0411132 0.00877223 0.0128477 0.0359632 -0.0210783
0.0287255 0.0472006 -0.0165534 -0.0284544 0.0142535 0.018301 -0.0345179 -0.0239505
-0.0186826 0.0428412 0.0361926 0.0135035 0.0050509 0.00695752 -0.0378716 0.0418531
0.00379718 -0.0477329 -0.0125475 -0.0453899 0.00318593 0.0208837 -0.0161224 0.0466972
-0.0183385 -0.0110932 0.000782626 0.124719 -0.0173833 -0.330538 1.2008 0.328613
0.398987 0.301739 0.0632005 0.465415 -0.369322 -0.154747 0.100079 -0.207568
0.457876 -0.267358 -0.793833 -0.312853 -0.0558148 -0.0248734 0.296563 -0.358798
0.116253 -0.184379 -0.751206 -0.0210775 0.686936 -0.45113 -0.614061 -0.253921
0.0897686 0.294093 0.0908949 0.547873 0.401721 0.311922 -0.125605 0.0833823
0.332487 0.0127946 0.470147 -0.00854302 0.157206 0.0195217 0.278706 0.272235
-0.757481 -0.135534 -0.204149 -0.55354 0.0181726 -0.272036 -0.13508 -0.568953
0.114854 0.395281 0.0250166 0.601181 0.285297 0.00267882 0.269426 -0.398065
-0.355312 -0.450152 -0.0680369 -0.471913 0.265162 -0.623476 -0.269554 0.0423367
-0.173781 -0.454719 -0.318228 -0.0556727 -0.617098 0.027358 -0.159917 0.117397
0.283167 -0.16136 -0.162413 0.104998 -0.0877771 -0.250259 0.336691 0.169353
0.0187778 -0.204732 -0.0678821 0.0134315 -0.0260918 -0.0210636 -0.343802 -0.730701
0.0870422 0.0802359 -0.120012 -0.926477 0.0629234 -0.187705 0.490073 0.748505
-0.265565 0.395655 -0.60647 -0.114378 0.0361491 -0.894791 0.375345 0.0458303
0.116237 0.356754 -0.32723 -0.288022 -0.280188 0.313979 -0.0334137 0.674809
-0.228072 -0.124147 -0.155536 0.0593647 -0.245501 -0.248398 -0.906253 -0.00626985
-0.137587 0.541443 -0.406685 0.208188 0.43377 0.319559 -1.57102 -0.730849
0.0142266 -0.28339 0.192442 -0.583056 0.36822 -0.0445762 -0.14163 -0.0336733
-0.198921 -0.284808 -0.499718 0.283569 -0.402381 0.755261 0.660082 0.117095
-0.153884 -0.0116539 -0.388965 0.178389 0.107143 0.0952465 0.00165216 -0.152264
-0.588181 0.0855529 0.127975 0.12453 -0.0520107 0.0708817 0.430923 -0.443237
-0.268278 0.527894 0.473289 -0.0579081 0.389854 0.144972 -0.768509 -0.312634
0.372992 0.0109403 -0.285997 0.237617 0.182009 0.140977 -0.0418334 0.213361
-0.594452 -0.0545673 -0.339803 -0.526164 0.0932751 -0.0145758 -0.905564 0.0325211
0.0467811 0.0166466 -0.163697 0.245771 -0.444434 0.35377 -0.332082 -0.374146
0.561649 0.154566 -0.196699 -0.0444393 0.0318055 -0.632089 0.207331 -0.34487

FC3_bias f8 [50]
00000000: 44a3 3b88 9d29 d4bf e25c c30c 8d27 d5bf
00000010: bf0b 5bb3 9597 c4bf bf0b 5bb3 9517 ebbf
00000020: 4cff 9254 a698 d3bf 2a1f 82aa d1ab c53f
00000030: c0ec 9e3c 2cd4 d63f a279 a5d1 89a9 893f
00000040: 97c6 2fbc 92e4 c1bf 367d d179 e816 ad3f
00000050: c7d8 092f c1a9 97bf 743c 0be7 bfac a13f
00000060: e4db bb06 7de9 d5bf 86e5 cfb7 054b bdbf
00000070: 3735 d07c cedd c8bf e7f1 c528 194a b73f
00000080: a06f 0b96 ea02 d4bf c51f 459d b987 c03f
00000090: 7f97 63c3 e457 b3bf e866 7fa0 dcb6 d3bf
000000a0: ecf8 2f10 04c8 d8bf 7d01 62b7 7471 ac3f
000000b0: 2657 b1f8 4d61 d0bf c87b d5ca 845f be3f
000000c0: 7100 fdbe 7ff3 cabf b3d2 a414 747b adbf
000000d0: 3acf d897 6c3c ccbf 64e6 0297 c71a e5bf
000000e0: d595 cff2 3c38 f3bf 1bd5 e940 d653 dcbf
000000f0: fcf6 1a27 2ac0 8c3f cba1 45b6 f3fd edbf
00000100: 4e27 d9ea 724a ce3f f49a aabd 8045 7bbf
00000110: 0f7e e200 fa7d ef3f 3e8e 8b0f 58de 923f
00000120: a303 92b0 6f27 c1bf e0f3 c308 e151 e8bf
00000130: 8c6c 42b5 1c43 9b3f e00e d429 8fee ebbf
00000140: 300f 99f2 21a8 c83f f10c bf40 b566 a43f
00000150: b280 09dc ba9b d4bf a796 adf5 45c2 f3bf
00000160: 93c7 d3f2 0357 c53f a4b4 ed6a a807 8bbf
00000170: 018a 9125 732c c7bf 66d4 21dc 099b b6bf
00000180: ad18 ae0e 80b8 dcbf 7573 f1b7 3d41 aa3f
-0.31504 -0.330539 -0.160876 -0.846629 -0.306192 0.169306 0.3567 0.0125304
-0.139788 0.0568154 -0.0231085 0.0345211 -0.342376 -0.114426 -0.194269 0.0909744
-0.312678 0.129142 -0.0755599 -0.308036 -0.387208 0.0555531 -0.255939 0.118645
-0.210556 -0.0575825 -0.220594 -0.659519 -1.20123 -0.442617 0.0140384 -0.93725
0.236647 -0.00665808 0.984128 0.0184263 -0.134016 -0.759995 0.0266232 -0.872871
0.192631 0.0398461 -0.322005 -1.23493 0.166718 -0.0131982 -0.181044 -0.0883032
-0.448761 0.051279

FC3_weight f8 [50, 50]
00000000: 8464 0113 b8f5 ea3f 39b3 5da1 0f96 c1bf
00000010: 9274 cde4 9b6d ddbf 4f08 1d74 0907 e1bf
00000020: 164f 3dd2 e0b6 a23f a627 2cf1 8032 f33f
00000030: d4d8 b9c4 ecc0 a83f fa63 5a9b c676 e33f
00000040: 6397 a8de 1ad8 f13f dffa b0de a815 cabf
00000050: 7c10 5dab 98a5 88bf 1824 7d5a 45ff ec3f
00000060: c9b0 8a37 320f f33f e57f f277 ef28 efbf
00000070: c361 69e0 4735 d63f ab6a 93d4 53f5 ac3f
00000080: f19c 2d20 b41e ce3f 9605 137f 1475 c4bf
00000090: c30f cea7 8e55 dc3f b7d1 00de 0209 f13f
000000a0: 8a1f 63ee 5a42 db3f 5bb2 2ac2 4dc6 ecbf
000000b0: 40c1 c58a 1a4c 9b3f ed47 8ac8 b08a d9bf
000000c0: 93b3 661a 03a1 b7bf 0e15 e3fc 4d28 f2bf
000000d0: a0a8 6c58 5359 b8bf c093 162e ab30 eabf
000000e0: 1b9e 5e29 cb90 e43f 7e35 0708 e6e8 db3f
000000f0: c6fc dcd0 949d c2bf 3b1c 5da5 bbeb d33f
00000100: 910f 7a36 abbe f33f a408 5f4e bffa 8e3f
00000110: be85 75e3 dd11 edbf 6328 27da 5548 d83f
00000120: ce18 e604 6d72 c03f a818 e76f 4221 d13f
00000130: 46cf 2d74 2502 d0bf a8e3 3103 9571 e53f
00000140: 7730 629f 008a c73f 53cc 41d0 d1aa e13f
00000150: ccfc b49b 2a29 91bf d956 5815 866d 903f
00000160: 7fdf bf79 7162 e4bf da1d 520c 9068 d73f
00000170: 588c bad6 dea7 cc3f 9be8 f351 465c d4bf
00000180: 338b 506c 054d cdbf 6001 4c19 38a0 c9bf
00000190: 64af 777f bc57 db3f 87a5 811f d5b0 e5bf
000001a0: 8464 0113 b875 cfbf f20a 444f caa4 db3f
000001b0: 69c3 6169 e047 e0bf 1b64 9291 b330 e13f
000001c0: 910a 630b 410e f0bf e7a8 a3e3 6a64 9f3f
000001d0: 1ea8 531e dd08 cbbf e236 bf06 e9ce a8bf
000001e0: 2fa3 586e 6935 d8bf f6f0 65a2 08a9 cb3f
000001f0: 1345 48dd cebe cebf d5ea abab 02b5 d73f
00000200: f6ef facc 599f d23f fca8 86fd 9e58 c73f
00000210: 01b2 c68f e7e9 b8bf ce8e 54df f945 c73f
00000220: 1cce fc6a 0e10 c4bf 55dd 239b ab66 e7bf
00000230: 3ece 3461 fbc9 c63f b45b cb64 389e bf3f
00000240: 6902 452c 6258 e1bf e4f6 cb27 2b86 bfbf
00000250: f2b2 2616 f88a d3bf 3d63 5fb2 f160 bb3f
00000260: 99e4 9189 a592 b7bf 0952 2976 340e 853f
00000270: 7bf9 9d26 33de ca3f fb78 e8bb 5bd9 e63f
00000280: dab0 016c 9b3d b7bf 1668 7748 3140 cebf
00000290: ab1f 402b d5aa 9a3f 5d35 cf11 f92e a1bf
000002a0: fbaa e0e0 a0f7 753f ffcd 8b13 5fed debf
000002b0: 86aa 984a 3fe1 d93f 78b3 06ef ab72 d73f
000002c0: 5f7b 6649 809a cabf ecba 5c69 beef b0bf
000002d0: 15e6 3dce 3461 bb3f 34da aa24 b28f e7bf
000002e0: 562b 137e a99f cf3f 7555 a016 8387 d33f
000002f0: 62f2 abde 86bd adbf 234c 512e 8d5f c03f
00000300: 395f ecbd f8a2 cfbf 47ac c5a7 0018 dfbf
00000310: 2e5a db6f 48fe a3bf f0df bc38 f1d5 da3f
00000320: 6e34 80b7 4082 f03f b9b5 3b5a 8b05 a03f
00000330: 30bb 270f 0b35 eebf f111 3125 92e8 01c0
00000340: b0e3 bf40 1020 cb3f 47ac c5a7 0098 f03f
00000350: 39f0 6ab9 3313 cc3f 5bcf 108e 5976 e13f
00000360: 8715 6ef9 484a ba3f 4700 378b 170b e9bf
00000370: 899a e8f3 5146 dc3f 6074 7973 b856 da3f
00000380: 72a7 74b0 fecf d23f e59a 0299 9d45 edbf
00000390: 499a e4ec 4218 a03f dcb7 5a27 2ec7 d23f
000003a0: 71a9 4a5b 5ce3 d4bf d2a9 2b9f e579 f9bf
000003b0: e1ec d632 190e e9bf 1ac3 9ca0 4d8e e33f
000003c0: 9031 772d 211f d43f 5857 056a 3178 d5bf
000003d0: 8dd1 3aaa 9a20 f03f 3bfd a02e 5228 e3bf
000003e0: 87df 4db7 ec90 e83f 944e 2498 6a66 d1bf
000003f0: 8eb5 1a6d b0cb 93bf bddf 68c7 0dbf c1bf
00000400: 412b 3064 75ab e33f 4c37 8941 6065 e5bf
00000410: 8b35 5ce4 9eae ba3f 2e58 aa0b 7899 d23f
00000420: 5ddc 4603 780b e63f c40c e8e0 f489 97bf
00000430: b1e1 444f 255e a53f 65f0 8335 c635 6bbf
00000440: 9813 5910 6f42 b4bf 75c8 cd70 03be e9bf
00000450: 3c87 3254 c5d4 ee3f 93f4 7a41 5596 b2bf
00000460: 9428 2092 c60d acbf 179f 0260 3c83 f0bf
00000470: 9e5e 29cb 10c7 ca3f 18cd caf6 216f d0bf
00000480: 7977 64ac 367f e3bf 1d73 9eb1 2fd9 d9bf
00000490: 1b47 acc5 a700 d23f 2041 f163 cc5d f23f
000004a0: e4d7 0fb1 c1c2 d73f e00e d429 8f6e ccbf
000004b0: 863b 1746 7ad1 e03f 607d f266 c350 9d3f
000004c0: 2c61 6d8c 9df0 e03f 8c0f b397 6d27 eabf
000004d0: e6eb 32fc a71b c03f ec86 6d8b 321b c23f
000004e0: e84e b0ff 3a37 dbbf 4f3b fc35 5923 e83f
000004f0: fbed 467a ac74 b43f a5f7 8daf 3d33 e03f
00000500: ea76 f695 07e9 cdbf a304 fd85 1e31 dd3f
00000510: 39c5 f4ce b238 b33f edd3 f198 81ca cc3f
00000520: 1783 8769 dfdc c1bf 3868 af3e 1efa cabf
00000530: ed7d 4f51 9a72 ae3f daae d007 cbd8 d13f
00000540: 3249 97c4 7a1f 6e3f 48dc 63e9 4317 f3bf
00000550: ea92 718c 640f ebbf f107 a815 4b36 b1bf
00000560: 5303 cde7 dced babf 232e 008d d2a5 d63f
00000570: d42b 6519 e2d8 e33f 247e c51a 2e72 cdbf
00000580: 179f 0260 3c03 f73f e5d0 22db f97e ddbf
00000590: b7d4 415e 0f26 d83f 86a8 67e6 6e7c b03f
000005a0: d36b b3b1 12f3 d93f 21e6 92aa eda6 e43f
000005b0: 0894 4db9 c2bb cebf b603 bf57 be78 a43f
000005c0: 2159 c004 6e5d eebf 0fb5 6d18 05c1 d73f
000005d0: bf9d 4484 7f11 cebf 3e3c 4b90 1150 d43f
000005e0: 567d aeb6 627f d1bf 8a86 d6d4 c3e1 a6bf
000005f0: 1791 7241 c758 97bf 035b 2558 1cce e23f
00000600: d922 6937 fa98 bf3f 280b 5f5f eb52 e33f
00000610: 8319 53b0 c6d9 e03f 512d 228a c99b e33f
00000620: d76a 0f7b a180 ea3f cbd5 8f4d f223 e5bf
00000630: e5b3 3c0f eece c23f 18ec 866d 8b32 d43f
00000640: 6b89 4b44 ae8a b83f 6b49 4739 984d bc3f
00000650: 17b8 3cd6 8c0c aebf e606 431d 56b8 b9bf
00000660: c61d caab cec5 923f 3c86 c77e 164b c13f
00000670: 5b43 a9bd 88b6 bb3f 618b dd3e abcc c6bf
00000680: 7fa3 1d37 fc6e e6bf 3622 1807 978e d1bf
00000690: 523d e30c 0fab a53f 4279 1f47 7364 cbbf
000006a0: e431 0395 f1ef dcbf 5b42 3ee8 d9ac babf
000006b0: e2e9 95b2 0c71 e8bf 228b 34f1 0ef0 bc3f
000006c0: 0a2d ebfe b110 dfbf e17e c003 0308 ab3f
000006d0: 3c4c fbe6 feea c3bf 512e 8d5f 7825 dfbf
000006e0: a0a6 96ad f545 c4bf 857b 65de aaeb d8bf
000006f0: 0a2e 56d4 601a 763f b1e0 7ec0 0303 c6bf
00000700: 172d 40db 6ad6 d2bf d679 afb5 5263 6d3f
00000710: 3b73 0f09 dffb cb3f 2356 35f7 4663 b1bf
00000720: bac0 e5b1 6664 cebf 9416 2eab b019 dabf
00000730: 0bc6 d2d1 bbc2 943f ba65 87f8 872d dbbf
00000740: 81cf 0f23 8447 c1bf bc30 88fe bfa0 8bbf
00000750: 0054 71e3 16f3 e63f 7cb9 4f8e 0244 c7bf
00000760: 10cf 1264 0454 bc3f 4efa 319c 210b af3f
00000770: 3b54 5392 7538 bebf ed99 2501 6a6a bd3f
00000780: c0a0 3b77 71d1 b33f 334e 4354 e1cf d43f
00000790: 5fd0 4202 4697 d1bf 4ad4 0b3e cdc9 e0bf
000007a0: 278a eb73 10cf b73f e59d 4319 aa62 c63f
000007b0: 4bcb 48bd a772 d03f da58 8979 56d2 d33f
000007c0: 7654 3541 d47d dcbf 3a95 0c00 55dc c43f
000007d0: 50ca ff3f a951 b13f 11c7 bab8 8d06 c03f
000007e0: 0ad7 a370 3d0a c73f de21 c500 8926 d33f
000007f0: 7ee3 6bcf 2c89 f0bf 74ef e192 e34e cbbf
0.842495 -0.137392 -0.459815 -0.532109 0.0365515 1.19983 0.0483469 0.608249
1.11526 -0.203786 -0.0120346 0.906161 1.19121 -0.973747 0.347002 0.0565592
0.235312 -0.159823 0.442722 1.0647 0.425925 -0.899207 0.0266575 -0.39909
-0.0923006 -1.13484 -0.095113 -0.818441 0.642675 0.43609 -0.145434 0.311263
1.23405 0.0151267 -0.908431 0.379415 0.128492 0.267655 -0.250131 0.670115
0.183899 0.552102 -0.0167586 0.0160428 -0.637017 0.365757 0.223873 -0.318132
-0.228913 -0.200202 0.42723 -0.677836 -0.24578 0.431933 -0.508774 0.537195
-1.00348 0.0306565 -0.211208 -0.0484536 -0.37826 0.216096 -0.240198 0.370423
0.290976 0.182392 -0.0973191 0.181823 -0.15674 -0.731283 0.178039 0.123508
-0.542039 -0.123141 -0.305357 0.106948 -0.0920814 0.010281 0.209906 0.714033
-0.0907838 -0.236334 0.0260423 -0.0335615 0.00536311 -0.483238 0.404373 0.366374
-0.20784 -0.0661582 0.106952 -0.736291 0.24706 0.305146 -0.0580866 0.127916
-0.247161 -0.48584 -0.0390494 0.419308 1.0318 0.0312923 -0.943975 -2.23856
0.211916 1.03711 0.219336 0.545697 0.102696 -0.782604 0.441792 0.411543
0.293945 -0.914748 0.0314351 0.293407 -0.326377 -1.59226 -0.782971 0.611121
0.3144 -0.335461 1.00796 -0.598672 0.767691 -0.271876 -0.0193317 -0.138643
0.61468 -0.668625 0.104227 0.290617 0.6889 -0.0229872 0.0417339 -0.00332154
-0.0791387 -0.804445 0.963473 -0.0726064 -0.0547926 -1.03204 0.2092 -0.256783
-0.609279 -0.403881 0.28129 1.1479 0.371262 -0.222124 0.525571 0.0286284
0.529372 -0.817313 0.125844 0.141455 -0.425246 0.754315 0.0799053 0.506255
-0.233674 0.456123 0.0750839 0.22493 -0.139553 -0.210758 0.0594681 0.278857
0.00367712 -1.19318 -0.845629 -0.0672347 -0.105192 0.353871 0.620225 -0.230047
1.43829 -0.460875 0.377323 0.0643987 0.405461 0.645377 -0.240105 0.0399837
-0.948905 0.371156 -0.234909 0.317387 -0.2734 -0.0446912 -0.0227996 0.58766
0.123428 0.603872 0.526584 0.612767 0.828202 -0.660638 0.14694 0.315585
0.0958661 0.110559 -0.0586895 -0.100469 0.0183327 0.135104 0.108254 -0.178121
-0.701048 -0.274328 0.0423207 -0.214003 -0.452145 -0.1042 -0.7638 0.113038
-0.485394 0.0527955 -0.155609 -0.486662 -0.158385 -0.389384 0.00539625 -0.171967
-0.294337 0.0035874 0.218624 -0.0679211 -0.237439 -0.407818 0.0202741 -0.424654
-0.134995 -0.0134902 0.717174 -0.181763 0.110657 0.0606318 -0.118049 0.114905
0.0774146 0.325188 -0.274858 -0.524634 0.0930033 0.174886 0.256998 0.309713
-0.44518 0.162974 0.0676523 0.1252 0.18 0.299227 -1.03349 -0.213345

FC4_bias f8 [50]
00000000: ec4c a1f3 1abb d73f cec5 dff6 0489 c3bf
00000010: 3be5 d18d b0a8 a83f 6984 c833 7914 903f
00000020: e2ca d93b a3ad e0bf a1db 4b1a a375 ef3f
00000030: 1d01 dc2c 5e2c d3bf be50 c076 3062 bfbf
00000040: fc2a 0a05 b694 9dbf a96a 82a8 fb00 d23f
00000050: 2f89 b322 6aa2 cf3f 7f83 f6ea e3a1 d23f
00000060: d540 f339 77bb be3f 9e98 f562 2827 d0bf
00000070: df8b 2fda e385 94bf 6bc4 82b1 74f4 b03f
00000080: 3e41 62bb 7b80 c63f 3dd1 75e1 07e7 bfbf
00000090: b404 1901 158e c63f f855 b950 f9d7 dcbf
000000a0: c88c 0123 79f8 a8bf acac 6d8a c745 c13f
000000b0: 8508 3884 2ab5 f8bf 4399 fc05 71d4 a0bf
000000c0: a2ec 2de5 7cb1 c33f ffea 71df 6a9d ebbf
000000d0: 2aca a5f1 0b2f e0bf fb24 77d8 4466 e0bf
000000e0: 317e 1af7 e637 d1bf 0735 8d37 43bb b23f
000000f0: 7286 e28e 37f9 b93f 8dd4 7b2a a73d c53f
00000100: cb85 cabf 9657 e4bf 7120 240b 98c0 cbbf
00000110: 22c5 0089 2650 c43f 19e7 6f42 2182 ffbf
00000120: 382c 0dfc a886 e8bf 0f46 ec13 4031 d33f
00000130: 57d0 b4c4 ca68 e3bf 76a7 3b4f 3c67 bb3f
00000140: 1586 6d30 79a8 92bf 5d1a bff0 4a92 c13f
00000150: 6ba1 bf2b ddb8 b6bf 8b71 fe26 1422 c03f
00000160: 8746 c19d 55b0 b33f 9e9a cb0d 863a e03f
00000170: cd5a 0a48 fb1f d03f 4374 081c 0934 c4bf
00000180: 6cec 12d5 5b03 00c0 1e48 8380 2150 a23f
0.370795 -0.152619 0.048162 0.0157031 -0.521196 0.98311 -0.299583 -0.122592
-0.0288876 0.28131 0.247144 0.291131 0.120048 -0.25239 -0.020042 0.0662301
0.175796 -0.124619 0.176211 -0.450682 -0.0487707 0.134942 -1.54423 -0.0328708
0.153854 -0.862966 -0.505743 -0.512484 -0.269037 0.0731699 0.101459 0.165944
-0.635692 -0.216815 0.158696 -1.96927 -0.766438 0.299881 -0.606542 0.107044
-0.0182208 0.137277 -0.0887583 0.12604 0.0769094 0.507144 0.251952 -0.157838
-2.00164 0.0357676
