examples/benchmarks/ACAS XU/Networks/ACAS_XU_1_3.onnx (onnx, 108361 bytes, 14 tensors)

FC0_bias f8 [50]
000000 c0 41 7b f5 f1 d0 c1 bf 5a 82 8c 80 0a 47 d4 3f
       -0.139189 0.316836
000010 f1 ed 02 ca 4b a3 96 bf 89 07 94 4d b9 c2 c3 3f
       -0.0221073 0.15438
000020 38 31 24 27 13 b7 ce 3f 8d 7b f3 1b 26 1a e3 bf
       0.239962 -0.596942
000030 92 5e d4 ee 57 01 cc bf 9b 75 c6 f7 c5 a5 e0 bf
       -0.218791 -0.520236
000040 aa 49 f0 86 34 2a d0 bf d1 05 f5 2d 73 ba d1 bf
       -0.252576 -0.277005
000050 c8 a0 6e fb 79 ae 92 3f 4c 55 77 b8 5f 36 78 3f
       0.0182437 0.00591123
000060 d2 ed db ff b6 dd 7a 3f 1e fd 2f d7 a2 05 b2 3f
       0.0065591 0.0703985
000070 34 2c 46 5d 6b ef c5 bf 67 0b 08 ad 87 2f d6 3f
       -0.171369 0.346651
000080 f9 98 59 95 8e 83 ac bf c2 34 0c 1f 11 53 dc bf
       -0.0556912 -0.44257
000090 08 57 40 a1 9e 3e d8 bf 33 fb 3c 46 79 66 e2 bf
       -0.378822 -0.575009
0000a0 c8 5e ef fe 78 af d5 bf c3 ef a6 5b 76 88 b5 3f
       -0.338835 0.0841135
0000b0 fa 0b 3d 62 f4 dc ba bf c3 7b 50 48 19 0e 77 3f
       -0.104934 0.00562868
0000c0 6b 2c 61 6d 8c 9d e1 bf ac 6f 60 72 a3 c8 c2 3f
       -0.550482 0.146748
0000d0 12 50 3c c2 c4 7a b6 3f fa 80 9b 20 45 f8 9a bf
       0.0878108 -0.0263377
0000e0 a7 1f d4 45 0a 65 c9 3f 5c 20 41 f1 63 cc d8 3f
       0.198396 0.387475
0000f0 92 d1 5c 02 4b 09 94 bf d2 74 d1 eb aa 9b 86 3f
       -0.0195667 0.0110391
000100 27 36 7a 90 f9 db 99 3f 48 15 c5 ab ac ed e0 bf
       0.0252532 -0.529013
000110 bc a4 7b e7 61 b2 a6 bf 9a a9 5a 1c df 28 b3 3f
       -0.0443297 0.0748424
000120 4c aa b6 9b e0 9b be bf 62 13 99 b9 c0 e5 c9 bf
       -0.119566 -0.202324
000130 6c 96 cb 46 e7 fc d0 bf 02 12 4d a0 88 45 c2 3f
       -0.265436 0.142747
000140 9d 2b 4a 09 c1 aa ca 3f 49 50 99 ee b7 6e 81 3f
       0.208336 0.00851196
000150 8d d5 e6 ff 55 47 d6 bf 53 76 fa 41 5d a4 d6 bf
       -0.348104 -0.353782
000160 b5 e0 45 5f 41 9a d1 bf 8e 75 71 1b 0d e0 e0 bf
       -0.27504 -0.52735
000170 21 0e c8 14 62 e4 a7 3f 66 33 87 a4 16 4a 86 3f
       0.0466643 0.0108835
000180 52 d2 c3 d0 ea e4 c4 3f 71 76 6b 99 0c c7 bb 3f
       0.163236 0.108506

FC0_weight f8 [5, 50]
000000 27 dd 96 c8 05 67 ca bf 63 0c ac e3 f8 a1 ef 3f
       -0.206269 0.988522
000010 c1 f7 48 94 07 33 87 bf 98 de fe 5c 34 64 d4 3f
       -0.0113278 0.318616
000020 96 af cb f0 9f 6e b0 bf 3f 4e 3d 77 27 44 a5 3f
       -0.064188 0.0415356
000030 1f f6 42 01 db c1 d3 bf 75 92 ad 2e a7 04 c8 3f
       -0.308707 0.187642
000040 07 27 a2 5f 5b 3f d5 bf 14 16 26 9d 92 bd b7 3f
       -0.331992 0.0927364
000050 d4 e9 e5 1c e1 59 97 3f d3 11 c0 cd e2 c5 c2 bf
       0.0228038 -0.146664
000060 a7 25 56 46 23 9f d6 bf 70 5c c6 4d 0d b4 e3 3f
       -0.353463 0.615729
000070 6f 9d 7f bb ec d7 b9 bf e6 20 e8 68 55 cb ea 3f
       -0.100951 0.837321
000080 a9 0c 88 b5 9d 5b b9 3f f7 e9 78 cc 40 65 b8 3f
       0.0990542 0.095295
000090 fc 99 30 50 08 d3 86 bf 52 9a cd e3 30 98 e1 bf
       -0.0111447 -0.549828
0000a0 5f 46 b1 dc d2 6a f3 bf 17 b8 3c d6 8c 0c c4 3f
       -1.21358 0.156633
0000b0 17 9f 02 60 3c 83 be 3f bd 8c 62 b9 a5 d5 c8 3f
       0.11919 0.19402
0000c0 3f 9c 76 e7 3f 5a ae 3f 06 b2 e8 e7 97 d2 a8 3f
       0.0592823 0.0484817
0000d0 fe 44 65 c3 9a ca c0 3f 70 fa c4 4b 81 16 94 bf
       0.131183 -0.0196171
0000e0 8c a0 31 93 a8 17 d9 3f b9 c4 91 07 22 0b ed 3f
       0.392069 0.907609
0000f0 ae 94 af 15 7e ba 93 bf 4f cb 0f 5c e5 09 d8 bf
       -0.0192661 -0.375604
000100 47 03 78 0b 24 28 c0 bf 73 ec 45 59 64 e0 b5 3f
       -0.126225 0.0854552
000110 fe 0e 45 81 3e 91 bf 3f 9f 21 1c b3 ec 49 c2 3f
       0.12331 0.142881
000120 28 65 52 43 1b 00 ea bf 31 d2 8b da fd 2a bc 3f
       -0.812513 0.110031
000130 d7 6b 7a 50 50 8a be bf 7d f7 7d ee ba 6d a5 3f
       -0.119298 0.0418528
000140 ca fb 38 9a 23 ab ec 3f ee 35 4e 54 80 39 b4 3f
       0.895891 0.0790024
000150 65 e2 56 41 0c 74 c1 bf e9 43 17 d4 b7 4c f4 bf
       -0.136354 -1.26873
000160 4a 79 ad 84 ee 92 d5 3f 39 5f ec bd f8 a2 c3 3f
       0.337093 0.153411
000170 9f 3a 56 29 3d d3 bf bf 09 87 de e2 e1 3d e2 3f
       -0.124317 0.570054
000180 a0 e2 38 f0 6a b9 c5 3f 47 3a 03 23 2f 6b b8 bf
       0.169721 -0.0953855
000190 91 e8 0a 5b 58 dc a8 bf 6c 0f 94 3e 21 f9 52 3f
       -0.0485561 0.00115803
0001a0 ca 5b 64 f1 51 35 70 bf ce 6f 98 68 90 82 dc 3f
       -0.0039571 0.445469
0001b0 0d a7 8a b1 65 5c 75 3f 73 2a 19 00 aa b8 b9 bf
       0.00521507 -0.100474
0001c0 c2 17 26 53 05 a3 f0 bf 3a e5 76 d4 3d 57 a4 3f
       -1.0398 0.0397281
0001d0 9a b6 7f 65 a5 49 f0 3f 5f d2 18 ad a3 aa f3 bf
       1.01798 -1.22916
0001e0 3c 32 56 9b ff 57 ea 3f 60 04 8d 99 44 bd ed bf
       0.823242 -0.929354
0001f0 3e ae 0d 15 e3 fc bd 3f a9 dd af 02 7c b7 dd 3f
       0.11714 0.464324
000200 b4 e4 f1 b4 fc c0 e7 bf 53 3f 6f 2a 52 61 fb bf
       -0.742308 -1.71126
000210 b6 4c 86 e3 f9 8c e2 bf de 93 87 85 5a d3 f6 bf
       -0.579709 -1.4266
000220 f9 a6 44 6d 76 ff 9b 3f 2e b9 40 38 55 ad 8b 3f
       0.0273417 0.0135142
000230 37 dd b2 43 fc c3 56 bf 31 95 7e c2 d9 ad d0 bf
       -0.0013895 -0.260611
000240 a6 48 be 12 48 89 ec 3f 1d 77 4a 07 eb 7f f1 bf
       0.891758 -1.09373
000250 95 82 6e 2f 69 0c f7 bf 50 c2 4c db bf 32 ea bf
       -1.44053 -0.818695
000260 f0 be 2a 17 2a 7f e3 bf 4a 87 3d a3 63 bd 87 bf
       -0.609273 -0.0115917
000270 7e 9e 50 99 ac 9b a8 bf 13 54 43 d1 f2 f2 aa 3f
       -0.0480627 0.0526348
000280 13 13 2f aa a0 fd 93 bf 94 36 b0 b0 3b 38 a3 3f
       -0.0195222 0.0375384
000290 48 64 c4 aa e6 de 98 3f c4 94 48 a2 97 51 f6 3f
       0.0242878 1.39492
0002a0 07 99 64 e4 2c 6c f9 bf c0 a6 18 31 fd 5c b6 3f
       -1.58891 0.0873564
0002b0 14 26 8c 66 65 fb db bf 94 4d fb de 8d a2 82 bf
       -0.437219 -0.00909911
0002c0 48 1b 47 ac c5 27 f8 3f 77 71 d1 7f c5 d0 a8 3f
       1.50971 0.0484678
0002d0 0c e7 1a 66 68 3c ed 3f 78 67 48 70 7e 1e ae bf
       0.913624 -0.0588264
0002e0 70 25 3b 36 02 f1 f4 3f e6 61 fc 8f a7 40 71 bf
       1.30884 -0.00421205
0002f0 ab 21 71 8f a5 8f f3 3f 95 0e d6 ff 39 cc f2 3f
       1.22257 1.17486
000300 5c 02 f0 4f a9 12 b3 bf ab 05 f6 98 48 69 cc 3f
       -0.0745035 0.221963
000310 dd 65 1a a8 e7 38 92 3f 6c 70 6c 87 d0 52 9b bf
       0.0177952 -0.0266831
000320 b4 23 30 31 f1 a2 8a bf 00 ba 32 1f 45 da fc be
       -0.0130061 -2.7516e-05
000330 03 59 f4 f3 4b 69 92 3f 01 85 7a fa 08 fc d7 3f
       0.0179798 0.374758
000340 61 9b 4d 7a f1 db 46 bf 23 2f 6b 62 81 af c6 bf
       -0.000697606 -0.177231
000350 ff 95 95 26 a5 20 f3 3f 69 74 62 6a a6 d6 a6 3f
       1.19547 0.0446064
000360 5d 33 f9 66 9b 9b f0 bf 2e e2 3b 31 eb c5 f1 3f
       -1.03799 1.11082
000370 f3 38 0c e6 af 10 e2 3f 9e 29 74 5e 63 97 ea bf
       0.564537 -0.83098
000380 b4 c8 76 be 9f 9a f7 3f 68 10 d5 4a d7 02 b5 3f
       1.47525 0.0820746
000390 90 a3 39 b2 f2 cb ec bf fb e8 d4 95 cf f2 c0 bf
       -0.899896 -0.13241
0003a0 cb 82 89 3f 8a 3a e1 3f ed bb 22 f8 df 4a fa 3f
       0.538396 1.64328
0003b0 74 09 87 de e2 e1 ad 3f 76 3c c1 59 a5 4f 86 3f
       0.058364 0.0108941
0003c0 07 5c 78 da f1 91 4a bf 86 75 e3 dd 91 b1 d6 3f
       -0.000810855 0.354588
0003d0 5a 2a 6f 47 38 ad f0 3f 1d e7 36 e1 5e 99 d3 bf
       1.04229 -0.306236
0003e0 55 fb 74 3c 66 20 f7 3f df a2 38 ec 63 aa a9 bf
       1.44541 -0.0501281
0003f0 41 f1 63 cc 5d cb ed bf 1e d4 b5 5e 22 ca 46 bf
       -0.931075 -0.000695483
000400 48 ed 8f 41 38 b0 96 bf 65 b9 b6 01 e9 ac a0 bf
       -0.0221566 -0.0325692
000410 02 a0 fc 70 9f 3b 32 bf 39 7d 3d 5f b3 5c 9e 3f
       -0.000278212 0.0296505
000420 98 35 b1 c0 57 74 c3 3f 2e e2 3b 31 eb 45 f8 bf
       0.151988 -1.51707
000430 01 19 3a 76 50 09 e6 3f 76 55 fb cf f5 d8 a1 bf
       0.688637 -0.0348584
000440 45 53 2c 6d 27 00 a5 bf bc 79 15 96 52 30 17 bf
       -0.0410168 -8.84581e-05
000450 e6 3f a4 df be 8e fa bf 82 ff ad 64 c7 46 f6 3f
       -1.65985 1.39228
000460 e2 bc ee 63 bb 31 af 3f 0e ff 02 a4 aa c7 75 3f
       0.0609263 0.00531737
000470 69 74 07 b1 33 85 f3 3f 63 40 38 97 c9 0d 52 3f
       1.22002 0.00110192
000480 12 c2 a3 8d 23 56 f4 bf 98 4c 15 8c 4a 6a f4 bf
       -1.27103 -1.27595
000490 e8 a4 f7 8d af 3d f1 bf 46 d0 98 49 d4 8b e0 3f
       -1.07756 0.517069
0004a0 d6 37 51 c7 3a 87 68 3f 6e 76 5a 6d b4 d2 8a bf
       0.00299417 -0.0130972
0004b0 11 57 ce de 19 6d d7 bf 00 07 73 0f 97 89 33 bf
       -0.366034 -0.000298118
0004c0 9a 57 1a 9d 98 9a 89 3f 49 49 0f 43 ab 93 bb bf
       0.0125019 -0.107722
0004d0 27 f5 65 69 a7 e6 da bf 4f 23 2d 95 b7 a3 f6 bf
       -0.420328 -1.41497
0004e0 eb 6e 9e ea 90 9b bd 3f 1f f5 d7 2b 2c b8 c7 bf
       0.115655 -0.185308
0004f0 9f 3c 2c d4 9a e6 cd 3f 9d 10 3a e8 12 0e cd 3f
       0.2336 0.226992
000500 6c 95 60 71 38 f3 e0 3f b6 69 6c af 05 3d e1 3f
       0.52969 0.538699
000510 55 bf d2 f9 f0 2c cd 3f d2 24 67 17 c2 20 b7 bf
       0.227934 -0.0903436
000520 b7 ed 7b d4 5f af dd 3f d6 f1 a9 ad 22 ed b0 3f
       0.463829 0.0661184
000530 b6 30 0b ed 9c 66 c5 3f ee ea 55 64 74 40 c0 3f
       0.167194 0.126967
000540 e3 8d cc 23 7f b0 e0 3f 41 d8 29 56 0d c2 e1 bf
       0.521545 -0.554938
000550 b3 1b f2 d9 7e 55 45 bf 8c 7a d2 d3 91 6d ae 3f
       -0.000651061 0.0594297
000560 5c ae 7e 6c 92 1f dd 3f 8d 98 d9 e7 31 ca d6 3f
       0.455052 0.356091
000570 1a 0b 54 10 4d ea 65 3f 64 13 aa e5 18 da a6 bf
       0.0026752 -0.0446327
000580 02 12 a8 59 fb 96 a4 bf 04 49 e9 e3 eb 7c 99 3f
       -0.0402144 0.0248906
000590 b1 dd 3d 40 f7 e5 e1 3f d7 51 30 be c3 48 9a 3f
       0.559322 0.0256682
0005a0 b8 d2 84 50 52 1e 75 3f 6c 42 5a 63 d0 09 c9 3f
       0.00515587 0.195612
0005b0 46 3d e9 e9 c8 36 b5 3f e5 75 69 68 a8 f6 96 3f
       0.0828672 0.0224253
0005c0 8f 70 5a f0 a2 af 98 3f 5c 8e 57 20 7a 52 be 3f
       0.0241075 0.118446
0005d0 2d 95 b7 23 9c 16 c0 3f 9a 99 78 8b b0 76 7e 3f
       0.12569 0.00743741
0005e0 f9 a0 67 b3 ea 73 cb 3f 55 fa 09 67 b7 96 c9 bf
       0.214475 -0.199912
0005f0 e9 a9 1f e5 71 62 a9 3f 20 42 5c 39 7b e7 eb bf
       0.0495792 -0.872007
000600 57 5e f2 3f f9 bb d7 3f c5 53 8f 34 b8 ad 8d 3f
       0.370848 0.0144915
000610 7a df f8 da 33 4b c0 3f 70 a4 22 04 9a be 95 bf
       0.127295 -0.0212349
000620 e2 20 21 ca 17 b4 a8 3f 48 17 9b 56 0a 81 d6 bf
       0.048249 -0.351626
000630 19 56 f1 46 e6 91 de 3f dd 5c fc 6d 4f 10 e1 bf
       0.477655 -0.533241
000640 e1 07 e7 53 c7 2a d5 bf f0 79 b4 27 37 40 5f bf
       -0.330736 -0.0019074
000650 7d 1f 50 2e 74 c2 57 3f 52 65 18 77 83 68 bd 3f
       0.00145017 0.114876
000660 bd 00 fb e8 d4 15 f0 3f ec 17 ec 86 6d 8b d0 bf
       1.00533 -0.25851
000670 ff cf 61 be bc 00 d0 3f 53 22 89 5e 46 b1 f3 bf
       0.250045 -1.23078
000680 42 e0 92 2d dc 03 b6 3f fd 4c bd 6e 11 18 c7 bf
       0.0859964 -0.180422
000690 a4 de 53 39 ed 29 d0 bf ae 40 99 eb d9 18 a4 bf
       -0.252559 -0.0392521
0006a0 93 d8 ff 4a f8 ef b7 bf 1c 99 47 fe 60 e0 cd 3f
       -0.0935054 0.23341
0006b0 4e 8b 0b 51 cf cc a5 bf 7a e7 ab 3f 1d ea 62 bf
       -0.0425782 -0.0023089
0006c0 ca fe 79 1a 30 48 e3 bf 98 50 c1 e1 05 11 c1 3f
       -0.602562 0.133332
0006d0 6c 95 60 71 38 f3 fb bf 61 c1 fd 80 07 06 e5 bf
       -1.74688 -0.656986
0006e0 50 46 09 b8 ef 6a 1c bf e7 51 f1 7f 47 54 da 3f
       -0.000108405 0.411394
0006f0 e2 8f 47 15 6a f2 b5 3f d8 ab d9 14 d9 18 b9 bf
       0.0857302 -0.0980354
000700 f6 28 5c 8f c2 f5 d0 3f 5f 7a fb 73 d1 90 ad 3f
       0.265 0.0577455
000710 3b 90 50 8e 5d fd a7 3f c6 f1 4b 16 5a 4a 54 3f
       0.0468549 0.00123843
000720 86 e6 3a 8d b4 54 ea bf 20 0a 66 4c c1 1a bb bf
       -0.82284 -0.105877
000730 82 61 8e 58 6a 41 58 3f 47 aa ef fc a2 04 c7 bf
       0.00148044 -0.179829
000740 b8 21 c6 6b 5e d5 cd 3f bc 04 a7 3e 90 bc d2 3f
       0.233074 0.292759
000750 60 76 4f 1e 16 6a da bf dd 94 f2 5a 09 dd a9 3f
       -0.412725 0.0505145
000760 45 fa 48 a5 33 8b a7 3f 01 f8 a7 54 89 b2 ea 3f
       0.0459839 0.834294
000770 2b 50 8b c1 c3 b4 dd bf a7 25 56 46 23 9f e0 3f
       -0.464158 0.519426
000780 fd a0 2e 52 28 0b c5 bf 49 2e ff 21 fd 76 e9 3f
       -0.164403 0.795775
000790 28 ee 78 93 df a2 bb bf 8b d9 37 9c 9e 1c 92 bf
       -0.107954 -0.0176873
0007a0 c9 55 2c 7e 53 58 c5 3f af ce 31 20 7b bd c7 3f
       0.166758 0.18547
0007b0 2b 80 ce 49 94 62 b6 3f 77 87 14 03 24 9a c8 bf
       0.0874417 -0.192204
0007c0 63 27 bc 04 a7 3e cc bf ad e1 01 e9 8b 52 6c bf
       -0.220662 -0.00345733

FC1_bias f8 [50]
000000 bf d2 f9 f0 2c 41 d6 3f e4 d9 e5 5b 1f 56 e1 3f
       0.347728 0.541763
000010 97 01 67 29 59 4e c8 3f a1 bc 8f a3 39 b2 de 3f
       0.189891 0.479628
000020 4b 72 c0 ae 26 4f de bf 61 49 5e 42 aa cd a4 3f
       -0.473581 0.0406316
000030 8a c8 b0 8a 37 b2 e9 bf 61 18 b0 e4 2a 16 cb bf
       -0.803005 -0.211614
000040 85 b5 31 76 c2 4b b2 3f 83 ee dc c5 45 ff a5 3f
       0.0714685 0.0429632
000050 84 29 ca a5 f1 0b df 3f cd 6b 57 ae d8 db 7d bf
       0.485104 -0.00728974
000060 01 8a 91 25 73 2c c1 3f cd 0f 12 58 ef 26 8e bf
       0.134169 -0.0147227
000070 5d c1 36 e2 c9 6e c6 bf e9 76 40 23 22 46 89 bf
       -0.175256 -0.0123408
000080 e7 fb a9 f1 d2 4d c2 3f 2e ca 6c 90 49 46 b4 3f
       0.143 0.0791975
000090 34 d8 d4 79 54 fc e2 bf 04 f9 7e 0f 03 02 92 bf
       -0.593302 -0.0175858
0000a0 52 44 86 55 bc 91 ec bf 3f e4 2d 57 3f 36 d2 3f
       -0.89279 0.284561
0000b0 8b a7 1e 69 70 5b d7 bf ec 88 64 44 79 51 81 bf
       -0.364956 -0.00845618
0000c0 ec 95 68 7f 56 4f b8 bf 43 75 73 f1 b7 3d c5 3f
       -0.0949606 0.165946
0000d0 08 20 b5 89 93 fb c7 3f 0b 63 0b 41 0e ca e7 3f
       0.187365 0.743415
0000e0 02 f9 df 38 93 b0 3b bf aa a2 d3 4e 28 9f b5 bf
       -0.000422512 -0.0844598
0000f0 22 6e 4e 25 03 c0 e8 bf 32 ed f6 b4 1e 19 a2 3f
       -0.773439 0.0353479
000100 f8 6f 5e 9c f8 6a df 3f ae f0 2e 17 f1 9d c2 3f
       0.490904 0.145445
000110 f4 dd ad 2c d1 59 c6 bf 04 1f 83 15 a7 5a c9 3f
       -0.174616 0.198079
000120 ad 6e f5 9c f4 3e e7 bf f4 0c 4c 34 69 cf 7c bf
       -0.726435 -0.00703374
000130 85 7c d0 b3 59 f5 dc 3f 9f 55 66 4a eb 6f d6 3f
       0.452475 0.350581
000140 0e 66 13 60 58 fe ca 3f fb af 73 d3 66 9c be 3f
       0.210887 0.119574
000150 27 6c 3f 19 e3 c3 db bf d5 bd 04 5d b1 75 9f bf
       -0.433831 -0.0307224
000160 7d ea 58 a5 f4 4c d9 bf dc a1 61 31 ea 5a de 3f
       -0.395322 0.474299
000170 c6 a8 6b ed 7d aa ba 3f 45 b7 5e d3 83 02 e2 3f
       0.104164 0.562807
000180 b8 ce bf 5d f6 6b e5 bf b8 8b d5 8b 46 e3 95 bf
       -0.669429 -0.0213748

FC1_weight f8 [50, 50]
000000 59 89 79 56 d2 8a d8 3f 95 29 e6 20 e8 68 bd bf
       0.383473 -0.114882
000010 bd 36 1b 2b 31 cf c6 bf 4d bd 6e 11 18 eb cd 3f
       -0.178198 0.233737
000020 81 08 71 e5 ec 9d d6 bf 92 1f f1 2b d6 70 e1 bf
       -0.353389 -0.545024
000030 46 23 9f 57 3c f5 d6 3f d1 89 eb b5 2c a1 63 3f
       0.358718 0.00239619
000040 2c f5 2c 08 e5 7d e0 3f 0e da ab 8f 87 be cf 3f
       0.515368 0.248002
000050 7e f5 02 fd cf ab 8b bf 80 48 bf 7d 1d 38 d3 bf
       -0.0135113 -0.3003
000060 57 08 ab b1 84 35 e0 3f 5f 9b 8d 95 98 67 85 3f
       0.506533 0.0104515
000070 b0 04 52 62 d7 f6 c8 bf ae de 3c 30 db a9 9c bf
       -0.195033 -0.0279917
000080 2a 36 8b bc 51 d0 92 3f 5a 65 a6 b4 fe 96 db bf
       0.0183728 -0.431091
000090 c6 4c 47 a5 7d 18 a2 bf ff 47 01 fd 19 39 a6 bf
       -0.0353431 -0.0434044
0000a0 ba f5 9a 1e 14 14 eb 3f 00 1c 7b f6 5c a6 86 3f
       0.846201 0.0110595
0000b0 c2 dd 59 bb ed 42 d3 3f b3 c9 86 da db d2 a3 bf
       0.30096 -0.0387181
0000c0 0a f5 f4 11 f8 c3 d9 bf 53 cc 41 d0 d1 aa d6 bf
       -0.402586 -0.354176
0000d0 28 d3 68 72 31 06 d5 bf 7f 2e 1a 32 1e 25 eb 3f
       -0.328503 0.848281
0000e0 60 1a 2b d6 15 d8 b4 bf b0 59 2e 1b 9d f3 c5 bf
       -0.0814222 -0.171497
0000f0 1f 2d ce 18 e6 04 d7 3f 1a a7 21 aa f0 67 c8 3f
       0.359674 0.190672
000100 9d b4 15 a0 12 7c b0 3f ce 1b 27 85 79 0f e1 bf
       0.0643932 -0.533139
000110 f7 90 f0 bd bf 41 cd bf 62 f8 88 98 12 49 f1 bf
       -0.228569 -1.08034
000120 48 70 23 65 8b a4 c3 3f 8c 58 7a 23 a9 3b a1 bf
       0.153459 -0.0336583
000130 61 71 38 f3 ab 39 d0 3f 88 a0 6a f4 6a 80 c4 3f
       0.25352 0.160169
000140 df e1 76 68 58 8c be 3f 90 d4 e7 0f 72 83 aa 3f
       0.119329 0.0517841
000150 6a 4f c9 39 b1 07 e5 3f 23 ee b9 65 ea 22 73 3f
       0.657189 0.00467197
000160 b9 aa ec bb 22 f8 c1 bf b1 de a8 15 a6 6f e5 3f
       -0.140385 0.669879
000170 19 31 58 16 f1 42 af bf 1a 51 da 1b 7c 61 de bf
       -0.0610576 -0.4747
000180 00 53 06 0e 68 e9 d5 3f 39 7c d2 89 04 53 b1 bf
       0.342371 -0.067673
000190 21 07 25 cc b4 7d f2 3f 11 ab 3f c2 30 60 ec 3f
       1.15569 0.886742
0001a0 f3 76 84 d3 82 17 d5 3f d2 fb c6 d7 9e d9 ee 3f
       0.32956 0.964065
0001b0 80 64 3a 74 7a 5e ea bf 17 b6 66 2b 2f f9 db 3f
       -0.824033 0.437084
0001c0 24 63 b5 f9 7f 55 e6 3f ac 14 e9 1b 24 86 75 bf
       0.697937 -0.00525488
0001d0 c6 a4 bf 97 c2 83 d5 bf 1b 2f dd 24 06 41 14 c0
       -0.336167 -5.0635
0001e0 74 95 ee ae b3 21 e0 3f 0f d1 e8 0e 62 e7 07 c0
       0.504114 -2.98798
0001f0 21 95 bd 00 56 a2 b3 3f ac 88 3f 2f 81 00 8e 3f
       0.0766958 0.0146494
000200 85 95 0a 2a aa fe e0 3f f1 ce eb 99 6f 8e a0 bf
       0.531087 -0.0323367
000210 bb d5 73 d2 fb 46 f7 3f bb 2b bb 60 70 4d e4 3f
       1.45483 0.634453
000220 9e 43 19 aa 62 2a d0 3f 24 ca 28 e0 e8 74 92 3f
       0.252587 0.0180241
000230 2d 3e 05 c0 78 06 d2 bf ea 04 34 11 36 3c d6 3f
       -0.281645 0.347425
000240 40 f6 7a f7 c7 3b 05 40 ae 63 5c 71 71 54 a2 bf
       2.65419 -0.0358005
000250 84 d8 99 42 e7 35 f6 bf 34 67 7d ca 31 59 d5 bf
       -1.38816 -0.333569
000260 cf 67 40 bd 19 35 dc 3f 37 4f 75 c8 cd 70 f1 3f
       0.440741 1.09004
000270 50 1a 6a 14 92 cc c2 3f 5b 7d 75 55 a0 16 de bf
       0.146868 -0.470131
000280 cc 7d 72 14 20 0a d3 3f 66 a0 32 fe 7d c6 e8 3f
       0.297493 0.77423
000290 74 d2 fb c6 d7 1e f9 3f 57 a6 88 a1 0f 75 83 3f
       1.57003 0.00950062
0002a0 a9 f6 e9 78 cc c0 e2 3f 05 86 ac 6e f5 9c ca bf
       0.586035 -0.207915
0002b0 d1 ce 69 16 68 77 bc bf e6 53 6c 71 32 16 a2 bf
       -0.111197 -0.0353256
0002c0 b6 d9 58 89 79 56 e7 3f f5 84 25 1e 50 b6 f0 3f
       0.729306 1.04451
0002d0 ad dd 76 a1 b9 0e 0e c0 16 de e5 22 be 13 e9 3f
       -3.75719 0.78366
0002e0 e6 ea c7 26 f9 11 e0 3f 74 7a de 8d 05 85 df 3f
       0.502194 0.492494
0002f0 8d 9a af 92 8f dd e3 3f c1 e6 1c 3c 13 1a e6 bf
       0.620796 -0.690683
000300 8c f8 4e cc 7a 51 14 40 13 f2 41 cf 66 d5 d8 bf
       5.07957 -0.388025
000310 d0 9d 60 ff 75 ee e8 3f d9 79 1b 9b 1d a9 9e bf
       0.779109 -0.029942
000320 12 e0 4f e8 50 e1 93 3f 4f 83 58 ec e5 2d 95 bf
       0.0194142 -0.0206829
000330 c8 e5 e4 ea 6c 6d 9e bf dc d2 0f 8f 69 12 71 bf
       -0.0297143 -0.00416795
000340 8a 2d f3 0c d0 6c 95 bf af 9e ee 97 aa 0f 97 bf
       -0.0209229 -0.0225207
000350 51 32 f7 98 61 06 47 bf c8 13 f7 0e 6d b6 a4 bf
       -0.000702665 -0.0404543
000360 22 b3 69 5b 83 ad 88 bf c6 1a 89 2b c2 a8 a3 3f
       -0.0120497 0.0383969
000370 ed e3 b2 1b c7 59 92 3f 9e 0c 8e 92 57 e7 88 bf
       0.0179206 -0.01216
000380 19 32 68 32 2d fb a3 bf f8 9f a1 24 c9 18 a0 bf
       -0.0390257 -0.0314391
000390 b9 82 b7 51 ae 3a 8c 3f a7 6d 0d b6 22 7b 8e 3f
       0.0137838 0.0148833
0003a0 91 d1 01 49 d8 b7 a3 3f 80 39 c4 89 f9 03 97 3f
       0.038512 0.0224761
0003b0 66 d6 f7 86 67 ae a0 bf 14 cc 89 57 08 94 25 bf
       -0.0325806 -0.000164629
0003c0 d5 4b 42 d8 df c8 a2 3f 43 bb 54 b6 59 06 a2 bf
       0.0366888 -0.0352047
0003d0 f5 35 26 1f 16 c5 a6 bf 6b 90 93 d3 e8 1f a6 bf
       -0.0444724 -0.0432122
0003e0 93 f5 e5 16 04 a0 93 bf fd c8 63 bc 9c c8 9a bf
       -0.0191651 -0.0261559
0003f0 a5 27 76 7e 9b 0f a5 bf ba 2f 67 b6 2b f4 a9 3f
       -0.0411347 0.050691
000400 57 98 19 91 83 6d 9f 3f 8b 33 86 39 41 9b 8c 3f
       0.0306912 0.013968
000410 24 ea aa e5 73 93 95 3f eb 40 31 0d 1e 01 9f bf
       0.0210703 -0.0302777
000420 72 53 03 cd e7 dc a5 bf 4b 3b b9 cf bf 97 71 3f
       -0.042701 0.00429511
000430 70 03 e3 85 19 bf a1 3f 88 5f 56 cd 18 8b 9b 3f
       0.0346611 0.0268978
000440 9c b1 1e ad 20 bc a0 bf be e3 6f d6 3b 37 a0 3f
       -0.0326853 0.0316714
000450 bd f5 ab 4a 6c 88 ab 3f 9d 49 9b aa 7b 64 a3 3f
       0.0537752 0.037876
000460 6e d8 5b 6f 40 f0 a1 bf e6 05 d8 47 a7 ae 8c bf
       -0.0350361 -0.014005
000470 ef be 74 a4 44 5c 92 3f d1 e6 38 b7 09 f7 92 3f
       0.0179301 0.0185205
000480 e8 2f f4 88 d1 73 ab bf 1d af 1f e6 bb 29 5f bf
       -0.053618 -0.00190204
000490 97 4d ca ee 13 51 8d 3f 5a 57 16 96 89 6c 99 3f
       0.0143148 0.0248281
0004a0 03 9f 38 e3 a8 9a 78 3f ef 66 15 4f a0 fc 7b 3f
       0.00600687 0.00683272
0004b0 48 6b 0c 3a 21 74 d2 3f a9 a3 e3 6a 64 57 e2 3f
       0.288338 0.573168
0004c0 07 27 a2 5f 5b 3f cb bf 7f a1 47 8c 9e db ec bf
       -0.212871 -0.901809
0004d0 94 87 85 5a d3 bc f9 bf 82 6a 07 4c 75 3b 82 3f
       -1.6086 0.00890247
0004e0 40 16 a2 43 e0 48 ce 3f 11 19 56 f1 46 e6 f8 3f
       0.236599 1.55622
0004f0 a3 03 92 b0 6f 27 e9 bf 8b 17 0b 43 e4 f4 95 3f
       -0.786064 0.021442
000500 b1 fa 23 0c 03 96 d4 3f 78 45 f0 bf 95 ec e3 bf
       0.321656 -0.62263
000510 2f 6a f7 ab 00 df cf bf 26 23 c2 1a c2 8c a0 3f
       -0.248993 0.0323239
000520 0c b2 65 f9 ba 0c d9 bf dc d0 39 e4 0b ff 96 3f
       -0.391402 0.0224573
000530 47 54 a8 6e 2e fe cc bf 6e be 11 dd b3 ae d6 3f
       -0.226507 0.354413
000540 6a 14 92 cc ea 1d d1 3f 57 6d 48 ed 8f 41 ac bf
       0.267451 -0.0551877
000550 3d 45 0e 11 37 27 e1 3f 9d 49 9b aa 7b 64 bf bf
       0.536037 -0.122627
000560 69 90 82 a7 90 2b d2 3f f5 ba 45 60 ac 6f a4 3f
       0.283909 0.0399145
000570 85 cc 95 41 b5 c1 dc bf 5a 2a 6f 47 38 2d f0 3f
       -0.449323 1.01104
000580 5d a5 bb eb 6c c8 c3 3f 33 c4 b1 2e 6e a3 f6 bf
       0.154554 -1.4149
000590 4e b9 c2 bb 5c c4 dd bf ff 77 44 85 ea 66 ee bf
       -0.46511 -0.950063
0005a0 60 1f 9d ba f2 59 ef 3f 2a fd 84 b3 5b cb d6 bf
       0.97973 -0.356162
0005b0 92 7b 15 74 d6 02 a6 bf 88 63 5d dc 46 03 e0 bf
       -0.0429904 -0.5004
0005c0 5f 09 a4 c4 ae ed 8d 3f 35 ec f7 c4 3a 55 d4 3f
       0.0146135 0.317702
0005d0 a1 2d e7 52 5c 55 f0 bf bc f5 50 91 f9 36 9b bf
       -1.02084 -0.0265769
0005e0 31 7c 44 4c 89 24 e1 bf cb 30 ee 06 d1 da e6 3f
       -0.53571 0.714211
0005f0 a2 2a a6 d2 4f 38 bb bf 9d bd 33 da aa 24 c4 3f
       -0.106328 0.157369
000600 73 66 bb 42 1f 2c bb bf fe 9b 17 27 be 5a e4 bf
       -0.106142 -0.636077
000610 51 69 c4 cc 3e 8f d3 3f 43 c5 38 7f 13 8a f2 3f
       0.305618 1.15871
000620 f6 a7 9e 16 cd 14 94 3f 6a 6c af 05 bd b7 e0 3f
       0.0196106 0.522429
000630 f0 19 89 d0 08 36 d6 3f 88 d3 ee fc 47 4b aa bf
       0.347048 -0.0513556
000640 b1 e1 e9 95 b2 0c eb bf 55 a3 57 03 94 06 e6 3f
       -0.8453 0.688303
000650 d7 f7 e1 20 21 ca c1 bf f0 8b 4b 55 da e2 dc bf
       -0.138981 -0.451346
000660 37 df 88 ee 59 57 e7 bf f5 2a d7 80 ad b7 b8 3f
       -0.729413 0.0965527
000670 f0 13 07 d0 ef fb df 3f 3c 30 80 f0 a1 44 d4 3f
       0.499752 0.316689
000680 c9 cb 9a 58 e0 2b d2 bf 24 0b 98 c0 ad 3b f4 bf
       -0.283928 -1.26457
000690 b5 fd 2b 2b 4d 4a da 3f 21 16 7b 79 4b 83 b8 3f
       0.410785 0.0957534
0006a0 43 dd ac 66 42 38 8b 3f 3c df ec 62 dc 05 71 bf
       0.0132909 -0.00415598
0006b0 30 d7 a2 05 68 5b c1 3f 41 11 e6 d1 e8 69 93 3f
       0.135602 0.0189587
0006c0 b4 1f 29 22 c3 2a d3 3f 19 37 35 d0 7c ce e6 3f
       0.299485 0.712706
0006d0 5d 8a ab ca be ab fa bf 51 35 d5 ee b2 ba a0 bf
       -1.66693 -0.0326744
0006e0 60 75 e4 48 67 60 d9 bf e4 4d 7e 8b 4e 96 d9 3f
       -0.396509 0.399799
0006f0 b8 ae 98 11 de 1e c2 bf 62 ef 6a 5e 7a a0 a2 bf
       -0.141567 -0.0363806
000700 ba 2e fc e0 7c 6a e6 3f 5e 82 53 1f 48 de d3 bf
       0.700499 -0.310442
000710 f0 88 0a d5 cd c5 e2 bf ed 0c 53 5b ea a0 ee 3f
       -0.586646 0.957143
000720 e4 10 71 73 2a 19 e6 3f 63 62 f3 71 6d a8 e6 bf
       0.690572 -0.70806
000730 77 6a 2e 37 18 ea d3 3f 6e 79 9b ed c0 ef a1 3f
       0.311163 0.0350323
000740 f9 1c 0e 01 76 24 a9 bf dd 87 72 58 d0 6a b5 3f
       -0.0491063 0.0836611
000750 b4 74 05 db 88 27 c1 bf 3d f2 07 03 cf bd d0 bf
       -0.134019 -0.261585
000760 e0 98 0a 96 8f 49 af bf f5 4c 8a ea 08 3b 98 bf
       -0.0611081 -0.0236627
000770 ab ed 26 f8 a6 e9 ea bf 73 48 6a a1 64 72 d1 3f
       -0.841022 0.272607
000780 57 22 50 fd 83 c8 e2 bf b6 d5 cd 41 a7 52 81 3f
       -0.586977 0.00845843
000790 7f 17 b6 66 2b 2f ea 3f d5 59 2d b0 c7 44 ce bf
       0.818258 -0.236474
0007a0 e7 38 b7 09 f7 ca b6 bf 26 8f a7 e5 07 2e e2 bf
       -0.0890345 -0.568119
0007b0 a3 1c 71 6d 4d 5f b0 3f de 1d 19 ab cd ff cd 3f
       0.0639542 0.234369
0007c0 d0 2b 9e 7a a4 c1 d1 bf 7a ec fc 15 11 49 5d 3f
       -0.277444 0.00178744
0007d0 28 ee 78 93 df a2 d1 bf aa b5 30 0b ed 9c e8 3f
       -0.275566 0.769156
0007e0 8f ab 91 5d 69 19 c1 bf b4 c9 e1 93 4e 24 e7 bf
       -0.133588 -0.723182
0007f0 c3 82 fb 01 0f 0c ee bf 31 0c 58 72 15 8b d5 bf
       -0.938972 -0.336614

FC2_bias f8 [50]
000000 d7 2f d8 0d db 16 c5 bf a5 a4 87 a1 d5 49 e4 bf
       -0.16476 -0.634013
000010 8a ab ca be 2b 02 e2 3f 69 73 9c db 84 7b d7 bf
       0.562765 -0.366914
000020 b0 cf f7 ae 9c 18 8d bf 50 19 ff 3e e3 c2 f7 bf
       -0.0142071 -1.48508
000030 7b 14 ae 47 e1 7a d2 bf 16 85 5d 14 3d f0 c5 bf
       -0.28875 -0.171394
000040 a7 75 1b d4 7e 6b c1 bf 22 83 81 8c 25 51 a0 3f
       -0.136093 0.0318691
000050 7f c1 6e d8 b6 28 d5 bf df 50 f8 6c 1d 1c c8 bf
       -0.33061 -0.188358
000060 70 41 b6 2c 5f 97 e0 3f 0b 08 ad 87 2f 93 e7 3f
       0.518478 0.736717
000070 93 8d 07 5b ec f6 cf 3f a1 49 62 49 b9 fb d9 3f
       0.249723 0.405989
000080 10 5c e5 09 84 9d ca 3f f4 f8 bd 4d 7f 76 f2 bf
       0.207932 -1.15393
000090 4c 38 f4 16 0f ef 91 bf b5 51 9d 0e 64 3d e9 bf
       -0.0175135 -0.788744
0000a0 bb 64 1c 23 d9 a3 e6 bf 65 8a 39 08 3a 5a e2 bf
       -0.707501 -0.573514
0000b0 9b e4 47 fc 8a 35 d0 bf 31 96 e9 97 88 b7 e6 bf
       -0.253268 -0.709904
0000c0 d6 8f 4d f2 23 7e c7 3f 16 dd 7a 4d 0f 0a c0 bf
       0.183537 -0.125307
0000d0 8e 3e e6 03 02 1d e6 bf f9 67 06 f1 81 1d d5 3f
       -0.691041 0.329926
0000e0 2f 45 03 c2 98 3e 85 bf 56 d8 0c 70 41 b6 d5 3f
       -0.0103733 0.339249
0000f0 f1 26 64 8c b4 f9 9c bf 17 47 e5 26 6a 69 d6 bf
       -0.0282963 -0.350184
000100 2d 8b 70 30 27 aa 7f bf df c4 90 9c 4c 5c e3 bf
       -0.00773063 -0.605017
000110 70 5f 07 ce 19 d1 f4 bf 3e 09 6c ce c1 33 e4 3f
       -1.30105 0.631318
000120 0d 53 5b ea 20 af c7 3f 61 aa 99 b5 14 10 e3 bf
       0.185032 -0.595713
000130 70 08 55 6a f6 00 03 c0 22 e3 51 2a e1 09 c9 3f
       -2.37547 0.195614
000140 f4 c5 de 8b 2f da d6 3f 2d 23 f5 9e ca 69 bf 3f
       0.357067 0.122708
000150 b9 fe 5d 9f 39 eb ed bf 0f 63 d2 df 4b e1 c1 bf
       -0.934964 -0.139688
000160 5f 08 39 ef ff 63 e5 3f fa e5 dd a2 dd 32 81 bf
       0.668457 -0.0083978
000170 13 0a 11 70 08 55 d6 3f a8 c8 21 e2 e6 54 d2 bf
       0.34894 -0.286432
000180 29 5c 8f c2 f5 28 fe 3f fa b9 a1 29 3b fd d7 bf
       1.885 -0.374831

FC2_weight f8 [50, 50]
000000 a5 31 5a 47 55 13 c4 bf ee 23 b7 26 dd 96 e2 bf
       -0.15684 -0.580916
000010 b4 01 d8 80 08 71 d6 3f a2 9b fd 81 72 db ce 3f
       0.350649 0.241072
000020 7d 28 2c 4c 3a 25 7b 3f 11 53 22 89 5e 46 bd 3f
       0.0066273 0.114355
000030 b3 60 e2 8f a2 ce cc 3f f0 51 7f bd c2 82 ea bf
       0.225056 -0.828462
000040 c6 45 ff 15 43 83 ae bf 1e df de 35 e8 4b c1 3f
       -0.0595952 0.135129
000050 95 60 71 38 f3 ab c9 bf b1 8a 37 32 8f fc de bf
       -0.20056 -0.484165
000060 91 ee e7 14 e4 e7 e0 3f 56 b5 49 ea a9 7a b8 3f
       0.528307 0.0956217
000070 9e 0b 23 bd a8 dd db bf 6a 84 7e a6 5e b7 c8 3f
       -0.435404 0.193096
000080 78 27 9f 1e db 32 d8 bf 6a 84 7e a6 5e b7 d5 3f
       -0.378104 0.339317
000090 0f 80 b8 ab 57 91 cb 3f 59 84 07 72 f5 08 b4 bf
       0.215373 -0.0782617
0000a0 9b 0a 4c 02 2f 8e b1 bf 32 2b 67 31 a9 88 70 bf
       -0.0685758 -0.00403658
0000b0 57 7b d8 0b 05 6c d7 3f 01 fa 7d ff e6 c5 c9 3f
       0.365968 0.201352
0000c0 4c a8 e0 f0 82 88 d7 3f dc bd dc 27 47 01 d7 bf
       0.367707 -0.359453
0000d0 4c c5 c6 bc 8e 38 dc 3f f4 52 b1 31 af 23 c8 3f
       0.440952 0.188589
0000e0 5c 20 41 f1 63 cc cb bf 9e 0a b8 e7 f9 d3 d1 bf
       -0.217175 -0.278563
0000f0 3e 1d 34 60 35 3b 97 bf 86 ba fe 13 12 1f aa 3f
       -0.0226868 0.0510183
000100 a7 f6 b7 3e 8b 29 81 3f 25 3b 36 02 f1 ba ce 3f
       0.00838002 0.24008
000110 ea 95 b2 0c 71 ac f0 bf e0 2c 25 cb 49 28 e0 bf
       -1.0421 -0.504918
000120 53 6e ec 23 01 b4 ab bf 03 43 56 b7 7a 4e d0 3f
       -0.0541077 0.25479
000130 96 3e 74 41 7d cb de 3f 11 39 7d 3d 5f b3 d4 3f
       0.48117 0.323448
000140 9b ac 51 0f d1 e8 b0 3f de 00 33 df c1 4f dd 3f
       0.0660525 0.457993
000150 0a 68 22 6c 78 7a bd bf d5 91 23 9d 81 91 c3 bf
       -0.11515 -0.152878
000160 b6 f5 d3 7f d6 7c e0 3f 85 d1 ac 6c 1f f2 c6 bf
       0.515239 -0.179264
000170 d5 7b 2a a7 3d 25 d5 bf c2 a1 b7 78 78 cf b9 bf
       -0.330398 -0.100822
000180 e3 c5 c2 10 39 fd e0 3f e7 e2 6f 7b 82 c4 dd bf
       0.530911 -0.465119
000190 09 88 49 b8 90 47 d3 bf ba 68 c8 78 94 ca eb 3f
       -0.301243 0.868479
0001a0 21 59 c0 04 6e 1d 05 c0 d3 50 a3 90 64 56 e8 bf
       -2.63937 -0.760546
0001b0 97 af 26 aa 12 c0 a0 3f 4c e0 d6 dd 3c d5 da 3f
       0.0327154 0.419265
0001c0 d5 92 8e 72 30 9b c4 3f 70 22 fa b5 f5 d3 e6 3f
       0.160986 0.713374
0001d0 c9 29 5d a1 df 5c 4b bf 49 84 46 b0 71 fd ea bf
       -0.000835046 -0.843438
0001e0 b6 2d ca 6c 90 c9 f6 3f 6b d0 3c 25 8c 0b 9c bf
       1.42421 -0.0273878
0001f0 db dc 98 9e b0 c4 f8 3f 4e 73 3c b0 2d 4d b3 bf
       1.54802 -0.0753964
000200 86 8c ec ef 11 d6 a7 3f db 88 27 bb 99 d1 c7 bf
       0.0465551 -0.186084
000210 62 c0 92 ab 58 fc e1 3f 6f 9b a9 10 8f 44 e3 bf
       0.562054 -0.602119
000220 a7 b0 52 41 45 d5 eb 3f 3d 65 35 5d 4f f4 ef 3f
       0.869784 0.998573
000230 a3 05 68 5b cd 3a d3 3f 9f c8 93 a4 6b a6 f6 bf
       0.300464 -1.41563
000240 f9 85 57 92 3c d7 df 3f c7 62 9b 54 34 d6 d1 bf
       0.497512 -0.278699
000250 49 f7 73 0a f2 33 e8 bf a3 3f 34 f3 e4 9a c0 bf
       -0.756341 -0.129727
000260 8f aa 26 88 ba 8f f9 bf 0c 91 d3 d7 f3 35 b1 bf
       -1.59759 -0.0672295
000270 fc 36 c4 78 cd ab cc bf 6f bb d0 5c a7 91 fb bf
       -0.223993 -1.72306
000280 81 20 40 86 8e 1d c0 3f 2c 7d e8 82 fa 96 d6 bf
       0.125902 -0.352965
000290 98 f6 cd fd d5 e3 8e bf 8c 6a 11 51 4c de dc 3f
       -0.015083 0.451068
0002a0 c3 a0 4c a3 c9 45 ea bf 05 b3 f8 03 d4 8a 9d bf
       -0.821019 -0.0288499
0002b0 7e 8f fa eb 15 16 e9 bf 79 24 5e 9e ce 95 e5 3f
       -0.783946 0.674537
0002c0 b9 ab 57 91 d1 01 e5 3f c3 61 69 e0 47 35 e0 bf
       0.656472 -0.506504
0002d0 38 f3 ab 39 40 70 00 40 2b 34 10 cb 66 0e d0 3f
       2.05481 0.250879
0002e0 4e cd 8a 4d d0 cb a1 bf dc 9d b5 db 2e 34 c3 3f
       -0.0347581 0.15003
0002f0 6b 9a 77 9c a2 23 d2 bf 93 e7 55 f8 8e 75 a4 3f
       -0.283425 0.0399594
000300 ae 9e 93 de 37 be cc 3f f3 5a 09 dd 25 71 ce 3f
       0.224555 0.237828
000310 8d 44 68 04 1b 57 e7 3f 7d ae b6 62 7f d9 d5 3f
       0.729383 0.3414
000320 3f a8 8b 14 ca c2 c9 3f dc 9d b5 db 2e b4 eb 3f
       0.201257 0.865745
000330 67 61 4f 3b fc b5 fc bf de 72 f5 63 93 fc c2 3f
       -1.79443 0.148333
000340 31 52 39 37 b7 53 9c bf a3 e9 ec 64 70 14 f4 3f
       -0.0276631 1.25499
000350 c0 47 58 af 7d 5c a6 bf 91 ba 9d 7d e5 41 d0 3f
       -0.0436744 0.254022
000360 70 3f 85 c8 8e 32 a3 bf 45 ba 9f 53 90 9f b9 bf
       -0.0374951 -0.100091
000370 3c 4f 3c 67 0b 08 c9 3f 67 46 3f 1a 4e 99 d3 bf
       0.195558 -0.306232
000380 29 98 31 05 6b 9c b9 bf e9 49 99 d4 d0 06 e2 3f
       -0.100043 0.563332
000390 b8 02 0a f5 f4 11 d6 bf df 4e 22 c2 bf 08 b6 bf
       -0.344846 -0.086071
0003a0 67 63 25 e6 59 49 d7 bf c7 bb 23 63 b5 f9 c5 bf
       -0.363852 -0.171683
0003b0 72 19 37 35 d0 7c c2 3f b5 33 4c 6d a9 83 cc 3f
       0.144434 0.222768
0003c0 63 7b 2d e8 bd 31 d2 3f 38 c0 cc 77 f0 13 e0 bf
       0.284286 -0.502434
0003d0 14 96 78 40 d9 94 e0 bf bf d5 3a 71 39 5e e4 3f
       -0.51817 0.636502
0003e0 c8 26 f9 11 bf 62 e0 bf 76 4f 1e 16 6a 4d d9 3f
       -0.512054 0.39535
0003f0 b5 e1 b0 34 f0 a3 d7 bf 66 43 48 27 5c d9 b5 bf
       -0.369381 -0.0853479
000400 eb c8 91 ce c0 c8 c5 3f 58 a8 35 cd 3b 8e 02 c0
       0.170189 -2.31945
000410 a7 b1 bd 16 f4 de c2 bf 4e d5 98 6b 2c bc b4 bf
       -0.147429 -0.0809963
000420 b1 64 33 2c eb a3 88 bf 36 02 f1 ba 7e 41 ea bf
       -0.0120314 -0.820495
000430 5b 5e b9 de 36 53 d6 3f b3 61 4d 65 51 d8 dd 3f
       0.348829 0.466328
000440 e7 e1 04 a6 d3 ba c7 3f 01 50 c5 8d 5b cc a7 bf
       0.185389 -0.046481
000450 88 67 09 32 02 aa ea bf 7f be 2d 58 aa 0b c6 bf
       -0.833253 -0.172231
000460 b8 05 4b 75 01 af e3 3f 66 ec 95 c3 38 c9 ac 3f
       0.615113 0.0562227
000470 1f f2 96 ab 1f 9b d7 3f 67 2c 9a ce 4e 06 e5 3f
       0.368843 0.65702
000480 27 33 de 56 7a ed e7 bf 3f e6 5e bb 0f 9b b1 3f
       -0.747739 0.0687723
000490 f3 1b 26 1a a4 e0 bd bf 5b 08 72 50 c2 4c cf 3f
       -0.116709 0.24453
0004a0 c4 21 1b 48 17 1b e5 3f 0d 37 e0 f3 c3 88 f9 bf
       0.659557 -1.59589
0004b0 9f 03 cb 11 32 90 cd 3f ec 2e 50 52 60 01 dd 3f
       0.230963 0.453209
0004c0 e4 81 c8 22 4d bc d0 3f 4c a7 75 1b d4 fe eb bf
       0.261493 -0.874857
0004d0 ff a3 80 fe 8c 1c ab bf 04 01 32 74 ec 20 ec 3f
       -0.0529522 0.879019
0004e0 46 23 9f 57 3c f5 d3 bf 63 b6 64 55 84 9b e8 bf
       -0.311843 -0.768984
0004f0 cc 63 cd c8 20 77 ed bf 24 f2 5d 4a 5d 32 e3 3f
       -0.920792 0.599898
000500 93 c5 fd 47 a6 43 d3 3f c0 aa 1f 40 2b d5 ae bf
       0.301004 -0.0602201
000510 4e d0 26 87 4f 3a c5 bf 77 f7 00 dd 97 33 d6 3f
       -0.165842 0.346899
000520 f8 df 4a 76 6c 04 c0 3f 5a 49 2b be a1 f0 d7 bf
       0.125135 -0.374062
000530 43 97 26 5b 13 c1 aa bf 78 27 9f 1e db b2 e6 3f
       -0.0522543 0.709333
000540 69 dd ab fb 6c 89 99 3f a3 a0 25 d9 34 00 9d 3f
       0.0249383 0.0283211
000550 35 06 42 57 c7 96 a2 3f 91 12 f5 61 41 8a 7f bf
       0.0363066 -0.00770021
000560 1c 97 71 53 03 cd e2 3f b9 8b 30 45 b9 34 c8 3f
       0.587526 0.189109
000570 55 6b 61 16 da 39 e3 bf 86 e5 cf b7 05 4b cf 3f
       -0.600812 0.244477
000580 8e cc 23 7f 30 f0 d2 3f e6 0d e6 65 03 9f 9d bf
       0.29591 -0.0289269
000590 a6 b4 fe 96 00 7c e2 3f db 31 75 57 76 c1 d4 bf
       0.577637 -0.324308
0005a0 e0 4d b7 ec 10 ff d4 3f dd 3b 0f 93 15 68 a0 3f
       0.328068 0.0320441
0005b0 0b 03 59 42 cc db e0 be 9c fb ab c7 7d 2b e5 bf
       -8.0388e-06 -0.661559
0005c0 4a 0d 6d 00 36 a0 e3 3f 58 c7 f1 43 a5 11 cf 3f
       0.613307 0.242726
0005d0 b0 8c 0d dd ec 0f cc bf e0 bc 38 f1 d5 0e e4 3f
       -0.219236 0.626811
0005e0 67 61 4f 3b fc b5 e4 3f 29 25 04 ab ea e5 cd bf
       0.647215 -0.233579
0005f0 f0 c2 d6 6c e5 25 e9 3f 35 b3 96 02 d2 fe db bf
       0.785876 -0.437428
000600 0f 26 c5 c7 27 64 e6 3f 45 0e 11 37 a7 12 e1 bf
       0.699726 -0.533527
000610 e2 af c9 1a f5 10 de bf 3d 7f da a8 4e 07 c8 bf
       -0.469785 -0.187723
000620 e0 9f 52 25 ca de d7 3f 28 64 e7 6d 6c 76 c4 bf
       0.372973 -0.159864
000630 97 39 5d 16 13 9b d4 3f eb 53 8e c9 e2 7e e3 bf
       0.321965 -0.609239
000640 f7 02 b3 42 91 ee d9 bf 45 a0 fa 07 91 0c eb 3f
       -0.405186 0.845284
000650 b1 c4 03 ca a6 dc f5 3f 45 a0 fa 07 91 0c d1 bf
       1.36637 -0.266392
000660 85 a2 2f 73 70 9f 8b bf 6b b7 5d 68 ae d3 c6 3f
       -0.0134877 0.178335
000670 9f aa 42 03 b1 6c d6 3f 43 1a 15 38 d9 06 d4 3f
       0.350384 0.312918
000680 2a 38 bc 20 22 35 d5 bf 03 7b 4c a4 34 9b eb 3f
       -0.331368 0.862696
000690 9e 41 43 ff 04 17 ee bf ca 15 de e5 22 3e e7 3f
       -0.94031 0.726335
0006a0 fc aa 5c a8 fc eb e6 3f a1 55 1c bd d0 12 92 bf
       0.716307 -0.0176499
0006b0 ea e9 23 f0 87 9f ab 3f de 60 5e 36 f0 59 95 3f
       0.0539515 0.0208509
0006c0 54 19 c6 dd 20 5a d3 3f 1f ae 8b 91 db e5 b7 3f
       0.302376 0.0933511
0006d0 70 40 4b 57 b0 8d e2 3f 3e 95 d3 9e 92 73 d1 3f
       0.579796 0.272679
0006e0 08 01 f9 12 2a 38 db 3f 5a d8 d3 0e 7f 4d d0 3f
       0.425303 0.25473
0006f0 91 b7 5c fd d8 24 bf bf d0 b3 59 f5 b9 da f8 bf
       -0.121656 -1.5534
000700 41 bc ae 5f b0 1b ef 3f b0 ff 3a 37 6d c6 c5 3f
       0.97213 0.170118
000710 79 94 4a 78 42 af c7 3f af ec 82 c1 35 77 d2 bf
       0.185036 -0.288526
000720 e8 15 4f 3d d2 60 ed bf 05 8f ca a8 8d 45 b4 3f
       -0.918069 0.0791863
000730 1d 14 de 2f b0 d8 90 bf 4a f1 f1 09 d9 79 b7 bf
       -0.0164516 -0.091703
000740 0e c3 a2 7d 07 9a 8a bf ad 32 53 5a 7f cb e4 bf
       -0.0129891 -0.649841
000750 0b ef 72 11 df 89 de 3f e9 f0 10 c6 4f 63 eb 3f
       0.477165 0.855873
000760 7d 7e 73 da ae 2b a5 bf 15 ac 71 36 1d 01 c8 3f
       -0.0413489 0.187534
000770 69 57 21 e5 27 d5 cc 3f 83 2a da c1 2d c4 9f 3f
       0.225255 0.0310218
000780 fa d0 05 f5 2d 73 ef 3f 49 4a 7a 18 5a 9d cc 3f
       0.98281 0.223552
000790 ae a7 0c d2 42 b8 a0 3f 79 cc 40 65 fc fb d0 3f
       0.0326558 0.26538
0007a0 0b 43 e4 f4 f5 7c a1 bf ea 96 1d e2 1f b6 c2 3f
       -0.0341565 0.146183
0007b0 37 54 8c f3 37 a1 cc 3f 9c 88 7e 6d fd f4 d0 bf
       0.22367 -0.264953
0007c0 00 72 c2 84 d1 ac b4 3f 35 b7 42 58 8d 25 d9 3f
       0.080762 0.392917
0007d0 4e 3a db ed c4 f6 9c bf fb 76 12 11 fe 45 e6 3f
       -0.0282851 0.696044
0007e0 9b 72 85 77 b9 88 d5 bf c9 cc 05 2e 8f b5 e3 3f
       -0.33647 0.615913
0007f0 c0 af 91 24 08 57 a0 bf 6b 04 2c 03 18 e0 a4 bf
       -0.031914 -0.0407722

FC3_bias f8 [50]
000000 f3 cb 60 8c 48 14 ca bf d5 04 51 f7 01 c8 f4 3f
       -0.203744 1.29883
000010 aa 0c e3 6e 10 2d e7 bf fa d4 b1 4a e9 99 be 3f
       -0.724251 0.119536
000020 da 01 d7 15 33 c2 93 3f 83 35 ce a6 23 80 e1 bf
       0.0192955 -0.546892
000030 20 0c 3c f7 1e 2e e6 bf 0b 02 75 14 31 36 aa bf
       -0.69313 -0.0511947
000040 5f 24 b4 e5 5c 0a f2 bf df c3 25 c7 9d d2 f9 bf
       -1.12753 -1.61392
000050 59 da a9 b9 dc 60 d2 3f 6e da 8c d3 10 55 d3 bf
       0.287162 -0.302067
000060 10 7a 36 ab 3e 57 db bf 17 9f 02 60 3c 83 d1 bf
       -0.4272 -0.273635
000070 a3 06 d3 30 7c c4 f0 3f 25 35 59 48 65 2f 98 bf
       1.04797 -0.0236183
000080 ef 1d 35 26 c4 5c de bf 89 ee 59 d7 68 39 bc 3f
       -0.474412 0.110251
000090 f3 e8 46 58 54 c4 d4 3f 58 e1 96 8f a4 a4 db 3f
       0.324483 0.431924
0000a0 4a 5d 32 8e 91 ec e2 bf a3 06 d3 30 7c c4 11 40
       -0.591378 4.44188
0000b0 1f 69 70 5b 5b f8 e0 bf cb bc 55 d7 a1 9a ba bf
       -0.530317 -0.103922
0000c0 23 07 36 f8 0c f2 ac bf 3a 58 ff e7 30 5f 01 c0
       -0.0565342 -2.17148
0000d0 bc 58 18 22 a7 af d3 bf 63 b5 f9 7f d5 91 e6 bf
       -0.307596 -0.705302
0000e0 57 05 6a 31 78 98 c6 3f 9a 40 11 8b 18 f6 ef bf
       0.176528 -0.998791
0000f0 82 a9 66 d6 52 40 cc bf 18 09 6d 39 97 e2 dd 3f
       -0.220713 0.466955
000100 9a 42 e7 35 76 89 f7 bf 46 30 c4 a0 02 16 9f bf
       -1.47106 -0.0303574
000110 3f 37 34 65 a7 1f d8 bf 4c a4 34 9b c7 61 ce 3f
       -0.376932 0.237359
000120 ae 2b 66 84 b7 07 dc bf 53 b2 9c 84 d2 17 d0 bf
       -0.437971 -0.251454
000130 37 05 e8 ad 70 81 92 bf d3 69 dd 06 b5 df be bf
       -0.0180719 -0.120601
000140 ca e0 28 79 75 8e ef bf 18 38 45 ec b8 86 b4 bf
       -0.98614 -0.0801807
000150 8c 10 1e 6d 1c 31 f3 bf ff 78 af 5a 99 f0 f4 3f
       -1.19949 1.30874
000160 90 bd de fd f1 5e fa bf e6 23 29 e9 61 e8 e6 3f
       -1.64818 0.715867
000170 09 e0 66 f1 62 61 c2 bf a4 b6 1e cf 78 6c a1 3f
       -0.143597 0.0340307
000180 6a db 30 0a 82 c7 ab bf d2 18 ad a3 aa 89 f3 bf
       -0.0542565 -1.22111

FC3_weight f8 [50, 50]
000000 db 4d f0 4d d3 67 c3 bf 1e a5 12 9e d0 6b e1 3f
       -0.151606 0.544411
000010 98 bd 6c 3b 6d 8d d0 3f 69 74 07 b1 33 85 e1 3f
       0.258632 0.54751
000020 06 82 00 19 3a 76 d4 bf ce a7 8e 55 4a 4f e4 bf
       -0.319716 -0.634679
000030 22 37 c3 0d f8 fc bc 3f 48 c5 ff 1d 51 a1 c2 bf
       0.113235 -0.145548
000040 58 53 59 14 76 d1 e6 3f 49 d7 4c be d9 e6 c2 3f
       0.713069 0.14767
000050 7f a0 dc b6 ef 51 e1 bf 10 04 c8 d0 b1 03 ec bf
       -0.541252 -0.875451
000060 c7 b8 e2 e2 a8 dc ea bf a9 f7 54 4e 7b 4a c2 3f
       -0.839436 0.142898
000070 77 48 31 40 a2 09 cc bf ff 8a 46 88 3c 93 97 3f
       -0.219044 0.0230226
000080 1e fe 9a ac 51 0f 04 c0 ec 85 02 b6 83 11 e8 bf
       -2.50748 -0.752138
000090 93 51 65 18 77 83 d6 bf d9 99 42 e7 35 76 d0 3f
       -0.351774 0.257215
0000a0 5b 23 82 71 70 e9 ea bf 9c a7 3a e4 66 b8 fd bf
       -0.840996 -1.85752
0000b0 f3 71 6d a8 18 67 fb 3f 9f 8e c7 0c 54 46 f4 bf
       1.71267 -1.26717
0000c0 80 ef 36 6f 9c 14 df bf 4a ef 1b 5f 7b 66 fc bf
       -0.485633 -1.77502
0000d0 08 3c 30 80 f0 a1 ca 3f 60 f6 fc 7a cf 92 99 bf
       0.208067 -0.0249741
0000e0 10 3b 53 e8 bc 46 f2 3f e3 19 34 f4 4f f0 e3 bf
       1.14227 -0.623085
0000f0 0f 9d 9e 77 63 c1 ec bf a3 02 27 db c0 9d e8 3f
       -0.898607 0.769257
000100 47 00 37 8b 17 0b d6 3f 4d 81 cc ce a2 f7 e4 bf
       0.344427 -0.655229
000110 8b 54 18 5b 08 f2 f3 3f d8 f2 ca f5 b6 19 e1 3f
       1.24659 0.534389
000120 7c 2c 7d e8 82 7a f9 3f aa ba 47 36 57 cd d9 3f
       1.59241 0.403158
000130 a5 71 5e 52 6b 50 8a 3f 26 a7 76 86 a9 2d ed bf
       0.0128487 -0.911824
000140 ae 2c d1 59 66 11 de bf 4d 96 c5 8a 3b 5a 7c 3f
       -0.469812 0.00692199
000150 49 13 ef 00 4f 5a d4 3f da 03 ad c0 90 55 e1 bf
       0.318012 -0.541695
000160 e5 0a ef 72 11 5f 06 c0 b0 56 ed 9a 90 d6 c4 bf
       -2.79642 -0.162798
000170 b2 65 f9 ba 0c ff e8 bf 6e 18 05 c1 e3 db cb 3f
       -0.781134 0.217648
000180 6d ca 15 de e5 22 c8 bf 93 00 35 b5 6c 2d f1 bf
       -0.188565 -1.07359
000190 53 ae f0 2e 17 71 e8 3f 57 60 c8 ea 56 cf b3 bf
       0.763805 -0.0773825
0001a0 17 ba 12 81 ea 1f c4 bf a4 37 dc 47 6e 4d c2 bf
       -0.157224 -0.142988
0001b0 7e 74 45 84 da ca aa 3f 9e 7d e5 41 7a 8a e1 3f
       0.0523289 0.548154
0001c0 d6 3c a2 9d 2e e6 b4 3f 7b da e1 af c9 1a d1 3f
       0.0816373 0.26726
0001d0 ca 19 8a 3b de e4 cf bf 46 40 85 23 48 a5 ce 3f
       -0.249172 0.239419
0001e0 e8 13 79 92 74 cd e2 3f c9 92 39 96 77 d5 c9 3f
       0.58758 0.201827
0001f0 d6 56 ec 2f bb 27 ee bf b3 44 67 99 45 a8 e9 bf
       -0.94235 -0.801791
000200 83 56 58 57 a2 3f 76 3f 61 30 24 cc 59 44 a1 3f
       0.00543178 0.0337246
000210 1b d5 e9 40 d6 d3 e4 bf 3e 04 d9 db fb 8e 80 3f
       -0.650859 0.00808522
000220 5a f0 a2 af 20 cd c8 3f 95 82 6e 2f 69 8c ca bf
       0.19376 -0.20741
000230 1c 61 51 11 a7 93 c0 bf 0f 28 9b 72 85 77 f0 3f
       -0.129506 1.02918
000240 10 93 70 21 8f e0 d5 bf 41 2b 30 64 75 ab bb bf
       -0.341831 -0.108085
000250 92 21 c7 d6 33 84 d3 bf 74 ce 4f 71 1c f8 e2 bf
       -0.304944 -0.592787
000260 ec 2e 50 52 60 01 d9 3f 19 39 0b 7b da e1 d0 bf
       0.390709 -0.263785
000270 ad bd 4f 55 a1 81 d8 3f 66 85 22 dd cf 29 d9 3f
       0.382912 0.393177
000280 a1 f1 e9 56 74 90 9c bf 5d fd d8 24 3f e2 c3 3f
       -0.0278948 0.155342
000290 44 4c 89 24 7a 19 cd 3f ff 77 44 85 ea e6 a2 bf
       0.22734 -0.036918
0002a0 16 f7 1f 99 0e 9d ba bf 73 f5 63 93 fc 88 d4 bf
       -0.103959 -0.320861
0002b0 fb 3d b1 4e 95 ef d8 bf 0b 0d c4 b2 99 43 e0 bf
       -0.389623 -0.508252
0002c0 6b 4f 7f ac 96 2a 87 bf ef 6f d0 5e 7d 3c c8 bf
       -0.0113117 -0.189346
0002d0 38 15 a9 30 b6 10 c4 3f a6 0b b1 fa 23 0c d0 3f
       0.15676 0.250741
0002e0 74 f6 29 22 1e e4 50 3f 15 ab 06 61 6e f7 c8 bf
       0.00103095 -0.195051
0002f0 b7 2a 89 ec 83 2c cf bf c3 ea 34 77 99 06 9a bf
       -0.243546 -0.0254158
000300 62 87 31 e9 ef a5 c2 bf 0e c0 06 44 88 2b dc 3f
       -0.145689 0.440157
000310 21 34 27 d4 78 8e b7 bf 11 f0 5a f8 b0 cd b6 bf
       -0.0920177 -0.0890761
000320 60 3c 83 86 fe 09 f8 bf 19 59 32 c7 f2 ae d9 bf
       -1.50244 -0.401303
000330 01 25 4f a3 da f1 a8 3f 5a ac f2 4e 4f 69 b0 bf
       0.0487202 -0.0641069
000340 66 3c 00 98 21 44 b0 bf 3b c6 15 17 47 e5 ce 3f
       -0.0635396 0.241372
000350 a3 94 10 ac aa 97 cb bf e7 c6 f4 84 25 1e d2 bf
       -0.215566 -0.28309
000360 6d e1 79 a9 d8 98 d5 3f af 78 ea 91 06 b7 d6 bf
       0.337454 -0.354921
000370 db a2 cc 06 99 64 d4 bf a2 98 bc 01 66 be d4 bf
       -0.31864 -0.324121
000380 e1 aa fc 7c a5 3d b7 bf c3 f0 11 31 25 12 f3 bf
       -0.0907844 -1.19193
000390 fc df 11 15 aa 9b c1 bf d4 a9 3c cb 3d 6e 89 bf
       -0.137563 -0.0124173
0003a0 71 e3 16 f3 73 43 cb bf ec dc b4 19 a7 21 c8 bf
       -0.212996 -0.188527
0003b0 89 96 3c 9e 96 1f e7 bf d8 10 1c 97 71 53 d0 bf
       -0.722606 -0.255093
0003c0 5e ba 49 0c 02 2b d9 bf 7d d0 b3 59 f5 b9 f1 3f
       -0.39325 1.1079
0003d0 6d 39 97 e2 aa b2 d5 bf 79 92 74 cd e4 9b e0 bf
       -0.33903 -0.51903
0003e0 3b 77 16 18 0d 74 ac bf 66 dd 3f 16 a2 c3 e4 bf
       -0.0555729 -0.648881
0003f0 ca 09 c9 b8 98 55 b0 bf 45 b8 c9 a8 32 8c c1 bf
       -0.0638061 -0.137091
000400 40 40 08 12 25 6b b0 bf 5f 62 2c d3 2f 11 cf bf
       -0.0641349 -0.242712
000410 49 b9 fb 1c 1f 2d d6 3f 7e 53 58 a9 a0 a2 c0 bf
       0.346504 -0.129963
000420 63 0d 17 b9 a7 ab 93 bf ee 0f ef 94 69 8f 9a 3f
       -0.0192095 0.0259377
000430 31 42 78 b4 71 44 e0 bf c4 cc e3 d5 de 4c 99 3f
       -0.508355 0.0247073
000440 79 b0 c5 6e 9f 55 dd bf 5a 80 b6 d5 ac 33 d3 3f
       -0.458351 0.300029
000450 11 af 46 d1 5e d8 a1 bf ef 2a 5a 6f 8a 7d b0 3f
       -0.0348539 0.0644156
000460 39 1d 12 08 85 52 75 bf fe 46 3b 6e f8 dd c8 bf
       -0.00520565 -0.194274
000470 db 58 3f ec 3b 75 93 bf 02 d7 15 33 c2 db d7 bf
       -0.0190019 -0.372788
000480 d9 e8 9c 9f e2 38 d3 3f e4 29 50 30 08 51 93 3f
       0.300347 0.0188638
000490 c8 24 23 67 61 4f c1 3f a9 12 65 6f 29 e7 cf bf
       0.135235 -0.249242
0004a0 63 a1 31 ee 61 8a b3 3f e8 da 17 d0 0b 77 ce 3f
       0.0763303 0.238008
0004b0 49 d7 4c be d9 e6 f4 3f ea ca 67 79 1e dc c3 bf
       1.30636 -0.155155
0004c0 b1 59 e4 8d 82 96 a8 3f 9b de 49 34 16 87 72 3f
       0.0480233 0.00452336
0004d0 a6 b5 69 6c af 05 d4 bf 7f bc 57 ad 4c 78 f0 bf
       -0.312847 -1.02937
0004e0 57 98 be d7 10 1c df bf 3f ab cc 94 d6 df d3 3f
       -0.486088 0.310537
0004f0 63 d4 b5 f6 3e 55 c7 3f 0f 97 1c 77 4a 87 f2 3f
       0.182289 1.15803
000500 03 95 f1 ef 33 2e d2 bf 8b c0 58 df c0 e4 c8 bf
       -0.28407 -0.194481
000510 39 97 e2 aa b2 6f f0 bf 59 fa d0 05 f5 ad f7 bf
       -1.02727 -1.47997
000520 5a 29 04 72 89 23 c5 3f 44 85 ea e6 e2 6f 9b bf
       0.165147 -0.026794
000530 19 e2 58 17 b7 51 e9 bf 95 d4 09 68 22 6c e5 3f
       -0.791225 0.66945
000540 e1 9b a6 cf 0e b8 ee bf e1 9b a6 cf 0e 38 e3 bf
       -0.959968 -0.600593
000550 6a f7 ab 00 df 6d db 3f 40 bd 19 35 5f 25 d5 bf
       0.428581 -0.330406
000560 b9 c2 bb 5c c4 f7 f2 3f b9 88 ef c4 ac 17 c5 bf
       1.18549 -0.164785
000570 ab 96 74 94 83 d9 bc 3f 12 5c f6 35 dc 91 b1 3f
       0.112694 0.0686319
000580 5b d1 e6 38 b7 89 e6 3f 2a 57 78 97 8b f8 be bf
       0.704311 -0.12098
000590 78 1f ec b9 f1 93 af bf ef 01 ba 2f 67 b6 c9 3f
       -0.0616756 0.200879
0005a0 f8 4f 37 50 e0 9d bc bf de 3e ab cc 94 d6 d3 3f
       -0.111784 0.309972
0005b0 45 67 99 45 28 b6 be 3f df a6 3f fb 91 a2 e1 bf
       0.119967 -0.551095
0005c0 20 0b d1 21 70 24 ee bf ec f7 c4 3a 55 be dc bf
       -0.941948 -0.449117
0005d0 97 56 43 e2 1e 4b cd 3f d1 b2 ee 1f 0b d1 c7 bf
       0.228855 -0.186067
0005e0 81 88 1e 42 a6 c6 95 3f d5 ce 30 b5 a5 0e be bf
       0.0212656 -0.117411
0005f0 0a a1 83 2e e1 d0 bb bf fb 23 0c 03 96 5c e0 bf
       -0.108656 -0.511302
000600 90 6b 43 c5 38 7f c1 bf 8e 73 9b 70 af cc e8 3f
       -0.136695 0.774986
000610 aa 9a 20 ea 3e 80 f0 bf 69 00 6f 81 04 c5 bb 3f
       -1.03131 0.108475
000620 5a 9d 9c a1 b8 e3 d1 bf 77 30 62 9f 00 8a e8 bf
       -0.279524 -0.766846
000630 8e 59 f6 24 b0 39 c7 bf ae f1 99 ec 9f a7 c9 3f
       -0.181448 0.200428
000640 1f f1 d0 1c fe 3f a3 bf 3d 10 59 a4 89 77 a0 bf
       -0.0375976 -0.032162
000650 ae 97 d9 f9 14 86 2c bf b9 88 94 0b 3a c6 82 3f
       -0.000217619 0.00916715
000660 22 d6 2c e1 1a e9 a6 bf 14 fb 15 7c e4 20 92 bf
       -0.0447472 -0.0177036
000670 5a 0d aa 89 15 a0 83 3f f4 fa 93 f8 dc 09 aa bf
       0.00958268 -0.0508565
000680 1f a9 74 66 71 b5 a0 bf 98 e4 db 16 c0 ef 92 bf
       -0.0326343 -0.0184927
000690 4f a7 86 47 2c 73 a4 bf c8 5f 5a d4 27 b9 9b 3f
       -0.0399412 0.0270735
0006a0 e5 75 0e af 35 a5 a2 3f 32 66 5c 82 9d ac a2 bf
       0.0364167 -0.0364732
0006b0 59 a1 ed 3d 01 b9 a5 bf 75 bb 4d 6e ca cb 98 3f
       -0.0424271 0.0242149
0006c0 72 70 44 52 66 de a1 3f e7 e4 a0 df 52 29 91 bf
       0.0348999 -0.0167592
0006d0 b5 24 f6 bf 12 fe 93 bf b8 2e 46 6e 97 47 98 bf
       -0.0195239 -0.0237106
0006e0 ec 35 98 e1 9a 96 73 3f bc 06 bf 05 c0 15 7c bf
       0.0047823 -0.00685668
0006f0 ed f8 8a c9 76 19 99 3f 84 02 d0 d7 15 fb 27 bf
       0.0245112 -0.000182959
000700 d7 65 9d 96 c4 fe a3 3f 87 91 b9 8d 61 a9 89 bf
       0.0390531 -0.0125301
000710 11 19 56 f1 46 e6 99 3f a2 9b fd 81 72 db 96 bf
       0.0252925 -0.0223215
000720 fa 54 5f a7 a2 c2 92 3f 87 be 60 dc b2 e8 a6 3f
       0.0183206 0.0447441
000730 ed de e5 7d 77 86 a8 3f 39 71 e6 15 57 ae 7a 3f
       0.0479009 0.00651392
000740 cc 16 ff 2d b7 6a a1 bf a1 03 dc 3d 8a 84 98 bf
       -0.0340173 -0.0239431
000750 ea 45 48 38 88 31 94 bf 73 6c 98 fc aa b7 99 3f
       -0.0197202 0.0251147
000760 72 d9 8d e3 2c 91 a4 bf 90 ca 03 47 b8 7f 8b bf
       -0.0401701 -0.0134272
000770 18 be 74 49 8b e9 a0 bf 1b a7 d7 1c d6 0a a9 bf
       -0.0330318 -0.0489108
000780 25 fc 9c cc 89 87 91 bf 3f be 6b 6d 6d 23 66 3f
       -0.0171186 0.00270244
000790 aa 38 1f e8 b2 e2 85 3f 30 dd 7f bf f3 e6 93 3f
       0.0106863 0.0194357
0007a0 cc aa 19 63 71 49 9f 3f a8 c3 af fd 09 d3 9c 3f
       0.0305536 0.0281488
0007b0 9b 1d a9 be f3 8b 92 bf 23 c5 5b 42 99 a1 9c bf
       -0.018112 -0.0279602
0007c0 36 ca fa cd c4 74 99 3f 47 6d 87 2b 0c 36 a6 bf
       0.0248595 -0.0433811
0007d0 b0 1d 8c d8 27 80 dc bf 86 aa 98 4a 3f e1 d1 bf
       -0.445322 -0.279373
0007e0 62 48 4e 26 6e 15 df bf dc 81 3a e5 d1 8d df bf
       -0.485683 -0.493031
0007f0 9d 5f 39 e7 4c 7f 93 3f 17 f4 de 18 02 80 da 3f
       0.0190403 0.414063
