examples/benchmarks/ACAS XU/Networks/ACAS_XU_4_7.onnx (onnx, 108361 bytes, 14 tensors)

FC0_bias f8 [50]
0	0xbfd7f7db6e503fb3	-0.374503
1	0xbfd82174c4cdfaca	-0.377042
2	0xbfd6c5197a24894c	-0.35578
3	0xbfc56366d7a56de3	-0.167096
4	0x3fed5093964a59c0	0.916086
5	0xbfca97e132b55ef2	-0.20776
6	0xbfe02e019b0ab2e1	-0.505616
7	0x3fc066b1e5c0b999	0.128134
8	0xbfb9fa00e27e0efa	-0.101471
9	0xbfada1d1767fb91e	-0.0578752
10	0x3fc1b9f127f5e84f	0.138487
11	0x3fb24e7fbfd3c006	0.0715103
12	0x3f9d756938a8bdfa	0.0287682
13	0xbf7eed70dc36214f	-0.00755066
14	0x3fc3662fdfc19c17	0.151556
15	0xbf8c9eecbfb15b57	-0.013975
16	0xbf955871b11d43de	-0.0208452
17	0x3fc4f7a919695d92	0.163808
18	0x3fd2003eea209aaa	0.281265
19	0x3fcbf01b866e43aa	0.218265
20	0x3fc6204f2ae07e5a	0.172861
21	0xbfd4e6c4c5974e66	-0.326585
22	0xbf92998eb1df0abd	-0.0181639
23	0xbfd676d97b30f8c6	-0.351004
24	0xbfae322e50756359	-0.0589766
25	0x3fb8c6af7c59edb2	0.0967817
26	0xbf9adf42f1165831	-0.0262423
27	0x3fbba80cf9e3864d	0.108033
28	0x3fb24d4e676c1fe4	0.0714921
29	0xbfe1f84cad57bc7f	-0.56156
30	0x3fdb94d940789614	0.43096
31	0x3f8d4d17e0c75595	0.0143072
32	0xbfb0447dde52304e	-0.0635451
33	0x3fb0b25b317efe0d	0.0652215
34	0xbfc6864020817fc7	-0.175972
35	0x3fd6f49491f2dc2b	0.358678
36	0x3fcd3964a59c065b	0.228314
37	0xbf9c3a1aae012fab	-0.0275654
38	0xbfdfadc8fb86f47b	-0.494982
39	0xbfeb3c0a06e9ff0d	-0.851079
40	0xbf8bf7927334ab02	-0.0136558
41	0xbfd46ef8055fbb51	-0.319273
42	0xbfc34d056c508b33	-0.150788
43	0x3fa7f840eedd98cd	0.0468159
44	0xbfd19fcb0c026cc2	-0.275378
45	0xbfe2a0407cc7d1bb	-0.582062
46	0x3fbfc31df761cbcd	0.124071
47	0xbfd41d8a54823854	-0.314303
48	0x3fdd88509bf9c62a	0.461445
49	0xbfbe4ead0c3d2524	-0.118388

FC0_weight f8 [5, 50]
0	0xbfdb457c0b135979	-0.426116
1	0x3f8d0f8ab77e86ef	0.0141898
2	0x3fce538ef34d6a16	0.236925
3	0x3fc84c8bc9cd3e0c	0.189836
4	0x400aea0ba1f4b1ee	3.36428
5	0xbf531c7ce3557a5b	-0.00116646
6	0x3fae774eebf65dc0	0.059504
7	0xbfb6a9a2255955dd	-0.0885259
8	0xbfd714bdfd2630ec	-0.360641
9	0x3f91da8877326685	0.0174352
10	0x3fbe8fc0d2c386d3	0.119381
11	0x3fe05972cd7cf5f5	0.510919
12	0x3fb6d75b9c0808e3	0.0892236
13	0xbfbb620ee8d10f52	-0.106965
14	0x3fd4163779e9d0ea	0.313856
15	0xbf808be957c7e80c	-0.00807936
16	0x3fc23dff3f0fe048	0.142517
17	0x3fbeea960b6f9fcb	0.120767
18	0xbfbebd09e12a51e3	-0.120072
19	0x3fc5f9830e3cd9a5	0.171677
20	0xbfbe426bb55ac040	-0.118201
21	0x3fc96a9c560c7c0f	0.198566
22	0xbfb56523704790b8	-0.0835745
23	0xbf8237f209c82ad2	-0.00889577
24	0xbfefd330941c8217	-0.99453
25	0x3f7a286274bf44a4	0.00638617
26	0xbfd30df15a4acf31	-0.297726
27	0xbfa8d4b421db1c1b	-0.0484978
28	0xbf924766c6de7642	-0.0178505
29	0x3fa10fbd0c656910	0.0333232
30	0x3fefa2db61bb05fb	0.98863
31	0x3f405858c2cafc79	0.000498813
32	0x3facd7d6154aeae0	0.0563342
33	0x3fb5d2193ce7e7db	0.0852371
34	0x3f50a51e88006a08	0.00101593
35	0x3f6489295ef40144	0.00250681
36	0xbfc160285ec3dab6	-0.135747
37	0xbf8e9ec98442f040	-0.0149513
38	0x3fc08711d798d8a9	0.129122
39	0x3fba7674d1633483	0.10337
40	0xbf86516044e4359f	-0.0108974
41	0x3fd338b04ab606b8	0.300335
42	0x3f94718c345648e2	0.0199644
43	0x3f952b3969ae1983	0.0206727
44	0xbfa3102363b25700	-0.0372325
45	0x3fb788c1db0142f6	0.0919305
46	0x3fd6bbcb1cc96463	0.355212
47	0xc000b505d0fa58f7	-2.08839
48	0x3f8e093532e7b3d9	0.014666
49	0xbfc94ff865d7cb2e	-0.197753
50	0xbff5de7ea5f84cad	-1.36682
51	0xbffbf266ba493c8a	-1.74668
52	0xbfd8d0cc35ce1826	-0.387744
53	0x3ffce7381d7dbf48	1.80645
54	0xbf83a7e003605cb7	-0.00959754
55	0xbff4e06b7aa25d8d	-1.30479
56	0xbff0b6113404ea4b	-1.04445
57	0xbfe33708aac96cc6	-0.600468
58	0x3fe7252ef911cf35	0.723289
59	0xbfd82efd438d1d8a	-0.377868
60	0xbff67689ca18bd66	-1.40394
61	0xbf8dd8c37b147355	-0.0145736
62	0xbfb75bab21815a08	-0.0912425
63	0x3fd2b0813cab81f9	0.292023
64	0xbfeaebd09e12a51e	-0.841286
65	0xbf42793cb570984c	-0.000563769
66	0x3fb98af3e468cac5	0.0997765
67	0xbfe3e0b2c83ec893	-0.621179
68	0xbfd01333b96af039	-0.251172
69	0x40015d8d79d0a676	2.17068
70	0x3fecfd45a5fc7e6b	0.905917
71	0xbffb1003eea209ab	-1.69141
72	0x3f94aac611c7a8a1	0.0201827
73	0x3ff7a5edd052934b	1.47801
74	0x3fcc934acaff6d33	0.223245
75	0xbfc88344c37e6f72	-0.191506
76	0xbfcf1832fcac8e69	-0.242926
77	0x3fecbfdd65a14489	0.898421
78	0xbfc7909f1f14983d	-0.184101
79	0x3ff5ea7ef9db22d1	1.36975
80	0x3fdaaa68f4b61fe2	0.416651
81	0x3fd6debd9018e758	0.357345
82	0x3fd767be553ac4f8	0.365707
83	0xbff1dda272862f5a	-1.11661
84	0x3fef15aaf78feef6	0.971395
85	0x3ff3d7c6fbd273d6	1.24018
86	0xbfecda20ddc61954	-0.901627
87	0x3f90e5a35d67ba23	0.016501
88	0xbff87d75e2046c76	-1.53063
89	0x3fadce802b338a71	0.0582161
90	0x3f8c07c5c71f0de2	0.0136867
91	0x3ff683c4b09e98dd	1.40717
92	0xc0059187e7c06e1a	-2.69606
93	0xbfde7aaac1094a2c	-0.476237
94	0xbffafb9389b52008	-1.68642
95	0x3ff0e540cc78e9f7	1.05597
96	0x3ff39adea897635e	1.22531
97	0xbfa156415534e5bb	-0.0338612
98	0x3fe26c39799e518f	0.575711
99	0x4001258f7121ab4b	2.14334
100	0x3ffd34b72c5197a2	1.82537
101	0x4000ce65bea0ba1f	2.10078
102	0x3fd5748a159817b9	0.335238
103	0x3fcd3f85510d38ce	0.228501
104	0xbf9cf80dc33721d5	-0.02829
105	0xbfe4ae9899bf5947	-0.646313
106	0x3ff27156191148fe	1.15267
107	0xbfc59b8023a6ce36	-0.168808
108	0xbff46a2b1704ff43	-1.27592
109	0xbfbd7e132b55ef20	-0.115205
110	0x3ffbb606b7aa25d9	1.73194
111	0x3fb29dc8d3430893	0.0727201
112	0xbfe12e1ac57e23f2	-0.536878
113	0xbfd20691ea78af3e	-0.281651
114	0xbfce1eabbcb1cc96	-0.235311
115	0xbf7d2e163dda003c	-0.00712403
116	0xbfce04d12018a43c	-0.234522
117	0x3feae4840e1719f8	0.840395
118	0x4004e631f8a0902e	2.6124
119	0xbfee63065f9591cd	-0.949588
120	0x3faf657e091a5af5	0.0613212
121	0x3fe4560a63305101	0.635503
122	0x3fc0cea28fe260b3	0.131306
123	0xbffc2b6ae7d566cf	-1.7606
124	0x3fb3fb6134ce3de6	0.0780545
125	0x3fe078fcd67fd3f6	0.514769
126	0x3fd190752da98677	0.274442
127	0x3fee521144cbe1eb	0.947518
128	0xbfcc84dfce3150db	-0.222805
129	0xbff9c49ba5e353f8	-1.6105
130	0x3f7bd2f75e45db81	0.00679299
131	0x3ff213165d3996fb	1.12966
132	0x3fde959e6256366d	0.477882
133	0xbfd2f77292c49342	-0.296353
134	0x3fe95f809917939a	0.792908
135	0xbff178e9f6a93f29	-1.09202
136	0xbfe29a21ea359360	-0.581315
137	0x3f4ca48ec8b8c993	0.000874109
138	0x3ff8075f6fd21ff3	1.5018
139	0xbfb240de16a12c35	-0.0713023
140	0x3f6061e7d18af795	0.00199981
141	0xbfeb6a550870110a	-0.85673
142	0x3fef76cce5f7403e	0.983252
143	0xbfbf78ab0c88a47f	-0.122935
144	0xbfa1892d3acbade9	-0.0342497
145	0xbff125ce5b4245f6	-1.07173
146	0x3fdc0ea9e6eeb702	0.438395
147	0x3f65a01533c3d1d1	0.00263981
148	0xbfe803126e978d50	-0.750375
149	0xc00007ecfe9b7bf2	-2.00387
150	0xbfd70880d801b435	-0.359894
151	0x3fc98cb8e086bdf5	0.199607
152	0xbfb222192f7bee8e	-0.0708328
153	0x3ff65a122fad6cb5	1.39699
154	0xbf5de151ea0292ac	-0.00182374
155	0x3fd8a36e2eb1c433	0.384975
156	0xbfa928a108f9a3c5	-0.0491381
157	0x3fd48adab9f559b4	0.320975
158	0x3fa2b2f23033a472	0.0365215
159	0x3fd974afd5454153	0.397747
160	0x3fcb8023a6ce3583	0.214848
161	0xbfd17820a30db6a2	-0.272957
162	0xbfc8b71327243138	-0.193087
163	0xbfd850f840181e04	-0.379942
164	0x3f8ae353210f4441	0.0131289
165	0x3f5e528634b7ed98	0.00185073
166	0x3fb069eeb123231b	0.0641164
167	0xbfb8bfc57d4d32b9	-0.0966762
168	0x3fc3c792d1287c20	0.154528
169	0x3fd2baf533f42353	0.292661
170	0xbfe042d05f288484	-0.508156
171	0x3fdc6ebd4cfd08d5	0.444259
172	0xbfddc3ce2089e343	-0.465076
173	0xbfd17e889c1b5419	-0.273348
174	0xbf83082695152581	-0.00929289
175	0xbfeb494b380cb6c8	-0.852697
176	0x3fefffbce4217d28	0.999968
177	0x3fd1efae7924af0c	0.280254
178	0x3fbe32e3821af7d3	0.117964
179	0xbfbb8fcd67fd3f5b	-0.107663
180	0x3fd12ca9ac365450	0.268351
181	0xbfccaf2d7f950b95	-0.224096
182	0xbfd7ec0f88333fc8	-0.373783
183	0x3fd8a72a7bd48cb5	0.385203
184	0x3fd64bfd2e946801	0.348388
185	0xbfd17b45f17bd8be	-0.273149
186	0xbfd1d5c31593e5fb	-0.278672
187	0x3f80ff515963f471	0.00829948
188	0x3fbcb72c5197a249	0.11217
189	0xbfc46cca2db61bb0	-0.15957
190	0xbf5f86ce3ae0fc85	-0.00192423
191	0x3fcd15f02c4d65e4	0.227232
192	0x3fe0830c23fab10c	0.515997
193	0xbfc559817b95a294	-0.166794
194	0x3fa7a8211bd97a5a	0.0462046
195	0xbfd5e1deacc92147	-0.341911
196	0x3fe87f3ade225fa6	0.765531
197	0x3fd4ea18372e6a77	0.326788
198	0x3ff4ae48e8a71de7	1.29255
199	0x3fb3d607def1927f	0.0774846
200	0x3fe9045dc8323359	0.781783
201	0xbfe40826aa8eb463	-0.625995
202	0xbfebe965f5275eea	-0.872241
203	0xbffb412ad81adea9	-1.70341
204	0xbf6a5a4eab08d7c0	-0.00321689
205	0xbfc60a393ee5eedd	-0.172187
206	0x3fd18a5482385404	0.274068
207	0xbfc994af4f0d844d	-0.19985
208	0xbf82c2c2ddb5a843	-0.00916054
209	0xbfdd45f5ad96a6a0	-0.457395
210	0xbfe0fc504816f007	-0.5308
211	0xbfe2a9691a75cd0c	-0.58318
212	0x3fd097891e215337	0.259249
213	0x3fd6864cb5bb3850	0.351947
214	0x3fb89a38250a7b84	0.0961032
215	0x3f79362f3c02ba9a	0.00615519
216	0x3f91c9bac99509e8	0.0173711
217	0x3fe7a39c51dabe27	0.738722
218	0x3fd834a01abd1aa8	0.378212
219	0x3fc0b26bf8769ec3	0.130445
220	0x3fe48431bde82d7b	0.641137
221	0xbfe489f40a2877ee	-0.64184
222	0xbfb7d94d0dcfcc5c	-0.0931595
223	0x3fe5ed740c4156e2	0.685236
224	0xbfd06801711947d0	-0.256348
225	0x3feb23c21187e7c0	0.848115
226	0xbff2f3b645a1cac1	-1.1845
227	0xbfb620c7f6a436ac	-0.0864377
228	0x3fc3cfa26a22b389	0.154774
229	0x3fdfba3ca7503b82	0.495742
230	0x3fc72e6a76965f52	0.181104
231	0x3fc9e71044f1a198	0.202364
232	0x3fc29a34ca0c282c	0.145331
233	0xbfc60bcbe61cffeb	-0.172235
234	0xbfcaead0c3d25248	-0.210291
235	0x3fc4c3fc43b2dd37	0.162231
236	0x3fcc9528f190d174	0.223302
237	0x3f862b42a3e97eb4	0.0108247
238	0x3fcf2830a0b1bbcf	0.243414
239	0xc00163150dae3e6c	-2.17338
240	0xbf5b4a6904d14b0c	-0.00166569
241	0xbfc4d783dff3f0fe	-0.162827
242	0xbfe863dc486ad2dd	-0.76219
243	0xbf9a31a4bdba0a52	-0.02558
244	0xbfe685015c209247	-0.703736
245	0x3fda50a45d41fa76	0.411172
246	0xbfd828ae74f2f124	-0.377483
247	0x3fc86a2b1704ff43	0.19074
248	0xbff8b22d0e560419	-1.5435
249	0xbfe395a294141e9b	-0.612016

FC1_bias f8 [50]
0	0xbf8e28093385688a	-0.0147248
1	0xbfbae147ae147ae1	-0.105
2	0xbfd3ba2be0589acc	-0.308238
3	0xbfd750d2806af46b	-0.364308
4	0xbf8ce4b520de9cd9	-0.0141081
5	0x3fe12c01e68a0d35	0.536622
6	0xbf87e19e15295cf1	-0.0116608
7	0xbfa0a6dacabc5155	-0.032523
8	0x3fe21af9ebe9c886	0.565793
9	0xbf925c2316857d83	-0.0179296
10	0x3fcb85cee17a02fb	0.215021
11	0xbfe761f5be5d9e41	-0.730708
12	0xbfd8f85942917508	-0.390158
13	0xbf9ac449708c5a16	-0.0261394
14	0x3fc7e6687f455a7d	0.186719
15	0xbfb58bac710cb296	-0.0841625
16	0x3ff2f08461f9f01c	1.18372
17	0xbfa0b1572580c309	-0.032603
18	0x3fd828e4fb97bb73	0.377496
19	0x3ff2f06f69446738	1.1837
20	0xbfcd0cbaf965b20c	-0.226951
21	0xbf9569171aceb85f	-0.0209087
22	0xbfc84af0bf1a5ca3	-0.189787
23	0xbff16e978d4fdf3b	-1.0895
24	0xbfe5357a355043e5	-0.662778
25	0xbff1273d5bab2181	-1.07208
26	0x3febb3aeee957471	0.865684
27	0xbf86000f1978770a	-0.0107423
28	0x3f9691f12eabe4f6	0.0220411
29	0x3fb41abb6d28f847	0.0785329
30	0x3f698fd3c813aa82	0.00312034
31	0xbf85c5139ae77773	-0.0106298
32	0xbf964acbd62cc7df	-0.0217697
33	0xbfc5733226c3b928	-0.167578
34	0xbf8e5e679463cfb3	-0.0148285
35	0xbf8e6d58c8eef1bb	-0.014857
36	0xbf972b020c49ba5e	-0.022625
37	0xbf8756282ac174aa	-0.0113948
38	0x3fc951a437824d4d	0.197804
39	0xbf8351ec5bde4d28	-0.0094336
40	0x3ff664840e1719f8	1.39954
41	0x3fe217481b21c476	0.565342
42	0xbfb5a1ec4e7253da	-0.084502
43	0xbffaae536501e258	-1.66756
44	0x3fe8a0168b5cbff4	0.769542
45	0xbf95ef7dd1bcf696	-0.0214214
46	0xbfd9d6a593a2df93	-0.403726
47	0xbff1c115df6555c5	-1.10964
48	0x3ff3328b6d86ec18	1.19984
49	0xbff9f861a60d4563	-1.62314

FC1_weight f8 [50, 50]
0	0xbf9a588bb25049c4	-0.0257284
1	0xbfcbfb8b26394fad	-0.218614
2	0xbff3f635e74299d9	-1.24761
3	0x3fc74a0a0f4d7add	0.181947
4	0x3f9d42e557de0d67	0.0285755
5	0x3fdf8d972cd7cf5f	0.493017
6	0xbfaa6e180b8f803b	-0.0516212
7	0xbf75a3a8912e3b27	-0.00528303
8	0xbfecc4028e4fb97c	-0.898927
9	0xbfadba577f42d63e	-0.0580623
10	0xbfff1b3d07c84b5e	-1.94415
11	0xbf92c083126e978d	-0.0183125
12	0x3fc45d0fa58f7122	0.15909
13	0x3fa33199d5ff7b76	0.0374878
14	0xbfe564755ffe6d59	-0.668513
15	0x3fd6ca1059ea5721	0.356083
16	0xbfec6a63b688bda9	-0.887987
17	0x3f9d68d3fef03588	0.0287202
18	0xbff0686833c6002a	-1.02549
19	0xc0022da122fad6cb	-2.27228
20	0x3f773bcbb31c4c92	0.00567226
21	0x3f96661c948b3ce0	0.0218739
22	0x3fd5b3a68b19a416	0.33909
23	0xbfc9992c8c5004fb	-0.199987
24	0x3fe212d1287c200c	0.564797
25	0x3fe013ab430f4949	0.502401
26	0xbffa29c779a6b50b	-1.6352
27	0x3f880b4c645ca0eb	0.0117403
28	0xbff4fd028a1dfb94	-1.31177
29	0x3fc9578a2a90cd42	0.197984
30	0x3fc861b6d43d0397	0.190482
31	0x3f7d606317268d33	0.007172
32	0xbfaec60b11abf9ee	-0.0601047
33	0xbfe2310dbf0563ed	-0.568488
34	0xbfa8d6ee8ebe7444	-0.0485148
35	0x3fa38c61a2b24710	0.0381804
36	0xbf954d5afca5d86c	-0.0208029
37	0x3f8017a68fcc3b57	0.00785761
38	0x3fd9ae2541d8e864	0.401254
39	0xbfc4f0b6b6e0d23d	-0.163596
40	0xbff81c38b04ab607	-1.50689
41	0xbff1a771c970f7ba	-1.10338
42	0x3fe30b545c78a6db	0.595133
43	0xc003f89b52007dd4	-2.49639
44	0x3fd821c044284dfd	0.37706
45	0xbf88cbebfc3cfce1	-0.0121077
46	0xbfe233b320535c9e	-0.568811
47	0x3f8f82da3a739955	0.0153863
48	0xbfe91b90ea9e6eeb	-0.784615
49	0xbfc342352eb5f5f1	-0.150458
50	0xbf98384845e9ef1d	-0.0236522
51	0x3fed2e62131a8ef7	0.911912
52	0xc00e1ec2ce464990	-3.76502
53	0x3f8b6cd8706efde5	0.0133912
54	0x3f94d7add15f02c5	0.020354
55	0x3f8d5bb88d7aa766	0.0143351
56	0x3f993151b1a37b9b	0.0246022
57	0x3f998d914d9abd86	0.0249541
58	0x3f735e89a32c6a6c	0.00472883
59	0xbfb3f4a1272c94b4	-0.0779515
60	0x3fbbafd976ff3ade	0.108152
61	0x3fd48112ba16e7a3	0.320378
62	0xbfc81cd5f99c38b0	-0.18838
63	0xbfac10c6f7a0b5ee	-0.0548155
64	0xbfd0dcdf69878317	-0.263481
65	0xbfc548f53c579f23	-0.166289
66	0xbfe19cae21101b00	-0.550376
67	0x3f9d7dccb47918f1	0.0288002
68	0x3fc34bdfd2630ec3	0.150753
69	0xc00a9ce075f6fd22	-3.3266
70	0x40027f43419e3001	2.31214
71	0x3f9f1645bca2b31e	0.0303584
72	0xbfc5ae3e6c4c5975	-0.16938
73	0x3f9c226153d7ee69	0.0274749
74	0x3ff561b089a02752	1.33635
75	0x3fd0ae85b9e8c47a	0.260652
76	0xbffffa58f7121ab5	-1.99862
77	0x3f747ace7d510e90	0.00499993
78	0x3fe0691c8eabffce	0.512831
79	0xbfc18bac710cb296	-0.137075
80	0x3fc185510d38cda7	0.136881
81	0xbf77efe8dba12600	-0.00584403
82	0x3fa180b8f803b23c	0.0341852
83	0xbfdcb827fa1a0cf2	-0.44874
84	0xbfa824bd4eaa87fe	-0.0471553
85	0xbf9530c168eb7be4	-0.0206938
86	0xbf936c73c6a139a1	-0.0189684
87	0x3fa6b1fd3dade078	0.0443267
88	0x3fd1e33acd5b6806	0.279494
89	0xbfa3bdc4f20cf836	-0.0385572
90	0x3fe105058dde7a74	0.531863
91	0xbfaf7f56f83459a4	-0.0615184
92	0xbfc34ad362e90364	-0.150721
93	0xbfd52fad6cb53501	-0.331035
94	0x3f77a63c9531aaf3	0.00577377
95	0x3f9a7d88c1db0143	0.0258695
96	0xbfe25e8709741d08	-0.574039
97	0xbfd42bf11f926c7f	-0.315182
98	0xbfef552e2fbe33ad	-0.979148
99	0x3fba481f53825e14	0.102663
100	0x3f75d747a505329a	0.00533226
101	0xbfeae69ad42c3c9f	-0.84065
102	0x3fcd30df9bdc69f9	0.228054
103	0x3fba7ea5f84cad58	0.103495
104	0x3fa3ee07aff7a9f0	0.0389254
105	0x3fcf610adcd2d44e	0.245149
106	0x3f754975bfcab0be	0.00519701
107	0x3f957a0d0c57fd17	0.0209734
108	0x3fe0ba01eeed8905	0.522706
109	0xbfa039ffd60e94ee	-0.0316925
110	0x3ff5bcd35a858794	1.3586
111	0xbfbd91bc55864452	-0.115505
112	0x3fe486bdf4c2b51c	0.641448
113	0xbf84352901abfc9e	-0.00986702
114	0x3fd801322f2734f8	0.375073
115	0xbfd529bae46cfc83	-0.330672
116	0x3ff40f9b13165d3a	1.25381
117	0x3f9ab884406c00da	0.0260945
118	0xbfc3c1acde19fc2b	-0.154348
119	0xbff240ebedfa43fe	-1.14085
120	0x3ff0ab8a5ce5b424	1.04188
121	0xbf8b123231ab73b7	-0.0132183
122	0x3fe2148fd9fd36f8	0.56501
123	0x3febcbbe4473cd57	0.868621
124	0x3fcf6787ce95faa9	0.245347
125	0xbfb603cb669b3f8c	-0.0859954
126	0x3fd0fe111276fb09	0.265507
127	0x3f8ea0c78b446c41	0.0149551
128	0x3fe88e8640208180	0.767398
129	0xbfb758c3e6743dbf	-0.0911982
130	0x3fa70f27bb2fec57	0.0450375
131	0xbf734e7934ca371b	-0.00471351
132	0x3f92c20197afb48e	0.0183182
133	0x4001c78e9f6a93f3	2.22244
134	0xbfa5e661c948b3ce	-0.0427733
135	0xbfac930cb79e675f	-0.0558094
136	0xbfae9b09dc21d466	-0.0597766
137	0xbfa43bc82d2adb76	-0.0395186
138	0x3fe7f63800218def	0.748806
139	0xbfd8193f6c2699c8	-0.376541
140	0x3ff0b630a91537a0	1.04448
141	0xbfe88b45ae5ffa3c	-0.767001
142	0x3fb48d26c48fe769	0.0802788
143	0xbfae1e888143617f	-0.0588267
144	0x3fdf68d759ee88df	0.490774
145	0x3f966db006c368a0	0.0219028
146	0x3ff0f1a9fbe76c8b	1.059
147	0x3ff03f487fcb923a	1.01545
148	0x3ff04f6be37de93a	1.01939
149	0x4005a9ad42c3c9ef	2.70785
150	0xbf73a515f9917be9	-0.00479611
151	0xbfc87ffde7210be9	-0.191406
152	0x3fdf09edbf8b9baa	0.484981
153	0xbfb8a366a1f588ae	-0.0962433
154	0xbf9838b3a5b45a0f	-0.0236538
155	0xbfbb9e279dd3bafe	-0.107882
156	0x3f7da8c2816f564f	0.00724102
157	0xbfa89d5a187a4a49	-0.0480755
158	0x3fe3f70bd017dae8	0.623907
159	0xbfa1b7281fd9ba1b	-0.0346005
160	0x3f9ff822bbecaab9	0.03122
161	0xbfb7d1fcb7762373	-0.0930479
162	0xbf9e3e2fe67798be	-0.0295341
163	0xbf9924af0bf1a5ca	-0.024554
164	0xbfd8213a0c6b484d	-0.377028
165	0x3fc5f57b41bfbdf1	0.171554
166	0xbffec322291fb3fa	-1.92264
167	0xbfa73552c823f0a0	-0.0453287
168	0xbff54b923a29c77a	-1.33095
169	0x400309c4da9003ef	2.37977
170	0xbff14189374bc6a8	-1.0785
171	0xbf98f80a6838ce7e	-0.0243837
172	0x3f815fc004118792	0.00848341
173	0xbfd66744b2b777d1	-0.350053
174	0x3fae9307af20ea5b	0.0597155
175	0x3f88a9d7d53e8b56	0.0120427
176	0x3fecbcc8de2ac322	0.898045
177	0xbfa667183d0da788	-0.0437553
178	0xbfcaae8e1d6494d5	-0.208452
179	0xbfbab4fa48301a7a	-0.104324
180	0xbfe0acb20fb224ab	-0.521081
181	0xbf96eb2d0a244630	-0.0223815
182	0x3fa0c2140c267ef0	0.0327307
183	0x3ff1c562e09fe868	1.11069
184	0xbf3e30e93d2c169b	-0.000460679
185	0x3f7f4cb6e7de2031	0.00764152
186	0xbf87909d71956e92	-0.0115063
187	0xbfb1aff44ef1d59b	-0.0690911
188	0xbfe2078b7a1c25d0	-0.563421
189	0xbf7a2a8b6ede8506	-0.00638823
190	0x3fb0da2eb51f311e	0.0658292
191	0xbff663f141205bc0	-1.3994
192	0x3fc56a37ac3eb7cc	0.167304
193	0x3fbcd07852f7f499	0.112556
194	0xbfd1494d50ebaade	-0.270099
195	0xbfafd08d4bad7d7c	-0.062138
196	0x3fbed4801f75104d	0.12043
197	0x3ff391bc55864452	1.22308
198	0x3ff5a4a8c154c986	1.3527
199	0x3fc75a6c5d206c87	0.182447
200	0xbfa64d2e86fc0824	-0.0435576
201	0xbf9c2cf8868efada	-0.0275153
202	0xbfb84f49136f488d	-0.0949598
203	0x3f81cf380c0afb31	0.00869602
204	0xbf7a1458a78bf597	-0.00636706
205	0xbfff36ae7d566cf4	-1.95085
206	0xbfa83cb30eb5a569	-0.0473381
207	0xbf9faeff5c6c11a1	-0.030941
208	0x3fc2343b70ef5665	0.142219
209	0x3f9845a6d33e0016	0.0237032
210	0x3f694f8cb02724b2	0.00308969
211	0xbfc50c996b7670a0	-0.164447
212	0x3fbea5e785b5b707	0.119719
213	0xbfa162e755e50ee3	-0.0339577
214	0xbfaccbfcc3349d96	-0.0562438
215	0xbfe1f2b4528283d3	-0.560877
216	0x3fb6f945d19b68a7	0.0897411
217	0xbf775b96a9a52a71	-0.00570258
218	0xbfad26bdd9eac281	-0.0569362
219	0x3fc0ce4649906cca	0.131295
220	0x3f8e6e8d7c54e535	0.0148593
221	0xbfa89f5b7a7a19a2	-0.0480908
222	0xbfb3203a322af577	-0.0747105
223	0xbfc543e100607810	-0.166134
224	0xbfbe6fc58ab92c06	-0.118893
225	0x3fbf226c3b927d46	0.121619
226	0x3fbb1da37ef5a965	0.105921
227	0xbf982151895f8fb3	-0.0235646
228	0xbfc6160d887ebf23	-0.172548
229	0xc00818fc504816f0	-3.0122
230	0xbfd6c50ce4ead0c4	-0.355777
231	0xbfa1b7a7a19a191b	-0.0346043
232	0x3f8019bb67f587ac	0.00786158
233	0x3fd9f06705c896dd	0.405298
234	0xbf9b3fc1b6ef14f6	-0.0266104
235	0xbf3face1a884a198	-0.000483327
236	0x3f90df9bdc69f8c2	0.016478
237	0xbfa490166318d40c	-0.0401618
238	0x3fbfe308787485e4	0.124558
239	0xbf7343a44498605f	-0.00470318
240	0x3fd0c14c660a2014	0.261798
241	0xbfbc6e7e62dc6e2b	-0.111061
242	0xbff6f69ec2ce464a	-1.43521
243	0x3fd32734f82f5126	0.299268
244	0xc033f65fd8adab9f	-19.9624
245	0xbfa0d13af096d671	-0.0328463
246	0xbfd6113836a832ba	-0.344801
247	0xbfc025072085b185	-0.12613
248	0x3fda075f6fd21ff3	0.4067
249	0x3fd6540cc78e9f6b	0.34888
250	0xbf99917939a7c17b	-0.024969
251	0xbfe6f840181e03f7	-0.717804
252	0xbfcb81626b2f2303	-0.214886
253	0x3fee13ee5eedcc21	0.939933
254	0xbf8fa66630b68131	-0.0154541
255	0x3fc58298cc144029	0.168048

FC2_bias f8 [50]
0	0x3ff79ec2ce464990	1.47626
1	0x3fe33b4d48882f0e	0.600989
2	0xbfc30331e3a7daa5	-0.148535
3	0x3fc36a2f48c2e771	0.151678
4	0xbfdf0f1b25f633ce	-0.485297
5	0xc003df75104d551d	-2.48411
6	0xbff4e872b020c49c	-1.30675
7	0xbff21628cbd1244a	-1.13041
8	0xbfd7ad2dcb1465e9	-0.369945
9	0x3fe1fc3b4f616723	0.56204
10	0xbfe0b5b0bbf50e34	-0.522179
11	0x3fe20763a1900820	0.563402
12	0xbf9581f10667f90e	-0.0210035
13	0x3fd5e8b3b320535d	0.342328
14	0xbfec9314445aa2e4	-0.892954
15	0xbfb4fa58f7121ab5	-0.081945
16	0xbfe5d31337eb28d8	-0.682016
17	0xbfc891afc04c8bca	-0.191946
18	0xbfe7f635e74299d9	-0.748805
19	0xc000116db0dd82fd	-2.00851
20	0x3fdbfd75e2046c76	0.437345
21	0xbfd076534373f317	-0.257222
22	0x3fe85247cb70ac3b	0.760044
23	0x3fd8558a76102795	0.380221
24	0x3fb73ffe1cd0f11f	0.0908202
25	0x3fe41c15097c8084	0.628428
26	0xbffeb9628cbd1245	-1.92026
27	0xbfe52b302f72b453	-0.661522
28	0xc004072b020c49ba	-2.5035
29	0xbfeffae3608d0892	-0.999376
30	0x3f9024efa3916a20	0.0157659
31	0x3fdd9463cfb3311a	0.462182
32	0xbfe5a1294573a798	-0.675923
33	0x3fe17852f7f498c4	0.545938
34	0xbfee386b15f88fc9	-0.944387
35	0xbfe601a9b8cb8e08	-0.687703
36	0xbfe37121ab4b72c5	-0.60756
37	0xbfd02be48a58b3f6	-0.252679
38	0xbfdde39713ad5bee	-0.467016
39	0xbfe255cb790fb656	-0.572973
40	0x3fe99d2391d57ffa	0.800432
41	0xbff0e963dc486ad3	-1.05698
42	0xbff02137f38c5437	-1.00811
43	0xc000184f4c6e6d9c	-2.01187
44	0x3fb0a087ca643cc0	0.0649495
45	0x3ff235dcc63f1412	1.13815
46	0x3feb769878316a05	0.858227
47	0x3ff060e94ee392e2	1.02366
48	0xbfd7a5bd944aa540	-0.369491
49	0xbfc96b54e2b063e0	-0.198588

FC2_weight f8 [50, 50]
0	0xbfa26b286d069398	-0.0359738
1	0xbf6c76d3c6e704b1	-0.00347463
2	0xbf7b1d34c42ceb1b	-0.00661965
3	0x3fa0e13f4a98aa86	0.0329685
4	0xbf99f70de8f6ceff	-0.0253565
5	0xbf9c18bbb8a8529a	-0.0274381
6	0xbfa36a9aa88d5263	-0.0379227
7	0x3fa7471f79420b3d	0.0454645
8	0xbfa693fca1a6ae55	-0.0440978
9	0xbfa9996744b2b778	-0.0499985
10	0xbf4e2044a1a330fb	-0.000919374
11	0xbf8706191eb4f6ed	-0.0112421
12	0x3f94df2d21a13a78	0.0203826
13	0x3f78e39134704a15	0.0060764
14	0xbf71bad2fa386ad6	-0.00432856
15	0xbf976e900093a3b6	-0.0228827
16	0x3fa572de43ed959a	0.041892
17	0x3f668ebd1cab8758	0.00275361
18	0xbfa36a03a9d8abfe	-0.0379182
19	0x3f9b73bd66fe3bdb	0.0268087
20	0xbfa8a43bb40b34e7	-0.048128
21	0x3fa9cc49194e859f	0.0503867
22	0xbf9aec86a677ce6e	-0.0262929
23	0xbfa4437d2d5248a2	-0.0395774
24	0xbf94e50c5eb313be	-0.020405
25	0xbf8b4fa48301a7a0	-0.0133355
26	0xbf524013c152f114	-0.00111391
27	0x3fab2c0b20c57265	0.0530704
28	0x3f9d42c3c9eecbfb	0.028575
29	0x3f979a6b50b0f27c	0.02305
30	0x3f94b698ade14f3b	0.0202278
31	0xbfad9e477e43d2be	-0.0578482
32	0xbf76d14806a9e846	-0.00557068
33	0xbf88b89359e477e4	-0.0120708
34	0xbfa0c6f445b79a36	-0.0327679
35	0x3f85307e4d0cf90d	0.0103464
36	0xbf95c599d2a47d22	-0.0212616
37	0xbfa0cb0475b08645	-0.0327989
38	0x3fa1f7f21484f243	0.0350948
39	0xbfa74eb9a176ddad	-0.0455225
40	0xbfa7d84c5ccfe4af	-0.0465721
41	0x3f67b781b6f9d1be	0.00289512
42	0xbfa8551e3f8627cd	-0.0475244
43	0xbf9794a6eb91b3f2	-0.023028
44	0x3f94a0bbccca488e	0.0201444
45	0xbfa471adc2458a4e	-0.0399298
46	0xbf9b7a6cada84457	-0.0268342
47	0x3f8c1b039184f822	0.0137234
48	0xbf8cf6e67bca7bba	-0.0141428
49	0x3f96cf271a203cb6	0.0222746
50	0xbffe660807357e67	-1.89991
51	0xbfbb774aba387592	-0.107289
52	0x3ffad9fd36f7e3d2	1.67822
53	0xbfe234b2fa93af75	-0.568933
54	0xbfdfb48d3ae685db	-0.495395
55	0x3fed3ae685db76b4	0.91344
56	0xbfe1da4ce8101f32	-0.557898
57	0x3fd1ee5abc0e38a8	0.280173
58	0x3fe8af5ba2be058a	0.771406
59	0xbfc17e4de3b8a19d	-0.136667
60	0x3fc40229a5ebb774	0.156316
61	0x3fded606317268d3	0.481813
62	0xbfcf1bb4916ca46e	-0.243033
63	0x3ff657d1782d3847	1.39644
64	0x3ff8b4c1a8ac5c14	1.54413
65	0xc00512d234eb9a17	-2.63419
66	0xbffbfe32a0663c75	-1.74956
67	0x3fd6074ea8da7f3d	0.344196
68	0x3fe5fd6b65a9a805	0.687185
69	0x3ff8b5158b827fa2	1.54421
70	0x3fce5a89b951c5c5	0.237138
71	0x40028cec41dd1a22	2.31881
72	0xbfe9402d16b97fe9	-0.789084
73	0x3fc4338b47c73eee	0.157823
74	0x3fe03899392189be	0.506909
75	0x3fedfd8adab9f55a	0.9372
76	0xc00712839042d8c3	-2.88404
77	0xc00dba6defc7a398	-3.71603
78	0x3f9b8a19c9d5a188	0.026894
79	0xbfd2bb01c92ddbdb	-0.292664
80	0xbfc428fe260b2c84	-0.157501
81	0x3fa31cda2b5a20de	0.0373295
82	0x3f7766003a0c963b	0.00571251
83	0xbfe56414e7ee9143	-0.668467
84	0xbfb0009c07322369	-0.0625093
85	0x3fae91dd0cb5f0e8	0.0597066
86	0xbfeb79e16d6dc1a4	-0.858628
87	0x3fce21294573a798	0.235387
88	0x3fe6b9e060fe4799	0.71019
89	0xbfccb55ef1fddebe	-0.224285
90	0xbfaeb115b72169dd	-0.0599448
91	0x3fdf2f76e6106ab1	0.487272
92	0xbfec01d5c31593e6	-0.875224
93	0x3fd340fecdd0d8cb	0.300842
94	0x3fa6f4c5395a94a1	0.0448362
95	0xbfc494ccab3edd8b	-0.160791
96	0x3fe7925fe974a340	0.736618
97	0xbfd31ede1198aeb8	-0.298759
98	0xc003cde7ea5f84cb	-2.47554
99	0xbfc69aed56b00ffe	-0.176603
100	0xbff5cc39ffd60e95	-1.36236
101	0x3ffae5d3996fa82f	1.68111
102	0x3fd8337a80cf9e38	0.378142
103	0xbfb92c7178126055	-0.0983344
104	0x3fbce8101f31f46f	0.112916
105	0xbfed7d08d4bad7d8	-0.921513
106	0xbffaa16c61522a6f	-1.66441
107	0x3ffcf212d77318fc	1.8091
108	0x3ff3780346dc5d64	1.2168
109	0xbff3191bc5586445	-1.19363
110	0xbfce56366d7a56de	-0.237006
111	0x400970d306a2b170	3.18009
112	0x3fef62ac322291fb	0.980795
113	0x3ff07f8ca8198f1d	1.03114
114	0x3fd60ccff21b3aef	0.344532
115	0x3ff732bfdb4cc250	1.44989
116	0xbfd42d6a9c560c7c	-0.315272
117	0xbfd34434e3369b9d	-0.301038
118	0x3f8c8fb86f47b678	0.013946
119	0x400ad27e5215768a	3.35278
120	0xbfe509613d31b9b6	-0.657395
121	0x4005711c6d1e108c	2.68023
122	0x4004d0b630a91538	2.60191
123	0x3f9f8fb946074b4e	0.0308217
124	0xbfcdd7a13c254a3c	-0.233143
125	0x3fd6611ba3ca7504	0.349677
126	0x3ffc2398201cd5fa	1.75869
127	0x3ff934b72c5197a2	1.57537
128	0x3fb6d2369919411a	0.0891451
129	0xbff4da469d7342ee	-1.30329
130	0xbfd14bdba0a52696	-0.270255
131	0x3fd5352220bc382a	0.331368
132	0xbfc65f28848387df	-0.174779
133	0xbfdb67b5f1bef49d	-0.428205
134	0x3fe2238fbca1059f	0.566841
135	0xbfeb6f9fcb0c026d	-0.857376
136	0xbfc08f2170931013	-0.129368
137	0xbfef829f16b11c6d	-0.984695
138	0x3fe5d1c9f72f76e6	0.681859
139	0xbfe0bc925785f8d3	-0.523019
140	0xbffcf414a4d2b2c0	-1.80959
141	0x3fdfa35935fc3b4f	0.494345
142	0x3fd83c2dadb8348f	0.378673
143	0x3ff8582fd75e2047	1.52153
144	0x3faf5cf5a45c6b3b	0.0612561
145	0xbffa5350092ccf6c	-1.64534
146	0xbff644bb1af3a14d	-1.39178
147	0x3fc2996b76709fa5	0.145307
148	0x3ffea363b256ffc1	1.91489
149	0xbfe8157689ca18bd	-0.75262
150	0xbfd8344806290eed	-0.378191
151	0x3fe30a06e9ff0cbb	0.594974
152	0x4007166cf41f212d	2.88595
153	0x3ffd965d3996fa83	1.84921
154	0x3fe0ca3a4b5568e8	0.524686
155	0x40012a4a8c154c98	2.14565
156	0x3fe6315f88fc9364	0.693527
157	0x3ff75f99c38b04ab	1.46084
158	0x3ff1d63886594af5	1.1148
159	0xc00f365a9a804966	-3.90154
160	0x3fe6c217d2849cb2	0.711193
161	0x4005dc8c9320d994	2.73269
162	0xbfdb08f648c7192f	-0.422422
163	0xbff8f9873ffac1d3	-1.56092
164	0xbfc0ea960b6f9fcb	-0.132159
165	0xbfb1cfe07d83b95e	-0.0695782
166	0x3fe9f4ea8da7f3cf	0.811147
167	0x4001a8b6d86ec17f	2.20738
168	0x3f90c67168f8e7de	0.016382
169	0x3ff22dff822bbecb	1.13623
170	0x3fdf39756c93a711	0.487882
171	0x4000605681ecd4aa	2.04704
172	0xc00520e94ee392e2	-2.64107
173	0x3fd05f5f0b28522f	0.255821
174	0x3fc70b417ca2120e	0.180031
175	0x4010e577d955714c	4.22409
176	0xbf84c85ea902c329	-0.0101478
177	0x3ffbf3f52fc2656b	1.74706
178	0x4009fb1af3a14cec	3.24761
179	0xc00b0e26d4801f75	-3.38191
180	0xbfcf950331e3a7db	-0.246735
181	0x3fe562aa19439de5	0.668294
182	0xbffba8826aa8eb46	-1.72864
183	0x3fe29b328b6d86ec	0.581445
184	0xbff0eb9a176ddacf	-1.05752
185	0x3f74c0a6f9a979b6	0.00506654
186	0xbfa6439d0dc26062	-0.0434846
187	0x3fe0ccfd08d4bad8	0.525023
188	0x3fe1a2877ee4e26d	0.55109
189	0xc00ce9003eea209b	-3.61377
190	0xc00337af640639d6	-2.40219
191	0x3fc42fe82517e77d	0.157712
192	0xbfdae02645e4e69f	-0.419931
193	0x400367525460aa65	2.42545
194	0x3fcd6a400fba8827	0.229805
195	0xbfb2a90e81a302cf	-0.0728921
196	0xbffad64302b40f67	-1.67731
197	0xbfe56a854477ff15	-0.669253
198	0xc0064cfbfc6540cc	-2.78759
199	0x3ff026809d495183	1.0094
200	0x3fa64e12b28a2b68	0.0435644
201	0x3f83bfbaeb78df65	0.00964304
202	0x3f9f1e2300b60865	0.0303884
203	0xbf8cfb407d9e9150	-0.0141511
204	0xbfa83a82b2cd4746	-0.0473214
205	0xbfa459adf13f72dd	-0.0397467
206	0x3f7cad901b96896f	0.00700146
207	0x3f9cad2f78938f94	0.0280044
208	0x3f8e8e9630588d60	0.0149204
209	0xbf94cb691f7e4a89	-0.0203072
210	0xbf97033da221fe58	-0.0224733
211	0xbf895797968a1aa1	-0.0123741
212	0xbf98c0ba6fd2f6b2	-0.0241727
213	0xbf9942cddae9c602	-0.0246689
214	0xbfa220c2ee26b9a8	-0.0354062
215	0x3fa4b307ffa8c22c	0.0404284
216	0x3f8897e996312f4d	0.0120085
217	0x3f9207a5e6aef622	0.0176073
218	0xbfa1ab29e4d5d80e	-0.034509
219	0xbf6a3d88cc97c8b4	-0.00320317
220	0xbfa5a20ddc619546	-0.042252
221	0x3fa7ddf944fadbd4	0.0466154
222	0xbf667a95c853c148	-0.002744
223	0xbfa305c1e0e08008	-0.0371533
224	0x3f9d092542afa7f9	0.0283552
225	0xbf9bbc5a8ec1cf43	-0.0270857
226	0xbf87017c01025e7f	-0.0112333
227	0xbf9887d7d0360dd9	-0.0239557
228	0x3fa5b11d43dda562	0.0423669
229	0x3fa6bff2c9b697d7	0.0444332
230	0xbf736c8940301bd2	-0.00474218
231	0x3f791db09508bb3a	0.00613183
232	0xbf9203ecf48a80f8	-0.0175931
233	0xbfa1898e899b1ed5	-0.0342526
234	0xbf998288051c9f73	-0.024912
235	0x3f8f9393c61b01e4	0.0154182
236	0x3fa8bfaaa55a97fc	0.0483373
237	0x3fa7a9775d2eaf40	0.0462148
238	0x3f9e9f8c21e1d218	0.0299055
239	0x3f6ea44acd83abf2	0.00374045
240	0xbfa256077391c814	-0.0358126
241	0xbfa4128bf3bea91e	-0.039204
242	0xbf77aa1b1c102bf2	-0.00577746
243	0xbf9fa7d09401aa24	-0.0309136
244	0xbf8522a6f3f52fc2	-0.01032
245	0xbf98c5e47b3f3b7f	-0.0241924
246	0x3f93a9cb4004d2ce	0.0192024
247	0xbf92a37768ed2964	-0.0182017
248	0x3f9c25d074213a0c	0.027488
249	0x3f8c545efce5994c	0.0138328
250	0xbff6c558644523f6	-1.42318
251	0x3fd382e44b6e935c	0.304864
252	0x3fb77fedf6e90009	0.0917958
253	0x3fe0abb01c92ddbe	0.520958
254	0x3fd01897a67a52ac	0.251501
255	0xbfda358f2e05ccc9	-0.409519

FC3_bias f8 [50]
0	0xc0014100e6afcce2	-2.15674
1	0xc009ccb295e9e1b1	-3.22495
2	0xbff053458cd20afa	-1.02033
3	0x3fee67a95c853c15	0.950154
4	0x3fb5845712358caa	0.0840506
5	0xbf931a162bbb6fad	-0.0186542
6	0x3fd2c5718eb89507	0.293301
7	0xbff002f2f9873ffb	-1.00072
8	0x3ffcb6113404ea4b	1.79445
9	0xbff304039abf3387	-1.18848
10	0xbf9acd97cde77f00	-0.0261749
11	0x3fdda02fb5d03105	0.462902
12	0x3fb5283ab1acb5d6	0.0826451
13	0xbfddd94d0dcfcc5c	-0.466388
14	0xc0025394317acc4f	-2.29081
15	0x3fc3c768dfbd6a59	0.154523
16	0x3ff121f4b1ee2435	1.07079
17	0x3fb7fbc4311cd87e	0.0936854
18	0xc00061a60d4562e1	-2.04768
19	0x3ff34f0307f23cc9	1.20679
20	0xbf9363c678f5b523	-0.0189353
21	0xbfe2a098915bdd76	-0.582104
22	0xbfe9ce0fc2eba27b	-0.806404
23	0xc0035bda5119ce07	-2.41985
24	0xc01231ceaf251c19	-4.54864
25	0xbff1c3c9eecbfb16	-1.1103
26	0xbfe580c9539b8887	-0.671971
27	0x3fec818611fd5886	0.890811
28	0xbff0a99d883ba344	-1.04141
29	0x4000a5753a3ec02f	2.08079
30	0x3fe9ab990afe60c4	0.802197
31	0x3fd25c4eb56fb8f5	0.286884
32	0xc001ab94d9407896	-2.20878
33	0xbfe29a543f1c7582	-0.581339
34	0xbfe1c80841ede11a	-0.555668
35	0x3fcb0e6f2e8c0486	0.211378
36	0x3fc728e92d55a3a1	0.180936
37	0x3feb0ce2d1f1cfbc	0.845323
38	0xc00132f9873ffac2	-2.14989
39	0xbfb66c8dc7d43f88	-0.0875939
40	0xc0084a1dfb9389b5	-3.03619
41	0xc00a5f0c34c1a8ac	-3.29641
42	0x3fed3bc6eb0b7c35	0.913547
43	0xbffcab0c88a47ed0	-1.79176
44	0xbfef1db0142f61ed	-0.972374
45	0x3ff0088f861a60d4	1.00209
46	0xbf78e54c1f93433e	-0.00607805
47	0x4002b3eab367a0f9	2.33785
48	0xc00476ae7d566cf4	-2.55795
49	0x3fd6158750c1b973	0.345064

FC3_weight f8 [50, 50]
0	0xbff43c36113404ea	-1.2647
1	0xbfbbb9bed30f062d	-0.108303
2	0x3fd3b56b87379746	0.307948
3	0x3f978726d04e618d	0.0229765
4	0xbfd8c1a8ac5c13fd	-0.38682
5	0xbf8f53d2e5eb81c4	-0.0152966
6	0x3fa7fdaabb2a0d1a	0.0468572
7	0x3fe5585dfa871a3b	0.667037
8	0x3ff49719f7f8ca82	1.28689
9	0x3fe0168d759ee88e	0.502753
10	0xbf813926e8213c10	-0.00840979
11	0xbfc2bedfa43fe5c9	-0.14645
12	0xbfcc6916440f2389	-0.221957
13	0x3fe688aefb2aae29	0.704185
14	0xbfb1f3af8fa52411	-0.0701246
15	0xbfaae699fd6ca7c9	-0.0525406
16	0x3fdee1c15097c808	0.482529
17	0xbfe12059a73b42cc	-0.535199
18	0x3fdca0e410b630a9	0.44732
19	0x3fca4b7f5a5332ad	0.205429
20	0xbf3be5e05550fb81	-0.000425689
21	0x3fd5b7baecd07853	0.339339
22	0x3fc89906cca2db62	0.19217
23	0xbfe135c9e6687f45	-0.537816
24	0xbfdb43675ddd2ae9	-0.425989
25	0xbfe0e66cb10342ab	-0.528128
26	0x3fcaa2ca9ac36545	0.208093
27	0xbfc723bbc6eb0b7c	-0.180778
28	0xbfca1cac083126e9	-0.204
29	0xbfbcb4289118c198	-0.112124
30	0xbfca154434e3369c	-0.203774
31	0xbfd763e07a28bb0a	-0.365471
32	0x3fdd619da9c99286	0.459083
33	0xbfd966b1e5c0b999	-0.396893
34	0x3fdc5da272862f5a	0.443215
35	0x3fbebe9c886162f1	0.120096
36	0xbfb64586f2cde856	-0.0869984
37	0xbfcd47f13059641f	-0.228758
38	0x3fe18fe8ab4fa483	0.548817
39	0xbfc49331a08bfc22	-0.160742
40	0x3fed23161a1db878	0.910533
41	0xbfebe82b62845996	-0.872091
42	0x3fe3b6262cba732e	0.615985
43	0xbfda1cc100e6afcd	-0.408005
44	0x3f79f3e9f2219b05	0.00633613
45	0x3ff35d63886594af	1.2103
46	0xbfaa16ee590e8f0f	-0.0509562
47	0x3fdf465e89225311	0.48867
48	0xbfe924b33daf8df8	-0.78573
49	0x3fe4a005c4651f3f	0.644534
50	0xbfdcff583a53b8e5	-0.453085
51	0x3fc0244e93e1c9b4	0.126108
52	0xbfdf55f3519bd406	-0.489621
53	0x3fd5c471b4784231	0.340115
54	0xbfb49db9b9ca9189	-0.0805317
55	0xbfa6a596fddde6d1	-0.0442321
56	0xc003ef34d6a161e5	-2.4918
57	0x3fbdef8487b99d45	0.116936
58	0x3fe3577318fc5048	0.604425
59	0xbfe840f88333fc87	-0.757931
60	0xbf8663ef93a13214	-0.0109328
61	0x3ff14bbc2b94d940	1.08099
62	0x3fb41a099681b725	0.0785223
63	0xbfc24567125dd096	-0.142743
64	0x3fd128dc981beb18	0.268119
65	0xbfb0bc0adda993e3	-0.0653693
66	0x3fed823c85c24c40	0.922148
67	0x3fe660bd44998d04	0.699309
68	0x3fe10f0e90bc7b46	0.533088
69	0x3fde8958d9b5e95b	0.477133
70	0xbfa1e44fa05143bf	-0.034945
71	0xbfe2dac258d5842b	-0.589204
72	0xbfda83b60285ec3e	-0.414289
73	0x3fd37ef177a7008a	0.304623
74	0xbfdb917507e9d94d	-0.430753
75	0xbfe331337eb28d86	-0.599756
76	0x3fcfef8ceb356da0	0.249498
77	0x3fe29bfdf7e8038a	0.581542
78	0x3fe8823c85c24c40	0.765898
79	0x3fcff5a5332acfb7	0.249684
80	0x3fb95bd86deabf26	0.0990577
81	0xbfd18dc11e42e126	-0.274277
82	0x3ff9357e670e2c13	1.57556
83	0x3fd370ac3a860dcc	0.303752
84	0xbfc0046412cf0f9d	-0.125134
85	0xbfd76351deefe500	-0.365437
86	0x3fe431bbcf4e874d	0.631071
87	0xbfb63e9b464203b1	-0.0868928
88	0x3fe36cf206423960	0.607049
89	0xbfdf5e6bc621b7e1	-0.490138
90	0xbfdc6d2aa5c5f7c6	-0.444163
91	0x3fd99e0e736049ed	0.400272
92	0x3fedee5cd4ed2cbf	0.935347
93	0xbfcb6640a6b93ccd	-0.214058
94	0x3fd3ed30f062d40b	0.311352
95	0x3ffd182a9930be0e	1.8184
96	0x3f9c23dfd9190b6a	0.0274806
97	0x3fd974cd31769a91	0.397754
98	0xc009d0870110a138	-3.22682
99	0x3fc7c6d1e108c3f4	0.185755
100	0x3fcef1fddebd9019	0.24176
101	0xbfd0cc964628027e	-0.262487
102	0xbfcbbe121ee67514	-0.216738
103	0xbfd1b62c77574f72	-0.276744
104	0x3fb419fa7d09401b	0.0785214
105	0xbfa73e2bb4b9b090	-0.0453962
106	0xbfeeb6199780baa6	-0.959729
107	0xbfe268a936c58eeb	-0.575276
108	0x3fe254d61b2a27f2	0.572856
109	0x3fe282bc72e275ab	0.578459
110	0xbfab0fd991d72d79	-0.0528553
111	0xbfdab3a2595bbbe8	-0.417214
112	0x3fd32f7f498c3b0c	0.299774
113	0x3fe0ff455a7d2418	0.531161
114	0x3fd3ce5f7403dddb	0.309471
115	0xbfddb69db65ecc3e	-0.464271
116	0x3fec4bff47735c18	0.884277
117	0xbfddcbf6e3f78bbd	-0.465574
118	0x3fd5666a98244e94	0.334376
119	0x3fe38817fc7607c4	0.610363
120	0xbfa40bd952164d49	-0.0391529
121	0x3fe6892ee84ad795	0.704246
122	0xbfd0caf709b738e7	-0.262388
123	0x3fef5f41aef6f8f0	0.980378
124	0x3ff992839042d8c3	1.59827
125	0xbfdd693c03bc4d23	-0.459548
126	0xbfe5e08aefb2aae3	-0.68366
127	0xbfe1e2e09fe86834	-0.558945
128	0xbfea99c9d5a187a5	-0.831273
129	0x3fd4dafd113836a8	0.325866
130	0x3faa92c13844142c	0.0519009
131	0x3fd0e29f9ce8d973	0.263832
132	0xbfd1c9ea9a3d2d88	-0.277949
133	0x3fd3aecd07852f7f	0.307544
134	0x3fc79767903211cb	0.184308
135	0xbfe26a78af3e468d	-0.575497
136	0xbfc4a3161a1db878	-0.161227
137	0xbfe24c059210385c	-0.57178
138	0x3fe5810e8858ff76	0.672004
139	0x3ff2a58f7121ab4b	1.16542
140	0x3feb280ae1049236	0.848638
141	0xbfdab3aabcd78c43	-0.417216
142	0x3fcffff79c842fa5	0.249999
143	0xbfe300c0f01fb82c	-0.593842
144	0x3fecdec80c73abc9	0.902195
145	0xbfe8a4b9884c6a3c	-0.770108
146	0xbf9e3f359ff4fd6d	-0.029538
147	0x3fda3393ab430f49	0.409398
148	0x3ff5df45e0b4e11e	1.36701
149	0x3fe6f980f55de58e	0.717957
150	0xbfd0faca36199781	-0.265307
151	0x3fd427b6fe2e6ea8	0.314924
152	0xbfd771971c10d7bf	-0.366308
153	0xbf9450ce4ead0c3d	-0.0198395
154	0xbfd2d377e1b8ed1c	-0.294157
155	0x3f68d015ac8f958a	0.00302891
156	0x3fde9731098d477c	0.477978
157	0x3fde9bd4067cf1c3	0.478261
158	0xbff88b19a415f45e	-1.53396
159	0x3fee70196d8f4f94	0.951184
160	0x3f793786d4f0dda3	0.00615647
161	0x3fbcae85b9e8c47a	0.112038
162	0x3ff0ccec41dd1a22	1.05003
163	0xbff4824b33daf8df	-1.28181
164	0xbfdebf0995aaf790	-0.48041
165	0xbfc45cee17a02fb6	-0.159086
166	0x3ff8f9f01b866e44	1.56102
167	0xbfd90bd87b56b873	-0.391348
168	0xbfdd2ae8e1d6494d	-0.455744
169	0x3ff0b35d249e44fa	1.04379
170	0x3f97943b8bc748ff	0.0230264
171	0x3fea3c7f77af6406	0.819885
172	0xbfcd56084a515cea	-0.229188
173	0x3fea599cbee807bc	0.823439
174	0xbfc48101f31f46ed	-0.160187
175	0xbfe5765ba6efc372	-0.670698
176	0xbfe05035371971c1	-0.509791
177	0xbfbce93e1c9b413a	-0.112934
178	0x3fe37baecd07852f	0.608848
179	0x3fd71016ce789e77	0.360357
180	0x3fd4070329802c0a	0.312928
181	0x3fe3096787ce95fb	0.594898
182	0xbfe029ed3953dea4	-0.505118
183	0xbfd416aceaaf35e3	-0.313884
184	0xbfdec04c8bc9cd3e	-0.480487
185	0xbfe01d451fc4c166	-0.503573
186	0xbfcdb9389b52007e	-0.232215
187	0x3feecd9e83e425af	0.9626
188	0xbfe52f0e0a84be40	-0.661994
189	0x3ff5672da122fad7	1.33769
190	0x3fca52e72da122fb	0.205655
191	0x3fd61e0828c36da8	0.345583
192	0xbfc6fab53d640e9d	-0.179526
193	0xbff1c84b5dcc63f1	-1.1114
194	0x3ff03996fa82e87d	1.01406
195	0xbffd803eea209aaa	-1.84381
196	0x3f7202e1dca963bc	0.00439728
197	0xbfb94f35c838e956	-0.0988649
198	0x3fc5e19fc2a8869c	0.170948
199	0xc00ecbf5d78811b2	-3.84959
200	0x3fef81d7dbf487fd	0.9846
201	0x3fce404a72ead927	0.236337
202	0xc003dce5b4245f5b	-2.48286
203	0x4006a0afa2f05a71	2.82846
204	0xbfa0204bcfe22b03	-0.0314964
205	0x3f95ead3481110c9	0.0214036
206	0xbffa6b50b0f27bb3	-1.6512
207	0x3ff6fa82e87d2c7c	1.43616
208	0xc00106c764adff82	-2.12831
209	0x40099e646f156191	3.20234
210	0xbf8f65053d56a2a4	-0.0153294
211	0xc00e591148fd9fd3	-3.79349
212	0xc0058c985f06f694	-2.69365
213	0xc008c0c1fc8f3238	-3.09412
214	0xc001281450efdc9c	-2.14457
215	0x3fb24c4db66c3837	0.0714768
216	0x3ff23cf2cf95d4e9	1.13988
217	0xbfd40563ed0f6274	-0.312829
218	0x3fd85fe111276fb1	0.380852
219	0xbf72676e2349304b	-0.00449317
220	0xbfa8d4fdf3b645a2	-0.0485
221	0x3fe6e41d4b6a619e	0.715346
222	0x3f9e726eb265427a	0.0297334
223	0x3fcedf9378ee2867	0.241198
224	0x4003ad81adea8976	2.45972
225	0x4004a7ab7564302b	2.58187
226	0xbfea779207d4e098	-0.827096
227	0xbfd2bbb62413db7f	-0.292707
228	0x3ff3c504816f0069	1.2356
229	0x3fe96327ed84d339	0.793354
230	0x3fef8064a9cdc444	0.984423
231	0x3ff992d77318fc50	1.59835
232	0x3fdf238da3c21188	0.486545
233	0x3fe828f190d173fb	0.754998
234	0x3ff2e3e6c4c5974e	1.18064
235	0xbfe8179e16d6dc1a	-0.752883
236	0xc007035158b827fa	-2.87662
237	0x3fe2e8b5cbff4773	0.590907
238	0xbfd6075f6fd21ff3	-0.3442
239	0x400b08c9320d9946	3.37929
240	0xbfbbdfa00e27e0f0	-0.108881
241	0x40048e075f6fd220	2.56935
242	0xc01296abde3fbbd8	-4.64714
243	0xbfc0f7fcfc3f811f	-0.132568
244	0x3feb8c88a47ecfea	0.860905
245	0xbfeb240d90e23af3	-0.848151
246	0x3f9fbca7bb9b4c21	0.0309931
247	0x3fd89c17225b749b	0.384527
248	0xbfd305814940bbb2	-0.297211
249	0xbfeb607e5a78f25a	-0.855529
250	0x3ff80efdc9c4da90	1.50366
251	0xbff6873ffac1d29e	-1.40802
252	0xbfc9ba908a265f0f	-0.201006
253	0x3fe8a8650e779208	0.770556
254	0xbfc0d1fa333764f1	-0.131408
255	0xbf4b781c827dda5d	-0.000838293

FC4_bias f8 [50]
0	0xbff4b9c0ebedfa44	-1.29535
1	0x401074fdf3b645a2	4.11425
2	0x3fa350dc9165ee71	0.0377263
3	0xbf99d910a7edf033	-0.0252421
4	0xc008d441355475a3	-3.10364
5	0xbfb89f998ddb1f76	-0.0961853
6	0x4005769984a0e411	2.68291
7	0x400179cb6848beb6	2.18447
8	0xbfe14acd184c2720	-0.540381
9	0xbfe9e53a81dc0db2	-0.809232
10	0x40162f49cf56eac8	5.54618
11	0xbff4dbd512ec6bcf	-1.30367
12	0xbfc627fa1a0cf180	-0.173095
13	0xbff3740a2877ee4e	-1.21583
14	0x3fe210470a808c82	0.564487
15	0x3fbdfbd6a593a2e0	0.117124
16	0x3f92a1511dffc548	0.0181935
17	0xc001031ceaf251c2	-2.12652
18	0xbff54e4649906cca	-1.33161
19	0x3ff51018e757928e	1.31643
20	0xbfed6aaf35e310dc	-0.919273
21	0xbfcbc6195464dc23	-0.216983
22	0x3fd109784ec636b1	0.266203
23	0x4008f7fe08aefb2b	3.12109
24	0xbfecc2e770bd017e	-0.898792
25	0xbfffaf5989df1173	-1.98031
26	0xbff5628240b78034	-1.33655
27	0x3fe07aa044ae85ba	0.514969
28	0xbf887ac314bd2667	-0.0119529
29	0xc0156ba1f4b1ee24	-5.35511
30	0x3ff4fad6cb535009	1.31124
31	0x3fa8c9e3e44086d9	0.0484153
32	0x3ffff2b020c49ba6	1.99675
33	0x3fc2325d4a5df224	0.142162
34	0xbfaf483954b563fa	-0.0610979
35	0xc00019652bd3c361	-2.0124
36	0x3ffcb9eadd590c0b	1.79539
37	0x3fc6200c0f01fb83	0.172853
38	0xbfda4fce746cb967	-0.411121
39	0x3fc5a3db3bfb58d1	0.169063
40	0x40033e90ff972474	2.40555
41	0xbfb0233665ed9aa3	-0.0630373
42	0x3ffa439ffd60e94f	1.64151
43	0x3ff516fa82e87d2c	1.31811
44	0x40097e76c8b43958	3.18675
45	0x40000917d6b65a9b	2.00444
46	0xbfea62ef4e0114d3	-0.824577
47	0xbfe86759ab6d00b4	-0.762616
48	0xbff0018e757928e1	-1.00038
49	0x40033150dae3e6c5	2.39908

FC4_weight f8 [50, 50]
0	0x3ff6e5de15ca6ca0	1.43112
1	0x3fd808dd1e53a81e	0.375541
2	0xbff0de892253111f	-1.05433
3	0x3fa2c7b1dad8ff0a	0.0366798
4	0x3fed4523f67f4dbe	0.91469
5	0x3fdfcc25072085b2	0.496835
6	0xbfffe2435696e58a	-1.99274
7	0xbf8892ee84ad794a	-0.011999
8	0xc001a4a8c154c986	-2.2054
9	0x3f95631d05ca445c	0.0208859
10	0xbfe04ca0c282c6ef	-0.509354
11	0xbffde28cbd1244a6	-1.86781
12	0xbfbc8ce703afb7e9	-0.111525
13	0xc0041c0ebedfa440	-2.5137
14	0x3fd3eba27ae9ab2a	0.311257
15	0x3fcef52b90a78290	0.241857
16	0xbfd28882f0e0a84c	-0.289582
17	0xbfd27820a30db6a2	-0.288582
18	0xbfb918cba8e05e7a	-0.0980346
19	0xbfde33e78e1932d7	-0.471918
20	0xbfefbcab81f969e4	-0.991781
21	0x3fd8d46f587d6f97	0.387966
22	0xbff15cbbc2b94d94	-1.08514
23	0xbfc347496aad1d04	-0.150613
24	0x3fe2c41bb8c32a8d	0.586439
25	0x4000706f69446738	2.0549
26	0xbff7c08d8ec95bff	-1.48451
27	0xbfe0a7ac81d3aa37	-0.520468
28	0xbf9b5c2c50c0e2b4	-0.0267188
29	0x3fd91183b60285ec	0.391694
30	0x3fe2531b9b66f933	0.572645
31	0x400abc01a36e2eb2	3.3418
32	0x3ffbb2e9ccb7d417	1.73118
33	0x3ff26670e2c12ad8	1.15001
34	0x3f878acba07ce2aa	0.0114952
35	0x3ff0e15ca6ca03c5	1.05502
36	0x3fe4f368ad688377	0.654713
37	0xc005180b242070b9	-2.63674
38	0x3fe7446b69db65ed	0.727102
39	0x3fa369fcf3dc054f	0.037918
40	0xbff1a3f67f4dbdf9	-1.10253
41	0xbfe97bedb7281fda	-0.796378
42	0x3ff41ff2e48e8a72	1.2578
43	0xbfd5b37867f0aa22	-0.339079
44	0x3ff3810624dd2f1b	1.219
45	0xbfb7c11ff0604fcc	-0.0927906
46	0xbfdcda76d97b30f9	-0.450834
47	0x40016012599ed7c7	2.17191
48	0xc00d38e9f6a93f29	-3.65279
49	0xbfe95495182a9931	-0.791575
50	0x40114085b18548aa	4.31301
51	0xbff0057d1782d384	-1.00134
52	0xbff7438b04ab606b	-1.45399
53	0xbf9d8cc49f00e1a7	-0.0288573
54	0x4012cca03c4b09ea	4.69983
55	0xc009a5072085b185	-3.20558
56	0x3febc1700cd85597	0.867363
57	0x3fd6e53a81dc0db2	0.357741
58	0xbff8b89b52007dd4	-1.54507
59	0xbfe3337867f0aa22	-0.600033
60	0xbfd1caea747d805e	-0.27801
61	0x3fc152d234eb9a17	0.13534
62	0xc003b991bc558644	-2.46561
63	0xbff2d3f7ced91687	-1.17675
64	0x400059e83e425aee	2.0439
65	0xbfd798dcdb37c99b	-0.368705
66	0xbfdc46fdeb52c9d1	-0.441833
67	0xbffb4d4aa10e0221	-1.70637
68	0xbffc19f7f8ca8199	-1.75634
69	0xbfd2178705425f20	-0.282686
70	0xbfdd4a16a4873366	-0.457647
71	0xbfd1fd9ba1b19610	-0.281104
72	0xbfdd9b77c02afddb	-0.462614
73	0x3fef917507e9d94d	0.986506
74	0xbff17c3b4f616723	-1.09283
75	0x40029f601797cc3a	2.32782
76	0xbfde8e2e2b8c75c5	-0.477428
77	0x3fce0e1f7d73c925	0.234806
78	0xbf9af76e6106ab15	-0.0263345
79	0x40132d1b71758e22	4.79405
80	0x400906594af4f0d8	3.1281
81	0x40129a786c22680a	4.65085
82	0x400454f3775b8130	2.54148
83	0xbfe06e45c358afc4	-0.513461
84	0x40062a012599ed7c	2.77051
85	0xbff6aa5a469d7343	-1.41659
86	0x3fbe91ea78af3e47	0.119414
87	0xbffa8e0c9d9d3459	-1.65968
88	0xbff774c6e6d9be4d	-1.46601
89	0x3ff87e08aefb2aae	1.53077
90	0xbff53367a0f9096c	-1.32505
91	0xc0195a1cac083127	-6.338
92	0x3fd467caea747d80	0.318835
93	0xc016a21ea35935fc	-5.65832
94	0x3fecb851eb851eb8	0.8975
95	0xbfa21f51d4deea06	-0.0353952
96	0xbfdbbb40b34e7686	-0.433304
97	0xbfdbd0917d6b65aa	-0.434605
98	0xc02249e59f2ba9d2	-9.14433
99	0x3fd1c4e7253da72a	0.277643
100	0xbfd3444178705426	-0.301041
101	0xbfdf901083dbc233	-0.493168
102	0xbfcfc3efae7924af	-0.248167
103	0x3f789f891cc9ba49	0.00601152
104	0x3f9e6fa757c83df2	0.0297228
105	0x3fcac942d490e66d	0.209267
106	0xbfe4ac01e68a0d35	-0.645997
107	0xbfd43ce63a5c1c61	-0.316217
108	0x3fce2a77a2cecc81	0.235671
109	0x3fd62478854cdb7b	0.345976
110	0x3ff9fdf3b645a1cb	1.6245
111	0x3fe8f0025bfad29a	0.779298
112	0xbffa41bda5119ce0	-1.64105
113	0xbfd86eb4e981387a	-0.381757
114	0x3fdac981beb18117	0.418549
115	0x3fd45753a3ec02f3	0.31783
116	0x3fea3be4473cd573	0.819811
117	0xc013a6bce8533b10	-4.91283
118	0x3fc27caea747d806	0.14443
119	0x3fc3ba6698bb4d49	0.154126
120	0x3ffa3afb7e90ff97	1.6394
121	0x3fcf7c4e2f37fbf0	0.245981
122	0xbfe228522ea0fd3b	-0.567422
123	0x3fc079fec99f1ae3	0.128723
124	0x3fe273a14cec41dd	0.576615
125	0x3fe357c6fbd273d6	0.604465
126	0xbfec72170931012a	-0.888927
127	0x3fc2e32e3821af7d	0.147558
128	0xbf93ad8ae825eea7	-0.0192167
129	0x3fe658a32f44912a	0.69832
130	0x3ffb29f16b11c6d2	1.69774
131	0x3ff46c02f2f98740	1.27637
132	0x3ffd83d9a95421c0	1.84469
133	0x3fcffaca36199781	0.249841
134	0x3fe988bb906466b2	0.797941
135	0x3f94b93e7a8f1257	0.0202379
136	0x3fd2c51dabe2717a	0.293281
137	0x3fd89d6f112fd32c	0.384609
138	0xbfe66748e4755ffe	-0.700108
139	0xbf989f39ec8ad836	-0.0240449
140	0x3fe4b3892ee84ad8	0.646916
141	0xbfe21858bc59b802	-0.565472
142	0x3fd306af46aa087d	0.297283
143	0x3fe719dcb5781c71	0.721907
144	0xbfe00bf7f06705c9	-0.501461
145	0x3f9b0ef20b4ab6dd	0.0264242
146	0x3fb37304da5a5409	0.0759738
147	0xbfe9f023e9ea1405	-0.810564
148	0xbfe1694898f605ab	-0.544102
149	0xc002beea209aaa3b	-2.34322
150	0xbfe35e3da2f8bdec	-0.605254
151	0xbfe11ff0cbaf965b	-0.535149
152	0xbfd1b499d0203e64	-0.276648
153	0xbf9c3a860dcb9a9e	-0.027567
154	0xc014c5bc01a36e2f	-5.1931
155	0xbfbf27ed84d338f8	-0.121703
156	0xbfce0bdcad14a0a1	-0.234737
157	0x3fb1e62710e60151	0.0699181
158	0xbfe5c6412cf0f9d3	-0.680451
159	0xc013347304039abf	-4.80122
160	0x3ff7e777079e59f3	1.49401
161	0x3fccc89b0ee49f51	0.224872
162	0x3fd359f6ec5b078e	0.302366
163	0xbff5b242070b8cfc	-1.35602
164	0xbfe7cd72799a1fd1	-0.743829
165	0xbff7cc25072085b2	-1.48734
166	0xbfae6f2b31063249	-0.0594419
167	0xbfd2a908a265f0f6	-0.291567
168	0xbfb8cec270527873	-0.0969049
169	0x3fb50700a5416d89	0.0821381
170	0x3fd58bfc2224edf6	0.336669
171	0x3fc9d22856605ee5	0.201726
172	0x3fc581e03f705858	0.168026
173	0x3fc87fcb923a29c7	0.1914
174	0x3fe4a69be09bb6aa	0.645338
175	0xc00565bea0ba1f4b	-2.67468
176	0xbff7cbe61cffeb07	-1.48728
177	0x3fbee4f3343fa2ad	0.120681
178	0xbf9e778b51d839e8	-0.0297529
179	0xc00104e50c5eb314	-2.12739
180	0x3ff499999999999a	1.2875
181	0x3ffd5a122fad6cb5	1.83449
182	0xbfdc1754b05b7cfe	-0.438924
183	0xbfab194622234077	-0.0529272
184	0x3fe9375a74c09c3d	0.788007
185	0xbfd02e2fbe33acd6	-0.252819
186	0x3fced0cc35ce1826	0.240747
187	0x3fe7602ea960b6fa	0.730491
188	0x3fcca9b499d0203e	0.223929
189	0x3fdcefcbd556084a	0.452136
190	0x3fe67681669ced0b	0.701966
191	0x3fa99567dbb16c1e	0.049968
192	0x3fe0788db0574b40	0.514716
193	0x3fd732c625e99e95	0.362474
194	0x3ff806594af4f0d8	1.50155
195	0x3fd266772d5e071c	0.287504
196	0xbfa70b39192641b3	-0.0450075
197	0x3febc29e0a41a262	0.867507
198	0xbffc9adea897635e	-1.78781
199	0x3fe410de093532e8	0.627059
200	0x3fd47c6b8b69552e	0.320094
201	0xbfb4fa48301a79ff	-0.081944
202	0xbfc2c929aa1d755c	-0.146764
203	0xbf97a7d749fe50d3	-0.0231012
204	0xbffa8327674d1633	-1.65702
205	0xbfb529dfcd5a9146	-0.0826702
206	0x3ff0e19b90ea9e6f	1.05508
207	0xbfd0157eed45e918	-0.251312
208	0xc005bd859c8c9321	-2.71754
209	0x3ff0ea5f84cad57c	1.05722
210	0xbff7400fba8826ab	-1.45314
211	0xbffec71b47842310	-1.92361
212	0x3fa223b5e7adf9a3	0.0354287
213	0xbff01cb6848beb5b	-1.00701
214	0x3feef2f33ca31e7e	0.967157
215	0xbfee1ef5232d2bb2	-0.941279
216	0xbfc93343fa2ad3e9	-0.196877
217	0x3fef34e11dbca969	0.975205
218	0xbfdc3721d53cddd7	-0.440865
219	0x3fe213532e7b3d8e	0.564859
220	0x3fddd2b2bfdb4cc2	0.465985
221	0x3fb77b68562aaf00	0.0917268
222	0x3fcd6c7a7c9de050	0.229873
223	0x3ff0764adff822bc	1.02888
224	0x3feecbe61cffeb07	0.96239
225	0xbfe88e0221426fe7	-0.767335
226	0x3feec88a47ecfe9b	0.96198
227	0x3fa96d2094cafdc0	0.0496607
228	0x3fa1c0980b242071	0.0346725
229	0xc007ba0f9096bb99	-2.96585
230	0x3fa3904633c0f7ac	0.0382101
231	0x3fe9d785f8d2e515	0.807559
232	0x3ff400b242070b8d	1.25017
233	0x3fd09abb01c92ddc	0.259444
234	0xbfd6352220bc382a	-0.346993
235	0x3fd2e26916440f24	0.295069
236	0xbfcf6b228dc981bf	-0.245457
237	0x3fc7944241c3efae	0.184212
238	0xbfa33743632c1f43	-0.037531
239	0x3fd9f6b1a2a4db16	0.405682
240	0x3fc97f06705c896e	0.199189
241	0x3fe2b89f83be6602	0.585037
242	0xbfe0cb61fe21d96f	-0.524827
243	0x3fdf256ffc115df6	0.48666
244	0xbfeabb03e20ccff2	-0.835329
245	0x3fc3c70c996b7671	0.154512
246	0xbfd587e38eb0318c	-0.336419
247	0x3fef9fd1569f4906	0.988259
248	0xbfd0394b7b28954a	-0.253497
249	0x3f99331352c31b73	0.0246089
250	0xbfa03dccea28fe26	-0.0317215
251	0xbf98d33c5296a5c9	-0.0242433
252	0x3fa14317acc4ef89	0.033715
253	0x3f9cfe65cc0cb36d	0.0283142
254	0xbfaa9e038ba5bb10	-0.0519868
255	0xbf9a1c91303e8c2d	-0.0254996
