examples/benchmarks/ACAS XU/Networks/ACAS_XU_5_5.onnx (onnx, 108361 bytes, 14 tensors)

FC0_bias f8 [50]
00000000: 5ec7 6e55 c84b b3bf 6f65 89ce 328b d0bf
00000010: f4fb fecd 8b13 a73f c26b 9736 1c96 c4bf
00000020: 22e1 7b7f 83f6 c03f 8c2e 6f0e d76a cbbf
00000030: 4564 58c5 1b99 d03f 16f6 b4c3 5f93 cf3f
00000040: 234a 7b83 2f4c d6bf 1b67 d311 c0cd babf
00000050: 8945 0c3b 8c49 dcbf 4f07 b29e 5a7d d8bf
00000060: 253b 3602 f1ba d3bf 6893 c327 9d48 d6bf
00000070: 8aa3 bca0 cf91 a23f 743b a011 11a3 943f
00000080: 0893 e2e3 13b2 e1bf 6077 baf3 c473 e5bf
00000090: 90a3 39b2 f24b e4bf 0550 8c2c 9963 d3bf
000000a0: f0dd e68d 9342 e7bf 2b51 f696 72be ce3f
000000b0: bd8f a339 b2f2 c9bf 4276 dec6 6647 cabf
000000c0: 2601 6a6a d95a db3f c7f4 8425 1e50 d5bf
000000d0: 2818 84a8 b173 a53f 508c 2c99 6379 d23f
000000e0: 9bca a2b0 8ba2 a33f cc46 e7fc 14c7 d23f
000000f0: 44fd 8925 40a8 b6bf 54a9 d903 adc0 cc3f
00000100: aab7 06b6 4ab0 dabf a1fc 38f5 dc9d 90bf
00000110: 98da 5207 793d bcbf d6e1 e82a dddd e0bf
00000120: 51e4 ff44 1b36 b03f 92e9 d0e9 7937 ca3f
00000130: 522a e109 bdfe debf 7809 4e7d 2079 c93f
00000140: 077c 7e18 213c b4bf f33c b83b 6bb7 bd3f
00000150: 9566 f338 0ce6 e0bf 25b2 0fb2 2c18 e2bf
00000160: 770f d07d 39b3 c3bf 4086 8e1d 54e2 d4bf
00000170: a12a 4b19 dde6 92bf f8c3 cf7f 0f5e c7bf
00000180: aa81 0782 d799 80bf 6c5d 6a84 7ea6 d4bf
-0.0753751 -0.258496 0.045071 -0.160831 0.132523 -0.214198 0.259345 0.246685
-0.3484 -0.104702 -0.441989 -0.382651 -0.308285 -0.348182 0.0362687 0.0201533
-0.552988 -0.670382 -0.634271 -0.302954 -0.726877 0.240187 -0.202719 -0.205304
0.42742 -0.333015 0.0418983 0.288659 0.0383495 0.293401 -0.0885048 0.22463
-0.41701 -0.0162272 -0.110313 -0.527083 0.0633256 0.204818 -0.484298 0.199009
-0.0790425 0.11608 -0.528082 -0.565451 -0.153907 -0.326314 -0.0184588 -0.182558
-0.00810593 -0.322662

FC0_weight f8 [5, 50]
00000000: 4df3 8e53 7424 c3bf d8a9 87a2 1f91 7f3f
00000010: 9a76 d613 025e 83bf 54e6 41d5 438f a73f
00000020: 9515 1e8f 7461 8f3f c986 7f22 60be 86bf
00000030: 13e2 804c 2146 a2bf ee34 e37e d12f 5bbf
00000040: ff1f 274c 18cd be3f dd7b b8e4 b853 c0bf
00000050: fab2 599a 0068 a53f 917e fb3a 700e 01c0
00000060: 46d3 d9c9 e028 f2bf 698e acfc 3218 d2bf
00000070: 505d af9f b426 9c3f fade 9513 a39d 99bf
00000080: 048d 9944 bde0 dbbf b1a6 b228 eca2 dbbf
00000090: 8c6d 8c7c e229 793f 5ad9 3ee4 2d57 9fbf
000000a0: 639b 5434 d6fe 9ebf 371c 9606 7e54 cd3f
000000b0: 59c4 b0c3 98f4 e0bf 3fe4 2d57 3f36 e5bf
000000c0: f73b 1405 fac4 f43f 615e 36f0 598d 8bbf
000000d0: eb89 5352 cce6 863f ea3f 6b7e fca5 b9bf
000000e0: fe32 ce95 f727 87bf 6005 f86e f3c6 d53f
000000f0: f4a6 2215 c616 de3f 48c6 c5ac 72fc b13f
00000100: 28b8 5851 8369 d13f 244d 7276 210c 923f
00000110: 6b9a 779c a223 bdbf d0be eaaf f42d 653f
00000120: 6022 de3a ff76 b3bf 2123 a0c2 11a4 babf
00000130: 3a75 e5b3 3c0f f0bf 4a24 5504 cd21 783f
00000140: 73bc 02d1 9332 eebf 9a2e 7a5d 75d3 7c3f
00000150: 5995 33ca e9a1 7c3f 8bc6 3599 4c70 953f
00000160: 551c 6217 a0c8 b8bf 2ac9 3a1c 5da5 bfbf
00000170: ecc3 d55c c9e9 86bf de02 098a 1f63 bebf
00000180: 5896 43e6 255a 9dbf 3815 a930 b610 b43f
00000190: 7912 c770 2b73 99bf 863d edf0 d764 f23f
000001a0: 0308 1f4a b464 e5bf 8d9c 853d ed70 f63f
000001b0: 2e56 d460 1a86 c1bf 5f7d 3cf4 ddad c2bf
000001c0: 58c5 1b99 477e f93f d26e f431 1f10 b8bf
000001d0: 82c5 e1cc afe6 f33f 8ee9 094b 3ca0 0340
000001e0: 1dac ff73 982f f6bf 6d31 89c4 4ec2 b63f
000001f0: fb1f 19d8 4e87 4a3f 9e5e 29cb 1047 f13f
00000200: 3a05 f9d9 c875 d6bf 2d3e 05c0 7806 c9bf
00000210: 0667 f0f7 8bd9 d93f 5de0 f258 3332 b4bf
00000220: e220 21ca 17b4 c63f 3546 eba8 6a82 cc3f
00000230: 42f4 ff05 ddb9 ab3f b48e aa26 88ba fc3f
00000240: cd74 af93 fab2 c23f 5a20 8b7e 7e29 b5bf
00000250: a53c a9e5 bd20 90bf 86e6 3a8d b4d4 02c0
00000260: abcc 94d6 df12 c43f c6f9 9b50 8880 f13f
00000270: d882 de1b 4300 a4bf 0071 57af 22a3 dabf
00000280: 5bb4 006d ab59 e2bf 942e fd4b 5299 ba3f
00000290: 7862 d68b a19c f0bf 9328 8b2d ca8d 4ebf
000002a0: f393 6a9f 8ec7 ff3f ada3 aa09 a26e f13f
000002b0: b7b6 f0bc 546c df3f 6e51 6683 4c32 dabf
000002c0: ad17 4339 d1ae f7bf 437f 57ba 7141 a43f
000002d0: 62df a9db 3411 b93f adf5 ea88 e87c a93f
000002e0: fe6b 2f58 607e b7bf e527 d53e 1d0f f93f
000002f0: b3ea 73b5 157b f6bf 8907 944d b9c2 02c0
00000300: 0577 b9eb 1980 553f 48e2 e5e9 5c51 debf
00000310: c917 59d7 0d80 b13f 118d ee20 7626 eb3f
00000320: 1524 3283 635c 52bf e544 bb0a 29bf f2bf
00000330: b878 78cf 81e5 e0bf 842c 0b26 fea8 e13f
00000340: 9049 46ce c29e f53f 81fd 2147 8490 a5bf
00000350: b7d2 6bb3 b112 bf3f 58c6 866e f607 be3f
00000360: 7ffb 3a70 ce88 f5bf 560e 2db2 9d6f 03c0
00000370: 6abc 7493 1804 f63f f6e9 1d13 ce13 a8bf
00000380: e1e3 5d3f 0e94 953f 340f 6091 5f3f d6bf
00000390: ad33 be2f 2e55 df3f 7638 ba4a 77d7 edbf
000003a0: 52d1 58fb 3bdb cfbf 33b4 f0ab 2814 ac3f
000003b0: b255 3838 c76f b4bf dd22 30d6 3730 d0bf
000003c0: 8c0e ed08 4c4c b8bf 1d1f 2dce 18e6 bc3f
000003d0: 6da6 e782 9fdd b8bf ea40 d653 abaf e33f
000003e0: 8fdb 1602 0c0d 7cbf 95f3 c5de 8b2f e43f
000003f0: 1477 bcc9 6fd1 c1bf dfc0 e446 91b5 c03f
00000400: 3b42 9b56 e972 733f 7898 f6cd fd55 ebbf
00000410: 8a1d 8d43 fd2e c23f 840c e4d9 e55b 8fbf
00000420: 1c08 c902 2670 c5bf a284 7037 4e2b 71bf
00000430: 3efe 77e9 cb77 95bf b378 b130 444e e0bf
00000440: 3333 3333 33b3 f9bf 3eb1 4e95 ef19 e8bf
00000450: 994b 0570 0e32 b6bf 7450 78bf c062 a3bf
00000460: 5824 8161 54ad b6bf ddb4 19a7 21aa c6bf
00000470: 7793 2930 ae02 b23f 7b31 9413 ed2a f8bf
00000480: 878a 71fe 2614 c63f 1dac ff73 98ef 0340
00000490: a6b1 836b 6ab0 7b3f 5e0f 26c5 c727 cc3f
000004a0: 632a fd84 b35b da3f 4181 77f2 e9b1 efbf
000004b0: a727 87aa f303 92bf 780b 2428 7e8c cf3f
000004c0: 8675 e3dd 91b1 d8bf 91d1 0149 d8b7 ec3f
000004d0: 6ac0 20e9 d32a ca3f 703e 75ac 527a ce3f
000004e0: cd03 58e4 d70f ea3f 5985 cd00 17e4 e33f
000004f0: 5b0a 48fb 1f60 d23f 699e 6d7f 78a7 b0bf
00000500: 90f7 aa95 09bf ce3f 7a34 7ada 86f6 863f
00000510: d57a bfd1 8e1b aebf ca56 f20c 75b3 8abf
00000520: 6877 4831 40a2 d03f 6b0e 10cc d1e3 d83f
00000530: 1afa 27b8 5851 d8bf 8c69 a67b 9dd4 e7bf
00000540: cbf8 f719 170e f1bf 2a3a 92cb 7f48 f8bf
00000550: 0c4f f921 80e5 b23f fb5a 971a a19f c9bf
00000560: 89ed ee01 ba2f e5bf 8851 6bf5 300f 9cbf
00000570: 4cb5 053a 49a9 ae3f d5e7 6a2b f697 f53f
00000580: 6380 4413 28e2 eebf 35b2 2b2d 23f5 d63f
00000590: d40d 1478 279f d0bf 69ab 92c8 3ec8 db3f
000005a0: 5147 6c1c 565d b6bf aa0d 4e44 bfb6 de3f
000005b0: db35 21ad 31e8 c6bf 0971 8c34 563a 46bf
000005c0: ae7e 6c92 1ff1 d33f c895 7a16 84f2 ae3f
000005d0: a86c fd99 e6c2 b1bf 6b44 300e 2e1d d13f
000005e0: e6ae 25e4 839e de3f 2ffd 4b52 9962 c6bf
000005f0: a6f2 7684 d382 87bf 519f e40e 9b48 e83f
00000600: 2bfb ae08 feb7 f9bf 934e ce97 b17d 453f
00000610: 59f7 8f85 e810 c8bf f722 da8e a9bb babf
00000620: 710d 2208 4614 893f 67ba d749 7d59 c03f
00000630: f051 7fbd c282 d8bf 01f8 a754 89b2 bf3f
00000640: 0b61 3596 b036 86bf 96cb 46e7 fc94 e9bf
00000650: f9e5 82e9 6ae1 a43f df88 ee59 d7e8 ebbf
00000660: 139b 8f6b 43c5 c8bf 0f45 813e 9127 f4bf
00000670: 4837 c2a2 224e e6bf 417f a147 8c9e e5bf
00000680: b2a1 9bfd 8172 c5bf 0157 68d6 08b3 973f
00000690: e40a 94b9 9e8d b5bf 0cb0 8f4e 5df9 a4bf
000006a0: 6a32 e36d a5d7 c2bf 2b3a 483e 65eb a7bf
000006b0: a96c 5853 5914 ca3f 99b7 ea3a 5453 d5bf
000006c0: 172d 40db 6ad6 d7bf 3d61 8907 944d e4bf
000006d0: ef59 d768 3950 efbf 768c 2b2e 8e4a e1bf
000006e0: b515 fbcb ee89 00c0 5e63 97a8 de1a d03f
000006f0: 1fbf b7e9 cf7e bcbf b0be cb56 a87f b63f
00000700: 8234 0818 0225 a6bf a52c 431c ebe2 f8bf
00000710: 7c44 4c89 247a cbbf 2f8a 1ef8 18ac ccbf
00000720: dee8 633e 20d0 edbf 8b89 cdc7 b5a1 cabf
00000730: 8b52 42b0 aa5e c4bf c213 7afd 497c d43f
00000740: b13c fec1 76e6 9c3f f6bf 541a ce88 44bf
00000750: 2db1 321a f9bc ecbf 1d77 4a07 eb7f f4bf
00000760: 77bb 5e9a 22c0 d63f 5f29 cb10 c7ba d8bf
00000770: 780e 65a8 8aa9 c8bf 785e 2a36 e675 ddbf
00000780: 3b73 eefa f5d8 70bf cbd5 8f4d f2a3 ecbf
00000790: cc24 ea05 9fe6 cebf 9d9b 36e3 3444 c53f
000007a0: 562a a8a8 fa95 c03f d227 a897 ce3d aa3f
000007b0: 0691 56c6 d0fb 603f b307 5a81 21ab e9bf
000007c0: 9353 3bc3 d496 d83f c8cd f43b e2ca 68bf
-0.14955 0.00770676 -0.00945665 0.0460149 0.0153226 -0.0111053 -0.0356913 -0.00165935
0.120317 -0.127555 0.0418091 -2.13205 -1.13498 -0.282727 0.0274914 -0.0250154
-0.435592 -0.431819 0.00614346 -0.030606 -0.030269 0.229141 -0.529858 -0.662872
1.29809 -0.0134532 0.0111824 -0.100189 -0.0113067 0.340268 0.47014 0.0702583
0.272065 0.0176244 -0.113825 0.00258539 -0.0760345 -0.104066 -1.00372 0.00589161
-0.943674 0.0070376 0.00699035 0.0209362 -0.0968113 -0.123617 -0.0111881 -0.1187
-0.0286642 0.07838 -0.0248534 1.14962 -0.668543 1.40257 -0.136905 -0.145931
1.59333 -0.093996 1.24382 2.45324 -1.38662 0.0889024 0.000809587 1.07985
-0.350939 -0.19551 0.403903 -0.078891 0.177371 0.22273 0.0541524 1.79554
0.146087 -0.0826644 -0.0157499 -2.35386 0.156826 1.09388 -0.0390645 -0.416207
-0.573446 0.103902 -1.03824 -0.00093243 1.98622 1.08951 0.490987 -0.40932
-1.48018 0.0395618 0.0979188 0.0497811 -0.0917721 1.56619 -1.40505 -2.34508
0.00131228 -0.473716 0.0683602 0.848445 -0.00112066 -1.17167 -0.528016 0.551879
1.35126 -0.0421182 0.121379 0.117309 -1.3459 -2.4295 1.376 -0.0470261
0.0210726 -0.347618 0.489574 -0.932552 -0.248878 0.0548413 -0.0798306 -0.252943
-0.0949142 0.112886 -0.0971317 0.615194 -0.00684838 0.630804 -0.139204 0.130541
0.00474826 -0.854247 0.142059 -0.015312 -0.167485 -0.00419169 -0.0209648 -0.509554
-1.60625 -0.753166 -0.0867013 -0.0378628 -0.0885823 -0.177067 0.0703534 -1.51048
0.17249 2.49199 0.00676004 0.219964 0.411847 -0.990468 -0.0175932 0.246475
-0.385838 0.897442 0.204432 0.238108 0.814434 0.621593 0.287117 -0.0650554
0.240205 0.0112124 -0.058804 -0.0130376 0.259903 0.388905 -0.379965 -0.744704
-1.06594 -1.5177 0.0738144 -0.200184 -0.662076 -0.0274017 0.0598853 1.3496
-0.965107 0.358712 -0.259714 0.434097 -0.0873617 0.479904 -0.178961 -0.000678341
0.311592 0.060444 -0.0693802 0.267406 0.478425 -0.174884 -0.01148 0.758863
-1.60742 0.000655853 -0.188016 -0.104426 0.0122457 0.127731 -0.382981 0.123818
-0.0108465 -0.799437 0.0407823 -0.872173 -0.19352 -1.25966 -0.697038 -0.675604
-0.167557 0.0231439 -0.0841922 -0.040965 -0.147206 -0.0467178 0.203746 -0.333211
-0.372462 -0.63447 -0.978543 -0.540351 -2.06735 0.25164 -0.11131 0.0878854
-0.0432511 -1.5554 -0.214665 -0.224002 -0.931656 -0.20806 -0.159139 0.320086
0.0282229 -0.00062666 -0.898068 -1.28123 0.355477 -0.3864 -0.192674 -0.460321
-0.00411316 -0.895013 -0.241413 0.166144 0.129577 0.0512528 0.0020732 -0.80214
0.384206 -0.00302643

FC1_bias f8 [50]
00000000: 48c4 9448 a297 db3f 52cb 7b41 b04f a93f
00000010: 7e54 c37e 4fac cb3f a164 726a 6718 e8bf
00000020: 90bf b4a8 4f72 d2bf 1210 b47e 0ab2 83bf
00000030: 1409 a69a 594b c1bf 7749 9c15 5113 bdbf
00000040: 572d e1b7 be9b 80bf ec51 b81e 85eb bd3f
00000050: 1f13 29cd e671 d53f c8d2 872e a8ef f33f
00000060: 6ece 77a6 86ec a2bf a541 3cd8 83c5 80bf
00000070: b22e 6ea3 01bc f13f 707b 82c4 76f7 ca3f
00000080: e8c1 dd59 bbed d1bf e506 c755 fa43 82bf
00000090: d098 49d4 0b3e 9dbf 4ca5 9f70 766b d2bf
000000a0: 7182 250d 24de a0bf 8df1 61f6 b26d ebbf
000000b0: d505 bccc b051 c23f 2a1c 412a c50e e43f
000000c0: 8b33 8639 419b dcbf 8ab6 3a6b 7db2 5ebf
000000d0: 34d8 d479 54fc e13f 1be0 38df 3e61 8fbf
000000e0: e468 8eac fcb2 e43f c673 113a 43cc a03f
000000f0: c6bf cfb8 7020 f83f a4fd 0fb0 56ed dcbf
00000100: 77f5 2a32 3a20 d5bf 1f68 0586 ac6e f1bf
00000110: 2cef aa07 cc43 c43f 3c2f 151b f33a de3f
00000120: d6e2 5300 8ce7 e63f 55a4 c2d8 4210 e4bf
00000130: a373 7e8a e3c0 c13f e317 5e49 f25c e9bf
00000140: 4354 e1cf f066 e9bf f964 c570 7500 cabf
00000150: cc7d 7214 200a ea3f e751 f17f 4754 c43f
00000160: 0627 47a6 e8ed 64bf 0f9a 5df7 5624 ee3f
00000170: a99f 3715 a930 d0bf 37a6 272c f180 e5bf
00000180: 8b2c 3eaa 0606 9dbf 19e5 9997 c3ee e7bf
0.43113 0.0494361 0.216196 -0.752979 -0.288227 -0.00961693 -0.135112 -0.113576
-0.00810956 0.116875 0.335077 1.24601 -0.0369608 -0.00818923 1.1084 0.210677
-0.280135 -0.00891872 -0.028557 -0.287809 -0.0329448 -0.857141 0.143118 0.626803
-0.446976 -0.00187361 0.562052 -0.0153222 0.646849 0.0328084 1.50792 -0.451986
-0.330092 -1.08952 0.158319 0.472348 0.715765 -0.626985 0.138699 -0.792596
-0.793816 -0.203139 0.813736 0.158822 -0.00255485 0.941936 -0.25297 -0.67199
-0.0283433 -0.747896

FC1_weight f8 [50, 50]
00000000: f2b3 91eb a694 bfbf 1b2d 077a a86d bf3f
00000010: 7977 64ac 36ff c3bf 0745 f300 16f9 bdbf
00000020: 51d8 45d1 031f a73f 4bfc f61a 272a a43f
00000030: 57bc 47ec c9b2 a6bf 85cc 9541 b5c1 c1bf
00000040: 1b3f 9ea7 4b10 973f 707a 17ef c7ed c5bf
00000050: d624 d3fc 8c66 b2bf 5d89 40f5 0f22 cbbf
00000060: cf14 3aaf b14b c6bf e99b 340d 8ae6 91bf
00000070: ef53 faae ad44 b9bf e195 24cf f57d c4bf
00000080: 7502 9a08 1b9e 8ebf 3ccf e9c3 c430 a53f
00000090: e8c1 3813 2e3f 8bbf 3b8b dea9 807b c8bf
000000a0: 3cf4 ddad 2cd1 c13f 9f04 36e7 e099 903f
000000b0: 6808 c72c 7b12 c8bf c710 001c 7bf6 c8bf
000000c0: ab92 6d85 5561 88bf 518e 5dfd 33de 91bf
000000d0: 5954 40b1 80cf 80bf 7a05 fde0 d7a3 8bbf
000000e0: 018f 030a 50ae 9c3f 15ee 4bec 9051 a4bf
000000f0: f701 486d e2e4 b2bf 4fe5 b4a7 e49c c23f
00000100: 069e 7b0f 971c c1bf b9f7 1510 ff55 a43f
00000110: fc90 1216 702a 953f dc20 629c 2234 703f
00000120: 2e37 18ea b0c2 b9bf 1d8d e843 bc1a a53f
00000130: 885c ba93 991c b6bf bf0f 0709 51be ce3f
00000140: 6a4a 5755 d405 a5bf dfc1 4f1c 40bf b33f
00000150: ad4b 8dd0 cfd4 c7bf 05e0 9f52 25ca c4bf
00000160: 016c 4084 b872 963f 08aa 46af 0628 c1bf
00000170: 4521 b00f 3ed6 74bf a69d 9acb 0d86 c4bf
00000180: 4b6d f310 d77b 9b3f c880 47af 61e1 8f3f
00000190: bb47 3657 cdf3 e5bf daac fa5c 6dc5 ce3f
000001a0: 807d 74ea ca67 d0bf a225 8fa7 e507 ce3f
000001b0: d791 d90f 6734 b43f 291f 27f1 5e5a 89bf
000001c0: cadf bda3 c604 ebbf 4aef 1b5f 7b66 04c0
000001d0: 9412 279c 82a1 9b3f 158d b5bf b3bd e33f
000001e0: b81e 85eb 51b8 d03f d10d a892 5c59 953f
000001f0: fc36 c478 cdab c03f a1d4 038b 68e0 8cbf
00000200: ce17 7b2f be68 a7bf 46ed 7e15 e0bb ddbf
00000210: 2f6e a301 bc05 d23f 9e8f 7c6f 1d2d a8bf
00000220: 5881 107f 0349 9ebf 15e6 3dce 3461 e73f
00000230: 5084 1e7b 0789 b8bf ca22 032f e9de b13f
00000240: afb3 21ff cca0 e03f 2882 380f 2730 dabf
00000250: f393 6a9f 8ec7 ffbf 1668 1c8f beee a13f
00000260: 55c1 a8a4 4e40 f2bf 7bf4 86fb c8ad 89bf
00000270: 809a 5ab6 d617 d7bf 27dd 96c8 0567 ee3f
00000280: 062f fa0a d20c fabf c47f 153b 7540 a93f
00000290: fcfb 8c0b 0742 f03f 4fe7 8a52 42b0 e03f
000002a0: d5b2 b5be 4868 d4bf 36c9 8ff8 156b e9bf
000002b0: 7441 7dcb 9cae e23f 7d59 daa9 b9dc db3f
000002c0: 72e1 4048 16b0 e9bf 75ff fdce 9b2f 6bbf
000002d0: 755a b741 edb7 d5bf 93fc 885f b186 ddbf
000002e0: 2063 ee5a 42be f2bf 1478 279f 1edb ba3f
000002f0: 5551 1784 4df8 90bf 7922 88f3 7002 d83f
00000300: 8b36 c7b9 4db8 c93f 5c21 acc6 12d6 c43f
00000310: 3e72 1019 fb37 9c3f 8db3 e908 e066 eabf
00000320: ba2f 67b6 2bf4 d63f 70f4 e791 f58a b73f
00000330: a8a0 ec77 7297 9e3f 29cd e671 18cc bbbf
00000340: bedb bc71 5218 e4bf 5f67 9eb7 0c93 94bf
00000350: 1ade acc1 fbaa b8bf 3065 e080 96ae c4bf
00000360: daea cd03 b39d aabf 2717 6360 1dc7 e13f
00000370: 307a 13e8 b8bf 9fbf 080a 174d c2e0 b73f
00000380: 768d 9603 3dd4 c43f 99e5 fc5e 549c a03f
00000390: 2bd9 b111 88d7 e73f 99d6 a6b1 bd16 c03f
000003a0: 5727 6728 ee78 e3bf ab42 03b1 6ce6 90bf
000003b0: 1b00 602b 572e 923f 75ac 527a a697 d3bf
000003c0: 20f0 c000 c287 ba3f f20c 1afa 27b8 ec3f
000003d0: 118b 1876 1893 e2bf c26c 020c cb9f d83f
000003e0: fb74 3c66 a0b2 f6bf 472f b484 c65d a6bf
000003f0: d4ef c2d6 6ce5 c33f f601 50de 2afc 67bf
00000400: d00d 4dd9 e907 c33f e21e 4b1f baa0 f3bf
00000410: 8c15 3598 86e1 d63f 8cd6 51d5 0451 d53f
00000420: 72fb e593 15c3 b9bf 683c 11c4 7938 e4bf
00000430: fd83 4886 1c5b d33f 91b4 1b7d cc87 e83f
00000440: f2b3 91eb a694 e4bf fe0e 4581 3e91 e6bf
00000450: 9586 753e 9704 b9bf 0bec 3191 d26c c23f
00000460: 5308 e412 471e d13f d999 42e7 3576 d03f
00000470: d40d 1478 279f d83f fa34 dda1 17a4 a73f
00000480: 04ba 4093 0e20 953f b79a 75c6 f7c5 bdbf
00000490: de03 745f ce6c cf3f 6119 1bba d91f bcbf
000004a0: 7ced 9925 016a aabf b724 07ec 6a72 e2bf
000004b0: 9cf9 d51c 2098 d03f 1856 968d 7340 b5bf
000004c0: 2601 6a6a d95a e83f b0ae 0ad4 62f0 d5bf
000004d0: 3167 11e5 6613 933f 6f68 2508 b2f9 a3bf
000004e0: 9eec 6646 3f1a be3f be9f 1a2f dda4 f2bf
000004f0: beb0 4687 d1bd a03f 5795 7d57 047f e23f
00000500: 30d2 3021 8bd9 873f 3178 98f6 cdfd c73f
00000510: 2f61 7eb8 f5e4 a3bf eb4c 463a a869 8cbf
00000520: 5133 a48a e255 db3f 4cfe 277f f70e e3bf
00000530: 710c b732 970a b8bf 7407 145e 4037 7d3f
00000540: a330 39ff c066 92bf e5b4 a7e4 9c58 e53f
00000550: d3de e00b 93a9 d6bf a089 b0e1 e915 f23f
00000560: 1f31 7a6e a12b c7bf e82f f488 d1f3 ec3f
00000570: 535c 55f6 5dd1 01c0 1c0e a6bc b1fb a5bf
00000580: 427a 8a1c 226e c0bf 27f2 c92f 2878 abbf
00000590: 7655 fbcf f5d8 b1bf 2045 9db9 8704 eb3f
000005a0: f0fc a204 fd85 dabf 670e 492d 944c d43f
000005b0: 85b4 c6a0 1342 cfbf 8407 173c 9688 a1bf
000005c0: 213e b0e3 bfc0 e7bf 7d61 4bf2 d035 7bbf
000005d0: 971d e21f b674 eebf 0933 6dff caca f23f
000005e0: aed8 5f76 4f1e c2bf 3fc7 478b 3386 dcbf
000005f0: f08b 4b55 dae2 df3f 0c50 64f7 2eef b33f
00000600: 72c2 84d1 acec e93f 75e8 f4bc 1b0b e73f
00000610: f5f1 d077 b7b2 943f ee3d 5c72 dc29 c3bf
00000620: 994b aab6 9be0 d5bf ab96 7494 83d9 d23f
00000630: 11e2 88bd 695d 773f db15 fa60 191b e13f
00000640: 8ae8 d7d6 4fff de3f 9868 9082 a790 dd3f
00000650: 9850 c1e1 0511 c13f 2c7f be2d 58aa d33f
00000660: 064a 0a2c 8029 d13f 6167 afe3 6487 a13f
00000670: 08ca 6dfb 1ef5 cf3f 1a8b a6b3 93c1 f1bf
00000680: 44e8 56be 1d97 a3bf 6820 96cd 1c92 c63f
00000690: 8acc 5ce0 f258 cb3f be30 992a 1895 d2bf
000006a0: 2409 c215 5028 ed3f 35e0 e297 b0ec 88bf
000006b0: 3bc8 ebc1 a478 e53f b5c1 89e8 d7d6 de3f
000006c0: 234e 27d9 ea72 d53f f80d 5d9a 6c4d a8bf
000006d0: edd6 3219 8ee7 afbf e412 471e 882c e2bf
000006e0: cc99 ed0a 7db0 c6bf 4568 5fd4 4911 b03f
000006f0: 50e0 9d7c 7aec e03f f31f d26f 5f07 c8bf
00000700: 22ab 5b3d 27bd d43f 5a7e e02a 4f20 acbf
00000710: e048 a0c1 a6ce e13f d2f8 2a9e 1feb 8ebf
00000720: ac56 26fc 52bf 05c0 c711 6bf1 2900 e73f
00000730: 982f 2fc0 3e3a fcbf 4d14 2175 3bfb c6bf
00000740: 4feb 36a8 fd56 e63f 4d15 8c4a ea74 32c0
00000750: 8b37 328f fc41 f2bf ebe4 0cc5 1def ee3f
00000760: 6902 452c 62d8 d43f f9bc e2a9 471a b83f
00000770: bd3a c780 ecf5 dcbf 014f 5ab8 acc2 e13f
00000780: 3e25 e7c4 1eda d1bf 0531 d0b5 2fa0 d3bf
00000790: e3df 675c 3890 fdbf ebd4 4b42 d8df a4bf
000007a0: 3c5c bc69 447a a3bf d9ee 1ea0 fb72 babf
000007b0: f870 c971 a774 f13f aab9 dc60 a8c3 e4bf
000007c0: d3c8 dfa4 0626 79bf b22e 6ea3 01bc db3f
000007d0: 0dfe 7e31 5bb2 d63f 3203 95f1 ef33 ea3f
000007e0: 3e76 1728 2930 e13f 6519 e258 1737 f1bf
000007f0: 1406 651a 4d2e e2bf e932 90c2 50e2 9ebf
-0.123362 0.122767 -0.156226 -0.117082 0.0451585 0.0393841 -0.0443328 -0.138724
0.0225231 -0.171319 -0.0718773 -0.211977 -0.174185 -0.017481 -0.0987042 -0.160094
-0.01495 0.0413877 -0.0133041 -0.191269 0.139196 0.016212 -0.188064 -0.195022
-0.0119044 -0.0174492 -0.00820828 -0.0134961 0.0280087 -0.0396848 -0.073805 0.145413
-0.133685 0.0397186 0.0206697 0.00395597 -0.100627 0.0412196 -0.0863739 0.240183
-0.0410601 0.077137 -0.186182 -0.162419 0.021922 -0.134034 -0.00508713 -0.160341
0.0268396 0.0155666 -0.686011 0.2404 -0.256335 0.234616 0.0789246 -0.0123794
-0.844333 -2.55004 0.0269833 0.616907 0.26125 0.0208487 0.130243 -0.0140999
-0.045721 -0.464592 0.2816 -0.0472192 -0.0295754 0.730616 -0.0958409 0.0698076
0.519629 -0.409189 -1.98622 0.0350246 -1.1407 -0.0125385 -0.36083 0.950076
-1.62813 0.0493199 1.01612 0.521516 -0.318865 -0.794322 0.583815 0.435347
-0.802745 -0.0033186 -0.339351 -0.461346 -1.17145 0.104906 -0.0165722 0.375149
0.200937 0.162783 0.0275573 -0.825058 0.358653 0.0919641 0.0298746 -0.108583
-0.627969 -0.0200922 -0.096359 -0.161578 -0.0519844 0.555556 -0.0310048 0.0932733
0.162727 0.0324427 0.74506 0.125694 -0.608512 -0.016504 0.0177549 -0.306131
0.103634 0.89748 -0.580456 0.384753 -1.41861 -0.0436842 0.155439 -0.00292786
0.148679 -1.22674 0.357515 0.33307 -0.100633 -0.631894 0.302436 0.766577
-0.643146 -0.70523 -0.0977263 0.143946 0.267473 0.257215 0.384714 0.0461738
0.0206301 -0.116302 0.245508 -0.109861 -0.05159 -0.576467 0.259285 -0.0830147
0.76109 -0.342797 0.0186287 -0.0390144 0.117588 -1.16525 0.0326982 0.578005
0.0116454 0.187433 -0.0388562 -0.0138734 0.427117 -0.595577 -0.0939116 0.00713277
-0.0179701 0.667067 -0.3541 1.13035 -0.181019 0.904763 -2.22723 -0.0429359
-0.128361 -0.0536511 -0.0697168 0.844303 -0.414428 0.317174 -0.244204 -0.0342452
-0.742279 -0.00664312 -0.951747 1.17451 -0.14155 -0.445691 0.498221 0.0778684
0.810141 0.720106 0.020213 -0.149715 -0.341834 0.294526 0.00570432 0.534558
0.484333 0.461954 0.133332 0.307272 0.268158 0.0342361 0.249668 -1.10976
-0.0382623 0.176334 0.213652 -0.29035 0.911171 -0.0121702 0.670977 0.481863
0.335139 -0.0474657 -0.0623135 -0.567936 -0.177261 0.0627638 0.528867 -0.187725
0.324045 -0.054934 0.556476 -0.0150969 -2.71842 0.71877 -1.76422 -0.179542
0.698119 -18.4567 -1.14111 0.966689 0.325707 0.094151 -0.45251 0.555014
-0.278938 -0.306652 -1.84771 -0.0407703 -0.0380422 -0.103317 1.09098 -0.648884
-0.00613978 0.43335 0.354636 0.81884 0.537129 -1.07595 -0.568152 -0.0301602

FC2_bias f8 [50]
00000000: 8ee5 5df5 80f9 e63f 59fa d005 f5ad e73f
00000010: b5c1 89e8 d7d6 dc3f 68e7 340b b43b d2bf
00000020: 4eed 0c53 5b6a e4bf b72a e4a5 f67d 93bf
00000030: 1616 dc0f 7860 e7bf 3695 4561 1745 c1bf
00000040: d89e 5912 a0a6 f0bf ff20 9221 c7d6 dfbf
00000050: 3928 61a6 eddf fdbf 81b3 942c 27a1 dbbf
00000060: ce19 51da 1bfc f3bf 4df4 f928 23ae e0bf
00000070: 6e6e 4c4f 58e2 d8bf 7ec9 c683 2d76 cdbf
00000080: fc56 ebc4 e578 d23f 9ed2 c1fa 3f87 f23f
00000090: d883 49f1 f109 e43f 3865 6ebe 11dd dbbf
000000a0: 097c 348b 06df b8bf 7940 d994 2bbc fbbf
000000b0: 980a 3bd6 d699 a0bf 7e39 b35d a18f e33f
000000c0: 9829 f74c 405d 9e3f 7cba ba63 b1cd e93f
000000d0: 6b2a 8bc2 2e8a ec3f f513 ce6e 2d93 d6bf
000000e0: 8868 7407 b1b3 e83f 0b41 b390 2518 b13f
000000f0: 788c 3c5a e6be b4bf 90be 49d3 a068 d9bf
00000100: 9eb5 db2e 34d7 e1bf e044 99b2 7856 67bf
00000110: ecdf f599 b33e c53f 7990 9e22 8788 d2bf
00000120: 3ba8 c475 8c2b d6bf 2656 4623 9f57 c6bf
00000130: 6c09 f9a0 67b3 e8bf 1e6b 4606 b98b d63f
00000140: 847e a65e b788 e6bf d194 9d7e 5097 e7bf
00000150: 7d71 4e91 e80a a3bf 3cde e4b7 e8e4 ec3f
00000160: 4a9b aa7b 6473 d0bf 5f24 b4e5 5c8a f53f
00000170: 25e4 28e5 5a59 b3bf 8005 7af2 fadd a5bf
00000180: 49a2 9751 2c37 f8bf 0894 4db9 c2bb e23f
0.717957 0.739985 0.450613 -0.284894 -0.637983 -0.0190352 -0.730526 -0.134921
-1.04068 -0.497484 -1.86717 -0.431711 -1.24905 -0.521257 -0.388815 -0.230169
0.288629 1.15802 0.626214 -0.435368 -0.0971531 -1.73344 -0.0324237 0.611283
0.0296526 0.806359 0.891868 -0.352733 0.771935 0.0667747 -0.0810379 -0.397011
-0.55752 -0.00284885 0.165976 -0.289583 -0.346408 -0.174549 -0.7719 0.352278
-0.704189 -0.737221 -0.0371926 0.902943 -0.257043 1.34628 -0.0755822 -0.0427092
-1.51347 0.58542

FC2_weight f8 [50, 50]
00000000: 24ee b1f4 a1cb 06c0 677e 3507 0846 22c0
00000010: ed47 8ac8 b08a f4bf 7fda a84e 0732 e03f
00000020: a3e9 ec64 7014 f5bf ac8e 1ce9 0c8c a8bf
00000030: f2ed 5d83 bef4 dfbf 0bee 073c 3080 e03f
00000040: bf82 3463 d114 11c0 9693 50fa 42c8 893f
00000050: e065 868d b27e d6bf 770f d07d 39b3 c13f
00000060: 8b6c e7fb a971 f4bf a583 f57f 0ef3 fc3f
00000070: 0071 57af 2223 eb3f a224 24d2 36fe edbf
00000080: ae66 9df1 7d71 e13f 9293 895b 0531 bcbf
00000090: ae62 f19b c2ca e9bf 336e 6aa0 f99c d43f
000000a0: 8c4c c0af 9124 c43f 2e70 79ac 1919 c6bf
000000b0: e8f9 d346 753a da3f eb19 c231 cb9e d3bf
000000c0: 5ce4 9eae ee58 c6bf 1ae1 ed41 0848 e9bf
000000d0: 5165 bdbd 1017 a5bf 23f6 09a0 18d9 edbf
000000e0: 130a 1170 0855 d53f 4911 1956 f1c6 fb3f
000000f0: f486 fbc8 ad49 edbf e318 c91e a166 d23f
00000100: 9912 49f4 328a f83f 12da 722e c5d5 fa3f
00000110: 6896 04a8 a965 e5bf 4888 f205 2d24 ddbf
00000120: d34b 8c65 fa25 e8bf f0df bc38 f1d5 c83f
00000130: fb5d d89a adbc e83f c976 be9f 1a6f 0340
00000140: 925c fe43 fa6d ee3f 4f06 47c9 ab73 dd3f
00000150: 34f8 fbc5 6cc9 d23f 2062 8385 9334 d0bf
00000160: 9f0e 3bbe 83c0 763f 295b 24ed 469f eb3f
00000170: 1add 41ec 4c21 e33f f3bc 448a 3bbd 663f
00000180: 0401 3274 ec20 e13f a46f d234 289a da3f
00000190: bccb 457c 27e6 ffbf 952c 27a1 f405 e43f
000001a0: 2a91 442f a358 f5bf 0f28 9b72 8577 d83f
000001b0: 8a8e e4f2 1f52 f6bf b926 b417 97cb 823f
000001c0: 9d66 8176 8794 e13f a3cc 0699 64e4 e6bf
000001d0: 0d89 7b2c 7d68 f8bf 703f e081 0184 c13f
000001e0: e179 a9d8 98d7 dd3f 0f0f 61fc 34ee d53f
000001f0: 5dfe 43fa edeb f03f 035d fb02 7a61 e53f
00000200: 6b44 300e 2e1d d03f 76a4 face 2fca e03f
00000210: 3c14 05fa 449e cebf 5bb2 2ac2 4d46 da3f
00000220: 60bd 9bb8 663c b3bf 2fc2 14e5 d2f8 d1bf
00000230: 46ec 1340 31b2 ca3f 8099 efe0 270e e0bf
00000240: df32 a7cb 62e2 f7bf b51a 12f7 58fa f1bf
00000250: eeee 01ba 2f67 d6bf 2461 df4e 2242 e2bf
00000260: 0e16 4ed2 fc31 d23f 919b e106 7c7e e1bf
00000270: 3d9b 559f abad cc3f 08e6 e8f1 7b9b f03f
00000280: 3c16 dba4 a2b1 dcbf 2601 6a6a d95a dabf
00000290: 4f82 ed16 3724 a4bf 4aeb 6f09 c03f dcbf
000002a0: 47f6 52c2 5d07 b03f 65fb 90b7 5cfd dfbf
000002b0: ab7a f99d 2633 d0bf 8120 4086 8e1d d6bf
000002c0: cea8 f92a f9d8 c9bf 57af 22a3 0392 de3f
000002d0: 74e6 9569 7fd9 093f 6360 1dc7 0f95 babf
000002e0: a94a 5b5c e333 c7bf 81b1 be81 c90d ecbf
000002f0: be4f 394c 529e 3b3f ed7e 15e0 bbcd cb3f
00000300: b402 4356 b7fa fbbf 11c4 7938 8169 e6bf
00000310: d880 c654 13a7 77bf 04e7 8c28 ed8d febf
00000320: 8587 1f52 c202 aabf 8f1b 7e37 ddb2 efbf
00000330: b610 e4a0 8499 c03f 83f4 b97f d18a 943f
00000340: d80b 056c 0723 c6bf ba04 9612 38c8 92bf
00000350: f6f0 65a2 08a9 d2bf 3d45 0e11 37a7 d53f
00000360: 3524 eeb1 f4a1 c13f df6a 9db8 1caf d13f
00000370: a4e4 d539 0664 f33f d2c7 7c40 a033 dfbf
00000380: 4b72 c0ae 264f eebf d044 d8f0 f44a f1bf
00000390: f7a5 c86b 6f01 b03f c87b d5ca 84df e63f
000003a0: 494b e5ed 08a7 f83f cb9e 0436 e7e0 b9bf
000003b0: 069e 7b0f 971c f0bf 81d0 7af8 3251 ddbf
000003c0: 9d2d 20b4 1ebe d93f bb7d 5699 29ad c3bf
000003d0: 3cf7 1e2e 39ee d23f c0cb 0c1b 657d e73f
000003e0: 3317 b83c d68c d5bf dcb8 c5fc dc50 e0bf
000003f0: 95e9 3ccf 447d a3bf 9c31 cc09 da64 e93f
00000400: a715 f07c 5061 b4bf bd73 2843 554c da3f
00000410: a0e0 6245 0d26 f2bf fe0f b056 ed9a d8bf
00000420: e487 4a23 6676 ebbf c503 caa6 5ce1 d83f
00000430: 25ac 32f8 a00c 7abf db6d 179a eb34 f3bf
00000440: 11ab 3fc2 3060 cd3f 0307 b474 055b ef3f
00000450: a69b c420 b072 d2bf f31e 679a b0fd c0bf
00000460: d9d0 cdfe 40b9 e63f ae45 0bd0 b69a d2bf
00000470: 84bc 1e4c 8a8f cfbf 001b 1021 ae1c eabf
00000480: 1c17 1fb0 bcf5 b73f 6136 0186 e5cf c53f
00000490: c1c8 cb9a 58e0 c93f e127 0ea0 dff7 d83f
000004a0: f965 d58c b1b8 b6bf 4fca a486 3600 e83f
000004b0: be32 6fd5 75a8 eb3f 5457 3ecb f3a0 04c0
000004c0: 31b2 648e e55d d73f a16e fb79 ae4a b1bf
000004d0: 5036 e50a ef72 f13f 36da bb50 0a04 a7bf
000004e0: 3927 f6d0 3e56 d73f 87e1 2362 4a24 f9bf
000004f0: 3b1a 87fa 5d58 e7bf 486d e2e4 7e87 d5bf
00000500: eeb5 a0f7 c690 e33f a801 83a4 4fab 98bf
00000510: 1b64 9291 b330 f13f 9807 9f9c 572b a53f
00000520: 4278 b471 c45a d3bf f1f2 74ae 2825 ddbf
00000530: 6b1d 6679 6869 b23f fe60 e0b9 f770 d03f
00000540: e72e d340 3dc7 b1bf 1a83 f34e aa22 b7bf
00000550: 876a 4ab2 0e47 c93f 519f e40e 9bc8 e23f
00000560: d927 8062 64c9 d23f f84f 3750 e09d ca3f
00000570: 38a0 a52b d846 c4bf 25b2 0fb2 2c98 c0bf
00000580: b9e1 77d3 2d3b d6bf 9036 c803 157e 7e3f
00000590: 111b 2c9c a4f9 d13f b857 e6ad ba8e ea3f
000005a0: bccc b051 d66f d5bf c3c8 dcc6 b0d4 a0bf
000005b0: bdc8 04fc 1ac9 e7bf 4208 c897 50c1 d8bf
000005c0: 855b 3e92 921e d8bf 2d3f 7095 2790 e33f
000005d0: 8f1c e90c 8cbc c03f cbd9 3ba3 ad4a bebf
000005e0: 4608 8f36 8e58 02c0 a6b8 aaec bba2 f7bf
000005f0: d593 f947 dfa4 ec3f 9417 9980 5f23 bd3f
00000600: 897c 9752 970c e23f 207a 5226 35b4 cb3f
00000610: 57eb c4e5 7805 ce3f 2909 89b4 8d3f d03f
00000620: fc50 69c4 cc3e dfbf 5da0 4907 9046 a2bf
00000630: c2a4 f8f8 84ec e93f 26fc 523f 6f2a da3f
00000640: 11c4 7938 81e9 dbbf 4985 b185 2007 febf
00000650: 8b32 1b64 9291 f2bf 9928 42ea 76f6 d43f
00000660: 42b4 56b4 39ce dabf 009e fefd 73e2 a0bf
00000670: 9f5a 7d75 5520 e7bf 20b5 8993 fb1d fabf
00000680: 7a89 b14c bf44 ce3f a8ab 3b16 db24 ecbf
00000690: 9c86 a8c2 9fe1 d8bf 9a5c 8c81 751c e23f
000006a0: 035b 2558 1cce f33f 1f2e 39ee 948e 00c0
000006b0: ca85 6f06 2406 96bf 0185 7afa 08fc e93f
000006c0: 7009 c03f a54a d43f 66dc d440 f339 dd3f
000006d0: c976 be9f 1aef 01c0 25e9 9ac9 371b 0bc0
000006e0: 2b51 f696 723e e8bf f690 3a4b da9e b43f
000006f0: 554d 1075 1f80 a03f b45a 608f 8994 dc3f
00000700: 74b7 eba5 2902 dcbf 64ca 87a0 6af4 c83f
00000710: 778c 86e7 001c 863f 13f2 41cf 6615 06c0
00000720: df7f 7566 cc6e a33f 8eb2 7e33 315d dcbf
00000730: 9085 e810 3812 dabf 215b 96af cb70 e53f
00000740: 1ff8 18ac 38d5 d33f 23da 8ea9 bbb2 d8bf
00000750: 9180 d1e5 cde1 d33f 6f10 ad15 6d0e e43f
00000760: 780b 2428 7e0c e1bf 33dd eba4 beac e43f
00000770: d061 bebc 00fb f53f e7a6 cd38 0dd1 ea3f
00000780: 8a90 ba9d 7de5 e33f 6cb2 463d 44e3 04c0
00000790: 7880 272d 5c56 c1bf 67f1 6261 889c c63f
000007a0: 12f7 58fa d005 f4bf a3ca 30ee 06d1 e83f
000007b0: 569f abad d85f f0bf 73bd 6da6 423c d73f
000007c0: f359 9e07 7767 f43f 475a 2a6f 47b8 f43f
000007d0: 950a cff0 0b54 a73f 8c7c 0338 62d2 9c3f
000007e0: 37c1 374d 9f1d a0bf ffb0 a547 533d a5bf
000007f0: a60f b809 5284 a73f c807 c1d3 f92a 80bf
-2.84943 -9.13678 -1.28386 0.506107 -1.31749 -0.0479435 -0.499313 0.515648
-4.27033 0.012589 -0.351483 0.138282 -1.27775 1.80934 0.848039 -0.937282
0.545104 -0.110123 -0.806001 0.322081 0.157366 -0.172641 0.409818 -0.306567
-0.174589 -0.790043 -0.0411916 -0.932751 0.333315 1.73607 -0.915244 0.287514
1.53374 1.67719 -0.66866 -0.455333 -0.754636 0.194029 0.773032 2.42925
0.950925 0.460185 0.293544 -0.253209 0.00555469 0.863193 0.597815 0.00277578
0.535269 0.415659 -1.99369 0.625727 -1.33414 0.382295 -1.39505 0.00917738
0.549381 -0.71538 -1.52551 0.136841 0.466284 0.342664 1.0576 0.668149
0.251781 0.524681 -0.239205 0.410541 -0.0751404 -0.280812 0.208563 -0.501728
-1.49277 -1.12362 -0.350048 -0.570573 0.284301 -0.54669 0.22405 1.03796
-0.448342 -0.411795 -0.0393388 -0.441391 0.0626124 -0.499839 -0.253122 -0.345554
-0.201934 0.477662 4.93042e-05 -0.103837 -0.181271 -0.876683 0.000421424 0.217216
-1.74871 -0.700379 -0.00577457 -1.90965 -0.0508023 -0.990584 0.129685 0.0200608
-0.172944 -0.0183419 -0.291567 0.338331 0.137755 0.276313 1.21192 -0.487526
-0.947162 -1.0808 0.0625219 0.714785 1.54078 -0.101088 -1.00698 -0.458081
0.402229 -0.153722 0.29579 0.734057 -0.336721 -0.509871 -0.0380651 0.793561
-0.0796099 0.410909 -1.13429 -0.384456 -0.858203 0.388755 -0.0063597 -1.20042
0.229498 0.979861 -0.28825 -0.132742 0.710114 -0.290693 -0.246568 -0.816001
0.0935934 0.170407 0.202159 0.390129 -0.0887557 0.750026 0.864314 -2.57859
0.365106 -0.0675458 1.09056 -0.0449527 0.364639 -1.57136 -0.729537 -0.336395
0.611423 -0.024091 1.07439 0.0413463 -0.302415 -0.455393 0.0719209 0.256895
-0.0694464 -0.0903727 0.197481 0.586988 0.293542 0.207943 -0.158412 -0.129644
-0.347362 0.00744446 0.280862 0.829923 -0.334951 -0.0328727 -0.743299 -0.386799
-0.376866 0.611347 0.130754 -0.118327 -2.29324 -1.47723 0.895126 0.113821
0.564037 0.216437 0.234542 0.253879 -0.488208 -0.0356946 0.810122 0.40884
-0.436127 -1.87674 -1.16054 0.327543 -0.418837 -0.0329777 -0.722697 -1.63232
0.236473 -0.879499 -0.388771 0.565974 1.23782 -2.06962 -0.0215078 0.812016
0.317056 0.456662 -2.24175 -3.38829 -0.757623 0.0805489 0.0322275 0.446566
-0.437632 0.194959 0.0107956 -2.76045 0.0379547 -0.443188 -0.407362 0.670019
0.309889 -0.385909 0.310657 0.626761 -0.532775 0.646087 1.37378 0.838019
0.621764 -2.61097 -0.135448 0.176652 -1.25142 0.775516 -1.0234 0.363053
1.27526 1.29499 0.0455631 0.0281463 -0.031476 -0.0414835 0.0459314 -0.00789447

FC3_bias f8 [50]
00000000: 39b6 9e21 1cb3 eb3f 4d2f 3196 e917 ebbf
00000010: d2c7 7c40 a033 b33f 73ba 2c26 361f d23f
00000020: ab04 8bc3 997f 10c0 a02e f76e 980d b53f
00000030: 8a3e 1f65 c405 efbf 4431 7903 ccfc e53f
00000040: 3ca3 ad4a 227b e03f 789c a223 b97c f0bf
00000050: f32f 93f2 a496 a3bf 3eed f0d7 640d f1bf
00000060: 185b 0872 5082 06c0 48f9 49b5 4f47 febf
00000070: b002 7cb7 79e3 e6bf 8acd c7b5 a162 fb3f
00000080: c47c 7901 f6d1 e3bf 76fc 1708 0264 e0bf
00000090: 7037 d263 a593 b6bf 289b 7285 77b9 edbf
000000a0: ccb2 2781 cd39 90bf 4870 2365 8b24 e03f
000000b0: 4507 c9a7 6cfd a5bf 03ee d4b7 27a3 a93f
000000c0: 118c 834b c71c e8bf c93d 5ddd b1d8 e33f
000000d0: 9c33 a2b4 37f8 e53f feb7 921d 1b81 0140
000000e0: 6dae 9ae7 887c d43f a5da a7e3 3103 01c0
000000f0: 1f11 5322 89de 01c0 2fc3 7fba 8102 dfbf
00000100: d639 0664 af77 e43f 7216 f6b4 c35f ff3f
00000110: 0091 7efb 3ab0 0040 c5e6 e3da 5071 03c0
00000120: bf9a 0304 7374 f1bf 33a7 cb62 6273 04c0
00000130: 791e dc9d b5db c6bf f305 2d24 6074 e2bf
00000140: d0d5 56ec 2f1b 1240 cb2d ad86 c4bd f2bf
00000150: 6abf b513 2521 c13f 2c0e 677e 3507 c83f
00000160: 65a5 4929 e8f6 cabf 3f74 417d cb5c 0040
00000170: 357a 3540 6928 e7bf daac fa5c 6dc5 02c0
00000180: 5c1e 6b46 06b9 e13f f207 03cf bd87 10c0
0.865614 -0.846669 0.0750065 0.283155 -4.12461 0.0822387 -0.969454 0.687109
0.515031 -1.03045 -0.0382587 -1.06577 -2.81363 -1.89241 -0.715268 1.71158
-0.61938 -0.512208 -0.0881904 -0.92889 -0.0158455 0.504461 -0.0429491 0.0500729
-0.753513 0.620202 0.68655 2.18804 0.320101 -2.12656 -2.23366 -0.484528
0.63961 1.96088 2.08605 -2.43033 -1.09093 -2.55634 -0.17858 -0.576706
4.52655 -1.17133 0.133824 0.18772 -0.21066 2.04531 -0.723683 -2.3464
0.553836 -4.13256

FC3_weight f8 [50, 50]
00000000: 2592 e865 14cb f1bf d42b 6519 e258 d13f
00000010: 5263 42cc 2555 cfbf 0a2e 56d4 601a babf
00000020: 9964 e42c ec69 cdbf ee6d 4441 3a86 a1bf
00000030: 97aa b4c5 353e d9bf 80bb ecd7 9dee cabf
00000040: 0933 6dff ca4a f3bf f8c5 a52a 6df1 e23f
00000050: ea59 10ca fb38 d33f af44 a0fa 0791 c2bf
00000060: dd0a 6135 96b0 e83f 2a8c 2d04 3928 f13f
00000070: b8e9 cf7e a488 cc3f 1616 dc0f 7860 bcbf
00000080: 62c0 92ab 58fc ebbf af5a 99f0 4b7d f33f
00000090: 988a e832 90c2 983f d5b4 8b69 a67b eabf
000000a0: 7561 5a8a 9a9e 863f ad8a 7093 5165 c63f
000000b0: 4375 73f1 b73d dbbf 23ba 675d a3e5 dfbf
000000c0: 0dc4 b299 4352 cb3f 9e47 20b9 90a2 91bf
000000d0: 6bf2 94d5 743d db3f 1783 454d 0d97 79bf
000000e0: b9a6 4066 67d1 e33f c349 9a3f a6b5 de3f
000000f0: 0fd0 7d39 b35d d1bf 541c 075e 2d77 d93f
00000100: 4c19 38a0 a52b ca3f 9088 2991 442f f9bf
00000110: d848 1284 2ba0 ccbf 20a4 5d3b 0785 873f
00000120: f182 88d4 b48b cbbf 462e eef5 a402 8d3f
00000130: 25a5 ea68 6677 9abf 6479 573d 601e d2bf
00000140: d271 35b2 2b2d bfbf 7099 d365 31b1 c93f
00000150: e3a7 716f 7ec3 d43f 6f9e ea90 9be1 ca3f
00000160: de1f ef55 2b13 d8bf 39d6 c56d 3400 fd3f
00000170: 1362 2ea9 da6e ba3f 72bf 4351 a04f c8bf
00000180: 65e3 c116 bb7d c43f 4031 b264 8ee5 e03f
00000190: 75cc 79c6 be64 d63f 1975 adbd 4f55 cd3f
000001a0: 355e ba49 0c02 b5bf d503 e621 533e d9bf
000001b0: 5513 44dd 0720 cb3f 00a8 e2c6 2de6 c93f
000001c0: baa4 6abb 09be c13f e201 6553 aef0 e4bf
000001d0: 6683 4c32 7296 fa3f 7e6f d39f fd48 df3f
000001e0: 454b 1e4f cb0f 9cbf 9300 35b5 6cad c93f
000001f0: d55a 9885 76ce ec3f 8dd5 e6ff 55c7 e13f
00000200: d464 c6db 4aaf c1bf 1de5 6036 0186 d03f
00000210: e544 bb0a 293f d73f 9eec 6646 3f1a c23f
00000220: ab79 8ec8 7729 bd3f 4911 1956 f1c6 03c0
00000230: 82a4 f4f1 75be a4bf b426 71b1 fdbf a53f
00000240: f29e 5e84 8483 acbf 84b8 72f6 ce68 d1bf
00000250: cae6 0533 011a acbf 1975 adbd 4fd5 e7bf
00000260: 34f5 ba45 60ac c3bf 1699 caec 3da6 abbf
00000270: 5a80 b6d5 acb3 efbf bdff 8f13 268c eb3f
00000280: 7c0b ebc6 bb23 de3f 630b 410e 4a18 e23f
00000290: 8cbf ed09 12db cdbf e11e f065 474f b03f
000002a0: c0cb b161 f2ab 96bf 8d7c 5ef1 d423 c13f
000002b0: f4a4 4c6a 6803 d53f 7fa5 f3e1 5982 cebf
000002c0: f92c cf83 bbb3 b2bf e4bd 6a65 c22f d93f
000002d0: bbb8 8d06 f016 dabf ff94 2a51 f696 c23f
000002e0: 2b49 4332 891f a43f 9547 37c2 a222 d5bf
000002f0: 6023 4910 ae80 cc3f 69e5 5e60 56a8 ed3f
00000300: dac7 0a7e 1b62 94bf 179a eb34 d252 c73f
00000310: 97ae 601b f164 c73f 5c20 41f1 634c f53f
00000320: 281b c528 be90 a43f 7ec8 5bae 7e6c c03f
00000330: 664d 2cf0 15dd c63f 643f 8ba5 48be d23f
00000340: b665 c059 4a96 dc3f af5a 99f0 4bfd c63f
00000350: 8238 0f27 309d ccbf 18ee 1afc 1600 673f
00000360: c139 234a 7b43 00c0 ae67 08c7 2c7b be3f
00000370: cd95 41b5 c189 c43f ee97 4f56 0c57 bf3f
00000380: d880 0871 e5ec e13f 01de 0209 8a9f f1bf
00000390: da38 622d 3e05 f6bf 1d8f 19a8 8c7f e43f
000003a0: c1e0 bb49 e382 69bf 7fa6 5eb7 088c eabf
000003b0: 4a99 d4d0 0660 d4bf 0492 b06f 2711 da3f
000003c0: f5ad 2017 e64e 923f 5fa7 a2c2 22d0 b63f
000003d0: be04 5db1 755f b6bf f1f4 4a59 8638 f6bf
000003e0: eca0 12d7 31ae dc3f 49d9 2269 37fa c23f
000003f0: b133 85ce 6bec d9bf 251f bb0b 9414 d33f
00000400: ee06 d15a d1e6 e2bf a1f8 31e6 ae25 f3bf
00000410: 7102 d369 dd06 d23f 8616 e13f 406b 84bf
00000420: 807d 74ea ca67 c73f b18a 3732 8f7c ed3f
00000430: 9947 fe60 e0b9 d7bf 0956 3085 6286 a9bf
00000440: 9b1d a9be f38b d83f 2121 ca17 b490 d73f
00000450: 5aba 826d c493 bdbf 94bc 3ac7 806c f2bf
00000460: 4d68 9258 52ee e5bf 35b8 ad2d 3c2f b5bf
00000470: d507 9277 0e65 e6bf 944b e317 5ec9 e13f
00000480: 7dea 58a5 f44c cf3f e1d4 0792 778e e0bf
00000490: 04a9 b981 a735 b03f 7347 ffcb b568 ec3f
000004a0: 9b1f 7f69 519f df3f 0c94 1458 0053 d33f
000004b0: deab 5626 fc52 f9bf 6ccc eb88 4336 bcbf
000004c0: f5be f1b5 6796 943f 143d f031 5871 d1bf
000004d0: 7025 3b36 0271 11c0 5e4c 33dd eba4 d2bf
000004e0: a46c 91b4 1b7d a8bf a167 b3ea 7335 f4bf
000004f0: e23c 9cc0 745a c53f 7061 dd78 7764 ddbf
00000500: ef92 382b a2a6 eebf daa8 4e07 b29e cc3f
00000510: a88a a9f4 13ce e03f cea5 b8aa ecbb fc3f
00000520: 82a3 891c c7b4 933f b5fd 2b2b 4dca f7bf
00000530: b213 5e82 531f e13f 486a a164 726a bbbf
00000540: 66b0 56ab 7ebe 503f e998 f38c 7dc9 e8bf
00000550: 2f02 be36 76e4 9bbf 8339 d5b5 51f8 a73f
00000560: 673f f78a 1304 b63f 97a8 de1a d82a cb3f
00000570: d4ba 0d6a bfb5 e63f 5cc8 23b8 91b2 bd3f
00000580: 5035 7a35 4069 d83f ac52 7aa6 9718 d53f
00000590: b37d c85b ae7e dd3f d141 9770 e82d e0bf
000005a0: 6b0e 10cc d123 0040 001a a54b ff92 e2bf
000005b0: b4cc 2214 5b41 db3f 7992 74cd e41b febf
000005c0: 6ebf 7cb2 62b8 e33f 043c 69e1 b20a c1bf
000005d0: 9fe9 25c6 327d e63f cb20 883d fe1c a4bf
000005e0: 3fe3 c281 902c c43f b280 09dc ba9b eebf
000005f0: bf43 51a0 4fe4 f6bf dd06 b5df da89 de3f
00000600: db6e 826f 9abe e3bf dbfc bfea c811 e13f
00000610: f832 5184 d4ed ec3f eb9b ea7f 6f89 b03f
00000620: 0dfd 135c aca8 c13f 2c61 6d8c 9df0 d4bf
00000630: ace1 22f7 74f5 e9bf 9e5e 29cb 10c7 f73f
00000640: dfc3 25c7 9dd2 f7bf ae49 b725 72c1 c33f
00000650: e3ff 8ea8 50dd c2bf a54d d53d b2b9 d6bf
00000660: fce2 5295 b6b8 d93f 1afa 27b8 5851 cdbf
00000670: 9621 8e75 711b e6bf 2600 ff94 2a51 e63f
00000680: 1ceb e236 1a40 07c0 630e 828e 56b5 c23f
00000690: 8aac 3594 da8b e1bf ac1e 300f 9972 e73f
000006a0: 268d d13a aa9a f33f 73b9 c150 8715 e9bf
000006b0: 0360 3c83 86fe f83f 8b80 54d4 aaa7 b03f
000006c0: a0a8 6c58 5359 dd3f 0fee ceda 6d17 f33f
000006d0: 14a2 32b4 f0ab a0bf b29c 84d2 1742 d1bf
000006e0: 5f2f 0384 c597 a3bf 51d9 b0a6 b228 c43f
000006f0: 9623 6420 cf2e d53f 90ec 5bf7 a0b1 b23f
00000700: 897d 0228 4696 e2bf df01 f96d e3aa 8d3f
00000710: 27d9 ea72 4a40 9cbf 4faf 9465 88e3 e4bf
00000720: d3a2 3ec9 1d36 cf3f e3fc 4d28 4440 f1bf
00000730: 2cd3 2f11 6f9d edbf f2d5 e99b 8fc6 acbf
00000740: 4a41 b797 3446 e3bf 7bf7 c77b d54a 0fc0
00000750: 001d e6cb 0bb0 dabf f181 1dff 0582 bc3f
00000760: 8193 6de0 0e54 e33f ee0a 7db0 8c0d d6bf
00000770: 02d5 3f88 64c8 b9bf 6b44 300e 2e1d cf3f
00000780: d7a1 9a92 acc3 c73f b317 1b04 673a a5bf
00000790: 2904 7289 230f d53f d0f2 3cb8 3b6b da3f
000007a0: db19 a6b6 d441 c8bf ba85 ae44 a0fa e0bf
000007b0: 8def 8b4b 555a e73f cd6b 36a0 efb8 aa3f
000007c0: 6188 9cbe 9eaf ebbf 3257 06d5 06a7 e93f
000007d0: d95a 046b 4194 84bf d565 6b5c 83e7 73bf
000007e0: f8af 83b5 f7ca 803f 0805 a568 e55e a43f
000007f0: ee36 b929 2f43 8d3f 2a23 6d64 d069 23bf
-1.11208 0.27105 -0.244786 -0.101965 -0.229795 -0.0342272 -0.394422 -0.210407
-1.20576 0.591971 0.300353 -0.145051 0.771556 1.07232 0.22292 -0.110847
-0.874554 1.21809 0.0241797 -0.827594 0.0110447 0.174967 -0.425642 -0.498391
0.213448 -0.0172217 0.425626 -0.00624757 0.619312 0.479837 -0.271344 0.397899
0.204457 -1.57404 -0.223638 0.0114842 -0.215201 0.0141652 -0.0258461 -0.283104
-0.121783 0.20072 0.324432 0.21001 -0.37617 1.81255 0.103254 -0.18993
0.160087 0.528022 0.349899 0.229166 -0.0820625 -0.394429 0.211915 0.202337
0.138612 -0.65438 1.66173 0.48883 -0.027404 0.200605 0.900203 0.555583
-0.138162 0.258179 0.36323 0.141426 0.113914 -2.47214 -0.0405156 0.0424804
-0.0556909 -0.272022 -0.0548859 -0.744789 -0.153698 -0.0540027 -0.990683 0.860858
0.470931 0.565465 -0.233248 0.0637097 -0.0221403 0.133906 0.328333 -0.238353
-0.073055 0.39354 -0.40765 0.145232 0.0393031 -0.330239 0.222677 0.926799
-0.0199055 0.182215 0.182768 1.33115 0.0401668 0.128311 0.178622 0.292864
0.446673 0.179605 -0.223547 0.00280766 -2.03295 0.119067 0.160454 0.122422
0.560168 -1.10145 -1.37628 0.64057 -0.00311417 -0.829594 -0.318361 0.407297
0.0178791 0.0891134 -0.0873941 -1.3888 0.448132 0.148261 -0.405055 0.298131
-0.590676 -1.1967 0.281669 -0.00997019 0.182855 0.921455 -0.37072 -0.0498534
0.383542 0.368207 -0.115536 -1.15149 -0.685342 -0.082752 -0.699836 0.555831
0.244536 -0.517391 0.0633187 0.887782 0.494099 0.301941 -1.58276 -0.110203
0.020105 -0.272543 -4.36036 -0.291316 -0.0478295 -1.26305 0.166823 -0.459257
-0.957841 0.223593 0.525156 1.79588 0.0192443 -1.48689 0.535074 -0.107093
0.00102198 -0.774596 -0.0272387 0.0468164 0.0859997 0.212245 0.709686 0.116006
0.381424 0.329626 0.460857 -0.505604 2.01749 -0.580444 0.425864 -1.88181
0.616258 -0.133139 0.702783 -0.0392837 0.15761 -0.95651 -1.43074 0.477164
-0.617017 0.533421 0.904032 0.0645971 0.13796 -0.327186 -0.811213 1.4861
-1.48892 0.154341 -0.147379 -0.355084 0.401899 -0.229045 -0.69085 0.697408
-2.9063 0.146159 -0.548322 0.732739 1.22526 -0.783878 1.56214 0.0650584
0.458577 1.19322 -0.0325618 -0.269659 -0.0382673 0.157492 0.330982 0.0730229
-0.580844 0.0144861 -0.027589 -0.652775 0.243839 -1.07819 -0.925468 -0.0562024
-0.60232 -3.91154 -0.416995 0.111359 0.604011 -0.344577 -0.100714 0.243078
0.185659 -0.0414612 0.329049 0.412795 -0.189509 -0.530594 0.729777 0.0521922
-0.865188 0.801639 -0.0100484 -0.00485946 0.00819963 0.0397865 0.0142883 -0.000148112

FC4_bias f8 [50]
00000000: f1a6 11e9 6d22 b1bf 5ddc 4603 780b f13f
00000010: 9b00 c3f2 e7db e23f 6e86 1bf0 f9e1 f1bf
00000020: e57e 87a2 409f f43f f86b b246 3d44 afbf
00000030: c85e effe 78af 0740 13f2 41cf 66d5 fabf
00000040: 59f6 c9f6 c6b5 963f 3659 a31e a211 0940
00000050: 9031 772d 211f fe3f 60ab 048b c399 da3f
00000060: ea5a 7b9f aa42 d83f 5fb5 32e1 97ba 1540
00000070: 40f6 7af7 c73b 02c0 aa60 5452 27a0 f93f
00000080: bfb7 e9cf 7e24 f93f 3dd5 2137 c30d ff3f
00000090: acc5 a700 18cf f4bf 21b3 0ea2 105c ac3f
000000a0: ccd3 b9a2 9410 dbbf 5e9d 6340 f6ba 10c0
000000b0: eb1c 03b2 d73b f4bf c688 44a1 65dd dabf
000000c0: deb0 6d51 6603 0340 f018 1efb 592c c5bf
000000d0: 847e a65e b708 ef3f 882e a86f 99d3 f93f
000000e0: 774a 07eb ff1c f0bf 478e 7406 465e d5bf
000000f0: 68ae d348 4b65 12c0 fc00 a436 71f2 00c0
00000100: 1b0d e02d 90a0 c43f c83f 3388 0fec 98bf
00000110: 8f8e ab91 5d69 d33f 183e 22a6 4412 d8bf
00000120: 8cdb 6800 6f01 0140 77f3 5487 dc0c f53f
00000130: 8b32 1b64 9291 f03f e1b6 b6f0 bc54 dbbf
00000140: 056d 72f8 a413 d33f a800 18cf a0e1 0140
00000150: bd55 d7a1 9a92 ec3f ffec 478a c830 e23f
00000160: 72e1 4048 16b0 0b40 2384 471b 47ec 06c0
00000170: d881 7346 94f6 f1bf a1be 654e 9725 10c0
00000180: 75c8 cd70 03be f5bf 3f52 4486 553c f53f
-0.0669316 1.0653 0.589344 -1.11767 1.28888 -0.0610675 2.96068 -1.6771
0.0221778 3.13361 1.8826 0.415635 0.379069 5.43222 -2.27919 1.6016
1.57141 1.94086 -1.30056 0.0553899 -0.422887 -4.18258 -1.26461 -0.419763
2.37666 -0.165416 0.969814 1.61416 -1.00708 -0.333879 -4.59892 -2.11838
0.16115 -0.024338 0.303306 -0.376115 2.1257 1.31564 1.03554 -0.427047
0.298074 2.23517 0.892896 0.568455 3.46098 -2.86537 -1.1227 -4.03671
-1.35889 1.32723
