examples/benchmarks/ACAS XU/Networks/ACAS_XU_1_7.onnx (onnx, 108361 bytes, 14 tensors)

FC0_bias f8 [50]
00000000: 1494 a295 7b81 c1bf b015 fa81 2704 7d3f
00000010: 7766 82e1 5cc3 c8bf c807 3d9b 559f a7bf
00000020: 32e4 d87a 8670 d03f bbba be6a c07b a23f
00000030: 393c 8c62 1cd0 503f 713c 9f01 f566 c6bf
00000040: 3fc4 ab51 b417 86bf e21d e049 0b97 d0bf
00000050: 66e5 4d34 fe33 91bf b341 2619 390b c93f
00000060: 7479 73b8 567b 903f 1bb1 602c 1dbd afbf
00000070: 3ddf 0500 7d11 a73f d548 a69e 605a af3f
00000080: 9c54 8f8f 7120 abbf 708f 4a56 eafe a6bf
00000090: 4037 8f1e 1a71 b23f fef0 f3df 83d7 cabf
000000a0: 2c15 af0d 709c b53f 198d 7c5e f1d4 bfbf
000000b0: a343 3b02 1313 afbf b3ae 76b9 2d36 a23f
000000c0: 959e e925 c632 d3bf 9790 0f7a 36ab ba3f
000000d0: 19e3 c3ec 65db b9bf 65ce 4c93 c626 813f
000000e0: e1d0 5b3c bce7 c4bf b6de ca6d 56d8 a33f
000000f0: 1b9f c9fe 791a b23f 783e a830 5b57 913f
00000100: 253d 0cad 4ece d23f ef46 d565 e723 973f
00000110: 43d6 091e 9551 93bf efae 0edb 711e 99bf
00000120: 0554 933b c7db b3bf e831 ca33 2f87 9dbf
00000130: 49f4 328a e596 c03f d174 7632 384a bebf
00000140: aabb 4fe1 4a6e 6b3f 63d3 4a21 904b d3bf
00000150: 6a49 ec7f 25fc b53f dac5 34d3 bd4e b2bf
00000160: f2ea 1c03 b2d7 c7bf fb15 5bd6 370f 7bbf
00000170: bef9 0d13 0d52 c83f 3693 6fb6 b931 a13f
00000180: 98e0 d407 9277 ccbf 9e5e 29cb 10c7 bebf
-0.136764 0.00708404 -0.193462 -0.0461375 0.256868 0.0361004 0.00102618 -0.175017
-0.0107874 -0.259219 -0.0167999 0.195655 0.0160955 -0.0619897 0.0450553 0.0612364
-0.0529819 -0.0449136 0.0720383 -0.209702 0.0844183 -0.124343 -0.0606924 0.0355696
-0.299974 0.104175 -0.101004 0.00837474 -0.163322 0.0387599 0.0707165 0.0169348
0.293842 0.0225979 -0.0188659 -0.0245302 -0.0775723 -0.028836 0.129605 -0.11832
0.00334849 -0.301487 0.0858787 -0.071514 -0.18627 -0.00660631 0.190004 0.0335825
-0.222399 -0.120225

FC0_weight f8 [5, 50]
00000000: 712a 08d4 51c4 ac3f f355 f2b1 bb40 c1bf
00000010: bde6 b056 4854 a73f b8a2 de9d c607 b53f
00000020: d6fe cef6 e80d df3f 7bf6 5ca6 26c1 bbbf
00000030: 7a39 ecbe 6378 c8bf 701f 5e7c 7665 8c3f
00000040: 6361 889c be9e cfbf 2520 26e1 421e d23f
00000050: 2bbe 041b 95a3 69bf 79cd ab3a ab05 e33f
00000060: d201 49d8 b793 e03f 8c31 b08e e387 c03f
00000070: 6405 bf0d 315e dabf be88 b663 eaae d13f
00000080: fbdd c713 392b 7f3f 3fad fdf8 a644 a1bf
00000090: d531 f845 5387 86bf 41f0 f8f6 ae41 e3bf
000000a0: 096b 63ec 8497 e7bf a4c2 d842 9003 f4bf
000000b0: ddd3 d51d 8b6d d0bf ab07 cc43 a67c d33f
000000c0: ae6e ed2b aca7 68bf 3f70 9527 1076 d63f
000000d0: 0a2d ebfe b110 dfbf 4356 b77a 4e7a bf3f
000000e0: bc49 c274 102a 973f d13c 8045 7efd d4bf
000000f0: cc9b a2a7 f1a0 63bf d806 38ce b74f b43f
00000100: 3200 5471 e316 d1bf c0a1 a64c 20db a43f
00000110: e985 96d0 b8cb 793f ff16 83d8 b0de 4c3f
00000120: b9a0 63ac db45 a53f 32dd 90eb 4bdb 843f
00000130: d40a 783e a830 a7bf ebc5 504e b4ab f4bf
00000140: 58c9 c7ee 0225 9d3f be87 4b8e 3ba5 f1bf
00000150: 0952 2976 340e da3f b0e7 6b96 cb46 c1bf
00000160: 16e5 886b 6bfa 9a3f 2eae f199 ec9f 97bf
00000170: 2484 a2d4 b9fd 8d3f a6fe 30f8 ea99 84bf
00000180: 8462 d0ae e710 ad3f d9c9 a67d ef46 513f
00000190: 5871 aab5 308b e6bf 79ca 6aba 9e68 e03f
000001a0: 1363 997e 89f8 e2bf ea3f 6b7e fc25 e3bf
000001b0: 65e2 5641 0c74 d13f ca17 b490 80d1 d9bf
000001c0: bb26 a435 069d d0bf 3194 13ed 2aa4 dbbf
000001d0: e36d a5d7 6663 c53f c050 d1a2 8856 b23f
000001e0: 7069 ca88 ea31 6a3f 4b48 5ae0 e12c b9bf
000001f0: 452b f702 b342 d63f 0340 1537 6e31 dabf
00000200: 7252 98f7 38d3 c23f 2e1b 9df3 531c d5bf
00000210: 2655 db4d f04d d1bf fc8f 4c87 4ecf e3bf
00000220: 7c87 9114 47d4 a6bf 8556 ab9f cc79 75bf
00000230: f24f 4330 1b58 4fbf 7120 240b 98c0 d03f
00000240: f040 5365 cee9 883f f4ad 6aa4 00ac a53f
00000250: e414 1dc9 e53f c63f ac36 ffaf 3a72 d33f
00000260: 3f37 3465 a71f b43f fb5b 02f0 4fa9 e63f
00000270: dc2c 5e2c 0c91 e73f 075d c2a1 b778 b43f
00000280: e013 eb54 f99e bdbf 77bc c96f d1c9 c83f
00000290: 0132 74ec a012 a3bf 1478 279f 1edb ccbf
000002a0: 2aaf ae6d fe1d 69bf 5c62 1ba7 d71c 863f
000002b0: 6e85 b01a 4b58 dcbf f320 3d45 0e11 9fbf
000002c0: 4547 72f9 0fe9 c53f 2b88 81ae 7d01 b1bf
000002d0: 39d0 436d 1b46 d43f 7774 1200 d2ed 7b3f
000002e0: 5829 f345 312f aebf d5cf 9b8a 5418 dd3f
000002f0: e59d 4319 aa62 e13f b81e 85eb 51b8 df3f
00000300: 221b 4817 9b56 b83f 32ca 332f 87dd ec3f
00000310: 3336 74b3 3f50 e43f afcc 5b75 1d2a e13f
00000320: 6b2b f697 dd93 afbf d15b 3cbc e740 e2bf
00000330: d2aa 9674 9483 e43f e76a d03c 258c b73f
00000340: b401 d880 0871 d33f a56b 26df 6cf3 e23f
00000350: fbcd c474 21d6 e53f 6023 4910 ae80 dc3f
00000360: 31b4 3a39 4371 d43f c64d 4f50 71b9 7d3f
00000370: b8ab fcd7 5eb0 90bf 523d 3ec6 81fc b1bf
00000380: 7c0a 2538 9ac8 a53f 0f7f 4dd6 a887 d4bf
00000390: 5979 b8d3 8cfb ad3f 34ac b90e 9be9 6abf
000003a0: a7cb 6262 f371 d93f 92b0 6f27 11e1 e4bf
000003b0: d8d4 7954 fcdf c1bf 59d9 e32a bb05 873f
000003c0: f627 8e8f 5883 5ebf 48bb fa46 ae7a 743f
000003d0: a20b ea5b e674 db3f 95ae aaa8 0bc2 b43f
000003e0: c5fe 57c2 7f5f 98bf 6de8 2463 ce96 80bf
000003f0: 6218 0b9e 9d67 9f3f 5c30 0274 a95b 873f
00000400: d3f7 1a82 e3b2 e4bf 4e29 af95 d05d cc3f
00000410: a285 bafe 1312 b9bf 840f 255a f278 d63f
00000420: a668 fefb 0062 5abf 541b 9c88 7e6d dc3f
00000430: 507b 214f 5803 703f 0663 44a2 d0b2 7ebf
00000440: 2db3 08c5 5650 e23f ad84 ee92 382b d6bf
00000450: 58ff e730 5f5e c63f b57e 445d b57c aebf
00000460: 8d63 247b 849a c13f fa2f 6bbd 3a22 923f
00000470: c92f eecc 25d1 82bf 72c4 5a7c 0a00 f1bf
00000480: 8ecd 8e54 dff9 dfbf cceb 8843 3610 e03f
00000490: 4b78 42af 3f89 c33f 7cfc 9419 259e 9a3f
000004a0: faec 80eb 8a19 e4bf 594e 42e9 0ba1 e03f
000004b0: d9f8 0269 b576 993f 9f77 6341 6150 b63f
000004c0: 2717 be19 9018 b03f 2127 a7d1 3f1c ab3f
000004d0: 1348 895d dbdb d93f e146 ca16 49bb c13f
000004e0: 8e5f d3de 3bc5 a13f 803a 2f5f a80d 983f
000004f0: 4774 cfba 46cb d23f 27dc 2bf3 56dd e1bf
00000500: 4b1e 2ebd 2639 6abf b802 0af5 f411 e03f
00000510: 3484 6396 3d09 c43f 54e4 1071 732a bd3f
00000520: 6f0c 01c0 b167 cbbf 2508 5740 a19e dd3f
00000530: 92b1 dafc bfea da3f fdc0 559e 40d8 dd3f
00000540: 5cab 3dec 8502 babf ebe5 779a ccf8 e1bf
00000550: ecf9 9ae5 b2d1 de3f b574 6094 fb78 93bf
00000560: f2ed 5d83 bef4 9ebf 7149 c44a bb87 b2bf
00000570: 5aa7 806a 72e7 903f 3a75 e5b3 3c8f e33f
00000580: a12c 7c7d ad4b e0bf a24b 93ad 8960 b53f
00000590: f964 c570 7500 c03f f4d2 5e8e 684c b2bf
000005a0: 211f f46c 567d ba3f 8621 72fa 7abe a2bf
000005b0: 295d fa97 a432 d83f 88d6 8a36 c7b9 9dbf
000005c0: f73a c0cb c08c 2fbf a056 2cd9 0ccb 92bf
000005d0: bbf1 eec8 586d c03f a358 6e69 3524 c83f
000005e0: ecdf f599 b33e c53f 6c06 b820 5b96 c53f
000005f0: 6d1e 87c1 fc15 be3f 5d6b ef53 5568 c63f
00000600: 2901 d64f a4a0 903f 2a1f 82aa d1ab d13f
00000610: b8b9 e7af 462c b23f cf49 ef1b 5f7b d23f
00000620: 3945 4772 f90f e13f 74d2 fbc6 d79e a93f
00000630: 5a3d 0e20 cf70 6bbf a9f7 544e 7b4a d13f
00000640: 47e7 fc14 c781 bf3f dba5 0d87 a581 c5bf
00000650: 6ddf 4845 0834 a13f 2c2d 23f5 9eca b9bf
00000660: 49bd a772 da53 ccbf c5ae eded 96e4 c4bf
00000670: 3ee7 6ed7 4b53 cc3f 031b 425b efb3 813f
00000680: b681 3b50 a73c c0bf 8ac7 45b5 8828 d3bf
00000690: 4e0a d210 7e77 753f c4ed d0b0 1875 debf
000006a0: 1329 cde6 7118 ddbf c619 c39c a04d cabf
000006b0: 7155 d977 45f0 e03f ffe6 c589 af76 e1bf
000006c0: c0b2 d2a4 1474 e1bf f0d6 9efe 582d a5bf
000006d0: d63b dc0e 0d8b d53f edd4 5c6e 30d4 d93f
000006e0: ace4 6377 8192 c03f 02b8 59bc 5818 d83f
000006f0: 355c 89e5 3b9d a83f 786c ba54 5ba0 af3f
00000700: 9ca4 f963 5a1b edbf 9434 7f4c 6b53 e5bf
00000710: ed0f 94db f6bd e33f d730 43e3 8920 cebf
00000720: 09c6 1c5f d61f 9cbf dd40 8177 f2e9 d73f
00000730: 8ee2 c1bb 010b a5bf 814d 8c1b 6d0b a5bf
00000740: 81ce a44d d53d da3f 1b80 0d88 1057 d53f
00000750: d78f 0365 0921 96bf 29e2 5bf5 0c23 65bf
00000760: 16e2 ec31 ec8b 8f3f 9ea0 0381 8417 a7bf
00000770: 8192 020b 60ca a8bf badc 60a8 c30a cbbf
00000780: 0c05 6c07 23f6 d0bf 7b13 4372 3271 dabf
00000790: 4708 eaef 00aa 9bbf 8f56 b5a4 a31c c03f
000007a0: f5b0 6197 f26b 9dbf 37f3 929c 9f24 55bf
000007b0: d636 c5e3 a25a d8bf db75 25b8 4725 8bbf
000007c0: 64e8 d841 25ae c13f c10d e7d0 d84d abbf
0.0561853 -0.134788 0.0455649 0.0821499 0.485224 -0.108416 -0.191174 0.0138654
-0.247032 0.283097 -0.00312976 0.594442 0.518032 0.129147 -0.411999 0.276301
0.00760958 -0.0337269 -0.0110003 -0.601768 -0.737246 -1.25087 -0.256686 0.304483
-0.00300964 0.350956 -0.485394 0.12296 0.0226214 -0.327972 -0.00239608 0.0793414
-0.267022 0.0407343 0.0062978 0.000881039 0.0415486 0.0101839 -0.0452931 -1.29192
0.0284615 -1.10284 0.407117 -0.134973 0.0263459 -0.023071 0.0146441 -0.0100592
0.0567696 0.00105451 -0.704491 0.512771 -0.592839 -0.598387 0.272708 -0.403412
-0.259584 -0.431895 0.167096 0.0716329 0.00319763 -0.0983411 0.347821 -0.409267
0.147071 -0.329854 -0.270382 -0.619056 -0.0445883 -0.00524311 -0.000956548 0.261755
0.0121647 0.0423279 0.173825 0.303847 0.078608 0.708168 0.736456 0.079967
-0.115707 0.193659 -0.0372515 -0.225437 -0.00306606 0.0107972 -0.442889 -0.0303385
0.171175 -0.066429 0.316779 0.0068186 -0.0589538 0.45461 0.543294 0.495625
0.0950715 0.902042 0.634796 0.536391 -0.061675 -0.570423 0.641062 0.0919822
0.303774 0.592215 0.682389 0.445354 0.319413 0.00725693 -0.0162978 -0.0702592
0.0425461 -0.32078 0.0585598 -0.00328522 0.39758 -0.652474 -0.139648 0.0112414
-0.00186237 0.00499981 0.42901 0.0810859 -0.0238018 -0.00810014 0.0306687 0.0114053
-0.646837 0.221613 -0.0979321 0.351132 -0.00161028 0.444183 0.00390944 -0.00749475
0.572307 -0.346388 0.174755 -0.0595452 0.137528 0.0177087 -0.00918798 -1.06251
-0.499626 0.501979 0.152626 0.0259939 -0.628118 0.519659 0.0248669 0.087164
0.0628748 0.0529499 0.404044 0.138528 0.0347079 0.0234896 0.293657 -0.558269
-0.00320108 0.502192 0.156532 0.113929 -0.214102 0.462807 0.420578 0.466324
-0.101601 -0.561621 0.481549 -0.0190162 -0.0302305 -0.0723836 0.0165079 0.611235
-0.509238 0.0835043 0.125014 -0.0714784 0.103475 -0.0366095 0.378091 -0.029029
-0.000240706 -0.0183527 0.128337 0.188605 0.165976 0.168651 0.117523 0.175059
0.0162378 0.276112 0.0709881 0.28878 0.5332 0.05004 -0.00334969 0.270171
0.123074 -0.168019 0.0336001 -0.100748 -0.221309 -0.163226 0.221292 0.00864398
-0.126851 -0.299349 0.00524091 -0.475897 -0.454617 -0.205494 0.52933 -0.545738
-0.54542 -0.0413616 0.336612 0.403576 0.129471 0.376486 0.0480746 0.0617703
-0.909589 -0.666433 0.616939 -0.235368 -0.0274652 0.373654 -0.0410996 -0.0411028
0.410024 0.333439 -0.0216104 -0.00258019 0.0154036 -0.0451013 -0.048419 -0.211266
-0.265023 -0.413159 -0.0270157 0.125874 -0.0287321 -0.00129047 -0.380532 -0.0132547
0.138127 -0.0533283

FC1_bias f8 [50]
00000000: 15c9 5702 29b1 c73f 12bd 8c62 b9a5 c73f
00000010: 0839 efff e384 c5bf 1668 7748 3140 ba3f
00000020: 8e95 9867 25ad c6bf 83db dac2 f352 c93f
00000030: f208 6ea4 6c91 cabf cd51 ec0d 6377 a63f
00000040: ec25 d75e 5507 9a3f c5af b37c b83f b4bf
00000050: f6bd e199 2bde b3bf 2444 f982 1612 70bf
00000060: a933 f790 f0bd c1bf fc34 eecd 6f98 ca3f
00000070: 8d0a 9c6c 0377 da3f b66a d784 b4c6 d6bf
00000080: 61ca 1bbb 9fae b7bf baa4 6abb 09be e2bf
00000090: 4c7d ac22 d4f3 83bf 7ca0 0335 f6d1 3b3f
000000a0: e9f8 c32a 3982 a3bf 6d02 0ccb 9f6f 83bf
000000b0: b83f 170d 198f cebf de4c 96a4 7c52 b7bf
000000c0: 8446 b071 fdbb c23f 2c12 6e8d 637f 84bf
000000d0: b1c1 a13b b11c 7bbf 36df d27b 7434 90bf
000000e0: cbdd 42b2 dbc2 a63f 13dd 6921 b715 91bf
000000f0: 96d1 c8e7 154f bd3f 7521 567f 8461 c2bf
00000100: 7874 6db9 443f a0bf a744 0a4c 444b 70bf
00000110: 80ef 366f 9c14 dabf 8bc4 0435 7c0b c53f
00000120: bede fdf1 5e35 ebbf 2919 4a37 d3ce b2bf
00000130: e6b1 6664 90bb cabf 0509 dd67 8d28 82bf
00000140: fab3 1f29 22c3 c2bf c743 8424 58c1 843f
00000150: f21f 77b6 ecb5 b5bf 8f29 690f c52e b53f
00000160: d22e f026 09d3 b13f 1a30 48fa b48a b03f
00000170: 6687 f887 2d3d ce3f 28d1 92c7 d3f2 c3bf
00000180: b382 3a40 8b00 aabf 22a5 d93c 0e83 d03f
0.185094 0.184745 -0.168118 0.102542 -0.177159 0.197844 -0.207563 0.0438796
0.0254186 -0.0790973 -0.0776088 -0.0039235 -0.138609 0.207777 0.413514 -0.355878
-0.0925083 -0.585698 -0.00974241 0.000424502 -0.0381029 -0.00949025 -0.238742 -0.0911024
0.146362 -0.0100086 -0.00661916 -0.0158251 0.0444554 -0.0166844 0.114488 -0.143601
-0.0317327 -0.00397803 -0.407508 0.164413 -0.850265 -0.0734684 -0.208849 -0.00886641
-0.14658 0.0101344 -0.0848072 0.0827449 0.0696264 0.0646165 0.236242 -0.155848
-0.0507854 0.257999

FC1_weight f8 [50, 50]
00000000: 138f d5f7 2bae 9bbf 40c3 9b35 785f d03f
00000010: 020d 3675 1e15 e13f de8f db2f 9fac c0bf
00000020: a08a 1bb7 981f e3bf 107a 36ab 3e57 f03f
00000030: a46c 91b4 1b7d cc3f ada6 eb89 ae0b abbf
00000040: 2710 1bd1 e231 a43f 2789 25e5 ee73 d03f
00000050: e9b7 af03 e78c dbbf a8c7 b60c 384b e23f
00000060: 9e28 0989 b40d e13f c173 efe1 92e3 ca3f
00000070: 73d7 12f2 41cf c2bf e55e 6056 28d2 c53f
00000080: 228f 3b00 3d68 913f 1b49 8270 0514 ba3f
00000090: d1be 8785 39c5 533f 94a4 6b26 df6c d03f
000000a0: 33a4 8ae2 55d6 d83f 1437 edb0 295a 503f
000000b0: 02f1 ba7e c1ee f6bf 8c11 8942 cb3a e6bf
000000c0: 1610 ff55 ecd4 813f db4d f04d d367 c13f
000000d0: edad 92d9 6a20 abbf f461 07df 45a9 9e3f
000000e0: 132a 38bc 20a2 e23f 74b4 aa25 1de5 d5bf
000000f0: aa48 85b1 85a0 f53f 7a56 d28a 6f28 d6bf
00000100: 9e07 7767 edb6 bbbf ca13 ad81 5259 89bf
00000110: 1a80 5715 2bb4 b13f cc74 54da 8761 a83f
00000120: e7a9 0eb9 196e b03f 06be a25b afe9 d63f
00000130: 81cd 3978 2634 ddbf d163 4ada 43b1 a3bf
00000140: e8f8 6871 c630 d83f 5fd3 8382 5234 e53f
00000150: ccd0 7822 88f3 c63f 6b9d b81c afc0 e8bf
00000160: 2b3d 89be 7108 b1bf e23e 726b d26d dbbf
00000170: 5c77 f354 87dc ce3f d953 dde9 ef21 783f
00000180: 7863 4161 50a6 cfbf 2daf 5c6f 9ba9 c4bf
00000190: 2315 c616 821c de3f 7dce ddae 97a6 d6bf
000001a0: daff 006b d5ae e73f 3f50 1322 8557 ab3f
000001b0: 0fee ceda 6d97 eb3f 6ccf 2c09 5053 9b3f
000001c0: 101f d8f1 5f20 dc3f 9fe3 a3c5 19c3 d53f
000001d0: 5cae 7e6c 921f ad3f c74c a25e f069 ccbf
000001e0: db35 21ad 31e8 d93f 0c47 46bd 9646 b43f
000001f0: 5457 3ecb f3e0 be3f bebf 417b f571 e3bf
00000200: 4354 e1cf f066 e3bf 2db2 9def a7c6 e43f
00000210: 1b2c 9ca4 f963 c03f 4b5c c7b8 e2e2 dabf
00000220: 72e3 71ac e694 7b3f ac02 b518 3c4c d3bf
00000230: 7ee0 2a4f 20ec c83f 2005 f467 e498 99bf
00000240: 884b 8e3b a583 b93f 269f 6868 4d3d a43f
00000250: 8331 2251 6859 dabf e7e1 04a6 d3ba b3bf
00000260: 26f0 98cb 5713 a9bf 73eb 7fca 4285 843f
00000270: c632 fd12 f1d6 d8bf a60f 5d50 df32 c1bf
00000280: ae2d 3c2f 151b d1bf 6808 c72c 7b12 ec3f
00000290: cb67 791e dc9d 9d3f ab4f 83b3 a558 973f
000002a0: b58b 69a6 7b9d d2bf 3a41 9b1c 3ee9 c6bf
000002b0: 90be 49d3 a0e8 ecbf 7041 b62c 5f97 d93f
000002c0: 2db0 c744 4ab3 d23f 95d8 b5bd dd92 a0bf
000002d0: e7c3 b304 1901 e1bf bda9 4885 b185 e73f
000002e0: da1b 7c61 3255 d8bf e749 e361 eb63 b9bf
000002f0: 959b a8a5 b915 d1bf 8236 397c d289 b03f
00000300: ac71 361d 01dc ccbf 5b42 3ee8 d92c f03f
00000310: 2c7d e882 fa96 c3bf 8926 50c4 2286 d2bf
00000320: 4c37 8941 60e5 f3bf 861b f0f9 6184 f2bf
00000330: d1c9 52eb fd46 dd3f 44a3 3b88 9d29 d1bf
00000340: 823a e5d1 8db0 c23f 9d2e 8b89 cdc7 de3f
00000350: 1adc d616 9e97 d3bf 8dd3 1055 f833 d8bf
00000360: fc6d 4f90 d8ee aa3f 9f21 1cb3 ec49 e53f
00000370: bd34 4580 d3bb cabf 0340 1537 6e31 c7bf
00000380: b823 9c16 bc68 f03f e0a0 bdfa 78e8 8b3f
00000390: a262 9cbf 0905 fcbf 5514 afb2 b629 e83f
000003a0: 17d4 b7cc e932 f73f 6d74 ce4f 719c e6bf
000003b0: f59a c35a 2151 a13f ff20 9221 c7d6 c5bf
000003c0: 4f74 023f 4fa8 b4bf 8f96 fbcb 8b9f 803f
000003d0: e78e fe97 6bd1 ca3f 0f7f 4dd6 a807 f23f
000003e0: b458 8ae4 2b81 d3bf 10e8 4cda 545d ea3f
000003f0: db9b 29be eb7d 843f ee9b 5665 3acf a73f
00000400: fd2f d7a2 0568 dcbf 7d23 ba67 5da3 d4bf
00000410: f19d 98f5 6228 b3bf b875 374f 7548 ed3f
00000420: b91e e0a4 c409 97bf 1a91 836d 1f4d a43f
00000430: 5e2a 36e6 7544 e43f 1c08 c902 2670 f2bf
00000440: 145c aca8 c1b4 f03f 191d 9084 7d3b e43f
00000450: ebfe b110 1d02 d03f 4ac7 e6f4 06a9 a5bf
00000460: ca87 a06a f4ea ee3f ee5f 5969 520a f3bf
00000470: f2b0 506b 9a77 dcbf 0471 1e4e 60ba ecbf
00000480: a340 9fc8 93a4 c13f e6c9 3505 323b efbf
00000490: 4018 78ee 3ddc f8bf 1289 42cb ba7f c83f
000004a0: 172e abb0 19e0 c83f 4144 6ada c5b4 e1bf
000004b0: 09c2 1550 a8a7 d43f 51be a085 048c d13f
000004c0: 685b cd3a e37b e73f 1b2a c6f9 9b50 ce3f
000004d0: 1a88 6533 8724 e83f 645d dc46 03f8 f9bf
000004e0: 01c1 1c3d 7e6f e33f ed9e 3c2c d49a d63f
000004f0: 5856 9a94 826e c53f 179b 560a 815c d53f
00000500: 8960 1c5c 3ae6 d83f 91d0 9673 292e 04c0
00000510: bd01 66be 839f bcbf 5f42 0587 1744 d53f
00000520: c72e 51bd 35b0 d6bf a419 8ba6 b313 fcbf
00000530: b7ea df9a e040 b7bf e8ca 564d c6e7 b43f
00000540: 44c7 69e3 e36e 93bf 0283 a44f abe8 c9bf
00000550: 3b38 d89b 1892 db3f 5c99 a6be e25f 923f
00000560: 8d08 c6c1 a563 babf 4e5e 6402 7e8d d43f
00000570: b6f2 3746 578e 9d3f 5dc4 7762 d60b e8bf
00000580: b54f e871 ef4c 7e3f 23d5 1cc5 de30 86bf
00000590: 9a62 693b 01a8 95bf 4964 1f64 59b0 e5bf
000005a0: ffec 478a c8b0 edbf 2639 6057 93a7 dd3f
000005b0: 1c3f f960 be61 a3bf 8c96 4dca ee13 913f
000005c0: 4c36 1e6c b1db d73f 11e0 f42e de8f debf
000005d0: 84f5 7f0e f3e5 bdbf 6f2b bd36 1b2b ea3f
000005e0: 9b72 8577 b988 9f3f 7ba6 f2d1 3d46 943f
000005f0: 14e9 7e4e 41fe edbf a514 747b 4963 d43f
00000600: f3aa ce6a 813d dd3f b29c 84d2 1742 d0bf
00000610: 270a 3e17 57a6 89bf ab95 09bf d4cf bb3f
00000620: f5f5 7ccd 72d9 d6bf 73b9 c150 8715 d7bf
00000630: 103d 2993 1ada d23f 0e16 a98b 6f83 b33f
00000640: a73d 25e7 c41e d33f fd60 2a47 12ce 883f
00000650: 4146 4085 2348 d4bf cea9 6400 a8e2 d0bf
00000660: 8599 b67f 65a5 d33f f087 9fff 1ebc c03f
00000670: 5da5 bbeb 6cc8 cfbf 9ddb df34 d82f 93bf
00000680: b09b 08d1 1044 b2bf ac6f 6072 a3c8 d63f
00000690: eeb3 ca4c 69fd d43f d174 7632 384a cebf
000006a0: 0b5d 8940 f50f ba3f e201 6553 aef0 babf
000006b0: 855d 143d f031 e93f 4f92 ae99 7cb3 dd3f
000006c0: 3355 8be3 1b65 b23f 359a 5c8c 8175 d83f
000006d0: 065d 0c2f d2d5 87bf 3b1b f2cf 0ce2 d23f
000006e0: a0fd 4811 1956 cbbf eccb 88c1 b288 873f
000006f0: e2ae 5e45 4607 a0bf 2152 7875 3348 aabf
00000700: 7a56 d28a 6f28 c2bf 7d3c f4dd ad2c c3bf
00000710: bc6e 5ba5 0579 873f 789f 3e5d 386b 933f
00000720: 3695 4561 1745 c53f 15c7 8157 cb9d cfbf
00000730: f2b4 fcc0 559e e03f fc6e ba65 87f8 cfbf
00000740: b1f8 4d61 a582 cc3f f27b 9bfe ec47 a23f
00000750: 3d80 457e fd10 d0bf 3160 c955 2c7e bb3f
00000760: e549 2def 05c1 aebf 40bd be7b ecd3 aa3f
00000770: f88d af3d b324 c23f 4c99 4827 1abd 6d3f
00000780: 0890 a163 0795 d23f ab06 616e f772 c33f
00000790: 76c6 f7c5 a52a bd3f 9180 d1e5 cde1 d23f
000007a0: abbe a9fe f796 a43f f891 b64c e19c b03f
000007b0: 9869 fb57 569a c03f 0f7e e200 fa7d d4bf
000007c0: b8ca 1308 3bc5 a23f 8c0d 8233 9d42 b33f
000007d0: c1c7 60c5 a9d6 b2bf 63b7 cf2a 33a5 dbbf
000007e0: ffae cf9c f5a9 e13f aaf3 a8f8 bf23 c23f
000007f0: 3be3 fbe2 5295 c63f 3848 88f2 052d c6bf
-0.0270316 0.255827 0.533828 -0.130268 -0.597607 1.0213 0.222568 -0.0528235
0.0394431 0.257076 -0.430475 0.571682 0.532923 0.21007 -0.14695 0.170476
0.0169992 0.101868 0.00120669 0.256645 0.388082 0.000998059 -1.43329 -0.694677
0.0087069 0.135981 -0.0529817 0.0299426 0.582291 -0.342109 1.35169 -0.346218
-0.10826 -0.0123774 0.0691554 0.0476191 0.06418 0.358013 -0.456308 -0.0384618
0.377977 0.662637 0.179307 -0.773521 -0.0665351 -0.428578 0.241105 0.00589174
-0.247263 -0.161426 0.47049 -0.353918 0.740092 0.0534021 0.862235 0.026685
0.439476 0.340033 0.0568815 -0.221983 0.404797 0.0792021 0.12062 -0.607661
-0.606316 0.64925 0.128051 -0.420098 0.0067338 -0.301528 0.194706 -0.0249973
0.099665 0.0395302 -0.411707 -0.0770695 -0.0489757 0.0100198 -0.388119 -0.134365
-0.267278 0.877256 0.0289225 0.0227991 -0.290862 -0.178993 -0.903397 0.399864
0.292193 -0.0323705 -0.531384 0.73507 -0.3802 -0.0991809 -0.266951 0.064603
-0.225464 1.01095 -0.153045 -0.289437 -1.2435 -1.15732 0.457458 -0.268165
0.146013 0.480945 -0.306129 -0.378172 0.0526035 0.665274 -0.208857 -0.181196
1.02557 0.013627 -1.75123 0.755092 1.44993 -0.706597 0.0338221 -0.170617
-0.0806932 0.00811681 0.209516 1.12687 -0.304759 0.823893 0.0100058 0.0465029
-0.443849 -0.322471 -0.074835 0.915095 -0.0224982 0.0396509 0.633357 -1.15238
1.04413 0.632262 0.250129 -0.0423052 0.966181 -1.19002 -0.4448 -0.897751
0.137835 -0.975976 -1.55377 0.191398 0.194339 -0.553317 0.322733 0.274171
0.733873 0.236835 0.754459 -1.62305 0.60736 0.3532 0.167435 0.333771
0.389052 -2.52254 -0.111809 0.332281 -0.354505 -1.75481 -0.0908337 0.0816616
-0.0189777 -0.202413 0.430792 0.0179439 -0.103083 0.321136 0.0288633 -0.751445
0.00739759 -0.0108354 -0.0211487 -0.677777 -0.92783 0.463353 -0.0378551 0.0166776
0.372784 -0.477531 -0.11679 0.817762 0.030795 0.0197992 -0.937287 0.31856
0.456879 -0.254034 -0.0125243 0.10864 -0.357022 -0.360689 0.294562 0.0762243
0.298753 0.0121118 -0.316903 -0.263834 0.30697 0.130741 -0.248304 -0.0187372
-0.0713511 0.355996 0.327967 -0.23664 0.101806 -0.105235 0.787346 0.46408
0.0718553 0.382172 -0.0116383 0.295047 -0.213565 0.0114912 -0.0313055 -0.0513321
-0.141859 -0.149801 0.0114613 0.0189637 0.166171 -0.247003 0.519328 -0.249772
0.222737 0.035705 -0.251037 0.107394 -0.0600664 0.0523981 0.141745 0.00363021
0.290346 0.151946 0.113932 0.295032 0.0402143 0.0648938 0.12971 -0.320189
0.036661 0.0752352 -0.073588 -0.431958 0.551997 0.141716 0.176432 -0.173249

FC2_bias f8 [50]
00000000: a2d4 5e44 db31 e0bf 3cf9 f4d8 9601 bf3f
00000010: ba4a 77d7 d990 cdbf 8b23 c5b6 fb0b ab3f
00000020: 4546 0724 61df ba3f 8692 c9a9 9d61 d8bf
00000030: e55c 2ff2 576d b3bf 2850 7a95 6bc0 b23f
00000040: 7c9d d497 a59d ce3f 5647 8e74 0646 c8bf
00000050: a855 f487 669e d33f 3fea 86d8 2636 6bbf
00000060: cda6 c8c6 2874 93bf 16d1 c0d9 f7f2 94bf
00000070: ab2b 5558 5f13 b03f c40a b77c 2425 c33f
00000080: 085b ecf6 5965 c4bf 3a91 81b8 82d8 5f3f
00000090: 9dd9 aed0 07cb 88bf 9371 8c64 8f50 c5bf
000000a0: d592 8e72 309b c23f 5397 8c63 247b c8bf
000000b0: 1c21 a8bf 03a8 a2bf 9465 2daa ea8a 963f
000000c0: 5ad6 fd63 213a b43f aca9 2c0a bb28 b2bf
000000d0: e0a0 bdfa 78e8 dc3f 3410 cb66 0e49 cf3f
000000e0: 164d 6727 83a3 d8bf cb55 e2f0 38fb 91bf
000000f0: fcc4 01f4 fbfe d0bf 7e17 1991 e697 823f
00000100: 8ae5 9656 4362 f0bf eba1 c739 fb14 713f
00000110: 0a2f c1a9 0f24 cbbf eae9 23f0 879f ab3f
00000120: d3de e00b 93a9 9a3f 5f62 2cd3 2f11 d6bf
00000130: 132b a391 cf2b cebf 5eb9 de36 5321 be3f
00000140: 6551 d845 d103 d53f fda3 6fd2 3428 c0bf
00000150: 9973 3ada 82ef afbf cd3c b9a6 4066 dfbf
00000160: 0055 dcb8 c5fc bcbf 965a ef37 da71 e4bf
00000170: b3df c95d 3a9c b73f cbf5 b699 0af1 90bf
00000180: 6e78 3018 12e6 8c3f 00c5 c892 3996 bb3f
-0.506086 0.121118 -0.230983 0.0528258 0.104971 -0.380958 -0.0758872 0.0732486
0.239186 -0.189637 0.306543 -0.00332172 -0.0189978 -0.0204581 0.0627956 0.149571
-0.159343 0.00194371 -0.012106 -0.166521 0.145361 -0.191258 -0.0364381 0.0220143
0.079012 -0.070934 0.451689 0.244417 -0.38498 -0.0175599 -0.265563 0.00907879
-1.02399 0.0041704 -0.212038 0.0539515 0.0260375 -0.344799 -0.235712 0.117696
0.328358 -0.126227 -0.0623742 -0.490616 -0.113232 -0.638898 0.0922276 -0.0165445
0.0141107 0.107761

FC2_weight f8 [50, 50]
00000000: 5e4b c807 3d9b dabf 5abc 5818 22a7 df3f
00000010: c6a4 bf97 c283 c8bf 1aa3 7554 3541 ccbf
00000020: 7713 7cd3 f4d9 c53f 19be cf02 fe3a 99bf
00000030: 3bc3 d496 3ac8 d23f 391c a732 d648 b63f
00000040: 7bd5 6fcb ec98 97bf b397 6da7 ad11 c13f
00000050: c6f8 307b d976 c63f a8bf 03a8 4eac a8bf
00000060: 50ef 9870 9ea0 b1bf f418 e599 97c3 8e3f
00000070: a814 e060 14a9 a1bf 5b0c 1ea6 7d73 d3bf
00000080: 4d9f 1d70 5d31 d63f 5b5c e333 d93f bfbf
00000090: cfa0 a17f 820b e03f ebf0 c638 3586 b1bf
000000a0: 4626 e0d7 4812 d0bf 170e 8464 0113 e6bf
000000b0: 1896 3fdf 162c d5bf d80f b1c1 c2c9 e2bf
000000c0: addb a0f6 5b3b d0bf 823c bb7c ebc3 dabf
000000d0: 9dd3 d116 7c3f a63f afd1 72a0 87da c43f
000000e0: 0c92 3ead a23f dc3f 81d5 ecdc 0fd3 99bf
000000f0: d2e1 218c 9fc6 e0bf 5c1b 2ac6 f99b b23f
00000100: cc9b c3b5 da43 e1bf 842c 0b26 fe28 cebf
00000110: 65c8 b1f5 0ce1 dcbf bdf3 d59f 0e75 893f
00000120: 2908 1edf de35 d1bf 8227 e3ce 3b04 b83f
00000130: 5b9a 5b21 acc6 d13f 643c 4a25 3ca1 c7bf
00000140: 1502 b9c4 9107 c63f 1b02 918f 2793 b43f
00000150: 7671 1b0d e02d d1bf b325 ab22 dc64 bcbf
00000160: 4c4c bca8 82f6 b3bf 878c 47a9 84a7 e03f
00000170: 8d41 2784 0eba d6bf 5d0c 0ec4 ec44 7d3f
00000180: 7bbb 2539 6057 d2bf a4fe 7a85 05f7 e33f
00000190: 130d 52f0 1472 e53f 69c7 0dbf 9b6e d93f
000001a0: 4df6 cfd3 8041 cc3f 280c ca34 9a5c a83f
000001b0: 0cb0 8f4e 5df9 f4bf 6188 9cbe 9eaf cf3f
000001c0: 3414 77bc c96f d6bf 1ec4 ce14 3a2f e83f
000001d0: 0d54 c6bf cfb8 f7bf 9a41 7c60 c77f bdbf
000001e0: 8e56 5aeb 30cb 9bbf 7dfb 84fd e8e5 a13f
000001f0: 212e ef60 7ab1 a2bf 3529 05dd 5ed2 a8bf
00000200: c573 b680 d07a e63f 0f62 670a 9dd7 fcbf
00000210: 683f 5244 86d5 e7bf a5a0 db4b 1aa3 bdbf
00000220: b16d 5166 834c f8bf 49d7 4cbe d9e6 f3bf
00000230: b56f eeaf 1ef7 e0bf 0804 3a93 36d5 ee3f
00000240: e3dd 91b1 da7c ea3f f357 c85c 19d4 e23f
00000250: ab96 7494 83d9 eebf 7339 14f4 cdec 993f
00000260: e020 6b57 3211 98bf 8368 ad68 731c e2bf
00000270: ebe5 779a cc78 d7bf 9f82 b2df c95d 8a3f
00000280: 709a 3e3b e0ba cebf b2da fcbf eac8 d43f
00000290: a67e de54 a4c2 f5bf 8556 ccad b59c 90bf
000002a0: 5a64 3bdf 4f0d ff3f 32af 230e d940 b8bf
000002b0: 0b0b ee07 3c30 de3f 3b8f 8aff 3ba2 d3bf
000002c0: ec34 d252 793b d33f 82c4 76f7 00dd df3f
000002d0: b0c6 d974 0470 ddbf e256 410c 74ed ec3f
000002e0: e5d0 22db f97e c23f 4e0c c9c9 c4ad e83f
000002f0: 098a 1f63 ee5a f03f be60 81f9 75f1 b63f
00000300: 08ad 872f 13c5 e0bf 8621 cdb3 ed0f a3bf
00000310: 0e49 2d94 4c4e dabf 2480 9bc5 8b85 d8bf
00000320: ea7b 0dc1 7119 d03f 0680 2a6e dce2 e8bf
00000330: 5d50 df32 a7cb babf 9370 218f e046 c83f
00000340: 6572 6a67 98da d2bf 9963 7957 3d60 cc3f
00000350: d1ae 42ca 4faa d53f 3f73 d6a7 1c93 c5bf
00000360: d2e3 f736 fdd9 d0bf 85b6 9c4b 7155 da3f
00000370: d663 1179 8148 a13f abd4 473b c9b1 403f
00000380: d01c a386 808d 95bf 90be 49d3 a068 c03f
00000390: d87f 9d9b 36e3 d9bf 57b0 8d78 b29b d0bf
000003a0: cf83 bbb3 765b edbf 8db6 2a89 ec83 debf
000003b0: 1bda 006c 4084 bcbf f299 ec9f a701 c13f
000003c0: c830 ddda 7866 a0bf 282c f180 b229 d2bf
000003d0: 2c83 6a83 13d1 c3bf 6a6c af05 bd37 963f
000003e0: 5e5b 898a 822a af3f 61c2 6856 b60f ddbf
000003f0: 5777 2cb6 4945 eabf 51db 8651 103c cc3f
00000400: c576 f700 dd97 c73f 2cdf e984 86b4 8c3f
00000410: 0324 9a40 110b e53f 4dd7 135d 177e 983f
00000420: 6b0d a5f6 22da e43f 9739 5d16 139b bbbf
00000430: 64ad a1d4 5e44 d0bf 8464 0113 b875 d9bf
00000440: d2c2 6515 3603 d9bf b5c4 ca68 e4f3 e33f
00000450: 8c30 45b9 347e d53f 1519 1d90 847d d4bf
00000460: 0cd6 ee0d 74a3 b8bf 3ab2 f2cb 608c d9bf
00000470: 6d59 be2e c37f 8a3f c18b 63c9 c111 a93f
00000480: b94a 1c1e 673f ab3f eacf 7ea4 880c f43f
00000490: dc9b 214d a366 6b3f b384 6ba4 5b65 a43f
000004a0: f904 3f60 d4a4 9a3f 9cdb 847b 65de bebf
000004b0: dae6 c6f4 8425 e73f e5ed 08a7 052f e23f
000004c0: a834 6266 9fc7 d1bf 57cd 7344 be4b a53f
000004d0: 8fe3 874a 2366 d23f 7bf4 86fb c82d e13f
000004e0: 8909 6af8 16d6 cb3f e37f 3c05 0a06 a9bf
000004f0: 5fed 28ce 51c7 e33f 0eb2 7625 1301 a43f
00000500: 789c a223 b9fc db3f b75a cc74 54da 9fbf
00000510: 3cda 7a7e ff83 6bbf 7538 1d75 3240 6bbf
00000520: 5c91 98a0 866f bdbf a889 e365 f272 b73f
00000530: eb00 88bb 7a15 e23f f035 04c7 65dc a0bf
00000540: d507 9277 0e65 e03f f65e 7cd1 1eaf e03f
00000550: 5c3b 5112 1269 eabf 44a8 52b3 07da e7bf
00000560: a8df 85ad d9ca c93f 60a7 fd7b 9521 abbf
00000570: 4df9 1054 8d5e ed3f 1262 d3ef 671d aebf
00000580: 9d2f f65e 7cd1 8e3f c4ed d0b0 1875 d23f
00000590: 6283 8593 347f e13f e8b2 e265 97b9 9a3f
000005a0: be4b a94b c631 dc3f 8c69 a67b 9dd4 afbf
000005b0: ec88 4336 902e c6bf eb36 a8fd d64e c6bf
000005c0: 3962 2d3e 05c0 d73f b0af 75a9 11fa d2bf
000005d0: bd1b 0b0a 8332 c5bf de04 df34 7d76 d53f
000005e0: 0a1f 0027 ca94 953f 4ad4 0b3e cd49 e7bf
000005f0: f8f9 efc1 6b17 eebf 2ba4 fca4 da27 f8bf
00000600: e82f f488 d173 cdbf bf7e 880d 164e e73f
00000610: 51f8 6c1d 1cec c53f 779e 78ce 1690 e33f
00000620: 99a3 64c5 b291 723f a5f0 2412 1afb 713f
00000630: 221a dd41 eccc e0bf 6a24 534f 30ad 87bf
00000640: a7b1 bd16 f4de e33f 5550 51f5 2b9d c9bf
00000650: 404b 57b0 8df8 e23f 1ff7 add6 89cb c9bf
00000660: fcfb 8c0b 0742 d1bf d734 ef38 4547 c43f
00000670: 7a50 508a 56ee d23f 3048 fab4 8a7e e13f
00000680: a0fd 4811 1956 913f 71e2 ab1d c539 e33f
00000690: 7cb8 e4b8 533a fbbf 7b1f fde5 4988 a0bf
000006a0: bd81 131b 3dc8 8cbf 42d7 193a d109 a4bf
000006b0: 9816 f549 ee30 ed3f cac5 1858 c7f1 c3bf
000006c0: f10d 2a16 6470 893f 5a56 5007 6811 a0bf
000006d0: 8787 307e 1af7 d93f eeaf 1ef7 ad56 e23f
000006e0: 6500 a8e2 c62d d4bf 7fdc 7ef9 64c5 c4bf
000006f0: 670a 9dd7 d825 e53f 4414 9337 c0cc bfbf
00000700: f8e0 b54b 1b8e eb3f fb3d b14e 95ef a9bf
00000710: cfda 6d17 9a6b f2bf a5f6 22da 8ea9 e73f
00000720: 7fa1 478c 9edb ea3f 4922 45ae e5df 883f
00000730: 2df1 db6b 9ca8 b2bf fe9e b360 3d49 b93f
00000740: a089 b0e1 e995 f53f f5f7 5278 d0ec c2bf
00000750: aa29 c93a 1c5d cd3f 1ccf 6740 bd19 a93f
00000760: addd 76a1 b94e cfbf ab5b 3d27 bdef ed3f
00000770: 3f3b e0ba 6246 ee3f aa7d 3a1e 3350 c5bf
00000780: 183f 8d7b f31b e13f 378c 82e0 f1ed e83f
00000790: e161 da37 f757 eabf 9df2 e846 5854 eb3f
000007a0: fbea aa40 2d06 db3f 6535 5d4f 745d eb3f
000007b0: 0439 2861 a6ed c13f 7410 cf6d 1d77 a5bf
000007c0: 6a13 27f7 3b14 d13f c8cd b21f 1085 823f
000007d0: d619 845e 2459 b4bf 0d8e 9257 e718 98bf
000007e0: deb0 6d51 6683 e4bf 3b4b 7774 afd5 663f
000007f0: 89a1 8b3c ff2c b4bf 2654 7078 4144 babf
-0.415725 0.494576 -0.191521 -0.22074 0.170714 -0.0246391 0.293471 0.0870489
-0.0230443 0.133352 0.175502 -0.0481896 -0.0688571 0.0150215 -0.0344931 -0.303924
0.346763 -0.122068 0.501405 -0.0684541 -0.251116 -0.68982 -0.330816 -0.587129
-0.253623 -0.418208 0.0434531 0.162919 0.441384 -0.0252192 -0.524246 0.0726925
-0.539533 -0.235626 -0.451236 0.0124303 -0.268913 0.0938146 0.277751 -0.184608
0.172106 0.0803704 -0.268425 -0.110914 -0.0779802 0.520449 -0.355106 0.00714581
-0.286583 0.623904 0.670176 0.397376 0.220749 0.0475815 -1.31088 0.247547
-0.350573 0.755765 -1.48262 -0.115231 -0.0271423 0.0349572 -0.0365103 -0.04848
0.702492 -1.80264 -0.744815 -0.11577 -1.51868 -1.24386 -0.530166 0.963527
0.827741 0.588391 -0.964052 0.0253174 -0.0235031 -0.565973 -0.366748 0.0128742
-0.240078 0.324763 -1.36002 -0.0162228 1.94075 -0.0947395 0.471694 -0.306777
0.300505 0.497864 -0.459962 0.903986 0.1445 0.771212 1.0222 0.0896219
-0.524057 -0.0372309 -0.411029 -0.383151 0.251553 -0.777693 -0.10467 0.189663
-0.294592 0.221687 0.33852 -0.168552 -0.263305 0.411465 0.0337563 0.000509475
-0.0210476 0.128193 -0.404493 -0.259503 -0.917415 -0.476802 -0.111393 0.132863
-0.0320318 -0.283795 -0.154818 0.021697 0.0608712 -0.454084 -0.820958 0.220583
0.184322 0.0140162 0.657601 0.0239185 0.651628 -0.107835 -0.254173 -0.39781
-0.390821 0.623522 0.335828 -0.320161 -0.0962441 -0.399193 0.012939 0.0489636
0.0532181 1.25306 0.00334484 0.0398358 0.0260194 -0.120581 0.72333 0.56824
-0.277809 0.0415935 0.287484 0.536839 0.217471 -0.0488742 0.618081 0.0390707
0.4373 -0.0311063 -0.00335884 -0.00332651 -0.114983 0.0915977 0.565122 -0.0329315
0.512336 0.521377 -0.825326 -0.745365 0.201503 -0.0529906 0.917792 -0.0588181
0.015048 0.288397 0.546778 0.0260986 0.440538 -0.062169 -0.173296 -0.174281
0.371095 -0.296513 -0.165604 0.335357 0.0210754 -0.727759 -0.940359 -1.50973
-0.230097 0.728282 0.171268 0.611339 0.00453348 0.00438986 -0.525015 -0.0115608
0.620966 -0.200109 0.592841 -0.201524 -0.269655 0.158425 0.295797 0.546697
0.01693 0.600802 -1.70174 -0.0322898 -0.0140538 -0.0391374 0.912223 -0.155816
0.0124214 -0.0313828 0.405707 0.573081 -0.315294 -0.162274 0.66087 -0.124218
0.861097 -0.050656 -1.15127 0.739448 0.839309 0.0121458 -0.0728853 0.0987738
1.3491 -0.147852 0.229404 0.0490245 -0.24459 0.935515 0.946092 -0.16651
0.534662 0.779046 -0.823238 0.854046 0.422252 0.855158 0.140065 -0.0419244
0.26686 0.00904286 -0.0794852 -0.0235325 -0.64104 0.00278744 -0.0788116 -0.102604

FC3_bias f8 [50]
00000000: f8fe 06ed d5c7 c3bf a7d7 1cd6 0a89 b23f
00000010: 7b6b 60ab 048b cdbf afb5 f7a9 2a34 d5bf
00000020: 63b4 8eaa 2608 e63f 857a fa08 fce1 cf3f
00000030: 7b84 9a21 5594 e0bf ca32 c4b1 2e6e fbbf
00000040: 70a3 b72e ebb4 a0bf 567d aeb6 627f bdbf
00000050: a4c4 aeed ed96 d2bf 25e6 5949 2bbe d5bf
00000060: f0a2 af20 cd58 bcbf a0de 8c9a af92 d5bf
00000070: 4468 a961 646e 93bf b2ba d573 d2fb e2bf
00000080: c632 fd12 f1d6 c5bf 473b 6ef8 dd74 c3bf
00000090: 6c09 f9a0 67b3 dfbf 1e96 bcf0 3966 b13f
000000a0: adbf 2500 ff14 e8bf b37c 5d86 ff74 c93f
000000b0: a600 625c bbfe b6bf db13 24b6 bb07 c4bf
000000c0: 90dc 9a74 5b22 d2bf ca17 b490 80d1 c7bf
000000d0: 1065 5efd 8e97 94bf f02f 270d da50 963f
000000e0: e7c7 5f5a d427 d3bf 5e81 e849 99d4 c03f
000000f0: 5c6c ff6f 9120 a5bf 77da 1a11 8c83 c93f
00000100: a6b6 d441 5e0f b03f 05ed 1f55 5e3c 8dbf
00000110: 2ac6 f99b 5008 f2bf b7b6 f0bc 546c bc3f
00000120: d53e 1d8f 19a8 d33f 5837 de1d 19ab cd3f
00000130: 9489 5b05 31d0 cbbf 1ebc 1bb0 5010 b93f
00000140: 3752 b648 da8d c8bf 0209 2f66 f09c 92bf
00000150: 0dc7 f319 50ef e8bf f67f 69ac 5857 b2bf
00000160: 69e1 b20a 9b81 e2bf 990e 9d9e 7763 bd3f
00000170: bc5d 8a06 8431 ad3f 94fa b2b4 5373 c13f
00000180: 6e52 d158 fb3b d9bf 1a58 7d64 2948 b4bf
-0.154536 0.0724036 -0.230805 -0.331309 0.688495 0.249084 -0.518107 -1.7144
-0.0326303 -0.115225 -0.290462 -0.339732 -0.11073 -0.337078 -0.0189758 -0.59324
-0.170622 -0.152004 -0.495325 0.0679661 -0.752563 0.198883 -0.0898244 -0.156486
-0.283347 -0.186081 -0.0201094 0.0217928 -0.299306 0.131488 -0.0412641 0.199327
0.0627345 -0.0142753 -1.12703 0.111028 0.307135 0.231784 -0.217291 0.0979052
-0.191829 -0.0181768 -0.779213 -0.0716453 -0.578321 0.114799 0.0570184 0.136332
-0.394286 -0.0792261

FC3_weight f8 [50, 50]
00000000: c64d 0d34 9f73 cb3f 51c8 17b2 8f55 47bf
00000010: 4b77 d7d9 907f c0bf a6ed 5f59 6952 a2bf
00000020: b0ac 3429 05dd ba3f ddd2 6a48 dc63 d7bf
00000030: 71c7 9bfc 169d d13f a7cd 380d 5185 da3f
00000040: 8626 e4de 5740 94bf bf82 3463 d174 f5bf
00000050: 21c8 8325 05b3 65bf 4583 143c 85dc e7bf
00000060: 68af 3e1e faee d23f 3f6f 2a52 616c d7bf
00000070: 8694 fa0d 6ec6 9c3f feee 1d35 26c4 c23f
00000080: 00c6 3368 e89f d4bf e0ba 6246 787b bcbf
00000090: b37b f2b0 506b cc3f 1f10 e84c da54 cf3f
000000a0: b150 6b9a 779c cabf dd42 5722 50fd bfbf
000000b0: dacb b6d3 d688 c0bf 193b e125 38f5 dbbf
000000c0: fb23 0c03 965c 85bf 69c4 cc3e 8f51 e7bf
000000d0: a5fa 29e9 bc21 80bf 7e8f faeb 1516 a8bf
000000e0: a01a 2fdd 2406 bd3f ae47 e17a 14ae e5bf
000000f0: a644 12bd 8c62 d7bf 0c77 2e8c f4a2 ccbf
00000100: 89d2 dee0 0b93 d23f 6217 5eac 1c18 80bf
00000110: 71ca dc7c 23ba c9bf ae28 2504 abea d63f
00000120: 09c3 8025 57b1 c6bf 9ab2 d30f ea22 c73f
00000130: 4d6e 9020 c79c 803f c49a 255c 23dd b03f
00000140: b6d8 edb3 ca4c c7bf 3810 9205 4ce0 a6bf
00000150: ef1d 3526 c45c efbf cf85 915e d4ee abbf
00000160: cf6a 813d 2652 d4bf af25 e483 9ecd d33f
00000170: f347 c5bd 017f 833f cc24 ea05 9fe6 bcbf
00000180: ab79 8ec8 7729 c1bf c146 4893 41a4 b3bf
00000190: 8601 4bae 62f1 da3f c4c6 061c 53c1 b6bf
000001a0: 8885 5ad3 bce3 d03f 54e2 3ac6 1517 973f
000001b0: 3783 09ed e6f3 b3bf 60cb 2bd7 db66 dabf
000001c0: 838a 0519 5cce a83f 594f adbe baaa ed3f
000001d0: f4a7 8dea 7420 c3bf 5c69 6336 12b2 b53f
000001e0: 6933 f389 e18f b3bf 8dd2 a57f 492a c93f
000001f0: 1263 3ec5 1627 af3f 357f 4c6b d3d8 e83f
00000200: 31dc 6fa3 b72e a33f 99d9 e731 cab3 e53f
00000210: 8acd c7b5 a162 d93f e294 b9f9 4674 d03f
00000220: 36ea 211a dd41 c6bf 34fc 02d5 9a41 9fbf
00000230: 6ee0 0ed4 298f c23f e71c 3c13 9a24 d73f
00000240: 2cb9 8ac5 6f0a bf3f 38a4 5181 936d c6bf
00000250: 4918 61e5 2bdc adbf 05a7 3e90 bc73 de3f
00000260: c682 67e7 d951 b7bf d5b2 b5be 4868 eb3f
00000270: 2db2 9def a7c6 dc3f a6d0 798d 5d22 f13f
00000280: a8e5 07ae f204 babf c4d1 55ba bbce be3f
00000290: c2a2 224e 27d9 dc3f 2124 d781 f659 033f
000002a0: 5391 0a63 0b41 f13f 6c5e d559 2d30 e1bf
000002b0: a14b 38f4 168f e43f b15a 4f63 31a0 b33f
000002c0: 66da fe95 9526 d03f 2a96 11cd f22b b83f
000002d0: c382 fb01 0f0c bcbf 834e 081d 7409 bfbf
000002e0: 904b 1c79 20b2 cebf cec5 dff6 0489 bd3f
000002f0: d861 4cfa 7b29 e83f cd21 a985 9249 ecbf
00000300: 40d3 5cb8 bdee b83f a0e0 6245 0d26 f1bf
00000310: df1a d82a c1e2 d23f 245e 9ece 15a5 e93f
00000320: bbd5 73d2 fb46 f1bf d1e8 0e62 670a c33f
00000330: 7a6f 0c01 c0b1 da3f c768 1d55 4d10 e63f
00000340: 257a 19c5 724b c5bf b16c e690 d4c2 ef3f
00000350: 865a d3bc e314 f93f 72c0 ae26 4f59 d6bf
00000360: bcc5 68c2 9bda ae3f 548c f337 a110 d43f
00000370: 1250 e108 5229 e93f 4431 7903 cc7c d03f
00000380: b9c6 67b2 7f9e de3f 7d41 0b09 185d e43f
00000390: 2ba3 91cf 2b9e 9a3f a5bd c117 2653 f73f
000003a0: 1d5a 643b df4f f73f 22a6 4412 bd8c dd3f
000003b0: d7a6 b1bd 16f4 c83f a38f f980 4067 e23f
000003c0: 8cfa 7f30 4b96 a2bf d0d0 3fc1 c58a 9a3f
000003d0: 8907 944d b9c2 c3bf df17 97aa b4c5 bdbf
000003e0: 1b85 24b3 7a87 d93f fbcd c474 2156 cbbf
000003f0: a39b 583b e52c b53f 8fde 701f b935 c53f
00000400: f3e5 05d8 4727 f0bf 1a4d 2ec6 c0ba ecbf
00000410: 3161 342b db87 c83f 19e4 2ec2 14e5 ca3f
00000420: ea5d bc1f b75f c4bf 8971 48b4 2e7f 97bf
00000430: 130f 289b 7285 fa3f 486b 0c3a 2174 d1bf
00000440: 4fcd e506 439d e33f 0802 64e8 d841 d0bf
00000450: 2c9a ef5c ef69 74bf e9dc a3ed 4e2d b1bf
00000460: 77ac 08ed 8b3a b33f 5b12 5619 7c50 b83f
00000470: b01b b62d ca6c dd3f be87 4b8e 3ba5 bf3f
00000480: 06aa 3583 ae33 a0bf fd5c 7ef1 56a7 a4bf
00000490: 57bf 886c d6cf adbf ac53 e57b 46a2 e8bf
000004a0: 4c34 48c1 53c8 d1bf 8cb9 6b09 f9a0 d6bf
000004b0: f031 5871 aab5 e1bf cd89 8741 aa72 8b3f
000004c0: 514a 0856 d5cb d4bf 077b 1343 7232 d43f
000004d0: 8c67 d0d0 3f41 e1bf f0c4 ac17 4339 993f
000004e0: f566 d47c 957c dbbf fed1 3769 1a14 d83f
000004f0: f920 1510 a49c b1bf 80f2 77ef a831 c73f
00000500: f913 950d 6baa e13f cb2d ad86 c4bd f7bf
00000510: d78a 36c7 b94d bc3f 9834 46eb a86a d2bf
00000520: 254a 31f6 14ef 96bf a511 33fb 3c46 d43f
00000530: bb61 dba2 cc06 a13f e773 ee76 bd34 d23f
00000540: f9f8 84ec bc8d de3f 3449 2c29 779f cd3f
00000550: 5d6a 847e a65e d0bf a66f 88a7 0d3d ac3f
00000560: cbec 985f 7248 a7bf 9c31 cc09 dae4 df3f
00000570: e21f b6f4 68aa d3bf 03ef 3f8d d6ac ae3f
00000580: cd76 853e 58c6 863f 2ae0 9ee7 4f1b e8bf
00000590: 2997 c62f bc92 dc3f 705d 3123 bc3d e23f
000005a0: 48fd f50a 0bee d23f 5fb7 088c f50d d43f
000005b0: c9f0 8e42 48cc 72bf 9cd5 a7c1 d952 a4bf
000005c0: 09a9 dbd9 571e e43f bc9c c882 7813 b4bf
000005d0: f320 3d45 0e11 bbbf c100 c287 12ad eabf
000005e0: 452b f702 b342 da3f d5cf 9b8a 5418 f5bf
000005f0: 6d70 22fa b5f5 d2bf d430 95e1 ec94 76bf
00000600: b91f d590 f64f 103f d9f7 9793 066d b63f
00000610: 64af 777f bcd7 f23f e927 bdeb 4349 7ebf
00000620: 2fbe 688f 1752 e53f e195 24cf f57d d2bf
00000630: 8c65 fa25 e2ad dfbf 96cc b1bc ab1e d23f
00000640: b532 e197 fa79 c33f 1764 cbf2 7519 e13f
00000650: fcaa 5ca8 fc6b df3f c72b 103d 2993 d33f
00000660: 6d1c b116 9f02 f43f 9b75 c6f7 c5a5 eb3f
00000670: a16a f46a 80d2 e53f 732b 84d5 58c2 c43f
00000680: 43fe 9941 7c60 a3bf 97ac 8a70 9351 cd3f
00000690: 9011 50e1 0852 c33f 2601 6a6a d9da f03f
000006a0: 0fd1 e80e 6267 f33f f71d c363 3f8b cd3f
000006b0: f0d0 0361 9fe7 7c3f 1edc 9db5 db2e cabf
000006c0: 0344 c18c 2958 e03f b3ed b435 2218 d63f
000006d0: dd79 e239 5b40 e33f f3ac a415 df50 d4bf
000006e0: 2dcd ad10 56e3 e83f 8924 7a19 c5f2 e03f
000006f0: 0d61 46c2 082b 9f3f 6171 38f3 ab39 d93f
00000700: 4564 58c5 1b19 ec3f c407 76fc 1708 d9bf
00000710: e6e8 f634 5567 1dbf f73c 7fda a84e d63f
00000720: 0283 a44f abe8 bbbf 2ae2 7492 ad2e ebbf
00000730: 7138 f3ab 3940 e73f e1b8 8c9b 1a68 96bf
00000740: a08a 1bb7 981f e73f e9d3 2afa 4333 8fbf
00000750: 5dbf 6037 6c5b f93f ba05 5ca1 5923 94bf
00000760: dee3 4c13 b69f dc3f 6d1b 4641 f0f8 babf
00000770: 95d7 4ae8 2e89 da3f da4e 006a 0f20 ac3f
00000780: 6b46 06b9 8b30 cd3f 7154 6ea2 96e6 863f
00000790: 2ae1 09bd fe24 c63f d669 49ec 7f25 b83f
000007a0: b1f7 e28b f678 cf3f 19af 7955 67b5 a03f
000007b0: 6ea5 d766 6325 dbbf cbf4 4bc4 5b67 e73f
000007c0: 2da8 b926 eec2 b0bf ee5b ad13 9763 e93f
000007d0: 70ee af1e f7ad dd3f 6d01 a1f5 f065 d4bf
000007e0: 0cba 31fb 44b7 813f 7bbb 2539 60d7 ebbf
000007f0: 4bb1 a371 a8df c5bf 91b9 32a8 3638 bdbf
0.214466 -0.000712104 -0.128893 -0.035785 0.104935 -0.36547 0.275213 0.414387
-0.0197767 -1.34102 -0.00264884 -0.745669 0.295836 -0.36599 0.0281007 0.146611
-0.32226 -0.111259 0.222025 0.244777 -0.2079 -0.124959 -0.129176 -0.436842
-0.0104305 -0.728706 -0.00787685 -0.0470435 0.113375 -0.6775 -0.36539 -0.223723
0.290225 -0.00785849 -0.200993 0.358073 -0.177287 0.180753 0.00811153 0.0658743
-0.182031 -0.04468 -0.980074 -0.0545565 -0.317514 0.309425 0.00951959 -0.112894
-0.134078 -0.0767251 0.420983 -0.0888874 0.2639 0.022549 -0.0779404 -0.412528
0.0484494 0.927091 -0.149428 0.0847484 -0.0764142 0.196603 0.0608451 0.776468
0.0374658 0.678197 0.396645 0.257097 -0.173885 -0.0305237 0.144994 0.361609
0.121253 -0.175219 -0.0583204 0.475814 -0.0910927 0.85648 0.449625 1.07089
-0.101638 0.120342 0.450754 3.69099e-05 1.07838 -0.537131 0.642467 0.0766631
0.252355 0.0944206 -0.109559 -0.121238 -0.239811 0.115372 0.755064 -0.883981
0.0973929 -1.07179 0.29509 0.801402 -1.07983 0.148755 0.417099 0.68949
-0.166365 0.992533 1.5676 -0.349201 0.0602616 0.313515 0.786294 0.257617
0.478424 0.636364 0.025994 1.4578 1.457 0.461715 0.194949 0.575104
-0.0363029 0.02592 -0.15438 -0.116298 0.398894 -0.213566 0.0827163 0.165702
-1.00959 -0.897797 0.191646 0.210116 -0.159171 -0.0229461 1.65758 -0.272713
0.612947 -0.254019 -0.00498384 -0.0670976 0.0751121 0.0949781 0.459765 0.123615
-0.0316443 -0.0403392 -0.0582263 -0.769809 -0.277852 -0.353575 -0.553426 0.0134023
-0.324941 0.315579 -0.539215 0.0246325 -0.429479 0.376227 -0.0687964 0.181203
0.552053 -1.48383 0.110561 -0.28776 -0.0223964 0.316787 0.033255 0.284469
0.477401 0.231429 -0.255777 0.0551533 -0.0454746 0.498343 -0.307276 0.0599124
0.0111205 -0.753334 0.446456 0.570036 0.295779 0.313352 -0.00458935 -0.0396946
0.628704 -0.0784221 -0.105729 -0.833627 0.410321 -1.31844 -0.296247 -0.00551312
6.22267e-05 0.0876011 1.17767 -0.00739409 0.666271 -0.288938 -0.494988 0.283122
0.15216 0.534358 0.490966 0.305857 1.25064 0.863986 0.681946 0.162181
-0.0378455 0.229052 0.150941 1.05343 1.21274 0.230812 0.00705683 -0.204555
0.510762 0.345223 0.601606 -0.317436 0.777751 0.529635 0.0304376 0.394145
0.878065 -0.391119 -0.000112166 0.348551 -0.109019 -0.849448 0.72659 -0.0218815
0.722607 -0.0152345 1.58482 -0.0196661 0.447248 -0.105361 0.414623 0.0549321
0.228044 0.011182 0.173004 0.0943222 0.245879 0.032634 -0.424157 0.731367
-0.0654744 0.793407 0.463743 -0.318722 0.00865034 -0.870041 -0.170888 -0.114139

FC4_bias f8 [50]
00000000: 4f22 c2bf 081a c9bf fa60 191b bad9 c9bf
00000010: d6b8 ed31 4745 b63f 3be5 d18d b0a8 bcbf
00000020: 1b63 27bc 04a7 a2bf 78d2 c265 1536 d6bf
00000030: e7df 2efb 75a7 c13f 0672 3f96 f4e6 b4bf
00000040: 1c5c 3ae6 3c63 b93f f758 fad0 0575 f1bf
00000050: db46 4d05 2681 a3bf 2c63 4337 fb03 d3bf
00000060: 6b44 300e 2e1d bfbf 63f0 30ed 9bfb d0bf
00000070: 6267 0a9d d7d8 f03f 0ce9 f010 c64f e4bf
00000080: db86 5110 3cbe c13f a08d 5c37 a5bc c6bf
00000090: 7098 6890 82a7 c83f 8319 53b0 c6d9 e9bf
000000a0: 342e 1c08 c902 c23f d7cd 7b52 dca7 99bf
000000b0: 1631 ec30 26fd d5bf b2be 81c9 8d22 c7bf
000000c0: 772d 211f f46c f8bf 44a1 0a24 cdc4 99bf
000000d0: eb53 8ec9 e2fe e5bf 54aa 44d9 5bca c5bf
000000e0: 1244 2795 3a12 b1bf 355d 4f74 5df8 d0bf
000000f0: 4a09 c1aa 7af9 ad3f 5b41 d312 2ba3 c9bf
00000100: 0039 61c2 6856 babf b5c5 353e 93fd d4bf
00000110: c993 a46b 26df c0bf b247 a819 5245 c9bf
00000120: ed44 4948 a46d d9bf 134a bac1 ab40 b8bf
00000130: c9ef 236d 99c2 893f 30ca 7dbc a13a b1bf
00000140: b2d6 506a 2fa2 95bf b22f d978 b0c5 d7bf
00000150: 7c99 2842 ea76 d4bf 21cb 8289 3f8a c0bf
00000160: 2b4d 4a41 b797 bc3f 2f33 6c94 f59b cdbf
00000170: 45f6 4196 0513 b1bf 1b2e 724f 5777 e2bf
00000180: 7be0 be69 55a6 93bf fed4 78e9 26b1 f4bf
-0.196107 -0.201957 0.0869946 -0.111949 -0.0364305 -0.347051 0.137923 -0.0816491
0.0991705 -1.09107 -0.0380947 -0.297118 -0.121539 -0.265357 1.05294 -0.634738
0.138618 -0.177632 0.192612 -0.807834 0.14071 -0.0250544 -0.343576 -0.180742
-1.5266 -0.0251648 -0.687364 -0.170238 -0.0666844 -0.265159 0.058544 -0.200292
-0.102881 -0.327977 -0.13181 -0.197428 -0.397317 -0.0947368 0.0125782 -0.0673009
-0.0211265 -0.371441 -0.319758 -0.129219 0.11169 -0.231322 -0.0666965 -0.577068
-0.0191892 -1.29325
