examples/benchmarks/ACAS XU/Networks/ACAS_XU_4_2.onnx (onnx, 108361 bytes, 14 tensors)

FC0_bias f8 [50]
0	0x3fad540a434fe0e9	0.0572818
1	0xbfc02f837b4a233a	-0.12645
2	0xbfcc963dc486ad2e	-0.223335
3	0xbfa767b51aff5fc7	-0.0457131
4	0xbfd10eed02cd39da	-0.266536
5	0x3fb522cf37e117dd	0.0825624
6	0x3fc8285ec3dab5c4	0.188732
7	0xbfde3d70a3d70a3d	-0.4725
8	0xbfc95011904b3c3e	-0.197756
9	0xbfd79613d31b9b67	-0.368535
10	0x3f5fdbbd807e9587	0.00194448
11	0xbfc1ffac1d29dc72	-0.140615
12	0xbfc7f86e3b46fdeb	-0.187269
13	0xbfa2eec7c957cd46	-0.036978
14	0xbfe4ff1f9acffa7f	-0.656143
15	0xbf97922962cfd8f1	-0.0230185
16	0xbfe515b35b0bbf51	-0.658899
17	0xbfc23efae7924af1	-0.142547
18	0x3f8b54195cc857f3	0.013344
19	0xbfd93a29c779a6b5	-0.394175
20	0x3fd1074213a0c6b5	0.266068
21	0xbfb995464dc22ab2	-0.099934
22	0xbfbb3343fa2ad3e9	-0.106251
23	0x3fb68ebcc6c54bcf	0.0881155
24	0xbfe2054cdb7ae579	-0.563147
25	0xbf940bf0cf0a94ae	-0.0195768
26	0xbf9cd6eb33c020ed	-0.0281636
27	0xbfb3d3ffc6f51c77	-0.0774536
28	0xbfe63fb3743632c2	-0.695276
29	0x3fa4203b08ea8a4d	0.0393084
30	0xbfe76e99a62ed352	-0.732251
31	0xbfe0cec204f2ae08	-0.525239
32	0xbfd9bb517a46173c	-0.402058
33	0x3fc2fec56d5cfaad	0.1484
34	0xbfd8d7ba6698bb4d	-0.388167
35	0x3fbaca46e08f2171	0.104649
36	0x3fc7fd3f5b5fa227	0.187416
37	0xbfda2877ee4e26d5	-0.40872
38	0xbfdf12d3415b1423	-0.485524
39	0x3fb0ddd3854db23a	0.0658848
40	0x3f94609cf8c9aad9	0.0198998
41	0xbfad8a8a321d897e	-0.0576976
42	0xbfdac5718eb89507	-0.418301
43	0xbfca32db1e9f2778	-0.204677
44	0xbfdb84d76ab58080	-0.429983
45	0xbfc4b71b8aa00193	-0.161838
46	0xbfcbccea28fe260b	-0.217191
47	0xbf60d413122b7baf	-0.00205425
48	0xbfc8947064ece9a3	-0.19203
49	0xbfd17d6733ebbfd7	-0.273279

FC0_weight f8 [5, 50]
0	0xbfe7689a88ace24c	-0.731519
1	0xbfdf1b3f20a73f75	-0.486038
2	0xbff7da9a8049667b	-1.49087
3	0x3fd5014727dcbddc	0.328203
4	0xbfeffb86f47b677f	-0.999454
5	0xbf697aaac1094a2c	-0.00311025
6	0x3f854c47d72f265e	0.0103994
7	0xbfb7ad7873af2445	-0.0924907
8	0xbf76588450872c04	-0.00545551
9	0xbffb518d25edd053	-1.70741
10	0xbfdd529fe004b7f6	-0.458168
11	0xbff1007dd4413554	-1.06262
12	0xbfea415d2d01c0ca	-0.820479
13	0xbfd2366516db0dd8	-0.28457
14	0xbfdc566490a350d3	-0.442773
15	0xbf795d86eec71d8b	-0.00619271
16	0xbf787b413ee49744	-0.00597692
17	0xbfa62618987d39e8	-0.0432594
18	0xbf789a68768bf871	-0.00600663
19	0xbff7b27674d16335	-1.48107
20	0xbf87eeac1aa59db4	-0.0116857
21	0xbfaba703e567ce45	-0.0540086
22	0xbfb7acc342098fcc	-0.0924799
23	0x3fb9bec2480e8c8b	0.100567
24	0xbfa2931876188b11	-0.0362785
25	0xbfd9ba0a52695960	-0.40198
26	0x3f86fc0823baf02b	0.0112229
27	0xbf9217169cfa772a	-0.0176662
28	0xbfe885143bf72713	-0.766245
29	0x3f72891ef812cbb5	0.0045253
30	0x3f8fba7abab14156	0.0154924
31	0xbf8be1650a45d420	-0.0136135
32	0x3f94b307ffa8c22c	0.0202142
33	0xbf8239545f7dbef3	-0.00889841
34	0xbff6b851eb851eb8	-1.42
35	0xbfd3ad9f0a1be2b5	-0.307472
36	0x3fa516f940c91dec	0.0411909
37	0xbfa827921540d9e5	-0.0471769
38	0xbff0c9f94855da27	-1.04931
39	0x3f89635610adcd2d	0.0123965
40	0x3fa8bd47f48b57b7	0.0483191
41	0xbf88dbe9a0422a47	-0.0121382
42	0xbff0d36f7e3d1cc1	-1.05162
43	0x3fbd59c49774256c	0.114651
44	0xbffafecfe9b7bf1f	-1.68721
45	0x3f64b0c17e650ac7	0.00252569
46	0xbfa271b625c15aa9	-0.0360238
47	0x3fd675ddd2ae8e1d	0.350944
48	0x3f96e90d753388c4	0.0223734
49	0x3f9d83fc7962c26d	0.0288238
50	0xbfc594185058dde8	-0.168582
51	0x3faf8dbb3f05cf4d	0.0616282
52	0x3faf7182fa1ae3b1	0.0614129
53	0x3ffaa0ba1f4b1ee2	1.66424
54	0x3f9bcc517cca55fa	0.0271466
55	0xbfd9586876e1dead	-0.396021
56	0x3f95747e571df407	0.0209522
57	0x3ff5bc89f40a2878	1.35853
58	0x3fd03cd573647bab	0.253713
59	0x3f650e6f8472400e	0.00257036
60	0xbfb8259916bcdae7	-0.0943237
61	0xbfbe0c6b484d76ab	-0.117377
62	0x3f6a2be5b6fe8455	0.00319476
63	0xbff2d2dcb1465e89	-1.17648
64	0x3f870916293730ef	0.0112478
65	0xbf7cba1a9887a0c9	-0.00701342
66	0x3fc2af78feef5ec8	0.14598
67	0x3ff0e297396d0918	1.05532
68	0xbf948efc87a57b4f	-0.0200767
69	0x3f441f7c721672de	0.000614105
70	0xbfb733e6b7599e01	-0.0906357
71	0xbff909f40a2877ee	-1.56493
72	0x3f9e44b6e935b91f	0.029559
73	0x3fa2c9554907b0ce	0.0366923
74	0xbfb7910c2c5e2cdc	-0.092057
75	0x3fd3fdb4cc250721	0.31236
76	0xbf7c3d80691bf859	-0.00689459
77	0xbfb16f5b01ae55e9	-0.0681054
78	0xbf62b1c8e5619922	-0.00228204
79	0x4000ea5a469d7343	2.11443
80	0x3fa235c5b4aa9718	0.0355665
81	0x3fc82eb1c432ca58	0.188925
82	0xbfb2f648c7192ea5	-0.0740705
83	0xbfb4e320cc28621f	-0.0815907
84	0x3f90eb4cea945df0	0.0165226
85	0x3ff34c100e6afcce	1.20607
86	0x3fee33dd11be6e65	0.943831
87	0xbf83d7291c2e08fd	-0.00968773
88	0x3f7ab705bb2ae3d9	0.0065222
89	0x3fc47aa68f4b61fe	0.159993
90	0xbfe687f88765ba6f	-0.704098
91	0xbfe2f13f077ccc03	-0.591949
92	0x3fb4c41f7f21484f	0.0811176
93	0x3ff089a027525461	1.0336
94	0x3f71aa674736f636	0.0043129
95	0x3fae05758ac697ff	0.0586354
96	0xbfbd68c692f6e829	-0.11488
97	0xc000238da3c21188	-2.01736
98	0x3fecdd249e44fa05	0.901995
99	0x3fbfd86a8fc0d2c4	0.124396
100	0x3fa9c5f7c6759ab7	0.0503385
101	0x3f99df39b6daf300	0.0252656
102	0xbfa9dda3b4a58e9a	-0.0505191
103	0xbfe6c625e99e94ab	-0.711688
104	0xbfe6ad234eb9a177	-0.708635
105	0xbfe94a9ac36544fe	-0.790357
106	0x3fab4091c087442c	0.053227
107	0xbfd6c2df0d413123	-0.355644
108	0xbfc7551d68c692f7	-0.182285
109	0xbf6c1a0c9b99cef4	-0.00343039
110	0x3fbab7aa25d8d79d	0.104365
111	0x3fc3232d2bb23572	0.149511
112	0xbfc60b912dba4d6e	-0.172228
113	0x3ff126b50b0f27bb	1.07195
114	0x3f5ec303f62ec5e6	0.00187755
115	0x3f5342d2e3674305	0.0011756
116	0xbfd0bd6a593a2df9	-0.261561
117	0x3feccd2d44dca8e3	0.900046
118	0xbffe9a176ddaceee	-1.91262
119	0xbf6d04d34e712735	-0.00354234
120	0x3fc4c7eae5bc87db	0.162351
121	0x3ffc87f23cc8de2b	1.78319
122	0x3f815d7982cdd02d	0.00847907
123	0x3ff54669057d1783	1.32969
124	0x3fad203d8d2948cf	0.0568866
125	0xbfca9d6adf71eaff	-0.207929
126	0xbf9181c5677dbd9b	-0.0170966
127	0x3fbd33b107746888	0.11407
128	0x3f95ceabca1dc5e4	0.0212962
129	0xbf9a4efa3916a203	-0.0256919
130	0x3f971517bf396653	0.0225414
131	0xbfc7c393682730c6	-0.185656
132	0x3fc34a0a0f4d7add	0.150697
133	0x3fc2de3b8a19c9d6	0.147407
134	0x3fbf8bdec5f394b8	0.123228
135	0xbff46cfe9b7bf1e9	-1.27661
136	0x3fe8c2aa9f7b5aea	0.773763
137	0xbfe431b79d909f1f	-0.631069
138	0xbfa11f9fd877fbba	-0.0334444
139	0xbfc73d4280ae1049	-0.181557
140	0xbfefaa172abef06b	-0.989513
141	0xbfe8f72f76e6106b	-0.780174
142	0x3f9ec2699c7bcc29	0.0300385
143	0xbff2c65e89225311	-1.17343
144	0x3f9af4ea22482964	0.0263249
145	0xbfa5ef1fddebd902	-0.04284
146	0xbf83b7083f69a25b	-0.00962645
147	0x3fd7f36262cba733	0.37423
148	0xbff5e4c2f837b4a2	-1.36835
149	0x3fe9909070fbeb9e	0.798897
150	0xbfbb84cad57bc7f7	-0.107495
151	0xbfd9fa615a8deb10	-0.405907
152	0xbf8b08b4da67c003	-0.0132002
153	0x3fc749949e8815e4	0.181933
154	0xbefa7a2125b6eb31	-2.52505e-05
155	0xbfce30f49491f2dc	-0.235869
156	0x3fb01a8ac5c13fd1	0.062905
157	0xbfc661b6d43d0397	-0.174857
158	0x3feb4ddb5525cc42	0.853254
159	0xbf756cf44a144b3c	-0.00523086
160	0x3fd8a50d6b228dca	0.385074
161	0xbf96b79cb9df8a3f	-0.0221848
162	0xbfd3ae03b3e9a6f8	-0.307496
163	0xbfaf053198288052	-0.0605865
164	0xbfee48d5c74751ce	-0.946391
165	0x3f08dc25f8659683	4.74166e-05
166	0xbfe43743632c1f43	-0.631746
167	0x3fdf539fba450acc	0.489479
168	0x3f8c0ac2d1a147e4	0.0136924
169	0x3f850191d0777c38	0.0102569
170	0x3fc7ba6efc371da3	0.185377
171	0xbf9a27f86c8dc7d4	-0.0255431
172	0xbfa9af1f3cdc2961	-0.0501642
173	0xbf9946f22cd8a61f	-0.0246847
174	0xbfe10f6f08cc575c	-0.533134
175	0x3f2bdbe4d3e5d6f0	0.000212547
176	0x3f73bfb58d1526d9	0.0048215
177	0xbfeff08893b7d849	-0.998112
178	0xbfe5909f1f14983d	-0.673904
179	0x3fb386c226809d49	0.076275
180	0xbfc91055b8993922	-0.195811
181	0xbff9e1869835158c	-1.61756
182	0xbfeea3fee2c98e54	-0.957519
183	0xbfe4f3affb04ee7c	-0.654747
184	0xbfc7d640e9d51b50	-0.186226
185	0x3fbecbd987c6327f	0.120298
186	0xbfd02a9930be0ded	-0.2526
187	0x3fc44628027d88c2	0.158391
188	0xbfde67168f8e7ddd	-0.475042
189	0xbfe581c0ca600b03	-0.672089
190	0x3f860faec9ac86dc	0.0107721
191	0x3fde554b8bef8ceb	0.473956
192	0xbfd0bcd78c436fc1	-0.261526
193	0xbfd0318b93469942	-0.253024
194	0x3f94b585886a9d2d	0.0202237
195	0xbff2807dd4413554	-1.15637
196	0x3fe8b7b07075b3e1	0.772423
197	0xbf9261e0c5a8155d	-0.0179515
198	0xbfb7e6fa757c83df	-0.0933682
199	0xbfd63810e8858ff7	-0.347172
200	0xbf72ec9ecf388ce4	-0.00462019
201	0x3fdc869835158b82	0.445715
202	0xbf68b9f5af9a0c05	-0.00301836
203	0xbfc25564b662fdfc	-0.143231
204	0x3fae9b09dc21d466	0.0597766
205	0x3fbe8e92d55a3a08	0.119363
206	0x3fe22ee41919ac79	0.568224
207	0x3fa03533be736db6	0.0316559
208	0x3fdd096787ce95fb	0.453699
209	0xbf5cd4b77cd96f72	-0.0017597
210	0xbfd2c7219220ff54	-0.293404
211	0xbf7782db920c8778	-0.00574003
212	0x3fc4325d4a5df224	0.157787
213	0xbfd4a02b841248d8	-0.322276
214	0xbfd75f809917939a	-0.365204
215	0x3f7904e16636eba4	0.00610817
216	0xbff1a80f12c27a63	-1.10353
217	0xbfd65a187a4a48f9	-0.349249
218	0xbf9fbfbf9e1020df	-0.0310049
219	0xbfc0bcdfefbf401c	-0.130764
220	0xbff29f7f8ca8198f	-1.16394
221	0x3fcad83c6c97d8cf	0.209724
222	0xbfb0a60913a4f872	-0.0650335
223	0xbfa1a088a123d196	-0.0344279
224	0xbfecd0678c0053e3	-0.90044
225	0x3f9ea68bf063aaca	0.0299322
226	0x3f6bd49213128162	0.00339726
227	0xbfebf71001d5c316	-0.873909
228	0xbfde30f8c64fdb0a	-0.471739
229	0xbfc0007570c564f9	-0.125014
230	0xbffa1945b6c3760c	-1.63117
231	0xbfd4f99c38b04ab6	-0.327735
232	0xbff6aa8eb463497b	-1.41664
233	0xbfbf47304039abf3	-0.12218
234	0xbfafe216e0ed1542	-0.0622718
235	0xbfd83e8dda48b652	-0.378818
236	0x3fce7e0ef99806f2	0.238222
237	0xbfe63d790752da98	-0.695004
238	0xbfa8f140499c2b44	-0.0487156
239	0x3fe02ea960b6f9fd	0.505696
240	0xbf975b73c41cfae3	-0.0228098
241	0xbfcc6887a8d64d7f	-0.22194
242	0xbfd33879c4113c68	-0.300322
243	0x3fe7d30f062d40ab	0.744514
244	0x3fa538c395ec65ef	0.0414487
245	0x3fe81bae46cfc82a	0.753379
246	0xbff7e56abde3fbbd	-1.49351
247	0xbfb9714ef7b4d7e4	-0.0993852
248	0xbfd1cf28c79f6662	-0.278269
249	0xbfcfced0b30b5aa7	-0.248499

FC1_bias f8 [50]
0	0x3fb81f13c17de431	0.0942242
1	0xbf98e6c3eed7b990	-0.0243178
2	0xbff6741f212d7732	-1.40335
3	0x3fe310f301eabbcb	0.595819
4	0xbf92220bc382a130	-0.017708
5	0xbfe584189374bc6a	-0.672375
6	0xbfde8848387df5cf	-0.477068
7	0xbfe0d6e264e48627	-0.526231
8	0xbfd76837f7be121f	-0.365736
9	0xbfcad834091c0874	-0.209723
10	0xbfe45b1c864883fd	-0.636122
11	0x3fb25b25c083e92e	0.0717033
12	0xbfd6d855970b49e0	-0.356954
13	0xbfe57c30d306a2b1	-0.67141
14	0xbfe5c47e49b1fab9	-0.680236
15	0xbfe45634549b62c7	-0.635523
16	0xbfbea8c9b845564b	-0.119763
17	0x3fe1ff8ec0f88334	0.562446
18	0x3fe5bc0c1fc8f323	0.679205
19	0x3fe0333333333333	0.50625
20	0xbfdb8af81626b2f2	-0.430357
21	0xbfdd5c7cd898b2ea	-0.45877
22	0x3fa8fcd324d5a25e	0.0488039
23	0xbfa8c26493fe4f26	-0.0483581
24	0xbfe793a92a305532	-0.736775
25	0x3fdef5771001d5c3	0.483732
26	0x3fd91ae70c1333b9	0.392267
27	0xbfed900e6afcce1c	-0.923835
28	0xbfc38aa00192a737	-0.152668
29	0x3fd0736cdf266ba5	0.257045
30	0x3fe0a6202539756d	0.520279
31	0xbfe887442c7fbacb	-0.766512
32	0x3fe52159817b95a3	0.660321
33	0x3fe7b2074ea8da7f	0.740482
34	0xbfed9b62c77574f7	-0.925218
35	0x3ff36dbb59ddc1e8	1.21429
36	0x3fda41205bc01a37	0.410225
37	0xbfd483d35eb7457c	-0.320546
38	0x3fde92ccf6be37df	0.47771
39	0x3fbc53e2d6238da4	0.110655
40	0xbfeb283d35eb7458	-0.848662
41	0xbf7bdd4b751e651b	-0.00680284
42	0xbfc4f81e8a2ec28b	-0.163822
43	0xbf8596348a4b47fd	-0.0105404
44	0xbfe93aa1511dffc5	-0.788407
45	0xbfa8b1d34c42ceb2	-0.0482317
46	0xbfe8043a2163fdd6	-0.750516
47	0xbfefde1e2de87097	-0.995864
48	0x3fe06dc7ef177a70	0.513401
49	0xbf85f061fd4b19da	-0.0107124

FC1_weight f8 [50, 50]
0	0x3fdb2bdc26dce39b	0.424552
1	0xbfad44be75f1f4a5	-0.0571651
2	0x3fd64b90214ad363	0.348362
3	0xbfbc08a697aeddce	-0.109507
4	0x3f9a55c457b3453c	0.0257178
5	0x3fc8d3f1843c3a43	0.193968
6	0xbfd376f6d7625205	-0.304136
7	0xbfb68e581cf7878b	-0.0881095
8	0x3fe67a2f05a708ee	0.702415
9	0xbfd1dc37a3db3bfb	-0.279066
10	0xbfb325f98eccb6fd	-0.0747982
11	0x3fa356ae627e7a59	0.0377707
12	0xbfc1b45f17bd8be7	-0.138317
13	0x3fd2d65e4606748e	0.294334
14	0x3fb407fb7704435c	0.0782468
15	0xbf9ad8ae825eea71	-0.0262172
16	0xbfc1832fcac8e68e	-0.136816
17	0x3fcb35d249e44fa0	0.21258
18	0xbfd66bc621b7e0ac	-0.350328
19	0xbfe99ef30a4e379b	-0.800653
20	0xbfc6fdfc19c17226	-0.179626
21	0xbfb5ae1b30ddee5d	-0.0846879
22	0xbfc05d28d002e233	-0.127843
23	0xbf910441ae20395b	-0.0166178
24	0x3fced3ae685db76b	0.240835
25	0x3fecec7863beec39	0.903866
26	0xbfe069552e2fbe34	-0.512858
27	0xbfdc6c3b927d45a6	-0.444106
28	0x3fd8328b6d86ec18	0.378085
29	0xbfae045f0a51929a	-0.0586271
30	0x3fb0935180fc13e2	0.0647479
31	0x3fc5c115df6555c5	0.169955
32	0x3fcd0b955f78359c	0.226916
33	0xbfd7715831f03d14	-0.366293
34	0xbfd4a4b5568e820e	-0.322553
35	0x3faf5b34033ccb62	0.0612427
36	0xbfc7f811f4f50a03	-0.187258
37	0x3fb75faf93002265	0.0913038
38	0xbfbe28672756861f	-0.117804
39	0xbfa982d88cf46fa9	-0.0498264
40	0xbfc218a43bb40b35	-0.141377
41	0x3fa3683141c16b70	0.0379043
42	0xbfd686c6583e8577	-0.351976
43	0x3f80d4ff4b4f33c5	0.00821876
44	0xbfcd44028e4fb97c	-0.228638
45	0xbfce4a9478c868ba	-0.236651
46	0xbfc98800eae18aca	-0.199463
47	0xbfc8c11a11233df3	-0.193393
48	0xbfa19373e5aaea24	-0.0343281
49	0xbfa1369d4aff01d3	-0.0336198
50	0xbff1870b8cfbfc65	-1.09547
51	0xbf63aa1bc7dca304	-0.00240045
52	0xbfcd201040bfe3b0	-0.227541
53	0xc001e7967caea748	-2.23808
54	0xbf649161e7a697da	-0.00251073
55	0x3fc1d755bccaf70a	0.139384
56	0xbfeb9b499d0203e6	-0.862706
57	0xbfc8a854477ff152	-0.192637
58	0xbfcc6fcdee34fc61	-0.222162
59	0x3fe0e1e2de870974	0.527574
60	0xbfd501a36e2eb1c4	-0.328225
61	0x3fe1caa326e11559	0.555986
62	0x3fb9adea897635e7	0.10031
63	0xbff1e1522a6f3f53	-1.11751
64	0xbfdc4e4430b178b3	-0.442277
65	0x3fe9014f8b588e37	0.78141
66	0xbfd03cee9dd7ecbb	-0.253719
67	0xbfcf709310129cbb	-0.245623
68	0xbf811111f621afd3	-0.00833334
69	0x3fc72b7fe08aefb3	0.181015
70	0x3ff09da7b0b39192	1.03849
71	0xbfbcb3700474d9c7	-0.112113
72	0xbfce2eec7c957cd4	-0.235807
73	0xbfd749a5657fb69a	-0.36387
74	0x3f6e204c25c8668c	0.00367751
75	0x3fd9308787485e3e	0.393587
76	0x3fe936c7a7c9de05	0.787937
77	0x3fdf271fff79c843	0.486763
78	0x3fb8c6d2b7c858ca	0.0967838
79	0xc004e46f15619115	-2.61154
80	0xbfa14a035950d42e	-0.0337678
81	0x3fb3ffca501aca87	0.0781218
82	0x3fc77ea1c68ec52a	0.183552
83	0xbfd049235f809918	-0.254464
84	0x3fe23e425aee6320	0.5701
85	0x3fc2050bd87b56b8	0.140779
86	0xbf9cbe256a1cd44c	-0.0280691
87	0xbfd5400b88ca3e7d	-0.332034
88	0x3fe13588e368f084	0.537785
89	0x3fbb9e3864cb5bb4	0.107883
90	0x3fd179a2834d26fa	0.273049
91	0x3fa16811615153b0	0.0339971
92	0x3fd014940bbb1f25	0.251256
93	0xbfa9b357b0c0fd8c	-0.0501964
94	0xbfa9d21e456564df	-0.0504312
95	0xc00c4c63f141205c	-3.5373
96	0xbf7abd9e30ad1c02	-0.00652849
97	0x3fab49e01de26916	0.053298
98	0xbfdc323bbc6eb0b8	-0.440566
99	0x3f97bdbae111fe2f	0.0231847
100	0x3fad7c79ce223762	0.0575903
101	0x3fa043bcee327822	0.0317668
102	0x3f8e467f4051ffa7	0.0147829
103	0xbf86027880445dfe	-0.0107469
104	0x3f8ae099326b8d17	0.0131237
105	0x3faa7cff2f1fa83c	0.0517349
106	0xbfcfa0b5ed8d36b5	-0.247092
107	0x3fa33b2b4f392337	0.0375608
108	0x3f898f6dc6acf81b	0.0124806
109	0x3fdb0e3cd9a52264	0.422744
110	0x3fb2e9b38d60a633	0.0738785
111	0x3fd6fce3150dae3e	0.359185
112	0x3fb9d93c46d82ba6	0.100971
113	0xbfea3517a46173b8	-0.818981
114	0xbfe5a5bd944aa540	-0.676482
115	0x3fc735d249e44fa0	0.18133
116	0x3fd7264a16a48733	0.361712
117	0xbf94763d73fed55e	-0.0199823
118	0xbfbc0841ede1198b	-0.109501
119	0xbfd263baba7b9171	-0.287337
120	0xbfc5081c2e33eff2	-0.16431
121	0xbfb448d12a299f36	-0.0792361
122	0xbfc74f7a919695d9	-0.182113
123	0xbfa4c9935c68b6a3	-0.0406004
124	0x3fea590c0ad03d9b	0.82337
125	0x3ffb3d5bab21815a	1.70248
126	0x3f829f5f2b5ea882	0.00909304
127	0xbf94af8b7366292a	-0.0202009
128	0x3fa3cafb3b752114	0.038658
129	0xbfd6bf6e3f78bbd4	-0.355434
130	0x3f9ac6f5f336c3e1	0.0261496
131	0xbfb2dd8ebbf005b7	-0.0736932
132	0xbfd1801b43526528	-0.273444
133	0x3fdb154866a11ec9	0.423174
134	0x3fc4666ec9e236c1	0.159376
135	0xbf92e586d7f5f5bb	-0.0184537
136	0x3fc436199780baa6	0.157901
137	0xbfd641743e963dc5	-0.347745
138	0xbfcb66f9335d249e	-0.21408
139	0xbfd2314ca925fe97	-0.284259
140	0x3fd466c2acb85a4f	0.318772
141	0xbf60c59aa96411f8	-0.00204735
142	0x3fe37f1737542a24	0.609264
143	0xbf73a62d25d2f860	-0.00479715
144	0xbfdcda2f8bdec5f4	-0.450817
145	0xbfbc6a7ef9db22d1	-0.111
146	0x3feb36f19934efcc	0.850457
147	0x3fb5ee99a62ed352	0.085672
148	0xbfd64727dcbddb98	-0.348093
149	0xbfab63e150e84fe0	-0.0534964
150	0x3fc30b9dc2f405f7	0.148792
151	0x3f8e8acfd23acad7	0.0149132
152	0x3fe38b955f78359c	0.610789
153	0x3fd942aa9f7b5aea	0.394694
154	0xbfae1fdb679a430d	-0.0588368
155	0x3fe101e03f705858	0.531479
156	0x3fc2be0589acbc8c	0.146424
157	0x3ff301cd5f99c38b	1.18794
158	0x3fc072c0e7bc3c5c	0.128502
159	0x3fd55989df1172ef	0.33359
160	0x3fa868cac4b4d057	0.0476745
161	0x3fd1045fe1112770	0.265892
162	0xbfe1795703f2d3c8	-0.546062
163	0xbfe229f383f0bae9	-0.567621
164	0xbfd5fe542e557de1	-0.343648
165	0x3fd1f63c31df761d	0.280654
166	0xbfcb96f21f6cacd2	-0.215544
167	0x3fb2d7ef3fbe5bf1	0.0736074
168	0x3fc47bc3c5bd0e13	0.160027
169	0x3fdb57eaa2a0a958	0.427241
170	0xbfee62ae4b018612	-0.949546
171	0x3fc556084a515cea	0.166688
172	0x3fdbb573eab367a1	0.43295
173	0xbfc17342edbb59de	-0.13633
174	0xbfbc9ea9a3d2d880	-0.111796
175	0xbfcec2d6a9c560c8	-0.240321
176	0x3fe144aa53fc0097	0.539632
177	0x3f962229f6738f44	0.0216147
178	0xbfa0c9e73f3eda30	-0.0327904
179	0x3fb6722ef18512fa	0.0876798
180	0xbfc0cf0f9d2bf551	-0.131319
181	0xbfb0ef97d2effc7d	-0.0661559
182	0x3fb34439ebb418a1	0.0752598
183	0x3fed853c148344c3	0.922514
184	0xbfe7b42edbb59ddc	-0.740745
185	0xbfe9754b05b7cfe6	-0.795568
186	0xbfe9e6b8305d95dd	-0.809414
187	0x3fb6e9a473e82f29	0.0895026
188	0xbfdfd2e946801712	-0.497248
189	0x3fa4a29efbd929d2	0.0403032
190	0x3ff89dbca9691a76	1.53851
191	0xbfa003f8b304a4aa	-0.0312803
192	0xbf7cf299e5efb382	-0.0070673
193	0x3f786e287ca0e568	0.00596443
194	0x3faa272507f74546	0.0510799
195	0xbfb7ded0048fb1b9	-0.0932436
196	0xbfa7af676138293c	-0.0462601
197	0x3fe8fb1c0010c6f8	0.780653
198	0x3fc214d72799a1fd	0.141261
199	0x3f6fd0f09de2539d	0.00388381
200	0x3fea402f2f987400	0.820335
201	0x3f6673efe6d83bc1	0.00274083
202	0xbfc52873bc903ea7	-0.165297
203	0x3fae227dd949b2d1	0.0588569
204	0xbf9a40ed3019a33f	-0.0256383
205	0xbff2883126e978d5	-1.15825
206	0x3fd72862f5989df1	0.36184
207	0xbfd5a9f383f0bae9	-0.338498
208	0x3fe5855757d5a9eb	0.672527
209	0x3fe9d818c5c9a34d	0.807629
210	0xbf89db3da8d7fafe	-0.0126252
211	0xbfd3da37ef5a964f	-0.310194
212	0xbfdda78f25a250f8	-0.463352
213	0xbfefa617c1bda512	-0.989025
214	0x3fd6a35d67ba237d	0.353721
215	0xbfb5b69e8d1e6114	-0.0848178
216	0x3fe184d983947497	0.547467
217	0x3ffd489f40a2877f	1.83023
218	0x3fb094d50ebaade6	0.064771
219	0xbf95f3a8d9a87d62	-0.0214373
220	0x3fdd0c176577531e	0.453863
221	0xbfd7408d8ec95bff	-0.363315
222	0x3fab32f3725303b3	0.0531231
223	0x3fb9986ef72ea026	0.0999822
224	0x3fc3b41bfbdf090f	0.153934
225	0x3fd27b634dad31fd	0.288781
226	0x3fdcb25f633ce63a	0.448387
227	0xbf946be95d264bc4	-0.0199429
228	0x3fea18eb8950763a	0.815542
229	0x3fe3f5c28f5c28f6	0.62375
230	0x3fb254f5fb9a3fb2	0.0716089
231	0xbfe8da33bd9cae21	-0.776636
232	0x3fd883d790752daa	0.383047
233	0xbfe39986b9c304cd	-0.612491
234	0xbf8fb8e8137a3048	-0.0154894
235	0xbfd0a31a4bdba0a5	-0.259955
236	0x3fb84eee7a9c7e50	0.0949544
237	0x3fe551a005c4651f	0.666214
238	0xbfdc209edbf8b9bb	-0.439491
239	0x3fb62ea458397cf9	0.0866492
240	0x3fc4a5375c8d9f90	0.161292
241	0xbf92fb6a6f09a317	-0.0185372
242	0xbf9290b26a4af775	-0.0181301
243	0x3f974934fd37cea3	0.0227402
244	0xbfb01c6df4d02115	-0.0629338
245	0xbfeb6ed02cd39da1	-0.857277
246	0xbfc238194c016052	-0.142337
247	0x3f82374a441be3b6	0.00889452
248	0xbfa733fc86cebbba	-0.0453185
249	0x3f90bb0376ad0587	0.0163384
250	0x3ff0db22d0e56042	1.0535
251	0x3f9e08eb610c8a52	0.0293309
252	0x3fe15accd530489d	0.542334
253	0xbfe25edf1e0828c3	-0.574081
254	0x3f874b182c46afe8	0.0113737
255	0x40002747d805e5f3	2.01918

FC2_bias f8 [50]
0	0xbff35955714b9cb7	-1.20931
1	0xbfd8a7f3cf70153c	-0.385251
2	0xbff2ebe37de939eb	-1.18259
3	0x3fd7e9b38d60a633	0.373639
4	0xbff0449ba5e353f8	-1.01675
5	0xbfc69abb01c92ddc	-0.176597
6	0xbfd286876e1deacd	-0.289461
7	0xbff09187e7c06e1a	-1.03553
8	0x3fc94677b395c422	0.197463
9	0xbfe3e8d10f51ac9b	-0.62217
10	0xbff1ad2dcb1465e9	-1.10478
11	0x3ff172474538ef35	1.0904
12	0xbfb96dcd62f4c1de	-0.0993317
13	0x3fc274b838c111ae	0.144187
14	0xbf8e6299524bfd2f	-0.0148365
15	0x3fbf9884c6a3bde0	0.123421
16	0xbff10c9320d9945b	-1.06557
17	0xbf8ac0907e67e4ec	-0.0130626
18	0xbfe3042d8c2a454e	-0.59426
19	0xbfddc68ec52a411c	-0.465244
20	0xbfd957b84db9c737	-0.395979
21	0xbf8a156267d424b0	-0.0127361
22	0xbff1ac12ad81adeb	-1.10451
23	0xbfc76d22424a276b	-0.183018
24	0x3fed03e8576cce5f	0.906727
25	0xbfe25f99c38b04ab	-0.57417
26	0xbfe41463cfb3311a	-0.627489
27	0x3fe6345069a4df48	0.693886
28	0xbfd243c7d5ed06ff	-0.285387
29	0x3ff7fb2031ceaf25	1.49881
30	0x3fa57932f1c4d3da	0.0419403
31	0xbfd97f993d5347a6	-0.398413
32	0xbfdf1ab8e8ea39c5	-0.486006
33	0xbff529003eea209b	-1.32251
34	0x3fd8029ae4f33440	0.375159
35	0xbfdb1248d7e02646	-0.422991
36	0x3fd8b7f5a5332ad0	0.386228
37	0xbff0a25d8d79d0a6	-1.03964
38	0xbff4abfdb4cc2507	-1.29199
39	0x3fee126202539757	0.939744
40	0xbfd7c23b7952d235	-0.37123
41	0xbfd6256366d7a56e	-0.346032
42	0xbfd771476af89c5e	-0.366289
43	0xbff778183f91e647	-1.46682
44	0x3fe9637154003255	0.793389
45	0xbfde682b62845996	-0.475108
46	0x3fe1adfd694ccab4	0.552489
47	0x400217dbf487fcb9	2.26165
48	0x3ff29ae924f227d0	1.16282
49	0x3fd08665e02ea961	0.258203

FC2_weight f8 [50, 50]
0	0xbfda9435ac8a3726	-0.415296
1	0x3fbdb23dd54da4cf	0.116001
2	0x3fb5915450ba2cb7	0.0842488
3	0x3fd05f56a7ac81d4	0.255819
4	0x3fe25ea24cc68230	0.574052
5	0x3fa8764adff822bc	0.0477775
6	0xbfd07fbefd00713f	-0.257797
7	0xbfcfd4b6a619da9d	-0.248679
8	0xbfce50df15a4acf3	-0.236843
9	0xbfc646b69db65ecc	-0.174033
10	0xbfdf9fc2a8869c67	-0.494126
11	0xbfdaa4db163baba8	-0.416312
12	0xbfc0ba83f4eca687	-0.130692
13	0x3ff91a415f45e0b5	1.56891
14	0xbf91fd94ebb4ef60	-0.0175689
15	0x3fc7e974a3400b89	0.186812
16	0xbf71b4555ca8cd69	-0.00432237
17	0x3f97f682a8bc4c4c	0.0234013
18	0x3fd5aae6c8f75537	0.338556
19	0x3fab376f02165ab5	0.0531573
20	0xbfa30a0e76bb4840	-0.0371861
21	0x3fa2027f364104ad	0.0351753
22	0xbfc33ea2d2fe3f36	-0.150349
23	0x3fe6db4cc2507208	0.71427
24	0xbfbac322291fb3fa	-0.10454
25	0xbf9677a629cad4a5	-0.0219408
26	0xbf8605c6129e6835	-0.0107532
27	0xbfc6f6512a94ff00	-0.179392
28	0xbfe08f5e41d4b6a6	-0.517501
29	0x3fcf38476f2a5a47	0.243905
30	0xbfb2b8b69552e2fc	-0.073131
31	0x3fe9c17a89331a09	0.804868
32	0x3fd1ac29bf162ae5	0.276133
33	0x3f7b04501bcc3954	0.00659591
34	0xbfe37dd65a14488c	-0.609111
35	0xbfd88e1d6494d50f	-0.383674
36	0xbfc6e297396d0918	-0.17879
37	0xbfd15da272862f5a	-0.27134
38	0xbfbdcdf69878316a	-0.116424
39	0x3fc6e30caa326e11	0.178804
40	0x3fd7efdc9c4da900	0.374015
41	0x3fe0fc6fbd273d5c	0.530815
42	0x3fba29845dc83233	0.102196
43	0x3fbbb05faebc408e	0.10816
44	0x3fb2b57ed26df67e	0.0730819
45	0x3feee916440f2389	0.965953
46	0xbfcabf01322f2735	-0.208954
47	0xbfe5d9146e4c0df6	-0.682749
48	0xbfd098c3b0c4588a	-0.259324
49	0xbf85d1ebf07e82bd	-0.0106543
50	0x3f7e3ff436c914dc	0.00738521
51	0xbfa4bb723175c3d1	-0.0404926
52	0xbfa082715ee7ece4	-0.0322452
53	0xbf5bf24ee76eb99c	-0.00170572
54	0xbf9965831197d7f8	-0.0248013
55	0x3fa5022c2a2a75f5	0.0410322
56	0xbfa4d830ae1db51d	-0.0407119
57	0x3fa7b3cb740738d9	0.0462936
58	0x3f78c550d788e871	0.00604755
59	0x3fa93d3514b4c2eb	0.0492951
60	0xbfa3a4e0f578bd81	-0.0383673
61	0x3fa49cc674c3f73b	0.0402586
62	0x3fa1318e178557c3	0.0335812
63	0x3f9837b4a2339c0f	0.02365
64	0x3fa05b00d796546b	0.0319443
65	0x3fa997c73182590b	0.0499861
66	0x3fa78c8330a1887b	0.0459939
67	0x3f9e05758ac697ff	0.0293177
68	0x3f51be2df88bc26b	0.00108294
69	0x3f92ce174fa7de00	0.0183643
70	0x3fa4e5d5b24e9c45	0.040816
71	0xbf8ea1e166b7c4fe	-0.0149572
72	0xbf91489fac0251ea	-0.0168786
73	0xbfa378d6ab72dff1	-0.0380313
74	0x3f9cc06d42f979d4	0.0280778
75	0x3f9d56a2a40456a7	0.0286508
76	0x3f9322b60d6da6cd	0.0186871
77	0xbf94a4f440af1cb9	-0.0201605
78	0xbf95d059494771af	-0.0213026
79	0x3f82a21e78661838	0.00909828
80	0x3f5d0ca0775952d8	0.00177303
81	0x3faa5f9fa2c81685	0.0515108
82	0xbfa3decca9915e62	-0.0388092
83	0xbfa7dccea28fe261	-0.0466065
84	0x3faa18ac9f2fdb90	0.0509695
85	0xbfa6824ac87b2e75	-0.0439628
86	0x3fa424e592967019	0.039344
87	0x3fa32887de8632b5	0.0374186
88	0xbfa369afc7028870	-0.0379157
89	0x3fa2f170f103e3ba	0.0369983
90	0xbfa1c83c4453ece7	-0.0347308
91	0x3fa4a375bb6dffb8	0.0403096
92	0xbf9d891fced2608b	-0.0288434
93	0xbf8bd4b4f89ab0f1	-0.0135893
94	0x3f95b83b45506c29	0.0212106
95	0x3f8bd372d93b7019	0.0135869
96	0xbf750293832a167f	-0.00512941
97	0xbf8d7584109b58b6	-0.0143843
98	0x3f75c82b7d5c4c31	0.00531785
99	0xbf9add30c81ee823	-0.0262344
100	0xbfb8b060857bd563	-0.0964413
101	0x3fd002d9cf13ceea	0.250174
102	0xbfb1feb222269b75	-0.0702926
103	0x3fb51c58fc1a9832	0.0824638
104	0xc00156b65a9a8049	-2.16734
105	0x3fb5428abf0b432a	0.0830466
106	0x3fc2abde3fbbd7b2	0.14587
107	0x3fb0a7a926d556df	0.0650583
108	0x3fe7511be6e65387	0.728651
109	0x3fd56fcdee34fc61	0.334949
110	0x3fc11f0c34c1a8ac	0.13376
111	0xbfd1e7b3d8e00086	-0.279767
112	0xbfd734b51372a38c	-0.362592
113	0xc00c8548a9bcfd4c	-3.56508
114	0x3fa28fc42dc1da2b	0.0362531
115	0x3fe072f123c42a67	0.514031
116	0x3fdb25dd095af295	0.424186
117	0xbf97bf90a4279215	-0.0231917
118	0xc003f6ae7d566cf4	-2.49545
119	0xbfc4f4adbc664d3c	-0.163717
120	0x3fea172474538ef3	0.815325
121	0xbfa6a5ff02a9fe6c	-0.0442352
122	0xbfe1068db8bac711	-0.53205
123	0x3fe277dfa00e27e1	0.577133
124	0xbfd48123810e8859	-0.320382
125	0xbfe1d4a1ad6451b9	-0.557206
126	0xbff4e1ef73c0c1fd	-1.30516
127	0xbfe302ecaeea63b7	-0.594107
128	0xbfdc5a921ccd9620	-0.443028
129	0xbfdee7b3d8e00086	-0.482892
130	0xbfda4588a04d1202	-0.410494
131	0xbfe1c947064ece9a	-0.55582
132	0xbfe29c25d074213a	-0.581561
133	0x3fbe5c810a569b17	0.118599
134	0xbfed73882278d0cc	-0.920353
135	0xbf64b6604eca3d7b	-0.00252837
136	0xbfd1bb341e14bdfd	-0.277051
137	0xbfc15286b59146e5	-0.135331
138	0x3f8d20444325ef7e	0.0142217
139	0xbfd0bb62413db7f1	-0.261437
140	0x3fe5307075b3e143	0.662163
141	0x3fe740f238972043	0.726678
142	0xbf86027880445dfe	-0.0107469
143	0x3fe71e85fd04a2fd	0.722476
144	0x3fdac7d1bb4916ca	0.418446
145	0x3fa015d2d01c0ca6	0.0314165
146	0xbfe4940fecdd0d8d	-0.643074
147	0xbfecab777d0f1f58	-0.895931
148	0x3fcba708ede54b49	0.216035
149	0xbfc63d2d87f88766	-0.173742
150	0x3fc6c647778dd617	0.177926
151	0xbfbcb5568e820e63	-0.112142
152	0x3fcfe321a2e7f6f5	0.249119
153	0x3fc03c536d655e29	0.126841
154	0x3f71e27de4067a43	0.00436639
155	0x3fcd6fb09203a323	0.229971
156	0x3fd1c6da4484944f	0.277762
157	0x3f8dea033e78e193	0.0146065
158	0x3f991c8eabffcdab	0.024523
159	0xbfe74200c0f01fb8	-0.726807
160	0x3f40fbf76df15b5e	0.000518318
161	0xbfb3a5911ea0d4f7	-0.0767451
162	0x3fd3432441fea811	0.300973
163	0xbff12fad6cb53501	-1.07414
164	0xbfa33372f41362b3	-0.0375019
165	0xbfc5a109d0635a42	-0.168977
166	0xbfd879bbadc0980b	-0.38243
167	0xbf93cab16999f78d	-0.0193279
168	0xbfbd0cc35ce18266	-0.113476
169	0x3fa1b11332e2ab5b	0.0345541
170	0xbfe24ba0e8427419	-0.571732
171	0xbf89c4cd240aa144	-0.0125824
172	0xbfcf4df8b1572581	-0.244567
173	0xbfd84267839cd812	-0.379053
174	0x3fe308b545c78a6e	0.594813
175	0xbfd98fd199bb2789	-0.399403
176	0xbfd37746887a8d65	-0.304155
177	0xbfd87542a23bff8b	-0.382157
178	0x3fdb8ef34d6a161e	0.4306
179	0xbfb35a8f988ed79f	-0.0756006
180	0xbfb1e24c90d24abb	-0.0698593
181	0xbfbf305100a393ee	-0.121831
182	0x3fd21da7b0b39192	0.28306
183	0xbfa63103ae0a69e6	-0.0433427
184	0x3fd23c1ce6c093d9	0.284919
185	0xbfc08869c66d373b	-0.129163
186	0x3f7d2abdeeb884ec	0.00712084
187	0xc001b352a8438088	-2.21256
188	0xbfe506a098915bdd	-0.657059
189	0x3f9f64f11b60ae97	0.0306585
190	0xbfc1a0be51090710	-0.137718
191	0x3fdd68900c521dda	0.459507
192	0x3fa33622d1bc1fd6	0.0375224
193	0xbfc214a4d2b2bfdb	-0.141255
194	0xbfc4ad256798958e	-0.161534
195	0x3feb25375c8d9f90	0.848293
196	0xbfc43fb3743632c2	-0.158194
197	0x3ff44ed916872b02	1.26925
198	0x3fc367d34df04ddb	0.151606
199	0xbfa423a373372f41	-0.0393344
200	0x3f93f3eda30629e6	0.0194852
201	0x3fa7a028ffd38a56	0.0461438
202	0x3f91846b342b80b7	0.0171067
203	0xbf8b506dd69d3027	-0.013337
204	0x3f7cc78133714694	0.0070262
205	0x3f7f523ae050b829	0.00764678
206	0x3f8e955998f889ea	0.0149333
207	0xbf97bf83382e44b7	-0.0231915
208	0xbf71bb9c4dd3f35d	-0.00432931
209	0xbfa20af37909005a	-0.0352398
210	0x3f86be0f9aa7b693	0.0111047
211	0x3f89fbda0091f637	0.0126874
212	0x3fa3a2a32d971200	0.0383502
213	0xbf9729406b2a1a86	-0.0226183
214	0xbf733551708b027d	-0.00468952
215	0xbfa601eeed8904f7	-0.0429835
216	0xbfa4e59ca76b1374	-0.0408143
217	0xbf70a28f8c7a773f	-0.00406128
218	0xbf9026aa8eb46349	-0.0157725
219	0x3f826c510c0c27d7	0.00899566
220	0xbf9b6064c4a5b6de	-0.0267349
221	0xbf91a048e043a216	-0.017213
222	0x3f874744622fa001	0.0113664
223	0xbfa2cf271a203cb6	-0.0367367
224	0x3fa6bd67d4fb6f78	0.0444138
225	0xbf9235c259ac43c0	-0.0177832
226	0x3f963736cdf266ba	0.021695
227	0xbf9aeadfdd4ac952	-0.0262866
228	0x3f956069cd2333e2	0.0208756
229	0x3f8f3fd933e35c5b	0.0152585
230	0xbf83313e91603a27	-0.00937127
231	0xbf820a43a5c7246c	-0.00880864
232	0xbfa40dde0f146ffa	-0.0391683
233	0xbf92d3fd42b65df5	-0.0183868
234	0x3f9fdc882bb30c31	0.0311147
235	0x3fa5017dae81882b	0.041027
236	0x3f81aba96696370f	0.0086282
237	0x3f92559c13c75d21	0.0179047
238	0xbf9f5fa58205285e	-0.0306383
239	0x3f9c5996744b2b77	0.0276855
240	0xbfa330f8c64fdb0a	-0.037483
241	0xbf96d4796978699e	-0.0222949
242	0xbfa26033467e6992	-0.0358902
243	0xbf9a23472ce53b59	-0.0255252
244	0x3f9b51a93fffca50	0.0266787
245	0xbfa5db3a4dd9a7a7	-0.0426882
246	0x3faa5c52106e0c4d	0.0514856
247	0xbf88ed6c7f851b5d	-0.0121716
248	0x3f8a29e251994fc8	0.0127752
249	0xbf9eb9a82cda539e	-0.0300051
250	0x3fe8116659d12cae	0.752124
251	0x3fea7a1e3eaf6838	0.827407
252	0x3fbede76427c7c52	0.120582
253	0x3febb3b320535c9e	0.865686
254	0x3fac6137527ca496	0.0554292
255	0x3fda310dbf0563ed	0.409244

FC3_bias f8 [50]
0	0xbfdee8e60807357e	-0.482965
1	0x3fe8013ec460ed81	0.750152
2	0xbff36fa82e87d2c8	-1.21476
3	0x3fe2e9b17481b21c	0.591027
4	0x3fd8823854046413	0.382948
5	0x3fe48b912dba4d6e	0.642037
6	0x3fe64623d0bfa094	0.696062
7	0x3ff07acc4ef88b97	1.02998
8	0xbfe51ec918e325d5	-0.660008
9	0xbfe483126e978d50	-0.641
10	0xbfc0a35935fc3b4f	-0.129985
11	0x3fd33f42352eb5f6	0.300736
12	0x3fe1b17481b21c47	0.552912
13	0x3fd106573215fcc2	0.266012
14	0x3fe4e82f944241c4	0.653343
15	0x3fd3adeebb341e15	0.307491
16	0xbfc37eaa2a0a9585	-0.152303
17	0x3fe643b4f6167232	0.695765
18	0x3fbd5a8deb0fadf3	0.114663
19	0x3fe194317acc4ef9	0.54934
20	0x3f9bfdb4cc250721	0.027335
21	0xbffbc7ae147ae148	-1.73625
22	0x3fd9b691212513b6	0.401768
23	0xbff83645a1cac083	-1.51325
24	0xbfed1511dffc547a	-0.908822
25	0xbfe60be7296f6513	-0.688953
26	0xbff1b1b9b66f9336	-1.10589
27	0x3fdd10e8858ff759	0.454157
28	0x3ff6861a60d4562e	1.40774
29	0x3fdafb1183b60286	0.421574
30	0xbfdc3f077ccc0379	-0.441347
31	0x3fc07f77af64063a	0.12889
32	0xbfd656a37ac3eb7d	-0.349038
33	0xbfc468b19a415f46	-0.159445
34	0x3fc3797460242d06	0.152144
35	0x3fef37f38c5436b9	0.97558
36	0x3f9240024e8ed94c	0.0178223
37	0x3fe21680e0653006	0.565247
38	0xbf93272ae7345720	-0.0187041
39	0xbfd7b68cef672b88	-0.370517
40	0xbfcf552e2fbe33ad	-0.244787
41	0x3fe9e3e4abe6a338	0.809069
42	0xbfdcb4d48882f0e1	-0.448537
43	0x3fb29ae4f3343fa3	0.072676
44	0x3fc868b9fdbd2fa1	0.190696
45	0xbfb0328c444680ee	-0.0632713
46	0x3fe57be76c8b4396	0.671375
47	0xc0039c9c4da9003f	-2.45147
48	0x3fadfa0af3790900	0.0585483
49	0xbfe372c3009b3073	-0.607759

FC3_weight f8 [50, 50]
0	0xbfb40431bde82d7b	-0.078189
1	0x3fe354f9c1f85d74	0.604123
2	0x3fe5cbb7f9d6f113	0.681118
3	0xc0017dba0a526959	-2.18639
4	0x3fe6bbddfc9ff92f	0.710433
5	0xbfe073ade225fa66	-0.514121
6	0xbfb1182a9930be0e	-0.066775
7	0xbff6b2d4d4024b34	-1.41866
8	0xbfd90fd7e45803cd	-0.391592
9	0x3fe1a808c8259e1f	0.551762
10	0x3fd87243137b0707	0.381974
11	0xbfdde3cd9a52263e	-0.467029
12	0xc000a44fa05143bf	-2.08023
13	0xbfccf4be835dedf2	-0.226219
14	0xbfcb76f6d7625205	-0.214568
15	0xbfdb77c88e79aae7	-0.429186
16	0x3f92bd28141b3ff7	0.0182997
17	0x3fd4b2d4d4024b34	0.323415
18	0x3ff304577d955715	1.18856
19	0x3fc9be22e5de15ca	0.201115
20	0xbfd7ca9691a75cd1	-0.37174
21	0xbfec78e7ddca4b12	-0.889759
22	0x3ff76bf8769ec2ce	1.46386
23	0x40010cfbfc6540cc	2.13134
24	0x3fe09e7b80a9de8b	0.519346
25	0xbfe261f18c9fb613	-0.574456
26	0xbfb58e3ac0c62e4d	-0.0842015
27	0xc011a201cd5f99c4	-4.40821
28	0x3fa0631a818b85db	0.0320061
29	0xbfb4cde6a840258a	-0.0812668
30	0x3ff088461f9f01b8	1.03327
31	0x3fe7656abde3fbbd	0.73113
32	0xbf85be27ee5b92ce	-0.0106166
33	0x3ff60e2c12ad81ae	1.37846
34	0xbf891f2dc2b0ea18	-0.0122665
35	0x3ffdc0b780346dc6	1.85955
36	0x3fbb1b152f3c2dae	0.105882
37	0x3f64dcc66a072fca	0.00254668
38	0xbff0d527e5215769	-1.05204
39	0x3fc105186db50f41	0.132968
40	0x3fc469595feda661	0.159465
41	0xbfd6cc9a77e5eaab	-0.356238
42	0x3ff8f9bbadc0980b	1.56097
43	0xbfe95803cd141a69	-0.791994
44	0xbff518f1d3ed527e	-1.31859
45	0x3fdceb95e5aff2a1	0.451879
46	0xbfd279f666234a88	-0.288694
47	0x3fab03cdead9fe0e	0.0527634
48	0xbfe5659f2ba9d1f6	-0.668655
49	0x3fe0c1700cd85597	0.523613
50	0xc01765460aa64c30	-5.8489
51	0xbfa63c8c7848e6fa	-0.0434307
52	0xc00024f765fd8adb	-2.01805
53	0x3fee5bb16c1e364c	0.948693
54	0xbfcbe0e736049ecb	-0.217801
55	0x3fc8277c45cbbc2c	0.188705
56	0x3fc4a737110e453d	0.161353
57	0xbfa3467b0e94177a	-0.0376471
58	0x3fc1176145953587	0.133526
59	0x3fe86e84ad794a6f	0.763491
60	0x3fb939eadd590c0b	0.09854
61	0x3fe0721d53cddd6e	0.51393
62	0x3fe86ed245b291b8	0.763528
63	0xbfc6c0a4a05dd8f9	-0.177754
64	0x3fd211ada76d97b3	0.282329
65	0xbfd915d2d01c0ca6	-0.391957
66	0x3fe1fadd15f02c4d	0.561873
67	0x3fd986833c60029f	0.398835
68	0x3ff094ee392e1ef7	1.03636
69	0xbfd0d6f544bb1af4	-0.26312
70	0x3fe188e581cf7879	0.547961
71	0xbfd55bf26f1dc50d	-0.333737
72	0x3fd20e27e0ef9980	0.282114
73	0xbfaabaaa8b5964f6	-0.0522054
74	0xbfe1f8e1932d6ece	-0.561631
75	0x3fd7b6e935b91f71	0.370539
76	0x3fd08c75c4a83b1d	0.258573
77	0x3fd6ae85b9e8c47a	0.354402
78	0xbfc939b8887229e9	-0.197074
79	0xbfd1910c2c5e2cdc	-0.274478
80	0x3f9149ef375ae020	0.0168836
81	0xbfd0507a6bd6e8b0	-0.254912
82	0xbfd65785f8d2e515	-0.349092
83	0xbfd7e1869835158c	-0.37314
84	0x3fd8ed30f062d40b	0.389477
85	0xbfe245b291b823c8	-0.571008
86	0xbfb3858bc59b8024	-0.0762565
87	0x3f98b502ababead5	0.024128
88	0x3fb6f7e076cdbcb7	0.0897198
89	0xc001ecbfb15b573f	-2.2406
90	0x3fd13fee2c98e53f	0.269527
91	0xbfc3f8b9baa1511e	-0.156028
92	0xbfd600c9539b8887	-0.343798
93	0x3fd29cd8127b2cc7	0.290823
94	0x3ff858adab9f559b	1.52165
95	0x3fdeee30caa326e1	0.483288
96	0xbfc4f2f9873ffac2	-0.163665
97	0xbfc2059a73b42cc3	-0.140796
98	0xbfdc89331a08bfc2	-0.445874
99	0x3fb36a35febf8e20	0.0758394
100	0x40025e69ad42c3ca	2.2961
101	0xbfe22e09fe86833c	-0.56812
102	0x3ff327136a400fbb	1.19704
103	0x3fd5318fc504816f	0.33115
104	0xbfe3f635e74299d9	-0.623805
105	0x3fd181d7dbf487fd	0.27355
106	0xbf6a70af14ab07d6	-0.00322756
107	0xbff1bbd7b2031ceb	-1.10836
108	0x3fece48626f60e0f	0.902896
109	0xbfd5dba4d6e47dc3	-0.341531
110	0xbfa4b425361a6e40	-0.0404369
111	0x3ff2961e4f765fd9	1.16165
112	0x3fb8cdf4143972e8	0.0968926
113	0x3fcd37b07075b3e1	0.228262
114	0x3feb45692b3cc4ac	0.852223
115	0x3fc58266772d5e07	0.168042
116	0xbfd26eb0b7c3504c	-0.288006
117	0x3ffd401a36e2eb1c	1.82815
118	0xbfe40f4517614595	-0.626864
119	0xbfe9639b456b441c	-0.793409
120	0x3fe0f972474538ef	0.53045
121	0x3fe2e1f5be5d9e41	0.590083
122	0x3fe9a4a05dd8f92b	0.801346
123	0x3fe707faa044ae86	0.719724
124	0xbfe131f255f3519c	-0.537347
125	0xbff11da7b0b39192	-1.06974
126	0xbfe24c87980f55de	-0.571842
127	0x3fffd7fb69984a0e	1.99023
128	0xbff456e04c059210	-1.27121
129	0xbfe57e56473471f8	-0.671672
130	0xbfd55c24c404a72f	-0.333749
131	0xbfe5a7eb6bf444e1	-0.676748
132	0x3fa030e0729bfecf	0.0316229
133	0x3fd3033e78e1932d	0.297073
134	0x3fac3225ecf992fe	0.0550701
135	0xbffc17cc39ffd60f	-1.75581
136	0x3fdd4d65e4606749	0.457849
137	0xbfe4586ec17ebaf1	-0.635795
138	0xbffa64adff822bbf	-1.64958
139	0x3fd339e279dd3bb0	0.300408
140	0xbfb0a26443767756	-0.0649779
141	0x3faeeeacf165328a	0.0604147
142	0xbfaad684dc7332fe	-0.0524179
143	0x3fe874538ef34d6a	0.7642
144	0x3fe32a90cd423d92	0.598946
145	0x3ff1b126e978d4fe	1.10575
146	0xbf97a941ad4979c7	-0.0231066
147	0x3fddbbc6eb0b7c35	0.464586
148	0x3fde592d98bf7f06	0.474193
149	0x3fe1ed45e9185cee	0.560214
150	0x3ff51ff2e48e8a72	1.3203
151	0x3fb22e359d70beaf	0.0710176
152	0x3fe0c7219220ff54	0.524308
153	0xbfd85fd8adab9f56	-0.38085
154	0x3fd7943e10060781	0.368423
155	0xbfd75e17e34b9453	-0.365118
156	0x3fb9a048e043a216	0.100102
157	0xbfb7ea4d10540b1a	-0.0934189
158	0x3f5fb53c8d4f087c	0.0019353
159	0x3fc9ddf43c7d5ed0	0.202086
160	0xbfc0b3354c12274a	-0.130469
161	0x3fdfc093d9663843	0.496129
162	0x3fe5caf709b738e7	0.681026
163	0xbfdd0f0e90bc7b46	-0.454044
164	0xbfda8bb4d48882f1	-0.414777
165	0xbfed5edf1e0828c3	-0.917831
166	0x3fce138fffbce421	0.234972
167	0x3fd33504c48adeec	0.300111
168	0xbfc719ce075f6fd2	-0.180475
169	0xbfc831df761cbccf	-0.189022
170	0xbfc1ce18266772d6	-0.139102
171	0xbfc5bd273d5bab22	-0.169835
172	0x3fd0b0c88a47ecff	0.26079
173	0x3fc9e4a38327674d	0.20229
174	0x3fc0ee0f3cb3e575	0.132265
175	0x3f9faf3bc24dedca	0.0309419
176	0xbfb9d29dc725c3df	-0.10087
177	0xbfc1866e43aa79bc	-0.136915
178	0xbfcf109070fbeb9e	-0.242693
179	0xbfc02b4959e62563	-0.126321
180	0xbfd655e6bc621b7e	-0.348993
181	0xbf8ec006ebac8be5	-0.0150147
182	0x3fc41e8a2ec28b2a	0.157182
183	0x3fbf2f87ad080b67	0.121819
184	0xbfcf17df19d66adb	-0.242916
185	0xbfd299524bfd2e94	-0.290608
186	0xbfb3e45b5ecb6772	-0.0777032
187	0xbfc323cc8de2ac32	-0.14953
188	0x3fe7134ce3de614a	0.721106
189	0x3fca8a697aeddce8	0.207349
190	0x3fd93ab430f49492	0.394208
191	0x3fe06594af4f0d84	0.5124
192	0xbfca366516db0dd8	-0.204785
193	0x3fc395aaf78feef6	0.153005
194	0x3fde3a2595bbbe88	0.472299
195	0xbf83f7aa9bf56979	-0.00974973
196	0xbfce012599ed7c70	-0.23441
197	0xbfceb5e529bae46d	-0.239926
198	0x3fda024b33daf8df	0.40639
199	0x3febe6e221c8a7a4	0.871934
200	0x3fe473c2dadb8349	0.639131
201	0xbfad1f9fd877fbba	-0.0568819
202	0x3f836943bb6ba66c	0.00947812
203	0x3fcbfafc8b0079a3	0.218597
204	0xbfc8329802c0a4a0	-0.189044
205	0xbfb77277eca0a7ab	-0.0915904
206	0x3faed05517898981	0.0601832
207	0x3fe3e9899bf5946c	0.622258
208	0xbfcf1b4784230fd0	-0.24302
209	0xbfaa1c5edb57aa0b	-0.0509977
210	0x3f9e756506ead5cc	0.0297447
211	0xbfbb93250b52439a	-0.107714
212	0xc00735c7cd898b2f	-2.90126
213	0xbfd1937d1fe64f55	-0.274627
214	0xbfd810be9424e593	-0.376022
215	0xbfcd38c5436b8f9b	-0.228295
216	0x3fbbb139c94f69cb	0.108173
217	0x3fa5040f5939573a	0.0410466
218	0x3fe9c7b677f6b1a3	0.805629
219	0x3fadeee37809fcd9	0.0584632
220	0xbfe0b88ca3e7d135	-0.522528
221	0xbf99b1fab96f21f7	-0.025093
222	0xbf92d7441f13c17e	-0.0183993
223	0x3ff2e238da3c2118	1.18023
224	0xbfd3acb85a4f00ef	-0.307417
225	0x3fe195f45e0b4e12	0.549555
226	0xbfb04e2f37fbefd0	-0.063693
227	0xbfa9ed1b20edb651	-0.0506371
228	0x3fbe4f440af1cb8a	0.118397
229	0x3fd6cfcc5b8dc550	0.356433
230	0x3fc24ed6fda836eb	0.143031
231	0xbfc3ee5eedcc20d5	-0.155712
232	0xbfd43f39d1b2e59b	-0.316359
233	0x3fc44484944ed6fe	0.158341
234	0xbfa5422ccb3a2596	-0.0415205
235	0x3fc91526d8b1dd5d	0.195958
236	0xbfc52af9a8cdea03	-0.165374
237	0x3f0479df94fb7a34	3.9055e-05
238	0x3fe3d18b0d0edc3c	0.619329
239	0x3fd5b37867f0aa22	0.339079
240	0xbfb7770af9584612	-0.0916602
241	0x3f9e249a133c1ce7	0.0294365
242	0xbfc611233df2a9d6	-0.172398
243	0x3fc011b1d92b7fe1	0.12554
244	0x3fc529d40ee06d94	0.165339
245	0x3fd2a2f8bdec5f39	0.291197
246	0xbfbc9331a08bfc22	-0.111621
247	0x3f906d86155856d9	0.0160428
248	0xbf90493e377333d4	-0.0159044
249	0x3fd18fa7a85015c2	0.274393
250	0x3fa3a6efc371da38	0.038383
251	0x3fb6fa23472ce53b	0.0897543
252	0xbfbee9ff0cbaf966	-0.120758
253	0x3fd90b1bbcf4e875	0.391303
254	0x3fdd47bedb7281fe	0.457504
255	0xbfaf0c3ed2a3a663	-0.0606403

FC4_bias f8 [50]
0	0x3ffaac27a63736ce	1.66703
1	0xbfc4ffb04ee7c4a0	-0.164053
2	0xbfa29368fdf05b47	-0.0362809
3	0xbff7e08aefb2aae3	-1.49232
4	0xbf8f661f18c9fb61	-0.0153315
5	0x3fec894c447c30d3	0.89176
6	0xbff922291fb3fa6e	-1.57084
7	0xbff1be0ded288ce7	-1.1089
8	0x3fe82cb641700cd8	0.755458
9	0x3fdb9c62a1b5c7ce	0.43142
10	0x3fdee59f2ba9d1f6	0.482765
11	0x3ff23630a91537a0	1.13823
12	0xbffa87bdcf0307f2	-1.65814
13	0xbfa094f9f7a842aa	-0.0323866
14	0x3fe984406c00da1b	0.797394
15	0xbfdf5714b9cb6849	-0.48969
16	0xbfe17d3910c2c5e3	-0.546536
17	0x3fe3998f1d3ed528	0.612495
18	0x3fe4e05ee568a505	0.652389
19	0xbff1efe718a86d72	-1.12107
20	0x3fe4b61565c2d278	0.647227
21	0x3fe11d0203e63e8e	0.534791
22	0x3fe135d67ba237ce	0.537822
23	0xbfd34046412cf0fa	-0.300798
24	0xbfe799fc2a8869c6	-0.737547
25	0xbfaac11d6c21914a	-0.0522546
26	0xbf92434fe0e8e384	-0.0178349
27	0x3ff418d25edd0529	1.25606
28	0x3fba96a26e547171	0.103861
29	0xbfd63b5393250b52	-0.347371
30	0x3fdefdcdf6987831	0.484241
31	0x3fd26bb98c7e2824	0.287825
32	0xbfe62b0856e696a2	-0.692753
33	0x3fe879357603925c	0.764796
34	0xbfa0e9482d963b40	-0.0330298
35	0xbff5460029f16b12	-1.32959
36	0x3fd4ec17ebaf1023	0.32691
37	0x3fc41bc98a222d51	0.157098
38	0x3fdbbf7ad4b2745c	0.433562
39	0xbfbb67c286f8ad25	-0.107052
40	0xbfd94f5d35653c9b	-0.395469
41	0xbfe1a036006d0d4a	-0.550807
42	0x3fd73d96638433d7	0.363134
43	0x3fc0c6d612c6ac21	0.131068
44	0x3fdf478854cdb7ae	0.488741
45	0xbfe72dff822bbecb	-0.724365
46	0x3fe13063e07a28bb	0.537157
47	0x3ff11a8049667b5f	1.06897
48	0xbfeb8a19c9d5a188	-0.860608
49	0xbfa071d9612fc5c0	-0.0321186

FC4_weight f8 [50, 50]
0	0x3fc7461b6d43d039	0.181827
1	0x3fc26887a8d64d7f	0.143815
2	0xbfa174165251dc6c	-0.0340888
3	0xbfc6ef88b9778573	-0.179185
4	0x3f80c0cfe961d8e3	0.00818026
5	0xbfb1e3905db0b53f	-0.0698786
6	0xbfdebecaab8a5ce6	-0.480395
7	0x3fc360e94ee392e2	0.151395
8	0xbfd5afc47e49b1fb	-0.338853
9	0xbfd309741d084e83	-0.297452
10	0x3f6cf6b62a48fecc	0.00353561
11	0xbfb94f50a02b8412	-0.0988665
12	0xbf952ccc10e52a92	-0.0206787
13	0x3fc25681ecd4aa11	0.143265
14	0xbf9976287b494c7a	-0.0248648
15	0x3f964c14ab88af67	0.0217746
16	0xbf9e8f0efc1c45b1	-0.0298426
17	0xbf94b88ffee6248d	-0.0202353
18	0xbfc109e98dcdb37d	-0.133115
19	0xbff0a771c970f7ba	-1.04088
20	0x3fb0e721e2a8d724	0.0660268
21	0xbfaabe3e9490455d	-0.0522327
22	0xbfdb5d1c3ac929aa	-0.427558
23	0xbfbce9f6a93f290b	-0.112945
24	0x3facf44765195f4d	0.0565512
25	0x3f8dd3bafd976ff4	0.014564
26	0x3f7c9e63d8c27962	0.00698699
27	0x3fb51494e27ab3fb	0.0823453
28	0xbfda8d972cd7cf5f	-0.414892
29	0x3fb1ceeb8afdf564	0.0695636
30	0xbfa103ea704bc276	-0.033233
31	0xbfa41e0e08007f82	-0.0392918
32	0xbf7afadad21e1a72	-0.00658689
33	0x3fa379fdf2df860d	0.0380401
34	0x3f8fc47e49b1fab9	0.0155115
35	0x3fc51cda2b5a20de	0.164943
36	0xbfbd0ff972474539	-0.113525
37	0xbfddb4a2339c0ebf	-0.46415
38	0x3f9bfb308d668570	0.0273254
39	0xbfc9d84901d19158	-0.201913
40	0xbfba4fca42aed139	-0.10278
41	0xbfba05dd8f92af9b	-0.101652
42	0x3f8a1455f85a1951	0.0127341
43	0xbfbf8da3c21187e8	-0.123255
44	0xbfb75b5fa22706d5	-0.091238
45	0x3f9bc5d13008dc48	0.0271218
46	0xbfa87a86aedb4a3e	-0.0478098
47	0xbf9183e4fc6e7b08	-0.0171047
48	0x3fba1b4bb5e0f7fd	0.101979
49	0xbf93e14a32533963	-0.0194141
50	0xbfdcfd50225742dd	-0.452961
51	0x3fe456fda836eb4f	0.635619
52	0x3f9dbb5327c540e7	0.0290349
53	0x3fe89b1b79d909f2	0.768934
54	0x3fa2b6390c9107fb	0.0365465
55	0x3fabd4b853990448	0.0543573
56	0x3fe3054ef459d990	0.594398
57	0x3fd82bdc26dce39b	0.377677
58	0xbfda4d1a65061416	-0.410956
59	0xbffdfe7c06e19b91	-1.87463
60	0xbfc418bd66277c46	-0.157005
61	0xbfc106a2b1704ff4	-0.133015
62	0x3f996d1d39ccaa68	0.0248303
63	0xc00a7f0ed3d859c9	-3.31204
64	0xbfcd44567125dd09	-0.228648
65	0xbfb720a8ecf3b3c1	-0.0903421
66	0x3fdb46ed245b291c	0.426204
67	0x3fa7eccfa193631f	0.0467286
68	0xbf8052e12370f35d	-0.00797058
69	0xbfcf96744b2b777d	-0.246779
70	0xbfd1f85942917508	-0.280783
71	0x3fb02863cc5832c7	0.0631163
72	0x3fd4353f7ced9168	0.31575
73	0x3ff1bff04577d955	1.10936
74	0xbfc051b93037d630	-0.127494
75	0xbfd0aac53b0813cb	-0.260423
76	0xbf70b2f5e1183353	-0.00407692
77	0xbfd7ed45e9185cee	-0.373857
78	0x3f84f10088bbfbc4	0.0102253
79	0x3fc65ce5b4245f5b	0.17471
80	0xbfd0dd052934acb0	-0.26349
81	0x3fed995464dc22ab	0.924967
82	0xbfa753063751a5e5	-0.0455553
83	0xbfe41bef49cf56eb	-0.62841
84	0xbfab501698c8b942	-0.0533454
85	0x3fda07d0aed99cbf	0.406727
86	0xbfcd68be2f7b17ce	-0.229759
87	0x3fe1c80c73abc947	0.55567
88	0xbfb3eb40555aa568	-0.0778084
89	0x3fb4990a27a12eb9	0.0804602
90	0x3fad5f2e63c099b9	0.0573668
91	0xbfe15a2d72ffd1dd	-0.542258
92	0xbfb492a9bb4fccc7	-0.0803629
93	0x3fcd8adab9f559b4	0.2308
94	0xbf9f8210e6d810ce	-0.0307696
95	0x3fc557689ca18bd6	0.16673
96	0x3fca6c97d8cf398f	0.206439
97	0x3fd49e4d5d80e497	0.322162
98	0xbfdda2d2fe3f35a0	-0.463063
99	0xbfa2a68f4b61fe22	-0.036427
100	0x3fd198d477bbf940	0.274953
101	0xbff0dd8d79d0a676	-1.05409
102	0x3f7cc07d5e24a378	0.00701951
103	0xbfe097f62b6ae7d5	-0.51855
104	0xbf96710b0516c036	-0.0219156
105	0x3fd6015c209246bf	0.343833
106	0x3fe46534373f316e	0.637354
107	0xbfe420ddc6195465	-0.629012
108	0xbfd5ab474107314d	-0.338579
109	0x3fffbf0995aaf790	1.98414
110	0xbfdbc73eee525892	-0.434036
111	0xbfc93ee5eedcc20d	-0.197232
112	0xbfd3c9f2fdb8fde3	-0.309201
113	0xbfccd5bee3d5fdce	-0.225273
114	0xbfb5de0f146ff98d	-0.0854196
115	0xbfebc873365881a1	-0.868219
116	0xc00124e26d4801f7	-2.14301
117	0x3fd18d21bc126a66	0.274239
118	0x3f80e68f968b723a	0.00825226
119	0xbff842edbb59ddc2	-1.51634
120	0x3fe698b71b8aa002	0.706142
121	0xbff457c6fbd273d6	-1.27143
122	0x3fb59e18845b43f3	0.0844436
123	0xbf923e6fa757c83e	-0.0178163
124	0x3fdad78811b1d92b	0.419405
125	0x3fdd061c79b34a45	0.453498
126	0xbf7603d019328107	-0.00537473
127	0x3fd24fce746cb967	0.286121
128	0xbfe6d6c93a711516	-0.713719
129	0x3fe2a424a276b7ed	0.582537
130	0xbfb3519bd4067cf2	-0.075464
131	0x3ff6277c45cbbc2c	1.38464
132	0xbff6bfbbd7b2031d	-1.42181
133	0xbfedd017dae81883	-0.931652
134	0x3f93be736db5e600	0.0192812
135	0x3fce3d5fdcdf6988	0.236248
136	0x3fb01bd1ed9dfdac	0.0629245
137	0x3ff112e1ef73c0c2	1.06711
138	0xbfe2c925785f8d2e	-0.587054
139	0x3fc8763a19008206	0.191108
140	0x3ffbebaf102363b2	1.74504
141	0xbffd0c49ba5e353f	-1.8155
142	0x3ff16e43aa79bbae	1.08942
143	0xbfc6f9767903211d	-0.179488
144	0x3ffe52fc2656abde	1.89526
145	0x3fc49c99285a921d	0.161029
146	0xbfd2c7f349385836	-0.293454
147	0x3faa39f77292c493	0.0512235
148	0x3fec46d3f9e7b80b	0.883646
149	0xbf9910286c2fd403	-0.0244757
150	0x3fd1b12d3415b142	0.276439
151	0xbfb1bf1b33622d1c	-0.0693223
152	0xbfa6296985d59777	-0.0432847
153	0xbfd41c36976bc1f0	-0.314222
154	0xbfaad3b370db346f	-0.0523964
155	0xbfba03c4b09e98dd	-0.10162
156	0xbfb66664b8e73cbb	-0.0874999
157	0x3fabfab7c1a2cd1f	0.0546472
158	0xbfd44e3bcd35a858	-0.317275
159	0xbfd27c5ac471b478	-0.28884
160	0xbf76795e65bbf188	-0.00548684
161	0xbfc177a7008a697b	-0.136464
162	0x3fbf56eac8605682	0.12242
163	0xbfaaa3fda0aa2f13	-0.0520324
164	0x3fa11e13e73d915b	0.0334326
165	0x3fd5ea63b688bda9	0.342431
166	0xbfb724009048b800	-0.0903931
167	0xbfa4d02115237db4	-0.0406504
168	0xbf63034254b93fd2	-0.00232089
169	0xbf910045a01d4159	-0.0166026
170	0x3fb916659d12cade	0.097998
171	0xbfdf2291fb3fa6df	-0.486485
172	0xbfca98c3b0c4588a	-0.207787
173	0xbfb48442198003c6	-0.0801431
174	0x3fa7adc74e07cad0	0.0462477
175	0xbf749ff2792ec007	-0.00503535
176	0x3f9258636e6461a9	0.0179153
177	0xbfc1e5f30e7ff584	-0.13983
178	0xbfc6f27bb2fec56d	-0.179275
179	0xbfe4c1aac53b0814	-0.648641
180	0xbfb7af82392ac3f9	-0.0925218
181	0x3fd55e2046c764ae	0.33387
182	0xbf8ffee6248ca743	-0.0156229
183	0xbfb82570d2d0f2cc	-0.0943213
184	0xbfa2a7fd09ab7a6d	-0.0364379
185	0x3fd1290eed02cd3a	0.268131
186	0xbfd75d95dd4c76d1	-0.365087
187	0xbfd0d07852f7f499	-0.262724
188	0x3fc363c31df761cc	0.151482
189	0xbf9c7d3d4280ae10	-0.0278215
190	0x3fbb4bb5e0f7fcfc	0.106624
191	0x3f8cff2f1fa83bf4	0.0141586
192	0xbfd2d9f90539fba4	-0.294554
193	0x3f896d81e39a6eac	0.0124159
194	0xbfbad1f1cfbb9496	-0.104766
195	0x3f93ee151bf0f74f	0.0194629
196	0x3f742a43f64efc3c	0.00492312
197	0x3fa8eebf65dbfceb	0.0486965
198	0x3fb172961f9195bf	0.0681547
199	0x3f7792f6bd362be1	0.00575539
200	0xbff9ac27a63736ce	-1.60453
201	0xbfdb355475a31a4c	-0.42513
202	0x3f78ca844823b033	0.00605251
203	0xbfd4d7c6fbd273d6	-0.32567
204	0x3f9df9cb3298d980	0.0292732
205	0xbfd9c942d490e66d	-0.402909
206	0xbfd3fe5c91d14e3c	-0.3124
207	0x3fb1a9cb4004d2ce	0.0689971
208	0x3fd186fcdee34fc6	0.273864
209	0xbff7f0d844d013a9	-1.4963
210	0x3fcf0e23af31b153	0.242619
211	0xbfc831e7d9988d2a	-0.189023
212	0xbfc5ae5796bfca86	-0.169383
213	0x3fe17a48301a79ff	0.546177
214	0xbfc08a8b08dd1e54	-0.129228
215	0xbff0436113404ea5	-1.01645
216	0x3fdd660e51d25aab	0.459354
217	0x3fd4bb1af3a14cec	0.32392
218	0xbfc34c4cdfaca362	-0.150766
219	0x3fa2d945811390d6	0.0368139
220	0x3fb26dcadeb6035d	0.0719878
221	0x3fc99ad85dfa871a	0.200038
222	0x3fe1d3ae685db76b	0.55709
223	0x3fd0d73c925785f9	0.263137
224	0x3fdcb4c3c18b502b	0.448533
225	0x3fc0664d3bf2f556	0.128122
226	0x3f927bb2fec56d5d	0.01805
227	0xbfe09fd5885d3133	-0.519511
228	0xbfe0baecd07852f8	-0.522818
229	0x3fb5f147d65866c9	0.0857129
230	0xbf9be70e977277ed	-0.0272486
231	0x3fe3a95208e15012	0.614419
232	0x3fb74416b045ad89	0.0908827
233	0x3f9872b020c49ba6	0.023875
234	0x3f9130601a1c0af9	0.0167861
235	0x3fb229a43e3849f3	0.0709479
236	0xbfd261e92923e5b8	-0.287226
237	0x3fe0651d25aab474	0.512343
238	0x3fd8e45803cd141a	0.388937
239	0x3fbe0296b3354c12	0.117227
240	0xbfd598cc144028e5	-0.337451
241	0xbfd782a5614df8b1	-0.367349
242	0xbfd870c996b7670a	-0.381884
243	0x3f939587bc2183de	0.0191251
244	0x3fe0a1f2990f301f	0.519769
245	0xbfc3cbc48f10a99b	-0.154656
246	0xbfbbbd7b2031ceaf	-0.10836
247	0xbfb8462654fe5f16	-0.0948204
248	0x3fe14382a12f9011	0.539491
249	0x3f9f1e6cd29131ec	0.0303895
250	0xbfa126c134e915d9	-0.0334988
251	0xbfd2356da0168b5d	-0.284511
252	0xbf8693b2cfcb84ce	-0.0110239
253	0xbfcb13a4f8726d05	-0.211537
254	0xbfaac083126e978d	-0.05225
255	0x3fcd2fd32c625e9a	0.228022
