examples/benchmarks/ACAS XU/Networks/ACAS_XU_1_8.onnx (onnx, 108361 bytes, 14 tensors)

FC0_bias f8 [50]
000000 43 77 a4 55 88 a2 af 3f b3 b4 53 73 b9 c1 bc bf
       0.0617869 -0.112331
000010 f4 eb 3d 4b 46 84 ad 3f e7 0d 20 11 8d cd 62 bf
       0.0576498 -0.00229528
000020 46 5a cf b5 d4 e6 94 bf 49 ad 41 a9 07 16 a1 bf
       -0.0204118 -0.0333712
000030 6d 49 58 65 f0 41 91 bf d5 04 51 f7 01 48 d2 3f
       -0.0168531 0.285645
000040 e0 1f 00 82 83 07 b3 3f 5a 6f 8a 7d b8 9a b1 bf
       0.0743334 -0.0687671
000050 2b 8f c9 3d b8 96 ac bf 22 72 fa 7a be 66 c9 bf
       -0.0558374 -0.198448
000060 40 86 8e 1d 54 e2 ce 3f 34 f1 b3 36 32 34 9b bf
       0.241282 -0.0265663
000070 34 bf 9a 03 04 73 c4 bf 48 e2 40 a3 cf a2 b0 3f
       -0.15976 0.0649843
000080 af fd f0 35 fc 55 7d bf be 16 f4 de 18 02 a0 3f
       -0.00716208 0.031266
000090 b3 7b f2 b0 50 6b ce 3f 77 bf 0a f0 dd e6 c7 bf
       0.23765 -0.186733
0000a0 a1 31 93 a8 17 7c c4 bf 1a 78 a4 b0 41 15 a1 3f
       -0.160037 0.0333653
0000b0 0e 25 a4 7f 93 b7 a1 bf e7 53 c7 2a a5 67 c6 3f
       -0.0346037 0.175038
0000c0 7a e2 39 5b 40 68 c9 3f 2b 16 bf 29 ac 54 c0 3f
       0.198494 0.127584
0000d0 4a 95 28 7b 4b 39 bf bf da 11 98 98 78 51 85 bf
       -0.121968 -0.0104093
0000e0 40 2d ab 55 60 6d b1 bf 3a 96 d2 8e 76 37 b2 3f
       -0.0680752 0.0711588
0000f0 30 62 9f 00 8a 91 d5 bf bf f4 f6 e7 a2 21 ab 3f
       -0.337008 0.052991
000100 17 f0 32 c3 46 59 a7 bf b1 8a 37 32 8f fc b7 3f
       -0.045603 0.0936975
000110 81 42 3d 7d 04 fe d2 bf 89 41 c3 0f 8c 8b 7c 3f
       -0.296754 0.00696902
000120 97 f3 d6 0a e4 23 b9 3f d5 9c 17 82 77 4d b5 3f
       0.0982039 0.0832133
000130 24 b9 fc 87 f4 db ab 3f ef 2b 20 fe ab d8 b3 bf
       0.0544125 -0.0775249
000140 21 c8 41 09 33 6d c3 3f 05 17 2b 6a 30 0d cf bf
       0.15177 -0.24259
000150 d2 e3 f7 36 fd d9 d3 bf 94 89 5b 05 31 d0 c1 bf
       -0.31018 -0.139166
000160 90 da c4 c9 fd 0e c5 bf 8a e5 96 56 43 e2 cc bf
       -0.16452 -0.225655
000170 33 02 85 d5 b3 7b 95 bf 83 bf 5f cc 96 ac d0 3f
       -0.0209797 0.260534
000180 15 7b 1e 92 10 9b 96 bf 8b 93 56 d7 fc 53 85 3f
       -0.0220759 0.0104141

FC0_weight f8 [5, 50]
000000 a3 55 d2 2f b6 b5 a2 3f 84 64 01 13 b8 75 f6 bf
       0.0365426 -1.40374
000010 ed 36 5e 70 bc f1 84 3f 15 d7 21 cc 27 0a 68 bf
       0.0102267 -0.00293453
000020 aa 0a 0d c4 b2 99 d0 bf a1 ae a4 cb 51 36 93 bf
       -0.259381 -0.0187619
000030 f5 2b 9d 0f cf 12 9c bf bf 29 ac 54 50 51 bd bf
       -0.0274155 -0.114522
000040 d6 1b b5 c2 f4 bd de 3f d5 c7 09 34 54 9c 75 3f
       0.480344 0.00527604
000050 9b 1a 0d 85 74 1d b1 3f 2e 04 39 28 61 a6 eb bf
       0.0668557 -0.86406
000060 9e 42 ae d4 b3 20 ed 3f 72 9d 90 e7 44 cc 86 bf
       0.910242 -0.0111318
000070 d1 1e d4 ea 50 f2 8f bf 9c dd 5a 26 c3 f1 c4 3f
       -0.0155989 0.163628
000080 82 ac a7 56 5f 5d c7 3f 92 5a 28 99 9c da db bf
       0.182537 -0.435218
000090 64 94 67 5e 0e bb bb bf cc 4d 8a 45 c2 ad a9 3f
       -0.108323 0.0501538
0000a0 92 d1 9e 1e 1d 4f 82 3f 79 79 3a 57 94 12 d9 bf
       0.00893996 -0.391759
0000b0 da 4f 6b 3f be 29 99 bf bb d5 73 d2 fb c6 9f 3f
       -0.0245733 0.0310325
0000c0 6a a3 3a 1d c8 fa e3 3f 45 f6 41 96 05 13 c3 bf
       0.624363 -0.149018
0000d0 69 1a 14 cd 03 58 d6 3f 89 93 a0 64 17 b1 74 3f
       0.349122 0.0050517
0000e0 f3 cc cb 61 f7 9d e0 bf 56 38 38 c7 6f c0 8d bf
       -0.519283 -0.0145272
0000f0 fd c1 c0 73 ef e1 f5 bf 74 0d 33 34 9e 08 dd 3f
       -1.36766 0.453651
000100 a6 9d 9a cb 0d 86 b0 bf 6f 2a 52 61 6c 21 d6 bf
       -0.0645455 -0.34579
000110 5b 99 f0 4b fd 3c f2 bf 18 77 28 af 3a 17 7b bf
       -1.13989 -0.00661395
000120 72 cd d3 6f 15 7a 93 bf 9e 68 0d 94 ca ca 85 bf
       -0.0190204 -0.0106407
000130 d7 0f 56 08 50 f8 99 bf bd 51 2b 4c df 6b da bf
       -0.0253613 -0.412834
000140 38 08 84 e7 ef ef 8d bf 36 06 9d 10 3a e8 c0 bf
       -0.0146178 -0.132087
000150 7e 50 bc 6f 21 34 b5 3f bb ca 24 34 93 b9 93 3f
       0.0828267 0.0192626
000160 5f 55 c5 6d 97 aa 62 3f a6 d4 25 e3 18 c9 c4 bf
       0.00227861 -0.162387
000170 73 1f 6f a8 ce 59 b1 3f c3 f0 11 31 25 92 d1 bf
       0.0677766 -0.274545
000180 a2 0e 2b dc f2 91 84 3f d1 1f 9a 79 72 4d 71 bf
       0.010044 -0.00422425
000190 f6 c8 8b f1 06 3d 98 bf 9c a4 f9 63 5a 9b ca bf
       -0.0236703 -0.207866
0001a0 56 99 29 ad bf 25 c2 bf 87 fb c8 ad 49 b7 d5 bf
       -0.141777 -0.339312
0001b0 fd fb e7 c4 79 93 9a 3f 58 ff e7 30 5f 5e d9 3f
       0.0259532 0.396385
0001c0 fb 49 6b c2 ac 06 77 3f b2 3b ee a5 3a 2e b4 bf
       0.0056216 -0.0788304
0001d0 fe ee 1d 35 26 c4 d5 3f 3e cc 5e b6 9d b6 db bf
       0.340097 -0.433021
0001e0 db 34 b6 d7 82 de d8 3f ae d8 db 3d ab 92 79 3f
       0.388581 0.00624339
0001f0 f9 c9 07 f3 0d 3b 92 3f ea b6 9f e7 aa d4 87 bf
       0.0178034 -0.0116361
000200 9e 7e 50 17 29 94 e7 bf ba 13 ec bf ce 4d c9 bf
       -0.736836 -0.197687
000210 25 ec db 49 44 f8 c1 bf da 94 65 67 55 74 79 bf
       -0.140389 -0.00621446
000220 98 18 26 ae be 15 a4 3f b3 f9 6e a9 39 2f b4 3f
       0.0392284 0.0788456
000230 c8 61 30 7f 85 cc c5 bf 26 48 b6 04 2a 2d ad bf
       -0.170304 -0.0569852
000240 9a 22 c0 e9 5d bc db 3f c0 89 32 65 f1 ac b2 3f
       0.433372 0.0729514
000250 6e 32 aa 0c e3 6e c6 bf 89 f0 2f 82 c6 4c c4 3f
       -0.175259 0.158593
000260 bc 41 b4 56 b4 39 c2 bf 5e a1 0f 96 b1 a1 cb 3f
       -0.142386 0.215872
000270 ae 62 f1 9b c2 4a c5 3f 7e 36 72 dd 94 f2 dd 3f
       0.166344 0.467931
000280 3e fb fc bd 35 2c 6d 3f 62 67 0a 9d d7 d8 d7 bf
       0.00356112 -0.37261
000290 e8 68 55 4b 3a ca c5 bf 21 76 85 c2 90 6a 42 3f
       -0.170234 0.00056202
0002a0 e4 ff 44 1b 36 80 ad 3f fe 48 11 19 56 f1 a6 bf
       0.0576188 -0.04481
0002b0 52 ba f4 2f 49 65 dd bf 16 bb 22 9d 26 d8 84 bf
       -0.459307 -0.0101779
0002c0 9d 85 3d ed f0 d7 9c bf fa 98 0f 08 74 26 c1 bf
       -0.0281675 -0.133986
0002d0 8f 70 5a f0 a2 af d2 bf d2 ed db ff b6 dd aa 3f
       -0.29197 0.0524728
0002e0 2d 53 dd 6d 28 c6 93 bf ce 18 e6 04 6d 72 db 3f
       -0.0193106 0.428859
0002f0 b3 7c 5d 86 ff 74 dd bf cf 97 28 8c 77 91 93 bf
       -0.460266 -0.0191096
000300 ac 8b db 68 00 6f d7 bf 11 9b d9 f8 5d 22 a8 3f
       -0.36615 0.0471372
000310 4e 00 30 64 96 b9 60 3f f1 45 7b bc 90 0e d1 bf
       0.00204162 -0.266514
000320 e5 b6 7d 8f fa eb c9 bf dd 16 1b a9 ad c7 a7 bf
       -0.202514 -0.0464453
000330 dd eb a4 be 2c ed c4 3f ad 59 1d ef 44 ff a6 3f
       0.163488 0.0449163
000340 4e 14 d7 e7 20 9e 9b bf c1 c8 cb 9a 58 e0 c1 3f
       -0.0269704 0.139659
000350 cd 79 42 86 c0 57 65 bf 7b dd 22 30 d6 37 d8 bf
       -0.00260532 -0.378408
000360 51 79 85 4f 84 1e 8b 3f e6 b0 fb 8e e1 b1 c9 bf
       0.0132418 -0.200741
000370 e3 15 2d e5 21 f8 a0 bf 08 a6 d2 03 aa 75 3e 3f
       -0.0331431 0.000464777
000380 7e 56 ba 37 96 e2 60 3f 3c 38 33 55 8b e3 8b 3f
       0.00206117 0.0136176
000390 81 77 f2 e9 b1 2d e9 3f 98 a1 f1 44 10 e7 d5 3f
       0.786828 0.342228
0003a0 c1 f8 0e 23 29 8e 98 bf 3d 7e 6f d3 9f 7d e4 bf
       -0.0239798 -0.640335
0003b0 13 47 1e 88 2c 52 e4 3f 59 97 85 3c a3 29 72 bf
       0.635031 -0.00443424
0003c0 ae 2d 3c 2f 15 1b c9 3f 9d 65 16 a1 d8 0a d3 3f
       0.196139 0.297537
0003d0 06 8a 0e 37 96 66 99 bf 78 ec 67 b1 14 c9 c3 3f
       -0.0248054 0.154574
0003e0 19 5e 83 9d e6 0d 75 3f 7c 3d 04 fa e9 e4 b1 3f
       0.00514021 0.0698992
0003f0 4d 68 92 58 52 ee 96 3f 53 05 a3 92 3a 01 d4 3f
       0.0223935 0.312575
000400 0e a9 fd 31 08 07 b4 3f 82 3c 16 36 5e 15 b5 bf
       0.0782323 -0.0823573
000410 05 9d f7 9c 47 07 5c bf af 2a 56 68 7b 4f a8 3f
       -0.00171072 0.0474814
000420 76 3a 4e d9 02 a5 25 bf 13 02 24 60 95 87 5c bf
       -0.000165135 -0.00174131
000430 b8 2e 46 6e 97 47 b2 3f 12 9f e0 07 8c 9a b6 3f
       0.0714049 0.0882957
000440 dd a2 82 79 7e 07 b5 bf ba 81 02 ef e4 53 ea 3f
       -0.0821456 0.822741
000450 f2 d0 77 b7 b2 44 d7 bf 64 a1 e7 60 47 2d a6 3f
       -0.363568 0.0433142
000460 5a 9d 9c a1 b8 e3 c3 bf 29 41 7f a1 47 0c e2 bf
       -0.155387 -0.563999
000470 91 30 67 11 e5 66 9b 3f 5c 3d 27 bd 6f 7c da bf
       0.0267597 -0.413845
000480 21 ae 9c bd 33 da dc 3f bb d0 01 ee 1e 45 aa 3f
       0.450818 0.0513086
000490 7e dc 02 32 09 51 6d 3f 7f 2f 85 07 cd ae 83 bf
       0.00357868 -0.00961075
0004a0 18 af 74 9c ad 4c 50 bf 8f 35 23 83 dc 45 88 bf
       -0.000994844 -0.011852
0004b0 fa 97 a4 32 c5 1c d2 3f 8d 44 68 04 1b d7 c7 3f
       0.283006 0.186252
0004c0 86 15 13 40 d6 f8 a5 bf 30 d4 61 85 5b 3e c4 bf
       -0.0429141 -0.158153
0004d0 ff 41 24 43 8e ad db bf 03 6a 20 4c 40 02 ad 3f
       -0.432468 0.0566578
0004e0 fd 52 79 1a b4 80 5e 3f ca f9 62 ef c5 17 c7 3f
       0.00186174 0.180413
0004f0 f3 00 16 f9 f5 c3 e0 3f 32 56 9b ff 57 9d e0 3f
       0.523921 0.519207
000500 32 0a dd 80 2a c9 b7 3f 95 49 68 26 73 87 b6 3f
       0.0929133 0.0880043
000510 02 b8 59 bc 58 18 c0 3f 0b 4a 2c 84 30 12 65 bf
       0.125743 -0.00257215
000520 c2 5b 73 89 1b 9e 7b bf 87 6f 61 dd 78 77 c6 3f
       -0.00674258 0.175521
000530 4e 28 44 c0 21 54 cd bf cb ae 6a ff b9 1e a3 bf
       -0.22913 -0.0373438
000540 b5 c3 5f 93 35 ea a5 3f e0 f7 6f 5e 9c 78 e0 bf
       0.0428025 -0.514723
000550 53 7a a6 97 18 cb c6 3f 7c d0 58 a0 82 68 b0 bf
       0.178073 -0.0640947
000560 88 47 e2 e5 e9 5c df 3f 36 5a 0e f4 50 db dc 3f
       0.490046 0.450886
000570 4d a2 5e f0 69 4e e0 3f ab 93 33 14 77 bc cf 3f
       0.509572 0.247939
000580 6c 92 c4 37 b9 84 a8 3f 5d 42 f4 5a bf 4f b7 3f
       0.0478876 0.0910606
000590 d3 4e cd e5 06 43 ad 3f 50 2c 01 42 35 6f 96 3f
       0.057152 0.0219086
0005a0 ec dd 1f ef 55 2b cb bf ec 4d 0c c9 c9 c4 d2 3f
       -0.21226 0.293261
0005b0 d5 5e 44 db 31 75 d5 bf 51 f6 96 72 be d8 c7 3f
       -0.335278 0.186302
0005c0 b0 fb 33 28 3f 4e b5 3f ef 90 62 80 44 13 bc 3f
       0.0832252 0.109669
0005d0 ab cb 29 01 31 09 d3 3f 3a 78 26 34 49 2c bd 3f
       0.297436 0.113957
0005e0 11 e3 35 af ea ac be 3f 8f e6 23 84 a2 d4 b1 bf
       0.119826 -0.0696508
0005f0 7d 4b 10 e0 ba 83 74 bf 50 50 8a 56 ee 05 ae 3f
       -0.00500844 0.058639
000600 a6 80 b4 ff 01 d6 c6 bf 75 26 c8 63 61 e3 a5 3f
       -0.178406 0.0427504
000610 c7 3a 66 ea bf 18 a7 3f 7a 36 ab 3e 57 5b d7 bf
       0.0451107 -0.36495
000620 e3 27 1f cc 37 ec 98 3f ce df 84 42 04 1c ce 3f
       0.0243386 0.23523
000630 7a c9 5a 9e 62 30 8a 3f 84 64 01 13 b8 75 a7 3f
       0.0127876 0.04582
000640 04 cb 11 32 90 67 db bf a5 67 7a 89 b1 4c c3 bf
       -0.428196 -0.150778
000650 fd 07 a2 38 91 aa 97 3f ea 5e 27 f5 65 69 e0 3f
       0.0231116 0.512866
000660 87 6e f6 07 ca ed e1 3f 42 aa 72 eb 7f ca 9a bf
       0.560277 -0.0261631
000670 d7 67 31 25 50 cc 73 3f e9 7e 4e 41 7e 36 e2 3f
       0.00483352 0.569152
000680 8d 7a 88 46 77 10 e1 bf c9 ad 49 b7 25 f2 e0 bf
       -0.53326 -0.529559
000690 cd ca f6 21 6f b9 c8 bf 6d c4 17 16 71 74 64 bf
       -0.193159 -0.00249693
0006a0 90 a0 f8 31 e6 ae c1 bf 35 06 42 57 c7 96 92 3f
       -0.13815 0.0181533
0006b0 e7 06 f9 8f 3b 5b b2 3f 80 49 2a 53 cc 41 d3 3f
       0.0717046 0.300891
0006c0 f6 b3 58 8a e4 2b c3 3f 1b 85 24 b3 7a 87 db 3f
       0.149777 0.430144
0006d0 c7 9c 67 ec 4b b6 e2 3f a3 f0 8f ad 1d 7b a8 bf
       0.584753 -0.0478143
0006e0 59 c4 b0 c3 98 f4 dc bf e9 0d f7 91 5b 93 df 3f
       -0.452429 0.493369
0006f0 38 2f 4e 7c b5 23 e3 bf b8 5a 27 2e c7 2b d1 bf
       -0.598109 -0.268297
000700 42 e9 0b 21 e7 fd d7 bf 4f 9a 61 fe 65 52 b4 3f
       -0.374872 0.0793823
000710 9e 3f 6d 54 a7 03 d9 bf 7f 05 1f 39 88 8c 9d bf
       -0.390848 -0.0288564
000720 1c 79 20 b2 48 13 c7 bf 55 9e e5 1e b7 04 a5 3f
       -0.180276 0.0410516
000730 04 c7 65 dc d4 40 c1 3f 17 47 e5 26 6a 69 dd bf
       0.134791 -0.459559
000740 74 29 ae 2a fb ae ce 3f 0b 7a 6f 0c 01 c0 c5 3f
       0.239715 0.169922
000750 a9 f9 2a f9 d8 5d d4 bf 91 7c 25 90 12 bb c2 bf
       -0.318228 -0.146334
000760 af 24 79 ae ef c3 c5 bf e3 0e e5 55 e7 62 5d 3f
       -0.170042 0.0017936
000770 9e 51 04 82 4a a6 84 bf 85 96 75 ff 58 88 b2 3f
       -0.0100828 0.072393
000780 37 fb 03 e5 b6 7d d3 3f 8f 6f ef 1a f4 a5 d1 bf
       0.304548 -0.275754
000790 56 99 29 ad bf 25 e3 bf 08 77 67 ed b6 0b 8d 3f
       -0.598358 0.0141825
0007a0 76 52 fc 6b bb 01 7d bf d5 82 cd ef ea 0b 97 bf
       -0.00708173 -0.0225064
0007b0 14 02 5e 0b 1f b6 91 bf 02 b7 ee e6 a9 0e db 3f
       -0.0172963 0.42277
0007c0 fe 5c d9 aa c9 f8 8c 3f 4d 37 3f b4 45 88 a1 bf
       0.0141464 -0.0342428

FC1_bias f8 [50]
000000 ce 2d be b2 1c 32 b3 bf f4 64 48 5f 52 c6 ad bf
       -0.0749834 -0.0581537
000010 cb 2c 42 b1 15 34 bd bf 64 21 3a 04 8e 04 c8 3f
       -0.114076 0.187639
000020 5e de 77 67 48 70 b4 bf 1b 10 21 ae 9c bd c1 bf
       -0.0798383 -0.138599
000030 b4 4a 3c e2 88 9c 6b bf e3 63 c1 0e ad 5f b4 bf
       -0.00337054 -0.0795849
000040 09 f1 92 49 57 fa b4 3f 36 59 a3 1e a2 d1 ad bf
       0.0819449 -0.05824
000050 e5 d6 ff 94 85 0a 99 bf 81 f4 03 0d ec e7 93 bf
       -0.0244542 -0.0194394
000060 6a 2e dc 5e 77 5f b4 3f 1e e8 57 29 f3 45 b7 bf
       0.0795817 -0.0909111
000070 b8 58 51 83 69 18 d7 bf e9 65 14 cb 2d ad 86 bf
       -0.360865 -0.0110725
000080 f1 a6 11 e9 6d 22 99 bf 3c 64 6f ce 2d 19 ac 3f
       -0.0245454 0.0548796
000090 cc 42 3b a7 59 a0 c3 bf 6f c3 20 97 d5 c7 75 3f
       -0.153331 0.00531753
0000a0 9f 76 f8 6b b2 46 c9 bf 7c 48 f8 de df a0 d5 3f
       -0.19747 0.337944
0000b0 35 5e ba 49 0c 02 c9 3f 2d e8 bd 31 04 00 c3 3f
       0.195375 0.148438
0000c0 8d 08 c6 c1 a5 63 be bf 93 8d 07 5b ec f6 d6 3f
       -0.118708 0.358821
0000d0 20 97 38 f2 40 64 c9 bf cd 9e 57 7e 11 1b 81 bf
       -0.198372 -0.00835241
0000e0 95 94 60 16 7f 80 92 3f 49 2a 53 cc 41 d0 c9 bf
       0.0180683 -0.201668
0000f0 da df 1b 3b 8f 27 55 bf 39 ea ae 0d 91 aa 80 bf
       -0.00129117 -0.00813783
000100 b7 41 ed b7 76 a2 c4 3f 1b 2c 9c a4 f9 63 be 3f
       0.161208 0.118713
000110 60 e4 65 4d 2c f0 c3 bf 45 f1 2a 6b 9b e2 c1 3f
       -0.155767 0.139728
000120 b1 dc d2 6a 48 dc c5 3f 89 68 2a 7a 96 d6 85 bf
       0.170785 -0.0106632
000130 ad 85 59 68 e7 34 c1 3f 8e 02 44 c1 8c 29 c4 bf
       0.134427 -0.157518
000140 1f bd e1 3e 72 6b c8 bf 07 6d bb ce 5b 7c 47 bf
       -0.190779 -0.000716729
000150 a4 51 81 93 6d e0 c4 3f a7 00 bd 15 2e 50 b7 bf
       0.163099 -0.0910672
000160 07 ee 40 9d f2 e8 be bf f2 a5 22 db 1a 8d 83 bf
       -0.120742 -0.00954648
000170 ed 2a a4 fc a4 da 87 3f 8b 52 42 b0 aa 5e be bf
       0.0116475 -0.118632
000180 c9 93 a4 6b 26 df c2 bf d3 aa f1 2d 07 d5 b1 bf
       -0.147435 -0.0696568

FC1_weight f8 [50, 50]
000000 9d be 9e af 59 2e d7 3f 3e 23 11 1a c1 c6 cf 3f
       0.362204 0.248253
000010 84 2a 35 7b a0 15 c0 3f 34 bc 59 83 f7 55 da 3f
       0.12566 0.411497
000020 38 f3 ab 39 40 30 c7 3f e4 11 dc 48 d9 22 d5 3f
       0.18116 0.330252
000030 8d 43 fd 2e 6c cd 86 bf 7c 0d c1 71 19 37 cf bf
       -0.011134 -0.243869
000040 45 67 99 45 28 b6 ca 3f 83 62 3d 4b 16 4b 3f bf
       0.208684 -0.000477498
000050 71 fd 60 85 00 85 b1 bf fb 21 36 58 38 49 cf bf
       -0.0684357 -0.244422
000060 44 db 31 75 57 76 de 3f 07 74 cb b3 37 9d a1 3f
       0.475973 0.0344026
000070 99 d3 65 31 b1 f9 ea 3f 19 75 ad bd 4f 55 a1 bf
       0.84298 -0.033854
000080 fe d7 b9 69 33 4e 9b bf 5e f7 56 24 26 a8 b7 bf
       -0.0266655 -0.0924095
000090 bc dd dc a9 ca 08 ad 3f d2 55 ba bb ce 86 a8 bf
       0.0567077 -0.0479035
0000a0 0f d0 7d 39 b3 5d d3 3f 67 d4 7c 95 7c ec e4 3f
       0.302594 0.653868
0000b0 eb da 83 b5 d6 bc ab 3f d6 c5 6d 34 80 b7 c4 bf
       0.0541751 -0.16185
0000c0 16 db a4 a2 b1 f6 d7 bf 6e b0 26 05 cc 32 b2 3f
       -0.374432 0.0710876
0000d0 ab 25 1d e5 60 36 e6 3f 0d 8c bc ac 89 05 8e bf
       0.694138 -0.014659
0000e0 de c7 d1 1c 59 f9 c1 bf 5a 0d 89 7b 2c 7d e4 3f
       -0.140422 0.64028
0000f0 0f fd a8 c0 a8 28 77 bf c5 bd 43 9b 2d 6a 91 bf
       -0.00565401 -0.0170066
000100 9d f5 29 c7 64 71 d6 bf 39 b9 df a1 28 d0 e5 bf
       -0.350671 -0.68166
000110 d4 60 1a 86 8f 08 f3 3f 49 3a b9 95 14 0e af bf
       1.18959 -0.0606543
000120 df a9 80 7b 9e 3f d4 bf 75 1d aa 29 c9 3a c2 bf
       -0.316383 -0.142419
000130 48 53 3d 99 7f f4 bd bf 9a 23 2b bf 0c c6 bc bf
       -0.117012 -0.112397
000140 ac 53 e5 7b 46 22 e0 3f 9d 31 27 c3 4c 36 99 bf
       0.504184 -0.0246212
000150 0f 9b c8 cc 05 2e cb bf f1 65 a2 08 a9 db df 3f
       -0.212342 0.497782
000160 99 91 8b 7b 3d a9 98 3f 9a 35 c2 ec af 68 9c 3f
       0.0240831 0.0277431
000170 5f 1e 7c 72 5e ad b4 3f 75 c9 38 46 b2 47 ca 3f
       0.0807704 0.205313
000180 e4 6a 64 57 5a c6 ea 3f 3e 0b 9d 32 92 98 a7 3f
       0.836713 0.0460859
000190 57 07 40 dc d5 ab 90 3f a3 b1 f6 77 b6 47 d8 3f
       0.0162805 0.379377
0001a0 94 74 83 57 81 10 b9 3f de 8d 05 85 41 99 d0 bf
       0.0979081 -0.259354
0001b0 7d 40 a0 33 69 53 d1 3f 31 c9 6d a0 65 82 ae bf
       0.270716 -0.0595886
0001c0 46 f6 18 17 d4 d8 6a bf 68 93 c3 27 9d 48 bc bf
       -0.00327722 -0.110483
0001d0 6e dd cd 53 1d 72 d3 3f 52 ed d3 f1 98 81 ce 3f
       0.30384 0.23833
0001e0 71 76 c6 52 7f 18 b6 3f ab ec bb 22 f8 df c0 3f
       0.0863113 0.131835
0001f0 5c ab 3d ec 85 02 d4 3f 9b ac 51 0f d1 e8 ca 3f
       0.312654 0.21023
000200 87 ed 38 8f d4 8c aa 3f 73 13 10 ee 29 94 98 bf
       0.0518557 -0.0240027
000210 0c 67 6d 09 af 13 a5 3f e9 8a 29 c3 7e 70 6a bf
       0.0411658 -0.00322747
000220 dd d1 ff 72 2d 5a c4 bf 4f 08 78 2d 7c d8 a6 bf
       -0.159002 -0.0446204
000230 da c9 e0 28 79 75 c8 bf 96 5d 30 b8 e6 8e e6 3f
       -0.191085 0.704944
000240 88 fb 23 67 bc 08 a6 3f 14 1e d9 01 7c 5c a0 3f
       0.0430354 0.0319556
000250 d9 96 01 67 29 59 c4 3f 17 82 1c 94 30 d3 f0 3f
       0.158971 1.05156
000260 60 1f 9d ba f2 59 ba bf a2 ab be 04 b8 6a 98 3f
       -0.102935 0.0238446
000270 8c 9e 5b e8 4a 04 ce bf b4 7e e9 a3 42 2b b4 3f
       -0.234506 0.0787851
000280 91 63 eb 19 c2 31 8b bf 8e 35 6d 10 f7 a2 a3 bf
       -0.0132785 -0.0383527
000290 92 79 e4 0f 06 9e f5 3f 0b 14 67 fb 46 2a aa bf
       1.35108 -0.0511038
0002a0 7f d9 3d 79 58 a8 cf bf b5 52 08 e4 12 c7 e3 3f
       -0.247325 0.618051
0002b0 ca c3 42 ad 69 de c5 bf 31 e5 c7 88 d9 05 82 3f
       -0.17085 0.00880022
0002c0 bf 61 a2 41 0a 9e ba 3f 38 2e e3 a6 06 9a d5 3f
       0.103974 0.337526
0002d0 12 6c 5c ff ae cf c6 bf f2 97 d4 d8 77 a8 82 bf
       -0.178213 -0.00911039
0002e0 be c9 25 44 af f5 8b 3f f6 23 45 64 58 c5 c9 bf
       0.0136522 -0.201335
0002f0 9c c9 92 94 4f ea b8 3f 87 bf 26 6b d4 43 9c 3f
       0.0973253 0.0276025
000300 e6 b0 fb 8e e1 b1 bf 3f ae 2c d1 59 66 11 dd 3f
       0.123808 0.454187
000310 82 70 05 14 ea e9 c7 3f 06 2a e3 df 67 5c d2 bf
       0.186826 -0.28689
000320 a3 5a 44 14 93 37 d0 3f 39 d0 43 6d 1b 46 c7 3f
       0.253392 0.181827
000330 0d a9 a2 78 95 b5 c3 3f 78 42 af 3f 89 4f e0 bf
       0.153979 -0.509709
000340 ec de 8a c4 04 35 d3 3f 54 3a 58 ff e7 30 db bf
       0.300111 -0.42486
000350 14 15 60 0e 71 62 b0 bf 43 db 7b 02 72 d3 ac 3f
       -0.0640021 0.0563007
000360 4c 33 dd eb a4 be d3 3f 3f e0 81 01 84 0f d2 3f
       0.308511 0.282197
000370 15 f2 52 fb be c9 ac 3f 48 1b 47 ac c5 67 10 c0
       0.0562267 -4.10134
000380 91 98 a0 86 6f 61 d4 3f 8b 17 0b 43 e4 f4 c7 bf
       0.318447 -0.187161
000390 09 33 6d ff ca 4a c3 3f 30 d8 0d db 16 65 9e 3f
       0.15072 0.0296825
0003a0 b6 69 c7 68 78 0e 90 bf 14 59 6b 28 b5 17 db 3f
       -0.0156802 0.423322
0003b0 e6 ae 25 e4 83 9e fd 3f f7 3c 7f da a8 4e 9f bf
       1.8512 -0.0305735
0003c0 89 5f b1 86 8b 5c e3 3f 96 e5 90 79 89 56 a3 3f
       0.605047 0.0377696
0003d0 65 39 09 a5 2f 04 e7 bf 99 4b aa b6 9b e0 e3 3f
       -0.719261 0.621168
0003e0 ff b2 7b f2 b0 50 c7 3f 5a a0 dd 21 c5 00 dc 3f
       0.18215 0.437547
0003f0 06 7b b8 89 ff e0 88 bf 96 1d 87 66 43 a3 98 bf
       -0.0121479 -0.0240603
000400 c8 0c 54 c6 bf cf e1 3f 29 40 14 cc 98 82 df 3f
       0.55661 0.492346
000410 95 af 15 7e ba cb ab bf d6 85 c4 e2 dc cb a2 bf
       -0.0542887 -0.0367116
000420 ef 8a 85 c6 b8 87 a5 bf 3b 19 1c 25 af 4e e3 3f
       -0.0420511 0.603355
000430 8c a2 07 3e 06 2b be 3f c4 3d 3b 85 01 f0 b4 3f
       0.117844 0.0817872
000440 68 bc 63 67 c0 0f ad bf 41 2b 30 64 75 ab d7 3f
       -0.0567608 0.36984
000450 52 ed d3 f1 98 c1 17 c0 39 d1 ae 42 ca 4f c4 bf
       -5.93906 -0.158685
000460 ab 5e 7e a7 c9 8c ec bf d1 ce 69 16 68 77 88 3f
       -0.892186 0.0119465
000470 16 ca 78 4a bd 5d ad bf cd cc cc cc cc cc c2 3f
       -0.0573558 0.146875
000480 95 bb cf f1 d1 e2 e2 3f e1 4d 6d 5f f6 a1 a5 bf
       0.590188 -0.0422513
000490 3f 3a 75 e5 b3 3c f4 bf a0 32 fe 7d c6 05 05 c0
       -1.26482 -2.62782
0004a0 31 7a 8f af 14 34 63 3f 7f be 2d 58 aa 0b ca 3f
       0.00234417 0.203481
0004b0 49 83 db da c2 f3 b6 3f 64 57 5a 46 ea 3d c7 3f
       0.089657 0.181577
0004c0 7e a9 9f 37 15 a9 f6 bf 24 3f 87 9e 39 90 8a bf
       -1.41628 -0.0129704
0004d0 b0 99 32 26 b3 30 92 3f 68 5c 38 10 92 05 e5 bf
       0.0177639 -0.65693
0004e0 de 82 5b 2d 66 3a aa bf b7 9c 4b 71 55 99 03 c0
       -0.0512268 -2.44987
0004f0 0e 59 93 5d 1f 8c 8e bf 55 a6 98 83 a0 a3 a9 bf
       -0.0149157 -0.0500765
000500 5d 16 13 9b 8f 6b d5 bf 0c c5 c2 b5 7f 0a a4 3f
       -0.33469 0.0391426
000510 ff 59 f3 e3 2f 2d e7 3f b6 da c3 5e 28 60 d4 bf
       0.724266 -0.318369
000520 a4 ab 74 77 9d 0d e8 bf fd 82 82 f7 fa ff a1 bf
       -0.751662 -0.0351561
000530 66 dd 9a cf 14 95 90 bf b2 82 df 86 18 af 99 bf
       -0.0161937 -0.025082
000540 6a 4d f3 8e 53 f4 f3 bf e1 0d c4 0d 53 b6 9b 3f
       -1.24715 0.0270627
000550 51 94 95 70 32 bb b8 3f 33 33 33 33 33 b3 f3 3f
       0.0966064 1.23125
000560 10 b0 56 ed 9a 90 ba bf 2c d6 70 91 7b ba c0 bf
       -0.103769 -0.130691
000570 5b 28 99 9c da 19 ce bf 86 8d b2 7e 33 31 de 3f
       -0.235164 0.471753
000580 29 b1 6b 7b bb 25 c9 3f 7f 58 25 47 f0 75 98 3f
       0.196464 0.0238874
000590 44 a8 52 b3 07 5a c5 3f 05 8a 58 c4 b0 c3 c2 bf
       0.16681 -0.146597
0005a0 07 7e f1 98 c3 e6 82 bf 03 0a f5 f4 11 f8 a3 3f
       -0.00922921 0.039002
0005b0 c7 da df d9 1e 3d e3 bf ff 03 ac 55 bb 26 c6 bf
       -0.601211 -0.173057
0005c0 5d 94 8f 93 78 2f 95 3f 61 f1 e5 4f 65 62 a8 bf
       0.0206889 -0.0476257
0005d0 22 a5 d9 3c 0e 03 e2 bf 58 90 66 2c 9a ce c6 bf
       -0.562873 -0.17818
0005e0 b6 53 29 2c a7 f3 67 bf da de f2 81 b2 63 82 3f
       -0.0029238 0.00897922
0005f0 b5 dd 04 df 34 7d d0 3f b7 2a 05 b4 df a0 5e 3f
       0.257642 0.00186941
000600 89 d1 73 0b 5d 89 d0 bf c9 71 a7 74 b0 7e ef bf
       -0.258384 -0.984215
000610 c1 a8 a4 4e 40 93 ed bf 0c 1e a6 7d 73 7f 85 3f
       -0.924225 0.010497
000620 bb b5 4c 86 e3 f9 d4 bf 22 b5 3f 06 e1 c0 9a bf
       -0.327752 -0.0261264
000630 dc d5 ab c8 e8 80 d3 3f 45 4b 1e 4f cb 0f de bf
       0.304743 -0.469714
000640 84 d6 c3 97 89 22 c6 3f 06 bb 61 db a2 cc cc bf
       0.172929 -0.224995
000650 3d ef c6 82 c2 a0 d5 3f 58 1b 63 27 bc 04 bb 3f
       0.337937 0.105541
000660 7f 82 30 5c c2 46 b6 3f 88 c9 65 ed 00 99 b3 bf
       0.0870172 -0.0765534
000670 f1 a5 4b 5a 4c c7 9f bf 3b e0 ba 62 46 78 da bf
       -0.0310337 -0.413591
000680 05 87 17 44 a4 a6 dc 3f 8a 4a 34 92 4e 6e b7 3f
       0.447671 0.0915269
000690 db f7 a8 bf 5e 61 c7 3f 82 58 36 73 48 6a d3 3f
       0.182659 0.303362
0006a0 05 a0 f6 00 82 de ac bf 5a fa 2b bf 67 7f b7 bf
       -0.0563851 -0.0917878
0006b0 e4 ba 29 e5 b5 12 e0 3f 54 37 17 7f db 13 a4 bf
       0.502284 -0.039214
0006c0 23 48 4a 1f 5f e7 93 bf 20 7e fe 7b f0 da a1 3f
       -0.0194373 0.0348735
0006d0 06 f5 2d 73 ba ac eb 3f 8a b6 be a3 21 3e b1 bf
       0.864835 -0.0673543
0006e0 bb 86 cf 8c 34 a7 91 bf 5d fe 43 fa ed eb e8 bf
       -0.0172394 -0.7788
0006f0 75 72 86 e2 8e 37 d5 bf 43 e4 f4 f5 7c cd d7 bf
       -0.331516 -0.371917
000700 38 f8 c2 64 aa 60 bc 3f e1 99 d0 24 b1 24 e7 bf
       0.11085 -0.723229
000710 a2 0d c0 06 44 88 c1 bf 00 99 8c 19 97 60 87 3f
       -0.136971 0.0114147
000720 87 19 1a 4f 04 71 c6 bf 6d fe 5f 75 e4 48 ea 3f
       -0.175324 0.821398
000730 83 3b ab 60 af 0b a2 bf 6f 45 07 c9 a7 6c 6d bf
       -0.0352454 -0.00359185
000740 04 75 ca a3 1b 61 d1 3f 42 5a 63 d0 09 a1 d2 3f
       0.271552 0.291079
000750 79 ce 16 10 5a 0f c9 bf c1 55 9e 40 d8 29 d5 3f
       -0.195781 0.330679
000760 f0 13 07 d0 ef fb d0 3f 3f c5 71 e0 d5 72 d0 3f
       0.265377 0.257009
000770 dd 96 c8 05 67 70 e0 3f 41 7d cb 9c 2e 8b dd 3f
       0.513721 0.46162
000780 a9 83 bc 1e 4c 8a c3 bf 67 58 d6 47 f1 3b 97 bf
       -0.152658 -0.0226896
000790 a4 8d 23 d6 e2 53 c4 bf b6 da c3 5e 28 60 d9 bf
       -0.15881 -0.396494
0007a0 38 54 42 66 1d 44 a1 bf c2 f9 d4 b1 4a e9 a1 3f
       -0.0337228 0.034983
0007b0 1c b4 57 1f 0f 7d d5 bf fb 76 12 11 fe 45 c4 3f
       -0.335758 0.158386
0007c0 23 f8 df 4a 76 6c d7 3f 42 21 02 0e a1 4a d5 3f
       0.365995 0.33268
0007d0 e7 e2 6f 7b 82 c4 c8 bf f1 4b fd bc a9 48 e6 bf
       -0.193497 -0.69637
0007e0 1f 9f 90 9d b7 b1 c7 3f c2 17 26 53 05 a3 e3 bf
       0.185111 -0.61365
0007f0 15 d9 18 85 6e 40 b9 bf 8a 57 59 db 14 8f e2 3f
       -0.0986394 0.579966

FC2_bias f8 [50]
000000 30 48 fa b4 8a fe c4 3f 46 cd 57 c9 c7 ee d0 bf
       0.164018 -0.264574
000010 fd f0 1c 5f b5 11 73 3f 3d b9 a6 40 66 67 ad bf
       0.00465556 -0.0574295
000020 ac 20 61 73 69 57 8c bf 05 a8 a9 65 6b 7d bd bf
       -0.0138386 -0.115195
000030 b5 8c d4 7b 2a a7 b1 bf eb d4 4b 42 d8 df b0 3f
       -0.068957 0.0659156
000040 bb b5 4c 86 e3 79 e0 bf 3a 3c 84 f1 d3 b8 bf 3f
       -0.514879 0.123914
000050 2d 25 cb 49 28 7d a9 3f d7 d9 90 7f 66 10 bf bf
       0.049783 -0.121344
000060 9e 0a b8 e7 f9 53 e0 bf 08 2c 6f fd aa 12 9b 3f
       -0.510251 0.0264384
000070 1d c8 7a 6a f5 d5 dc bf 0f 27 30 9d d6 6d cc 3f
       -0.450559 0.222102
000080 18 70 e0 1f 00 82 ab 3f 14 ea 2b 40 c2 cd 75 bf
       0.0537262 -0.00532318
000090 4a 0c 02 2b 87 16 cb bf ee d1 1b ee 23 b7 86 3f
       -0.211625 0.0110915
0000a0 eb a9 d5 57 57 05 8a bf 12 4f 76 33 a3 1f c7 bf
       -0.0127055 -0.180653
0000b0 43 53 76 fa 41 5d ce bf d6 3b dc 0e 0d 8b cf 3f
       -0.237221 0.246431
0000c0 83 35 ce a6 23 80 d4 bf 3f 01 14 23 4b e6 c0 bf
       -0.320321 -0.132028
0000d0 f8 47 6b 4e 56 f3 79 bf 5e 80 7d 74 ea ca d3 3f
       -0.00633558 0.30926
0000e0 60 3a ad db a0 f6 d7 bf 8f 44 79 30 73 cb 90 bf
       -0.374428 -0.0164011
0000f0 28 43 55 4c a5 9f ce bf ed d6 32 19 8e e7 c1 bf
       -0.239247 -0.139879
000100 44 d2 b8 81 4c 7c b1 3f d3 3b aa d4 cb 73 7d 3f
       0.0683029 0.00719051
000110 92 21 c7 d6 33 04 eb bf 85 61 1b 4c 1e aa b4 bf
       -0.844263 -0.0807208
000120 4e ae ce d6 66 08 a8 3f 63 64 c9 1c cb bb d0 3f
       0.0469391 0.261462
000130 ef 1c ca 50 15 53 cd 3f c0 34 f3 81 70 47 80 3f
       0.229098 0.00794876
000140 51 85 3f c3 9b 35 bc 3f 25 90 12 bb b6 b7 cd bf
       0.110193 -0.232169
000150 d5 74 e2 17 03 90 b7 bf 3a a3 f7 d7 3c 58 b4 bf
       -0.0920412 -0.0794714
000160 34 85 ce 6b ec 12 c7 3f 70 08 55 6a f6 40 cf bf
       0.180265 -0.24417
000170 11 24 4a d6 3c a2 8d bf 9b e4 47 fc 8a 35 ca bf
       -0.0144696 -0.204759
000180 01 4c 19 38 a0 a5 d5 bf cb bd c0 ac 50 a4 93 3f
       -0.338234 0.0191815

FC2_weight f8 [50, 50]
000000 e9 98 f3 8c 7d c9 ea 3f 44 fc c3 96 1e cd ea bf
       0.837096 -0.837539
000010 0d 18 24 7d 5a 45 c1 3f 12 17 80 46 e9 d2 c7 bf
       0.134929 -0.186124
000020 cb 0f 5c e5 09 84 9d 3f da 59 f4 4e 05 5c ee 3f
       0.028824 0.948733
000030 57 77 2c b6 49 45 de bf 53 29 d1 ed 80 46 b6 3f
       -0.472979 0.0870133
000040 dd b5 84 7c d0 33 f8 3f 2d b1 32 1a f9 3c e1 bf
       1.51265 -0.538693
000050 91 42 59 f8 fa 5a de bf f7 d0 99 0f 63 2d 99 bf
       -0.474303 -0.0245872
000060 cf da 6d 17 9a 2b 0b 40 ef 40 f8 ab 5b 98 b0 bf
       3.39629 -0.0648248
000070 8e e9 09 4b 3c a0 f0 3f 2a 74 5e 63 97 a8 f7 bf
       1.03912 -1.47866
000080 f9 31 e6 ae 25 e4 c3 3f 23 f8 df 4a 76 6c db 3f
       0.1554 0.428495
000090 53 58 a9 a0 a2 ea e1 3f fb a9 96 19 db 10 88 3f
       0.559892 0.0117509
0000a0 a5 6a bb 09 be 69 d0 bf a5 4e 40 13 61 43 01 c0
       -0.256454 -2.1579
0000b0 9f 94 49 0d 6d 00 da 3f b7 26 dd 96 c8 85 e1 3f
       0.406276 0.547581
0000c0 c8 ed 97 4f 56 0c af 3f 6d 03 77 a0 4e 79 c0 bf
       0.060641 -0.128702
0000d0 3f ff 3d 78 ed d2 c6 3f 03 95 f1 ef 33 ae f8 bf
       0.178312 -1.54253
0000e0 81 03 ff 00 10 1c b4 3f 57 c7 96 8a 32 c0 9a 3f
       0.0785532 0.0261238
0000f0 c7 d4 5d d9 05 83 eb 3f 10 7a 36 ab 3e 57 de 3f
       0.859744 0.474075
000100 0d 8d 27 82 38 0f c9 3f c7 0d bf 9b 6e d9 ec 3f
       0.195777 0.901542
000110 ac 00 df 6d de 38 d2 3f c0 7b 47 8d 09 31 cf 3f
       0.284721 0.243684
000120 cb 2e 18 5c 73 47 ea bf f5 bd 86 e0 b8 8c bf bf
       -0.821222 -0.123241
000130 a2 7b d6 35 5a 0e c2 bf e4 bc ff 8f 13 26 dd 3f
       -0.141063 0.455449
000140 fd 2f d7 a2 05 68 c3 3f ae 49 b7 25 72 c1 d0 bf
       0.151612 -0.261807
000150 1a 65 a2 ad ef 68 a0 3f 11 57 ce de 19 6d c7 3f
       0.0320506 0.183017
000160 b9 e1 77 d3 2d 3b c2 bf e4 f6 cb 27 2b 06 ee bf
       -0.142431 -0.938253
000170 71 e2 50 64 52 e8 b3 3f e2 3b 31 eb c5 d0 f8 3f
       0.0777637 1.55097
000180 7e 74 ea ca 67 79 f3 3f 1d 1c ec 4d 0c c9 d4 3f
       1.21714 0.324771
000190 ee 5d 83 be f4 f6 e6 3f 9a d7 6c 40 df 71 b7 bf
       0.717646 -0.0915813
0001a0 91 65 1c 7e 92 96 a5 3f a7 eb 89 ae 0b 3f cc 3f
       0.0421644 0.220674
0001b0 99 ea b0 5f 03 64 70 3f 12 62 d3 ef 67 1d b8 bf
       0.00400163 -0.0941987
0001c0 50 6f 46 cd 57 c9 e3 3f fb 56 90 0b 73 27 a1 bf
       0.618328 -0.0335041
0001d0 ea 3e 00 a9 4d 9c ea bf 9a 23 2b bf 0c c6 d1 3f
       -0.83158 0.277713
0001e0 1d af 40 f4 a4 4c ba 3f a7 cb a4 7e c5 b7 83 bf
       0.102732 -0.00962786
0001f0 b6 2e 35 42 3f d3 e6 bf fe c6 e8 ca b1 06 b5 bf
       -0.713287 -0.0821334
000200 b0 c6 d9 74 04 70 bf 3f 4a 98 69 fb 57 d6 fc 3f
       0.122803 1.80233
000210 0e bd c5 c3 7b 0e dc bf 97 e1 3f dd 40 81 e1 3f
       -0.438384 0.547028
000220 af 99 7c b3 cd 8d cb bf 71 33 81 c7 5c be b4 bf
       -0.215265 -0.0810297
000230 03 60 3c 83 86 7e f5 3f 9d 85 3d ed f0 57 e3 bf
       1.34339 -0.604485
000240 0c 1f 11 53 22 89 dd bf 73 b3 e4 96 fb 89 a7 bf
       -0.461495 -0.0459746
000250 63 62 f3 71 6d a8 c2 3f 2d 94 4c 4e ed 0c cf bf
       0.145765 -0.242582
000260 01 6d ab 59 67 7c c9 bf 1e 8d 43 fd 2e 6c ef 3f
       -0.199109 0.981956
000270 14 f7 0e 6d b6 a8 a1 bf 9e 0e bf f6 27 4c 83 3f
       -0.0344903 0.0094226
000280 b3 d2 a4 14 74 7b e5 bf ed 7f 80 b5 6a d7 db 3f
       -0.67132 0.435023
000290 d2 a8 c0 c9 36 70 dd 3f 97 e6 56 08 ab b1 b2 3f
       0.459974 0.0730235
0002a0 3d 2c d4 9a e6 9d e0 3f 15 40 8c 6b d7 df ad bf
       0.519275 -0.0583484
0002b0 83 31 22 51 68 59 c9 3f 1d 3c 13 9a 24 96 ca 3f
       0.198041 0.207707
0002c0 1c b1 bb e5 8f 0e b4 3f 3b ab e4 e7 af 25 6e bf
       0.0783472 -0.00368008
0002d0 e2 cd 1a bc af ca c7 bf 90 f5 d4 ea ab ab e2 bf
       -0.185873 -0.583456
0002e0 6c 5b 94 d9 20 93 d5 bf 26 ce 40 1b 6f e1 af 3f
       -0.337105 0.0622668
0002f0 2c 62 d8 61 4c fa e0 3f 99 2b 83 6a 83 13 bd 3f
       0.530554 0.113579
000300 c1 3b f9 f4 d8 96 81 bf e6 b0 fb 8e e1 b1 db bf
       -0.0085885 -0.432732
000310 85 77 b9 88 ef c4 ce 3f b3 60 e2 8f a2 ce cc bf
       0.240385 -0.225056
000320 f9 07 db 99 53 13 b8 bf 6d c5 fe b2 7b 72 f6 bf
       -0.0940449 -1.40295
000330 d8 7f 9d 9b 36 e3 c8 3f 73 2a 19 00 aa b8 d0 bf
       0.194434 -0.261271
000340 4e f9 c6 c6 72 01 96 bf 32 3d 61 89 07 94 c3 bf
       -0.0214899 -0.152955
000350 17 ef c7 ed 97 4f ba 3f 06 4a 0a 2c 80 29 c7 bf
       0.102777 -0.180954
000360 b2 68 3a 3b 19 1c cb 3f 8c 68 3b a6 ee ca c6 bf
       0.211795 -0.178068
000370 a4 17 b5 fb 55 80 ab bf be 6c 96 26 00 5a b0 bf
       -0.0537135 -0.0638733
000380 d0 27 f2 24 e9 1a f6 3f be cf 02 fe 3a 81 b2 bf
       1.38157 -0.0722844
000390 28 f0 4e 3e 3d 36 e9 3f 8a ab ca be 2b 82 f2 bf
       0.787871 -1.15678
0003a0 2b df 33 12 a1 11 da bf 2d 43 1c eb e2 36 df 3f
       -0.407326 0.487725
0003b0 bc c9 6f d1 c9 52 c1 bf f0 ca e4 8a 41 16 90 3f
       -0.135339 0.0157099
0003c0 49 d5 76 13 7c d3 df 3f 8d 42 92 59 bd c3 ec bf
       0.497283 -0.898894
0003d0 1e 33 50 19 ff 3e d9 bf dc 74 15 9c 0b 6d 92 bf
       -0.39447 -0.0179941
0003e0 b1 ff 95 f0 df 17 9a bf 2f dc b9 30 d2 8b ae bf
       -0.0254817 -0.0596605
0003f0 d0 3d 90 61 ba b5 99 3f 83 6c 59 be 2e c3 ef bf
       0.0251073 -0.992576
000400 e4 f3 2f ee ab 17 ac bf 9c 23 e1 31 f2 68 a1 3f
       -0.0548681 0.0340038
000410 7b 31 94 13 ed 2a e4 bf 4f 58 e2 01 65 53 b4 3f
       -0.63024 0.0793975
000420 15 55 bf d2 f9 70 e5 bf 00 e2 ae 5e 45 46 c3 3f
       -0.670041 0.150582
000430 49 64 1f 64 59 30 d4 3f 97 6f 7d 58 6f d4 d6 bf
       0.315451 -0.356716
000440 ff 3d 78 ed d2 86 dc 3f 50 fe ee 1d 35 26 ca 3f
       0.445729 0.204291
000450 5c 3a e6 3c 63 5f d2 3f 70 25 3b 36 02 f1 e1 3f
       0.287072 0.56067
000460 79 ae ef c3 41 42 bc bf 65 36 c8 24 23 67 cd bf
       -0.110386 -0.22971
000470 ca fd 0e 45 81 3e d2 3f b7 57 8b f4 47 bd b0 bf
       0.285065 -0.0653882
000480 55 f8 33 bc 59 83 c3 3f fd 86 89 06 29 78 da bf
       0.152446 -0.413584
000490 18 78 ee 3d 5c 72 f2 3f 7e 52 ed d3 f1 98 e6 3f
       1.15292 0.70617
0004a0 aa 7c cf 48 84 46 c8 3f 8f 70 5a f0 a2 af f3 3f
       0.189652 1.23038
0004b0 d0 99 b4 a9 ba c7 e0 bf fe 29 55 a2 ec 2d cb 3f
       -0.524381 0.212339
0004c0 99 f1 b6 d2 6b b3 cd bf 1a 36 ca fa cd c4 c4 bf
       -0.232038 -0.162256
0004d0 87 d4 fe 18 84 03 93 bf 69 20 f1 86 8f e3 a2 bf
       -0.0185681 -0.0368924
0004e0 a7 09 36 09 39 4a b7 bf e7 50 86 aa 98 4a c5 bf
       -0.0909763 -0.166339
0004f0 35 b3 96 02 d2 fe d1 3f 4f 59 4d d7 13 5d cb bf
       0.281178 -0.213778
000500 a1 d6 34 ef 38 45 c5 bf cf 15 a5 84 60 55 c5 3f
       -0.166175 0.166668
000510 13 ef 00 4f 5a b8 e6 bf aa 71 80 aa 1b 39 a4 bf
       -0.710004 -0.0394982
000520 d0 b6 9a 75 c6 77 e2 bf 9b ae 27 ba 2e fc df 3f
       -0.577121 0.499767
000530 4d a2 5e f0 69 4e b0 3f 99 0d 32 c9 c8 59 d1 bf
       0.0636965 -0.271105
000540 68 11 40 20 86 0c aa bf 52 89 a1 8b 3c ff a8 3f
       -0.0508768 0.0488223
000550 a1 bd fa 78 e8 bb d1 bf 9a d2 fa 5b 02 70 e3 3f
       -0.277094 0.607423
000560 37 3e ee b6 66 86 98 3f 88 bb 7a 15 19 1d e0 bf
       0.0239502 -0.503552
000570 6c b4 1c e8 a1 b6 cf bf 36 b0 55 82 c5 e1 e2 3f
       -0.247761 0.59006
000580 3b ac 70 cb 47 52 c0 3f a4 c5 19 c3 9c a0 cd bf
       0.127511 -0.231464
000590 78 0e 65 a8 8a a9 bc bf d9 f4 fb 59 87 fe a0 bf
       -0.111962 -0.0331919
0005a0 cb 99 92 51 0a 5f b2 bf 87 36 00 1b 10 21 c8 3f
       -0.0717627 0.188509
0005b0 78 d5 03 e6 21 53 b2 bf fb ac 32 53 5a 7f bf bf
       -0.071581 -0.123037
0005c0 d8 2b 2c b8 1f f0 e0 3f 90 31 77 2d 21 1f c6 bf
       0.529312 -0.172825
0005d0 6c 96 cb 46 e7 fc ce 3f 15 3b 1a 87 fa 5d e0 bf
       0.242093 -0.511472
0005e0 8d ef 8b 4b 55 da d6 bf d2 31 8c 60 88 41 b1 3f
       -0.357076 0.0674062
0005f0 82 1a be 85 75 e3 c1 bf 3b 52 7d e7 17 25 d3 3f
       -0.139754 0.299139
000600 ec 69 87 bf 26 6b c8 3f a4 72 13 b5 34 b7 a2 3f
       0.19077 0.036554
000610 fd f4 9f 35 3f fe ba bf 77 dd b6 4a 0b f2 b6 3f
       -0.105442 0.0896308
000620 bf 64 e3 c1 16 bb cb 3f a8 b5 1f df 94 a8 9d 3f
       0.216647 0.0289634
000630 ef b9 5d 79 da 2b b1 3f 84 d3 82 17 7d 05 d6 bf
       0.0670754 -0.344085
000640 2d 0a bb 28 7a e0 c9 bf 67 26 18 ce 35 cc c0 bf
       -0.202163 -0.131232
000650 dd 28 b2 d6 50 6a cf bf 7c 2a a7 3d 25 e7 e5 3f
       -0.245432 0.684466
000660 04 39 28 61 a6 ed 8f 3f 8e 06 f0 16 48 50 d7 3f
       0.01559 0.364275
000670 6b 60 ab 04 8b c3 01 40 eb 5f 48 3d fa 15 99 3f
       2.22048 0.0244979
000680 df 37 be f6 cc 12 f0 3f 82 90 2c 60 02 37 f3 bf
       1.00459 -1.20093
000690 c4 d0 ea e4 0c c5 bd bf 6f f5 9c f4 be f1 f0 3f
       -0.116288 1.05902
0006a0 48 dc 63 e9 43 17 f7 3f 81 12 55 ae a6 a1 8c bf
       1.44318 -0.0139802
0006b0 2a 8e 03 af 96 3b de 3f ee 42 73 9d 46 da fc bf
       0.472387 -1.80329
0006c0 be 33 da aa 24 b2 d3 bf 78 46 5b 95 44 f6 e7 bf
       -0.307748 -0.748812
0006d0 b9 c3 26 32 73 01 e4 3f 28 c0 66 6f df 59 a9 3f
       0.625177 0.0495138
0006e0 57 06 d5 06 27 a2 de bf 5c 1d 00 71 57 af eb 3f
       -0.478647 0.865154
0006f0 e6 c6 99 cb b2 cc af 3f 29 cc 7b 9c 69 c2 e3 bf
       0.0621086 -0.617482
000700 f3 59 9e 07 77 e7 e5 3f 2e 59 15 e1 26 a3 da 3f
       0.684505 0.416208
000710 a8 72 da 53 72 4e 8c bf 57 a3 0d 76 79 29 b9 3f
       -0.0138215 0.0982891
000720 54 35 41 d4 7d 00 f2 3f fb e2 f7 db 43 67 96 bf
       1.12512 -0.0218783
000730 d8 d7 ba d4 08 fd c6 bf 48 50 fc 18 73 97 00 c0
       -0.179597 -2.07395
000740 89 cf 9d 60 ff f5 e6 bf e9 2a dd 5d 67 43 cc bf
       -0.717529 -0.220807
000750 65 42 82 98 3a 7e b2 bf c8 ca d4 c9 be d0 90 3f
       -0.0722386 0.0164213
000760 2d 40 db 6a d6 19 bb 3f f8 a7 54 89 b2 b7 cc 3f
       0.105863 0.224356
000770 d5 40 f3 39 77 bb d3 bf 23 69 37 fa 98 0f c2 bf
       -0.308317 -0.141101
000780 12 68 b0 a9 f3 a8 a4 bf bd 1d e1 b4 e0 c5 f0 3f
       -0.0403515 1.04831
000790 b0 dc 77 b1 d5 8a b1 bf d5 ce 30 b5 a5 0e d3 3f
       -0.0685247 0.297769
0007a0 fb 3a 70 ce 88 d2 f0 3f 50 8f 6d 19 70 96 db 3f
       1.0514 0.431057
0007b0 c5 71 e0 d5 72 67 db bf b9 16 2d 40 db ea e4 3f
       -0.428189 0.653669
0007c0 8d 5d a2 7a 6b 60 f5 3f 4b 5f 63 f2 61 51 8c 3f
       1.33604 0.0138271
0007d0 a0 34 d4 28 24 99 de 3f aa f4 13 ce 6e 2d dc 3f
       0.478097 0.440273
0007e0 af 49 6d 98 57 64 8a bf ef bf 3a 33 66 b7 af bf
       -0.0128867 -0.0619461
0007f0 3d bb 7c eb c3 7a 93 bf 1a 50 6f 46 cd 57 c3 bf
       -0.019023 -0.151117

FC3_bias f8 [50]
000000 80 ea c4 8a bf 92 b4 3f db 89 92 90 48 db d8 bf
       0.0803642 -0.388384
000010 ce c5 df f6 04 89 cb bf a4 5d 5c 15 6e 1a 77 bf
       -0.215119 -0.00564044
000020 bd 1c 76 df 31 3c d0 bf 96 b6 13 80 da 03 b8 bf
       -0.253674 -0.0938088
000030 e9 99 5e 62 2c d3 bb 3f 6e e0 0e d4 29 8f dc bf
       0.108691 -0.446238
000040 c5 8f 31 77 2d 21 e9 bf f5 13 ce 6e 2d 93 c7 bf
       -0.7853 -0.184179
000050 cb 53 b1 8c 68 96 8f bf 92 b1 da fc bf ea ef bf
       -0.0154236 -0.997406
000060 a7 5a 0b b3 d0 ce b1 3f 83 64 2a 92 e9 af 7b 3f
       0.069562 0.00675956
000070 ef 1b 5f 7b 66 49 70 bf 5c f7 5e 95 6e bf 82 bf
       -0.00397625 -0.00915419
000080 0c 5c 1e 6b 46 06 d5 bf ca 6f d1 c9 52 eb c9 bf
       -0.328508 -0.202494
000090 48 c0 8d 39 74 1f a1 bf 49 2a 53 cc 41 d0 d3 bf
       -0.0334431 -0.309586
0000a0 0f be 8b 52 9d 69 9d bf 6d 1f f2 96 ab 1f d4 bf
       -0.0287232 -0.314433
0000b0 8b 43 ec 02 14 d9 b1 3f d3 71 90 6b 9e 7e a3 3f
       0.0697186 0.0380754
0000c0 11 53 22 89 5e 46 b7 3f ed 83 2c 0b 26 fe c4 3f
       0.0909175 0.164006
0000d0 82 e0 96 34 eb 31 aa bf 02 2c f2 eb 87 d8 90 bf
       -0.0511621 -0.016451
0000e0 fd 10 1b 2c 9c a4 d2 3f 71 bd b7 33 5d 99 99 bf
       0.291297 -0.0249991
0000f0 63 9c bf 09 85 88 e5 3f f9 14 00 e3 19 34 d6 3f
       0.672915 0.34693
000100 a8 8b 14 ca c2 d7 d3 bf 8d d3 10 55 f8 33 bc bf
       -0.310044 -0.110168
000110 be 12 48 89 5d db e2 bf ce aa cf d5 56 ec cb bf
       -0.589278 -0.21815
000120 f2 44 10 e7 e1 04 b2 3f e0 bd a3 c6 84 98 d2 bf
       0.070387 -0.290559
000130 ba f5 9a 1e 14 94 a6 bf 80 d2 50 a3 90 64 c8 bf
       -0.0440985 -0.190569
000140 87 fd 9e 58 a7 ca c5 bf fa 7b 29 3c 68 76 c7 3f
       -0.170247 0.183301
000150 9c 7f e4 6b 09 d8 82 3f 20 08 90 a1 63 07 d3 bf
       0.00920112 -0.297326
000160 84 f4 14 39 44 dc c0 bf 57 94 12 82 55 75 eb bf
       -0.131722 -0.858073
000170 a6 64 94 c2 17 81 8c bf fd d8 24 3f e2 57 bc bf
       -0.0139181 -0.110716
000180 09 6c ce c1 33 a1 da bf a2 55 77 76 43 64 b4 3f
       -0.416089 0.0796549

FC3_weight f8 [50, 50]
000000 3c 4d 66 bc ad 74 e6 3f 1e 8a 02 7d 22 4f d6 3f
       0.701743 0.34858
000010 ce 71 6e 13 ee 95 d9 bf 16 16 dc 0f 78 60 c6 3f
       -0.399776 0.174819
000020 16 2f 16 86 c8 e9 c9 bf 48 33 16 4d 67 27 cd 3f
       -0.202447 0.227765
000030 b8 95 5e 9b 8d 95 d4 3f a3 23 b9 fc 87 74 e4 bf
       0.321628 -0.639225
000040 32 c9 c8 59 d8 53 f5 bf d1 24 b1 a4 dc fd e1 3f
       -1.33297 0.562239
000050 7b d7 a0 2f bd fd a1 3f 0a d9 79 1b 9b 1d c9 bf
       0.035139 -0.196216
000060 97 ad f5 45 42 5b be bf 04 da fa 42 f8 b2 45 3f
       -0.11858 0.000662204
000070 a8 9c 40 22 b7 70 a6 3f 6f 64 1e f9 83 81 dd bf
       0.0438287 -0.46103
000080 10 cb 66 0e 49 2d d3 bf 0e 9e 09 4d 12 4b d4 3f
       -0.299639 0.317082
000090 ee ee 01 ba 2f e7 e0 bf 6f d3 9f fd 48 51 03 c0
       -0.528221 -2.41469
0000a0 03 6c f6 f6 9d 15 77 3f af fc 43 44 7b 06 aa bf
       0.00563585 -0.0508307
0000b0 5a 63 d0 09 a1 83 c2 bf ae 46 76 a5 65 a4 d8 3f
       -0.144642 0.385034
0000c0 8e 71 6a 0c df 67 b1 bf 9e 98 f5 62 28 27 f6 bf
       -0.0679912 -1.38456
0000d0 5e 4f cf 16 6b 13 b4 bf 8c be 82 34 63 d1 bc bf
       -0.0784213 -0.11257
0000e0 78 5e 2a 36 e6 75 c2 3f 3f 10 6a d0 e1 6b a9 bf
       0.144223 -0.0496512
0000f0 d0 0f 23 84 47 1b d0 bf 2a c4 23 f1 f2 74 ca bf
       -0.251665 -0.206694
000100 bf 0e 9c 33 a2 b4 f2 bf 0a 7c ea fd eb 81 8b bf
       -1.1691 -0.0134314
000110 f4 4f 70 b1 a2 06 f2 3f fe 80 07 06 10 be e4 3f
       1.12662 0.648201
000120 3d d1 75 e1 07 e7 bf 3f 18 5b 08 72 50 c2 d1 bf
       0.124619 -0.277485
000130 9e da cf 18 9c 77 82 3f 7e 54 c3 7e 4f ac bf 3f
       0.0090172 0.123723
000140 3a 59 6a bd df 68 d0 bf ee 5f 59 69 52 0a da 3f
       -0.256401 0.40688
000150 18 3e c7 ec d1 c0 b4 3f 45 2a 8c 2d 04 39 f4 3f
       0.0810672 1.26392
000160 da ad 65 32 1c cf d8 3f aa 29 c9 3a 1c 5d ef 3f
       0.387641 0.980116
000170 77 50 e4 a4 8b a8 84 bf da aa 24 b2 0f b2 d1 bf
       -0.0100871 -0.276493
000180 e1 46 ca 16 49 bb e1 bf a0 c1 a6 ce a3 e2 cb bf
       -0.554112 -0.217854
000190 ea 91 06 b7 b5 05 e3 3f f6 0a 0b ee 07 3c d9 bf
       0.594447 -0.394289
0001a0 98 a4 32 c5 1c 04 d4 3f d4 b8 37 bf 61 a2 b9 bf
       0.312751 -0.100134
0001b0 e6 ce 4c 30 9c 6b de 3f 3c 50 a7 3c ba 11 d0 3f
       0.475318 0.251082
0001c0 d9 08 c4 eb fa 05 cb bf 42 40 be 84 0a 8e e9 3f
       -0.21112 0.798589
0001d0 f9 f8 84 ec bc 8d b3 bf d9 26 15 8d b5 bf d2 bf
       -0.0763815 -0.292951
0001e0 3a 4f 86 f4 25 65 9c 3f 78 7d e6 ac 4f b9 ed 3f
       0.0277296 0.928871
0001f0 67 f3 93 c5 58 01 a1 3f 5f 25 1f bb 0b 94 e6 bf
       0.0332134 -0.705572
000200 91 81 97 74 ef 3c 94 3f 41 45 d5 af 74 3e c4 bf
       0.0197637 -0.158156
000210 69 ff 03 ac 55 bb c0 bf 86 74 78 08 e3 a7 d3 3f
       -0.130717 0.307122
000220 a2 24 24 d2 36 7e e3 3f 6f 9f 55 66 4a eb d1 3f
       0.609157 0.279986
000230 91 93 2e a2 92 df 9f bf ed b8 e1 77 d3 2d d1 3f
       -0.0311263 0.268422
000240 bd 36 1b 2b 31 cf c6 3f 4f ae 29 90 d9 59 db bf
       0.178198 -0.427359
000250 f4 a3 e1 94 b9 f9 be 3f e7 52 5c 55 f6 5d ed bf
       0.120998 -0.91772
000260 df 19 6d 55 12 d9 d0 3f ad 33 be 2f 2e 55 dd bf
       0.263249 -0.458324
000270 43 72 32 71 ab 20 df 3f bb c7 e3 b3 86 9c a8 bf
       0.486369 -0.0480692
000280 cc d1 e3 f7 36 fd f0 3f fc fd 62 b6 64 55 e4 bf
       1.06182 -0.635424
000290 7c 27 66 bd 18 4a f4 bf 1e 6f f2 5b 74 b2 e1 bf
       -1.26809 -0.553034
0002a0 e0 84 42 04 1c 42 f2 3f 20 f0 c0 00 c2 87 d5 3f
       1.14114 0.336411
0002b0 9c 51 f3 55 f2 b1 c9 bf 94 83 d9 04 18 96 bb 3f
       -0.200743 0.107759
0002c0 0c 1b 0a 44 f4 10 a2 bf cc 26 c0 b0 fc f9 d6 bf
       -0.0352856 -0.359008
0002d0 f9 82 16 12 30 ba d8 bf b9 c5 fc dc d0 94 95 3f
       -0.386364 0.0210755
0002e0 3a 6a 96 15 d4 01 b8 3f f8 53 e3 a5 9b 44 f1 3f
       0.0937779 1.07925
0002f0 bc b1 a0 30 28 d3 d3 bf eb 8b 84 b6 9c 4b f4 bf
       -0.309763 -1.26846
000300 b4 b1 6d ac 1f f6 95 bf 5f 7b 66 49 80 9a f0 3f
       -0.0214467 1.03772
000310 ab cf d5 56 ec 2f c9 bf 80 d4 26 4e ee 77 b6 bf
       -0.196775 -0.0877675
000320 c6 e1 cc af e6 00 c7 bf 5f 0c e5 44 bb 8a f1 3f
       -0.179715 1.09637
000330 30 bb 27 0f 0b b5 f3 bf 91 7e fb 3a 70 4e f0 3f
       -1.2317 1.01915
000340 da ac fa 5c 6d c5 db 3f 56 0f 98 87 4c f9 b0 3f
       0.433925 0.066304
000350 42 97 70 e8 2d 1e db 3f db 8a fd 65 f7 e4 f0 3f
       0.423717 1.0559
000360 63 29 92 af 04 52 eb 3f 7f de 54 a4 c2 d8 d9 3f
       0.853762 0.403855
000370 f3 97 71 ae bc 3f 91 bf 30 f0 dc 7b b8 64 fd 3f
       -0.0168447 1.83709
000380 12 13 d4 f0 2d ac dc bf 8a af 76 14 e7 a8 d8 bf
       -0.448009 -0.385309
000390 8f 11 f5 27 96 00 99 bf 46 95 61 dc 0d 22 ea bf
       -0.0244163 -0.816657
0003a0 9c 8c 2a c3 b8 1b d7 bf 5f 0c e5 44 bb 4a 00 40
       -0.361067 2.03649
0003b0 ed ba b7 22 31 41 c1 bf 0e f3 e5 05 d8 47 d5 bf
       -0.134802 -0.33251
0003c0 42 a0 e9 db 38 18 a0 bf 1b 9e 5e 29 cb 10 f0 bf
       -0.0314348 -1.0041
0003d0 30 48 fa b4 8a fe ca 3f 61 1c 5c 3a e6 3c e5 3f
       0.210893 0.663684
0003e0 b2 f6 77 b6 47 6f b0 bf b5 a3 38 47 1d 9d e9 bf
       -0.064198 -0.800429
0003f0 84 f1 d3 b8 37 bf d7 3f b6 0f 79 cb d5 8f ec bf
       0.371046 -0.892558
000400 79 92 74 cd e4 9b f3 bf 9c 80 cb 08 14 56 a7 bf
       -1.22556 -0.0455786
000410 d1 3d eb 1a 2d 07 b6 3f 94 11 17 80 46 69 ed bf
       0.086047 -0.919101
000420 5c 55 f6 5d 11 3c 01 40 fc 6f 25 3b 36 02 ff bf
       2.15433 -1.93804
000430 88 2e a8 6f 99 d3 f6 3f 82 8c 80 0a 47 10 e3 bf
       1.42666 -0.595737
000440 05 e1 0a 28 d4 d3 df bf 71 57 af 22 a3 03 ea 3f
       -0.497304 0.812944
000450 1a 8a 3b de e4 b7 a0 3f 88 2e a8 6f 99 53 f0 3f
       0.032653 1.02041
000460 28 3a dc 58 9a a5 9e 3f 78 28 0a f4 89 3c e3 bf
       0.0299286 -0.60114
000470 3d b6 65 c0 59 4a c8 bf 05 6e dd cd 53 5d 00 40
       -0.189769 2.04557
000480 1a 14 cd 03 58 e4 d8 3f fd 87 f4 db d7 81 06 40
       0.388937 2.8134
000490 77 62 7b d2 2e 4b ac bf 91 2a 8a 57 59 db df bf
       -0.0552611 -0.497763
0004a0 86 72 a2 5d 85 94 fc bf 0b 5d 89 40 f5 0f e7 bf
       -1.78626 -0.720698
0004b0 c3 45 ee e9 ea 8e d5 3f 4e ed 0c 53 5b 6a ed bf
       0.336848 -0.919233
0004c0 af d0 07 cb d8 50 ea 3f 3a fe b0 4a 8e e0 93 bf
       0.822369 -0.0194113
0004d0 96 e7 c1 dd 59 bb bd 3f 75 1f 80 d4 26 4e d6 bf
       0.11614 -0.34852
0004e0 a0 17 ee 5c 18 e9 d5 bf 38 d7 30 43 e3 09 ec 3f
       -0.342352 0.876207
0004f0 e6 af 90 b9 32 a8 cc 3f 6d 58 53 59 14 76 e3 3f
       0.223883 0.608164
000500 a8 c3 af fd 09 d3 a8 bf 42 92 fe 03 51 9c 90 bf
       -0.0484851 -0.0162213
000510 80 76 d1 a1 1d 81 89 bf 73 bb 97 fb e4 28 e2 3f
       -0.0124533 0.567492
000520 46 11 ad 70 26 01 b9 3f e4 f3 8a a7 1e 69 dd 3f
       0.0976738 0.459541
000530 92 79 e4 0f 06 9e c3 3f 15 1e 34 bb ee ad d3 bf
       0.15326 -0.307491
000540 64 eb 19 c2 31 cb d0 3f 1d 3d 7e 6f d3 1f fc 3f
       0.262402 1.75777
000550 71 d3 55 70 2e b4 91 3f 93 ac c3 d1 55 ba d0 3f
       0.0172889 0.261373
000560 5e 10 91 9a 76 31 c9 bf bf 2c 48 8e cf bf ac 3f
       -0.196822 0.0561509
000570 d5 ec 81 56 60 c8 b0 3f 3e 75 ac 52 7a a6 dc 3f
       0.0655575 0.447661
000580 14 5e 82 53 1f 48 c2 bf 0e 9f 74 22 c1 54 cf bf
       -0.142826 -0.244774
000590 f1 6a 14 ed 85 5d b1 3f 5b ab 87 79 a0 5f a1 bf
       0.0678333 -0.0339327
0005a0 c6 de 8b 2f da 63 e3 bf 1c d3 13 96 78 40 db 3f
       -0.605939 0.42581
0005b0 fe d1 37 69 1a 94 ed 3f 5a 8a 9a 9e 66 37 99 bf
       0.924329 -0.0246254
0005c0 32 72 16 f6 b4 43 f1 bf 69 c5 37 14 3e 5b d8 bf
       -1.07903 -0.380569
0005d0 23 94 08 9e 8c 3b af 3f e6 02 97 c7 9a 91 e6 3f
       0.0610012 0.705274
0005e0 e9 18 46 30 c4 a0 a6 bf 21 90 4b 1c 79 20 d8 3f
       -0.0441953 0.376982
0005f0 d5 04 51 f7 01 48 e1 3f 76 e0 9c 11 a5 bd f1 3f
       0.54004 1.1088
000600 97 9d 8f 7c 6f 1d 9d bf da 3a 38 d8 9b 18 c6 bf
       -0.0284326 -0.172626
000610 dd eb a4 be 2c 6d e9 bf 7d 19 31 58 16 f1 aa 3f
       -0.794577 0.0526206
000620 bb 2b 37 28 cc 41 71 3f 0d 89 7b 2c 7d 68 f5 3f
       0.00421314 1.33801
000630 58 37 de 1d 19 2b ea 3f 6c b2 46 3d 44 a3 cb bf
       0.817761 -0.21592
000640 69 5c 0f 91 60 cb 77 bf 4e 35 69 09 e8 74 97 3f
       -0.00580919 0.0229069
000650 60 8f 89 94 66 f3 88 3f 0e 9b 6d 13 93 dc a6 3f
       0.012183 0.0446516
000660 a5 a3 1c cc 26 c0 98 3f 2b 4a 92 b2 08 6f 46 3f
       0.0241705 0.000684623
000670 c3 ec 0a 22 f7 19 9c 3f a8 45 33 05 21 0f 9b bf
       0.0274428 -0.0264249
000680 5d 34 64 3c 4a 25 6c 3f db bd 81 6e d4 af 81 bf
       0.00343575 -0.00863615
000690 3f 5f 69 cf 1b dd 87 3f 56 1d 83 5f 34 75 80 bf
       0.0116522 -0.00803605
0006a0 42 e6 44 67 0b 9b 20 3f e6 ac f4 7f b3 39 93 3f
       0.000126691 0.0187748
0006b0 14 b1 a9 6f 70 54 74 3f da 64 9e a6 e0 3a a8 3f
       0.00496334 0.0473242
0006c0 05 04 29 67 de 60 8e bf 03 a5 b2 72 79 bd 95 3f
       -0.0148332 0.0212306
0006d0 ab 4f 79 41 32 87 2e 3f 31 f4 e3 8a e6 5c 85 3f
       0.000232911 0.0104311
0006e0 e1 b2 af e1 8e dc 9f bf 44 06 87 51 ef 2d 55 3f
       -0.0311148 0.00129269
0006f0 01 36 bd 17 a1 d0 69 3f 2e b9 40 38 55 ad a3 3f
       0.00315124 0.0384318
000700 cf bc 1c 76 df 31 94 bf 76 f5 cf 78 c7 ce 80 3f
       -0.0197215 0.0082069
000710 12 35 2c a1 16 de 90 bf ad bc 89 c6 7f 26 a3 3f
       -0.0164722 0.0374031
000720 99 77 e6 2f 3e 16 a0 bf bc e0 1d 2a d7 25 94 bf
       -0.0314197 -0.0196756
000730 48 d4 55 cb e7 26 a7 bf b5 0f c3 58 f0 ec 9c bf
       -0.0452187 -0.0282476
000740 52 a5 1c 82 99 a5 a7 bf 61 2f b9 f6 aa 3a a8 3f
       -0.0461853 0.0473226
000750 8b 33 86 39 41 9b 94 3f 32 52 94 f0 29 a5 a4 bf
       0.0201235 -0.0403226
000760 72 37 e3 8f fd 87 a7 bf 47 b4 78 0c ea b6 8f bf
       -0.0459594 -0.0154856
000770 2d c2 5e 72 ed 55 65 bf f3 d6 af 2a b1 21 a2 3f
       -0.00260445 0.0354133
000780 81 9e bc 7e 77 e1 a5 bf 68 1f 2b f8 6d 88 61 3f
       -0.0427358 0.00214025
000790 08 64 a7 06 37 a5 7e 3f ba dc 60 a8 c3 0a a3 3f
       0.00748178 0.0371915
0007a0 6f 51 c1 3c bf 83 8a 3f 6b 8e 62 6f 18 bb a7 3f
       0.0129466 0.0463493
0007b0 4d 85 78 24 5e 9e 96 3f a2 1a 40 09 7d fa 59 bf
       0.0220885 -0.0015856
0007c0 6c 81 98 df c4 eb 85 bf af 84 a4 05 1e ce 92 bf
       -0.0107036 -0.0183644
0007d0 4f 40 13 61 c3 d3 ef 3f d3 f7 1a 82 e3 32 df 3f
       0.9946 0.487481
0007e0 56 63 09 6b 63 ec e1 bf 84 47 1b 47 ac c5 c7 3f
       -0.560106 0.18572
0007f0 d0 d0 3f c1 c5 8a dd 3f 1f d6 1b b5 c2 f4 e9 bf
       0.461595 -0.811128
