examples/submissions/2021_ATVA/acas_onnx/ACAS_XU_4_3.onnx (onnx, 108361 bytes, 14 tensors)

FC0_bias f8 [50]
0	0xbfd3eaaf35e310dc	-0.311199
1	0x3fd180baa582dbe8	0.273482
2	0x3fdf63c74fb549f9	0.490465
3	0x3fbae2328f9f44d4	0.105014
4	0xbfde8665e02ea961	-0.476953
5	0x3fd4ac03ff69014b	0.322999
6	0x3fce5e892253111f	0.23726
7	0x3fcabd44998d0460	0.208901
8	0x3fa2e3b46fdeb52d	0.0368935
9	0xbfeb675bc44bf4cb	-0.856367
10	0x3faa497c4ad439a9	0.0513419
11	0xbfbf139c94f69caa	-0.121393
12	0xbfd8d7518b0d0edc	-0.388142
13	0xbf8bef141f71b54f	-0.0136396
14	0xbfb9b56323bbc6eb	-0.100424
15	0xbfdba28fe260b2c8	-0.431797
16	0xbfcfe8576cce5f74	-0.249278
17	0xbfc0c4588a04d120	-0.130992
18	0xbfda1f81a5870da6	-0.408173
19	0xbfcee62131a8ef78	-0.241398
20	0xbfd396f6512a94ff	-0.306089
21	0x3fb918090b417ca2	0.098023
22	0x3fa85704c9935c69	0.0475389
23	0x3fd0465e89225311	0.254295
24	0xbfe1c62c343b70ef	-0.555441
25	0xbfd23b8a19c9d5a2	-0.284884
26	0x3fbdce5b4245f5ae	0.11643
27	0x3fd0fa00e27e0efa	0.265259
28	0xbfc2a159817b95a3	-0.145549
29	0xbfe64efed634549b	-0.697143
30	0x3fc2bf11f926c7eb	0.146456
31	0x3fa134c0d1ecc73e	0.0336056
32	0x3f9a882d608b5b12	0.0259101
33	0xbfe77d73c9257860	-0.734064
34	0xbfc5fd47bedb7282	-0.171792
35	0x3fa16af393e0f2f4	0.0340191
36	0xbfe406dd69d30271	-0.625838
37	0xbfc0a7ac81d3aa37	-0.130117
38	0xbfdd7e52157689ca	-0.460835
39	0xbfd2a7a41e57d9dc	-0.291482
40	0x3fd3525892684cf0	0.301901
41	0xbfe0a83b1d0c8041	-0.520536
42	0xbfde32d6ece13f4b	-0.471853
43	0x3fd5a24cc6822ff1	0.338031
44	0xbfe72d85dfa871a4	-0.724307
45	0x3fbe2467be553ac5	0.117743
46	0xbfcc2c343b70ef56	-0.220099
47	0x3f961b73f9cce018	0.0215891
48	0xbfb46153d7ee68ff	-0.0796101
49	0xbfcbbe5d9e40c847	-0.216747

FC0_weight f8 [5, 50]
0	0xbf9f0a3004aa89ac	-0.0303123
1	0x3f87555ed725ec23	0.0113933
2	0xbf8572f91be03057	-0.0104732
3	0xbfa4dda7e66376c8	-0.0407536
4	0xc000983a53b8e4b8	-2.07433
5	0x3ff08a5ce5b4245f	1.03378
6	0x3f9bc0350ed585d9	0.0271004
7	0x3f5fb2ad91c915b3	0.00193469
8	0x3fc15097c80841ee	0.135272
9	0x3fa4e9e93d45dbac	0.0408471
10	0x3fc79f6ec5b078d9	0.184553
11	0xbfeb0a41a261bf38	-0.845002
12	0xbf7829a23ad2e4bf	-0.00589908
13	0xbf74214a279671f2	-0.00491456
14	0x3fd8be61cffeb075	0.38662
15	0x3f64bec928fe50fe	0.00253238
16	0xbff8b0dd82fd75e2	-1.54318
17	0xbf906db50f40e5a3	-0.0160435
18	0xbfb376c7dd79c33a	-0.0760312
19	0xbfb1fe6bab49c546	-0.0702884
20	0xbfe8e71cda2b5a21	-0.778212
21	0x3fa1d29711291d30	0.0348098
22	0x3f8d925a0a379167	0.0144393
23	0x3f6b2864f8fe0326	0.00331516
24	0x3fbba13c254a3c64	0.107929
25	0xbffc5fc3b4f61672	-1.77338
26	0x3fd0c98a222d5172	0.262301
27	0xbf901f1dd278de38	-0.0157437
28	0xbf7c987480857677	-0.00698133
29	0x3fa98bfea663ac78	0.0498962
30	0x3faf06c43f5f9160	0.0605985
31	0xbfa0292b727491a2	-0.0315641
32	0x3faec90166318d41	0.0601273
33	0xbfa4dbf0563ed0f6	-0.0407405
34	0xbfe990c6f7a0b5ee	-0.798923
35	0x3fa2b44bcc872cb0	0.0365318
36	0x3fbfa67a52ac753e	0.123634
37	0xbfb14573a797891e	-0.067466
38	0x3fbcfadf2ecf2064	0.113203
39	0xbfeb103a7546d3fa	-0.845731
40	0x3fa899b8a34a1c84	0.0480478
41	0xbff87aacd9e83e42	-1.52995
42	0x3f7c38c87376c52e	0.00689009
43	0x3fef2d6ece13f4aa	0.974296
44	0xbfb37d7576a4a20b	-0.0761331
45	0x3f4195609c44662e	0.000536606
46	0xbff01704ff43419e	-1.00562
47	0xbfa3fb84703ca8fe	-0.0390283
48	0xbfb2346f73556232	-0.0711126
49	0xbf9052e3d2a2cfa3	-0.0159412
50	0xc0023b59ddc1e796	-2.27898
51	0xbfb6395662e32427	-0.0868124
52	0xbfa68e77fd679f4c	-0.0440557
53	0xbfa1f36c73c6a13a	-0.0350603
54	0xbf820d2b36ba7c3d	-0.00881418
55	0x3f642def7c7a2408	0.00246331
56	0xbfe29d6adf71eaff	-0.581716
57	0xbf68d3b1178f93b1	-0.00303063
58	0x4005f227d028a1e0	2.74324
59	0xbfb6c2bbd1d2c60b	-0.0889089
60	0xc004eab8a5ce5b42	-2.61461
61	0x3fdc742dcf4623d1	0.444591
62	0x3fc8bd987c6327ee	0.193286
63	0xbf50f0f3c88f2577	-0.00103401
64	0xbfcf1dc50ce4ead1	-0.243096
65	0x3f746c18570eda8e	0.0049859
66	0x3fb96738f43d541e	0.0992313
67	0xbfdd27dcbddb9842	-0.455558
68	0x3fcdb7a5f41aef70	0.232167
69	0xbfe1d938151a4378	-0.557766
70	0x3fd69e6256366d7a	0.353417
71	0xbfdb96bb98c7e282	-0.431075
72	0x3fc15a5b9628cbd1	0.13557
73	0xbfe731ca7d6733ec	-0.724828
74	0xbff556e04c059210	-1.33371
75	0xbfc2d30f062d40ab	-0.147066
76	0xc002983a53b8e4b8	-2.32433
77	0xbfc473a365cb35f4	-0.159779
78	0xbfe9b845564b6630	-0.803744
79	0xbfd1795b35b0bbf5	-0.273032
80	0x3fd98c08b75ea67f	0.399172
81	0x3fd595bbbe878fac	0.337264
82	0x3fe7dd249e44fa05	0.745745
83	0x3f9ee1d140cfd3e8	0.0301583
84	0xbfd0a6c5d206c871	-0.260179
85	0x3fa2c852ea889f76	0.0366846
86	0xbf803d389aa63407	-0.00792927
87	0x3feea5fa658c4bd3	0.957761
88	0x3ffbc947064ece9a	1.73664
89	0xbfd9cc25072085b2	-0.403085
90	0xbfe6599aa60913a5	-0.698438
91	0xbf95fba7abab1415	-0.0214678
92	0xbfa3876336303db5	-0.0381423
93	0xbf53dd827c9c88b7	-0.00121248
94	0xbfc31ae2da554b8c	-0.149258
95	0xbfb46990bd520586	-0.0797358
96	0xbfcbaf7d30ad46f6	-0.216293
97	0xbfddfe08aefb2aae	-0.46863
98	0x3fdab024f6598e11	0.417001
99	0xbf9c2efd438d1d8a	-0.027523
100	0x400242602c9081c3	2.28241
101	0x3fb6d0f2cc3ad696	0.0891258
102	0x3fa5588fe40e31f2	0.0416913
103	0xbfe562ef4e0114d3	-0.668327
104	0x3f7c623655fd6297	0.0069296
105	0xbf8f8a7462a86bc4	-0.0154008
106	0x3ff10bc169c23b79	1.06537
107	0x3fa1e8b058220005	0.0349784
108	0xbfc65b20b8066c2b	-0.174656
109	0xbfa328d8665e02eb	-0.037421
110	0x3fb74deea05c2b7a	0.0910329
111	0xbfd44794ea077037	-0.316869
112	0xbfc30667f90d9d77	-0.148633
113	0xbf6ade022950057c	-0.00327969
114	0x3fd4120e1f7d73c9	0.313602
115	0x3fa62e7203529ad8	0.0433231
116	0xbfb822a97833ee44	-0.0942789
117	0x3fc7ae5ffa3b9ae1	0.185009
118	0xbfd014488c60cbf3	-0.251238
119	0x3fdced1394317acc	0.45197
120	0xbfbba0f9096bb98c	-0.107925
121	0xbfcf11947cfa26a2	-0.242724
122	0xbfb927136a400fbb	-0.0982525
123	0x3fe0276534373f31	0.504809
124	0x3ff6f822bbecaab9	1.43558
125	0x3fbb1960fa15db34	0.105856
126	0x3ff905bc01a36e2f	1.5639
127	0x3fca04f2ae07e5a8	0.203276
128	0xbfedac1094a2b9d4	-0.927254
129	0xbfc13c9abb01c92e	-0.134662
130	0xc000d9652bd3c361	-2.10615
131	0xbfd3454de7ea5f85	-0.301105
132	0x3febd082cf52b90a	0.869203
133	0x3f9e4e12b28a2b68	0.0295947
134	0xbfdbd1bb4916ca47	-0.434676
135	0xbfd98e9f6a93f291	-0.39933
136	0x3fd20b8066c2acb8	0.281952
137	0x3fe9e5ecc3e3193f	0.809317
138	0xbff5dec80c73abc9	-1.36689
139	0xbfccb81f969e3c97	-0.224369
140	0x3fe51085f4a1272d	0.658267
141	0xbf82f876c9b5ec0b	-0.00926297
142	0x3fa56c00035afe53	0.0418396
143	0xbf1f8bf2a3315925	-0.000120341
144	0x3fa448beb5b2d4d4	0.0396175
145	0xbfef3f141205bc02	-0.97645
146	0x3ff03aa79bbadc0a	1.01432
147	0x3fdeb82c2bd7f51f	0.479991
148	0x3fc56798958d9b5f	0.167224
149	0x3fa0144383e34eef	0.0314046
150	0xbfce7f23cc8de2ac	-0.238255
151	0x3fe011ab8e8ea39c	0.502157
152	0x3ff0669057d1782d	1.02504
153	0x3fc1397dd00f776c	0.134567
154	0x3f8f29406b2a1a86	0.0152154
155	0x3fb387b56b873797	0.0762895
156	0x3fd9a03c4b09e98e	0.400405
157	0x3fea0abd5dc40075	0.813811
158	0x3fb8c073f8f62083	0.0966866
159	0xbfe66c95bff04578	-0.700755
160	0x3fa20d66f0cfe154	0.0352585
161	0x3fbbc9abb01c92de	0.108546
162	0xbffbe12839042d8c	-1.74247
163	0xbf5dff2437edad17	-0.00183085
164	0x3fd9e7a743a647fe	0.404764
165	0xbff4ec6bce8533b1	-1.30772
166	0x3f984f59da66e943	0.0237402
167	0x3fdb0739b024f65a	0.422316
168	0xbfc44039abf33871	-0.15821
169	0xbfd07dae81882adc	-0.257671
170	0xbfdc7f562174c4ce	-0.445272
171	0xbfcb51a437824d4d	-0.213429
172	0xbfe4c2480e8c8abd	-0.648716
173	0x3fabe959cb4d70cc	0.0545147
174	0xbfbd35c9e6687f45	-0.114102
175	0x3f8e8dbf70c3b77a	0.0149188
176	0x3fb77a67a52ac754	0.0917115
177	0x3faf3f4c4629affd	0.0610298
178	0x3fe246dc5d638866	0.57115
179	0xbf9e70ad1145a2a2	-0.0297267
180	0x3fb09770ca6d76fc	0.0648108
181	0x3fd2c8323358f2e0	0.293469
182	0x3fbbd1bb4916ca47	0.108669
183	0xbfe4544bb1af3a15	-0.63529
184	0x3fc1e47991bc5586	0.139785
185	0x3fd13a71151611ba	0.269192
186	0xbfdab862b27cbf6e	-0.417504
187	0x3fd99185cee17a03	0.399507
188	0xbf5785627ffce56e	-0.00143561
189	0xbfdc78a2a90cd424	-0.444863
190	0xbfc224d4cb9ecf64	-0.141749
191	0xbfc45ef62f9ca5be	-0.159148
192	0xbfe31897a67a52ac	-0.596752
193	0xbfc1159c49774257	-0.133472
194	0xbff340053e2d6239	-1.20313
195	0x3fb62d1bc1fd65f2	0.0866258
196	0x3f9a2ccb3a2595bc	0.0255615
197	0xbfe7ff47735c182f	-0.749912
198	0xbfd85f84cad57bc8	-0.38083
199	0xbfe5bc89f40a2878	-0.679265
200	0x3fdd9d6f112fd32c	0.462734
201	0x3fed22b9d3cbc48f	0.910489
202	0xbfe54abe6a337a81	-0.665374
203	0xbfd0d49d7ba6698c	-0.262977
204	0xbf95314e56a52843	-0.0206959
205	0xbfb9e7d9988d2a20	-0.101194
206	0xbfe4343b70ef5665	-0.631376
207	0xbfe83abc947064ed	-0.75717
208	0xbfb3ce746cb966be	-0.077369
209	0xbff43549f94855da	-1.26301
210	0xbfbdfc2a8869c66d	-0.117129
211	0xbfc2e0b912dba4d7	-0.147483
212	0x3febfdbb16c1e365	0.874723
213	0x3f355d414612d63e	0.000325993
214	0xbff6a79bbadc0981	-1.41592
215	0xbfd6945f9df548ed	-0.352806
216	0xbf92199425bc522b	-0.0176757
217	0xbff115aaf78feef6	-1.06779
218	0xbff7e7381d7dbf48	-1.49395
219	0xbffc59945b6c3761	-1.77187
220	0xbff163736cdf266c	-1.08678
221	0x3fc042070b8cfbfc	0.127015
222	0x3fe37cce1c58255b	0.608985
223	0x3fabb32dbf55ebc5	0.0541014
224	0x3fcd7b5286b59147	0.230326
225	0xbf9f2c5f039b95f3	-0.0304427
226	0xbfc82c343b70ef56	-0.188849
227	0xbff53b6ed677707a	-1.32701
228	0xbfa48aa285d165b9	-0.0401202
229	0xbffef0ed3d859c8d	-1.93382
230	0x3fbf5653c9abb01d	0.122411
231	0x3fdcc7a7c9de0503	0.449686
232	0xbfa8106c5ecdebb1	-0.0470003
233	0xbff576ddaceee0f4	-1.34152
234	0x3fa2f325262a3634	0.0370113
235	0xbfe6ef8ceb356da0	-0.716742
236	0xbff63089a0275254	-1.38685
237	0xbfd06a1e81cb46bb	-0.256477
238	0x3fcf116228134480	0.242718
239	0x3fd08f1d3ed527e5	0.258735
240	0xbf931267e190a930	-0.0186249
241	0xbfd6835158b827fa	-0.351765
242	0xbff8b6c3760bf5d8	-1.54462
243	0x3fc56b00ffda4053	0.167328
244	0xbfe4c8f10a99b6f6	-0.649529
245	0x3f88cb4aec8d5c74	0.0121065
246	0x3fd22efd438d1d8a	0.284118
247	0xbfb5441a0b4400e1	-0.0830704
248	0x3fc403686a4ca4f4	0.156354
249	0xbffb921ab4b72c52	-1.72317

FC1_bias f8 [50]
0	0xbfd51cfbb949624a	-0.329894
1	0xbfd9e29b6b2af145	-0.404456
2	0xbf97d30ad46f587d	-0.023266
3	0xbfe7baa1511dffc5	-0.741532
4	0xbfd848c7192ea52f	-0.379442
5	0x3fcff19d66adb403	0.249561
6	0xbfae976866f1a6a1	-0.0597489
7	0x3ff61b5c7cd898b3	1.38168
8	0x3ffbc41dd1a21ea3	1.73538
9	0xbfd2b9b66f9335d2	-0.292585
10	0xbfe2798b71b8aa00	-0.577337
11	0xbfc955ef1fddebd9	-0.197935
12	0xbfb499eaf830fea6	-0.0804736
13	0xbff1a1dfb9389b52	-1.10202
14	0xbf7eca402a927ac1	-0.0075171
15	0xbfc8a172abef06b3	-0.192427
16	0xbfa68fcae3be80da	-0.0440658
17	0xbff2b8e4b87bdcf0	-1.17014
18	0x3fc011ec918e325d	0.125547
19	0xbfdf38476f2a5a47	-0.48781
20	0xbfd23fcc9ea9a3d3	-0.285144
21	0xbf849b7d9f680fb4	-0.0100622
22	0x3fc41cb46bacf744	0.157126
23	0xbff300f12c27a637	-1.18773
24	0x3fe035bd512ec6bd	0.50656
25	0x3fe15d701d9f4d38	0.542656
26	0xbfe6f7f27fe4bcae	-0.717767
27	0xbf8eb6899468d831	-0.0149966
28	0x3feb3a0407cc7d1c	0.850832
29	0x3ff615ca6ca03c4b	1.38032
30	0xbfe14955b4677b39	-0.540202
31	0x3fe0103ea704bc27	0.501983
32	0xbfda89c1b54195cd	-0.414658
33	0xbfd93343fa2ad3e9	-0.393754
34	0x3fe32856605ee569	0.598674
35	0x3fd9c0b9991361dd	0.402388
36	0xbff02fec56d5cfab	-1.0117
37	0x3fb3c4f20cf83607	0.0772239
38	0xbfd795a6c5d206c8	-0.368509
39	0xbfc79a0f0a5efe93	-0.184389
40	0xbf84bdac9e591bfb	-0.0101274
41	0xbff156cb5350092d	-1.08369
42	0xbff3dc9c4da9003f	-1.24136
43	0x3fe435f80991793a	0.631588
44	0xbf91c25d074213a1	-0.017343
45	0xbfe48fa58f7121ab	-0.642535
46	0xbfb1bac1318e1785	-0.0692559
47	0x3fd466559f6ec5b0	0.318746
48	0xbfc0ffc115df6556	-0.132805
49	0xbf9967d8566dcadf	-0.0248102

FC1_weight f8 [50, 50]
0	0x3f6f77ea724f27db	0.00384136
1	0x3fd2e820e6299525	0.295418
2	0xbf84c90d24abb0f3	-0.0101491
3	0x3fd249949e8815e4	0.285741
4	0xbfad5f6e24a0c939	-0.0573687
5	0xbfa4ffccd4598908	-0.0410141
6	0x3fb5a9ee7b733de5	0.0846242
7	0xbfe416fa82e87d2c	-0.627805
8	0xbfecae7b3d8e0008	-0.896299
9	0xbfea2dcd2d44dca9	-0.818091
10	0x3fad4375a0960d1d	0.0571553
11	0xbfe2c5974e65bea1	-0.58662
12	0x3fbd8f4f93bc0a07	0.115468
13	0x3fd5027525460aa6	0.328275
14	0xbfa6c3fc43b2dd37	-0.044464
15	0xbfd1660a2014727e	-0.271853
16	0xbfed950331e3a7db	-0.92444
17	0x3fefa4f00ef1348b	0.988884
18	0x3fd8ede54b48d3ae	0.38952
19	0xbfc5b1e9f2778141	-0.169492
20	0x3fb9968f231e123a	0.0999536
21	0x3fa45e983bcb8829	0.0397842
22	0x3f9d820bde5a93ca	0.0288164
23	0xbfd5446f9b994e1a	-0.332302
24	0x3fb57b6f0c2755af	0.0839147
25	0xbfeec679cc74b839	-0.961728
26	0x3febe91c8eabffce	0.872206
27	0x3f918aeb80ecfa6a	0.0171315
28	0xbfd6f97aaac1094a	-0.358977
29	0xbffd174e65bea0ba	-1.81819
30	0x3fc3480a5accd530	0.150636
31	0xbff2130be0ded289	-1.12965
32	0xbfbe5907d912556d	-0.118546
33	0xbfc6a3e7d135115a	-0.176877
34	0xbfa91a005c4651f4	-0.0490265
35	0x3fd57e5a78f25a25	0.335837
36	0x3fe5d5ffe6d58c8f	0.682373
37	0xbfdb3cff64cf8d71	-0.425598
38	0xbfa99b72b7ad80d7	-0.0500141
39	0x3fe7054046412cf1	0.719391
40	0xbf705e1ec43b58c7	-0.00399601
41	0xbfe89e0c5a8155d6	-0.769293
42	0xbfd0cf355cd91eeb	-0.262647
43	0xbfe35fefbf401c50	-0.605461
44	0xbf9ec7c957cd466f	-0.030059
45	0xbfdf33acd5b6805a	-0.487529
46	0x3fbbcd24e160d888	0.108599
47	0xbfd198fa376922d9	-0.274962
48	0x3febb851eb851eb8	0.86625
49	0xbfaad9711ffdcc49	-0.0524402
50	0xbfddc1a47a9e2bd0	-0.464944
51	0xbfdc998d045fe111	-0.446872
52	0xbf857db8928324e3	-0.0104937
53	0x3fc838d1d8a54824	0.189234
54	0xbfe5760bf5d78812	-0.67066
55	0x3fe0fc08fa7a8501	0.530766
56	0xbfbd0b417ca2120e	-0.113453
57	0xbfd5653005814941	-0.334301
58	0x3fc8c5197a24894c	0.193515
59	0x3fb3417291171419	0.0752174
60	0x3fb015966a3a307d	0.0628294
61	0x3fc413d31b9b66f9	0.156855
62	0xbfa7091984358446	-0.0449913
63	0xbfe36d4e4c942d49	-0.607093
64	0x3f8f0563ed0f6274	0.015147
65	0xbfd181ecd4aa10e0	-0.273555
66	0x3fcd6f544bb1af3a	0.22996
67	0x3fd78605681ecd4b	0.367555
68	0xbfb71dd7815bb532	-0.0902991
69	0xbffeaf1a9fbe76c9	-1.91775
70	0xbfd645996744b2b7	-0.347998
71	0xbf95e4606748e475	-0.021379
72	0x3f9a096e3dcb3caa	0.0254266
73	0xbfbc574b40703298	-0.110707
74	0x3fd053868fd199bb	0.255098
75	0x3fe3e833c60029f1	0.622095
76	0xbfd8136a400fba88	-0.376185
77	0x3f877c7b7ba1610e	0.0114679
78	0xbfe5bb8e4b87bdcf	-0.679145
79	0x3fed58a32f44912a	0.91707
80	0xbfe9bd987c6327ee	-0.804394
81	0x3fa86b44f2785800	0.0476934
82	0x3fe0d2ed783dff3f	0.525748
83	0xc0085c52e72da123	-3.04508
84	0x3fae7f2f8b08065f	0.0595641
85	0xbfdb2e6ea8544780	-0.424709
86	0xbfdf0563ed0f6274	-0.484704
87	0x3fdb492ff4ba51a0	0.426342
88	0xbfe769856a37ac3f	-0.731631
89	0x3fef7d73c9257860	0.984064
90	0xbf75f80183e3a4d6	-0.00536347
91	0xbfd47ef9db22d0e5	-0.32025
92	0x3feb818e757928e1	0.859565
93	0xbfec8dfbd6a593a3	-0.892332
94	0xbfa1c3c0b49095e5	-0.0346966
95	0x3ff0fe3d1cc100e7	1.06207
96	0xbfc2a2a90cd423d9	-0.145589
97	0x3fd87e45803cd142	0.382707
98	0xbfcc009f623076c0	-0.218769
99	0x3f9b0e3623a87bb5	0.0264214
100	0x3fe9e0e51d25aab4	0.808703
101	0xbffcab8a5ce5b424	-1.79188
102	0x3f838522bf1cb5ee	0.00953128
103	0xbfd300ef1348b220	-0.296932
104	0x3feb673a365cb35f	0.856351
105	0xbfa863f7f71d026f	-0.0476377
106	0x3f95aed8c5ff5332	0.0211748
107	0xbfe18049667b5f1c	-0.54691
108	0xbfda4dc22ab25b31	-0.410996
109	0xbfc9ad538ac18f82	-0.200602
110	0xbfe76c204f2ae07e	-0.731949
111	0xbfdc158b827fa1a1	-0.438815
112	0xbff0cab606b7aa26	-1.04949
113	0xbfdca8f7db6e5040	-0.447813
114	0xbfa1e8c7d516476a	-0.0349791
115	0xbfee4725c3dee782	-0.946185
116	0xbfdb8c692f6e8295	-0.430445
117	0x3fe6f59ee88df373	0.717483
118	0x3fde317efe0ce0b9	0.471771
119	0x3ffbe9d7342edbb6	1.74459
120	0x3fd75f5f0b28522f	0.365196
121	0x3f98ef05dcb8d31b	0.0243493
122	0x3fd4cf0307f23cc9	0.325135
123	0x3fe26fe718a86d72	0.57616
124	0x3fd1f487fcb923a3	0.28055
125	0x3fd271b4784230fd	0.28819
126	0x3fb5dbe21385eec2	0.0853864
127	0xbf81299cb17c0e6e	-0.00838015
128	0x3fc57542a23bff8b	0.167641
129	0xbfd4d8e864020818	-0.325739
130	0x3fd23f63c31df762	0.285119
131	0xbfd3b93ccd0fe8ab	-0.308181
132	0xbfca1f4b1ee24357	-0.20408
133	0xbfe40bb906466b1e	-0.626431
134	0xbfd1f9591cd1c7de	-0.280844
135	0xbf85ab1267e190a9	-0.0105802
136	0x3fd017e34b945309	0.251458
137	0xbfc0bbba55d1c3ad	-0.130729
138	0x3fd999999999999a	0.4
139	0xbff92209aaa3ad19	-1.57081
140	0xbfa7bf7fdd2ff15f	-0.0463829
141	0x3ff19057d1782d38	1.09774
142	0xbfe9bb906466b1e6	-0.804146
143	0x3fe24c165907d912	0.571788
144	0x3f77b3d3819ccdac	0.00578673
145	0xbfd9ccfaeff5c6c1	-0.403136
146	0x3f953fc6bf6c91fa	0.0207511
147	0xbfb2b55d447eb512	-0.0730799
148	0xbfa7b4de997deae7	-0.0463018
149	0xbf884322947f7e65	-0.0118468
150	0xbff37121ab4b72c5	-1.21512
151	0x3fe4f78feef5ec81	0.65522
152	0x3fa08ff83027e5f8	0.0323484
153	0x3fd4a0168b5cbff4	0.322271
154	0xbff82c8605681ecd	-1.51087
155	0x3ff321815a07b353	1.19568
156	0xbfc3f2fdb8fde2ef	-0.155853
157	0xbfe85e69ad42c3ca	-0.761525
158	0xbfec4998d045fe11	-0.883984
159	0x3fe558537e2c55c9	0.667032
160	0xbfbf365881a15550	-0.121923
161	0x3faa8b81a8e20bf9	0.0518456
162	0x3fddf1f57b41bfbe	0.467893
163	0x3fd402eec7c957cd	0.312679
164	0xbf9d75f626626a58	-0.0287703
165	0xbfd53476295208e1	-0.331327
166	0x3fdd44178705425f	0.457281
167	0xbfd969a91105e1c1	-0.397074
168	0x3fd3320d9945b6c3	0.29993
169	0xbfbb40c4156e264e	-0.106457
170	0xbfc4ada33bd9cae2	-0.161549
171	0xbfa8a4e01eb928ab	-0.0481329
172	0x3fe7ea7264a16a48	0.747369
173	0xbfd6e071c53f39d2	-0.357449
174	0x3fc1a2be0589acbd	0.137779
175	0xbff7bdee78183f92	-1.48387
176	0xbfc4b9a9da597d4a	-0.161916
177	0xbfa534b6c0f1cd37	-0.0414178
178	0x3fe830a2ca9ac365	0.755937
179	0x3fb0162a0df0838b	0.0628382
180	0x3fc32ccf6be37de9	0.149805
181	0xbfd4468cac4b4d05	-0.316806
182	0xbfcd641f644955b4	-0.229618
183	0x3fd007d0aed99cbf	0.250477
184	0x3fd88f4f93bc0a07	0.383747
185	0x3fcc3cc07aaef2c7	0.220604
186	0x3ff6397785729b28	1.38903
187	0x3fa69f13561e19c6	0.0441824
188	0x3fd17e5a78f25a25	0.273337
189	0xbfb1c882bb30c316	-0.0694658
190	0xbfa2159b72b7ad81	-0.0353211
191	0xbfcb58c08b75ea68	-0.213646
192	0xbfda0cc78e9f6a94	-0.40703
193	0xbfee95e5aff2a173	-0.955798
194	0x3f6656737f28aa18	0.00272677
195	0xbf96a6e32e3821af	-0.022121
196	0xbfc427e0ef99806f	-0.157467
197	0x3fefda858793dd98	0.995425
198	0x3fc60da1a93293d1	0.172291
199	0xbf9b511c52461df2	-0.0266766
200	0x3ff5edbb59ddc1e8	1.37054
201	0x3fea1df761cbccf3	0.816158
202	0xbf927491a254533e	-0.0180228
203	0x40177f8f4730403a	5.87457
204	0x3fed9116a8b8f14e	0.923961
205	0xbfa884bc92c2e5c3	-0.0478877
206	0x3fb00bf785073b5e	0.0626826
207	0x3fdf0bed740c4157	0.485103
208	0xbfd3d388a8b08dd2	-0.309786
209	0x3ffab5dcc63f1412	1.6694
210	0x40021a31a4bdba0a	2.26279
211	0xbfb6ae5d75fcdc5f	-0.0885981
212	0x400669d1f601797d	2.80167
213	0x3fdbb035bd512ec7	0.43263
214	0xbf365f1654c4ed1e	-0.000341361
215	0xbf6ad64fd85a7496	-0.00327602
216	0x3fd14f440af1cb8a	0.270463
217	0x3ff00663c74fb54a	1.00156
218	0x3f59dc9ffe8d8f1f	0.00157848
219	0x3fbe0ccff21b3aef	0.117383
220	0x3ff4853e2d6238da	1.28253
221	0x3fa37e5499b5484c	0.0380732
222	0xbfb20bb7c4270bde	-0.0704913
223	0x3ff1a21ea35935fc	1.10208
224	0xbfd5804102ff8ec1	-0.335953
225	0x3fed73f52fc2656b	0.920405
226	0x3fc766e008e9b38d	0.182827
227	0xbf9a7f221f0eb900	-0.0258756
228	0x40054d10f51ac9b0	2.66263
229	0xbf850275fc059f7c	-0.0102586
230	0xbfb1693c03bc4d23	-0.068012
231	0xbfad87a4a48f96e1	-0.0576755
232	0xbfb1d70d986ef72f	-0.0696877
233	0x4000eae7d566cf42	2.1147
234	0xbfdbb399f5dfeb8e	-0.432837
235	0x3fc0947064ece9a3	0.12953
236	0xbfd9862f5989df11	-0.398815
237	0x3fecb43fa2ad3e92	0.897003
238	0x3fd7b23571d1d474	0.370252
239	0xbfb0a4a8c154c986	-0.0650125
240	0x3f91e24ae353210f	0.0174648
241	0xbfef0bc7b45f17be	-0.970188
242	0x3fe5d81f10667f91	0.682632
243	0xbf9d8de53070e114	-0.0288616
244	0xbf93313be22e5de1	-0.0187425
245	0xbfeb25f84cad57bc	-0.848385
246	0xbf95b0c9610781d5	-0.0211822
247	0xbff0a5460aa64c30	-1.04035
248	0x3fdcc9e236c15d2d	0.449822
249	0x3f549c4443d1bbf5	0.00125796
250	0xc0068f0d844d013b	-2.81985
251	0x3fce6c00da1a9329	0.237671
252	0xbfb0676c1fe3cb16	-0.0640781
253	0xbfd5ab8a5ce5b424	-0.338595
254	0xbfc30c88a47ecfea	-0.14882
255	0x3fcc5fa658c4bd34	0.221669

FC2_bias f8 [50]
0	0xbffe7d955714b9cb	-1.90566
1	0xbfd430270f388228	-0.315439
2	0xbff0b59ddc1e7968	-1.04434
3	0xbff747b890d5a5b9	-1.45501
4	0x3fd06a055757d5aa	0.256471
5	0xbfc2ebaade657b85	-0.147817
6	0x3fd78472c0e7bc3c	0.367459
7	0xbfc34256bca5375d	-0.150462
8	0x3fe99f926c7eae5c	0.800729
9	0x3fe0598e10cf5b1d	0.510932
10	0xbfe7153dea465a57	-0.721343
11	0xbfd7eab367a0f909	-0.3737
12	0xbfd5da6a44417870	-0.341456
13	0xbfeabecaab8a5ce6	-0.83579
14	0xbfd6df6555c52e73	-0.357385
15	0xbfeec245f5ad96a7	-0.961215
16	0x3fb8a3b2214fdbe0	0.0962478
17	0xbfec2e6644d87725	-0.880664
18	0xbfe8f16f4384ba0f	-0.779472
19	0xbfda6dc5d6388659	-0.41295
20	0xbff34692f6e8294a	-1.20473
21	0x3faf1d31692e97c3	0.0607696
22	0xbfd25bdd76683c29	-0.286857
23	0xbfec772b4528283d	-0.889547
24	0x3fd9a4b5568e820e	0.400678
25	0x3ff6b760bf5d7881	1.41977
26	0xbfd370a808c8259e	-0.303751
27	0xbfda19dece571088	-0.407829
28	0xbfeb126634117f84	-0.845996
29	0xbfe8e1e0c5a8155d	-0.777573
30	0xbfd00e6f2e8c0486	-0.250881
31	0xbfea2c1f42bb6673	-0.817886
32	0xbfe933d29563a9f4	-0.787576
33	0x3ff011dbca9691a7	1.00436
34	0xc001a8e60807357e	-2.20747
35	0x3fc7beb18116ebd5	0.185507
36	0xbfe50d9513f8db49	-0.657908
37	0xbfe5a7bb2fec56d6	-0.676725
38	0x3fd691d14e3bcd36	0.35265
39	0x3fd12d2fe3f359ff	0.268383
40	0x3fe00d844d013a93	0.50165
41	0xbfd83504c48adeec	-0.378236
42	0xbfde12d77318fc50	-0.4699
43	0xbffc0e6afcce1c58	-1.75352
44	0xbfd2b28d8665e02f	-0.292148
45	0xbfd0cc532a497fa6	-0.262471
46	0xbffcd41743e963dc	-1.80178
47	0x3fd6629d8409e55c	0.349769
48	0xbfdf0aaeafab53d6	-0.485027
49	0xbff3b4cc25072086	-1.23164

FC2_weight f8 [50, 50]
0	0xbfc24c404a72ead9	-0.142952
1	0xbfbcf3a9b0681238	-0.113093
2	0x3fb4fa707406621a	0.0819464
3	0x3fcb9991361dc93f	0.215624
4	0xbfd297353b4b2fa9	-0.290479
5	0xbfd42873bc903ea7	-0.314969
6	0x3fd5926c7eae5bc8	0.337062
7	0xbfc5d199bb2788db	-0.170459
8	0x3fc48e4fb97bb731	0.160593
9	0xbfc1d909f1f14984	-0.139436
10	0xbfe288bda9435ac9	-0.579192
11	0x3fe4816f0068db8c	0.6408
12	0x3f5b218ec60100b1	0.00165595
13	0xbfe30e0653005815	-0.595462
14	0xbfacd29e9de558b5	-0.0562944
15	0x3fc876188b11409a	0.191104
16	0x3fdfa4c61d8622c4	0.494432
17	0x3fe9674080f98fa3	0.793854
18	0xbfd00cd855970b4a	-0.250784
19	0x3fde697aeddce7cd	0.475188
20	0x3fd8c4dec1c1d6d0	0.387016
21	0x3f929519d8185a6a	0.0181469
22	0x3fc82bcf91a32b13	0.188837
23	0x3fed19999999999a	0.909375
24	0xbfd09fdbd2fa0d78	-0.259757
25	0xbfc531ec0b567558	-0.165586
26	0x3fd5df0d413122b8	0.341739
27	0xbfa9db1f75e70cea	-0.0504999
28	0xbfcb275ee99a62ed	-0.212139
29	0x3ff0484b5dcc63f1	1.01765
30	0x3fad7e670e2c12ae	0.057605
31	0x3fd2a4723aafff37	0.291287
32	0x3fdddf47f993d534	0.466753
33	0x3feb3eb5b2d4d402	0.851405
34	0xbfc6fa376922d949	-0.179511
35	0x3ff3c6fbd273d5bb	1.23608
36	0x3f91fca3542d7ebe	0.0175653
37	0x3fc8d7a56de3326a	0.194081
38	0x3fc16f4384ba0e84	0.136208
39	0x3fb9ef954eb13dfb	0.101312
40	0x3fe174adbc664d3c	0.545493
41	0x3fce14163779e9d1	0.234988
42	0x3fe778d92fb19e73	0.733502
43	0x3fd37dfe32a0663c	0.304565
44	0xbfc5ff04577d9557	-0.171845
45	0xbfe7c7ae147ae148	-0.743125
46	0x3fc214940bbb1f25	0.141253
47	0x3feb132f87ad080b	0.846092
48	0x3fd6ed783dff3f10	0.358244
49	0x3f860624066f85ca	0.0107539
50	0x3fe73edd8b60f1b2	0.726424
51	0xbfe3daa4fca42aed	-0.62044
52	0x3fd3f0a5efe93187	0.311563
53	0xbf84bae543bc1773	-0.0101221
54	0xbfa2723c5d7e6058	-0.0360278
55	0xbfd58f42fe82517e	-0.336869
56	0xbff53b3a68b19a41	-1.32696
57	0xbfa643102008b404	-0.0434804
58	0xbfb36c035e5951ab	-0.0758669
59	0xbf99dcc2e415beae	-0.0252562
60	0xbfc568f8e7ddca4b	-0.167266
61	0x3fdf309c7ffde721	0.487342
62	0xbfee5d9e40c8472c	-0.948928
63	0xbfa4ea39c51dabe2	-0.0408495
64	0xbfca5918a009f623	-0.205844
65	0x3fc591148fd9fd37	0.16849
66	0x3fc49a671ef30a4e	0.160962
67	0x3fe4856c508b32cf	0.641287
68	0x3fe1f34d6a161e4f	0.56095
69	0x3fc5d6733ebbfd72	0.170607
70	0x3ff3b44e50c5eb31	1.23152
71	0x3fb04ebc25b59c2f	0.0637014
72	0xbf8c18b502ababeb	-0.013719
73	0x3fc3c254a3c64346	0.154368
74	0xbf96978699e294b5	-0.0220624
75	0x3fd2f92af9a8cdea	0.296458
76	0xbfb0f62def2693e8	-0.0662564
77	0xbfe25b0bbf50e347	-0.573614
78	0xbff1961e4f765fd9	-1.09915
79	0x3fc32af9a8cdea03	0.149749
80	0x3fde0780fdc1615f	0.469208
81	0xbfcabc05d52c16df	-0.208863
82	0xbfe1e297396d0918	-0.55891
83	0xbff82d8c2a454de8	-1.51112
84	0xbfcd221858bc59b8	-0.227603
85	0xbff153d859c8c932	-1.08297
86	0x3fc0b85a4f00ef13	0.130626
87	0xbfe24095f2452c5a	-0.570384
88	0x3f890a1a35356bf3	0.0122263
89	0x3fd3407cc7d1bb49	0.300811
90	0x3fc46bdf4c2b51bd	0.159542
91	0xbfb57200ce5c1906	-0.0837708
92	0x3fd62f37fbefd007	0.346632
93	0x3fb1c8f82bf62810	0.0694728
94	0x3fc92830a0b1bbcf	0.196539
95	0xbff0860fe47991bc	-1.03273
96	0x3feb73471f79420b	0.857822
97	0xbfe7c2f405f6ba06	-0.742548
98	0x3fe16b37867f0aa2	0.544338
99	0x3fdb13f077ccc038	0.423092
100	0x3f94c40b5d2b5442	0.0202791
101	0x3f250d1c3707170f	0.000160608
102	0xbfa58daf808bab9a	-0.0420966
103	0x3f9fbee8de7b4afa	0.0310017
104	0xbf99306d86155857	-0.0245988
105	0xbfa2221c8a7a41e5	-0.0354165
106	0x3f6e8c0c93365323	0.00372889
107	0x3fac3a6e90d75339	0.0551333
108	0xbf97b03ac5ceabca	-0.0231332
109	0xbf8162ae4b018612	-0.008489
110	0xbf948769156d4f8f	-0.0200478
111	0x3f8fe9fadafd1138	0.015583
112	0xbf956b36afbf75cc	-0.0209168
113	0x3f95953c3cc730ac	0.0210771
114	0xbf8b07eb86cc377c	-0.0131987
115	0xbf520174ca2c5e83	-0.00109898
116	0x3f967e33e2859bb6	0.0219658
117	0x3f928240b780346e	0.018075
118	0xbf8e406a535af0e7	-0.0147713
119	0x3fa12d849d891263	0.0335504
120	0xbf955b24e9c45458	-0.0208555
121	0xbf9018a43bb40b35	-0.015719
122	0x3fa61540d9e4e344	0.0431309
123	0xbf70b2f331e6570d	-0.00407691
124	0x3fa46335597e2097	0.0398194
125	0x3f99e075203d8d29	0.0252703
126	0xbfad1895f8fb2901	-0.0568282
127	0xbfaf625204af9229	-0.061297
128	0x3f8fee1f2cebf155	0.0155909
129	0xbfa87a113e15e545	-0.0478063
130	0x3f9015e39713ad5c	0.0157085
131	0xbf8615f96688cb15	-0.0107841
132	0xbfa5dded8680b821	-0.0427088
133	0xbfac6fef7c243dcd	-0.0555415
134	0xbf9725a906f4e6c7	-0.0226046
135	0xbf92721acf8f1eec	-0.0180134
136	0xbf92406dae59443f	-0.0178239
137	0xbfa478a024ce15a2	-0.0399828
138	0x3fa3df19d66adb40	0.0388115
139	0xbfa4c2f837b4a234	-0.04055
140	0xbf9c05128e77fd68	-0.0273631
141	0x3f951a0dc83f9f52	0.0206072
142	0x3f95a3a739954d04	0.0211321
143	0xbf8e8d7c54e534a3	-0.0149183
144	0xbfa89462f8f39c44	-0.0480071
145	0xbfaa65cf67b1c001	-0.051558
146	0x3f78b4e5248773d2	0.00603189
147	0xbf86c1e364bec67a	-0.011112
148	0xbf794c8a47413224	-0.00617651
149	0x3f9017f5c00b1d6a	0.0157164
150	0x3fb33ce48cdcf2b5	0.0751479
151	0xbfd6e0fc2eba27af	-0.357482
152	0x3fec08b75ea67e84	0.876064
153	0x3faa391d57ff9b56	0.051217
154	0x3f8229efbd929d26	0.00886905
155	0xbfbc15a07b352a84	-0.109705
156	0xbfb0fe4ca199425c	-0.0663803
157	0xbfd44eb13dfb0d52	-0.317303
158	0x3fac9c39870a4add	0.0558794
159	0x3fe38c0485a0be51	0.610842
160	0x3fad37fd9d4f30c0	0.0570678
161	0x3fde55c0fcb4f1e5	0.473984
162	0xbfc7b9628cbd1245	-0.185345
163	0x3facea14dc30171f	0.0564734
164	0xbf9d6bd7bf6f1638	-0.0287317
165	0x3fd75a708ede54b5	0.364895
166	0x3ffb84230fcf80dc	1.71976
167	0xbfb3d62cc7df2742	-0.0774868
168	0x3fc6f5a1016ce78a	0.179371
169	0x3fc58cb8e086bdf5	0.168357
170	0x3fc2014727dcbddc	0.140664
171	0x3fdc9e01de269164	0.447144
172	0x3fdf479d4d834092	0.488746
173	0xbfe6a8aa433508f6	-0.708089
174	0x3fc2f6b5d462c344	0.148154
175	0xbfc3e0ce0b912dba	-0.155298
176	0xbfc1afe1da7b0b39	-0.13818
177	0x3fe4f7574f722e1b	0.655193
178	0x3fd829b280f12c28	0.377545
179	0xbf887aa83cca8baa	-0.0119527
180	0x3fadff4920db41db	0.0585883
181	0xbfc480e065300581	-0.160183
182	0x3fb81e2c3af16d96	0.0942104
183	0x3fe4daf07bfe7e20	0.651726
184	0xbfd5ca5bd944aa54	-0.340476
185	0x3fc726b723ee1bd2	0.180869
186	0xbfd6e82949a56580	-0.35792
187	0x3fce79c4113c6866	0.238091
188	0x3fdeb302f72b4528	0.479676
189	0xbfb3cda10822e431	-0.0773564
190	0x3fc86d5065732160	0.190836
191	0x3fd0007dd4413554	0.25003
192	0xbfbfab7564302b41	-0.12371
193	0xbfc852f7f498c3b1	-0.190032
194	0x3f83eb8cd667ab35	0.00972662
195	0x3f9bb872a2b4cb4e	0.0270708
196	0x3fa62e24d6791df9	0.0433208
197	0x3fb5a59e8a9a2256	0.0845584
198	0xbfa64df47f993d53	-0.0435635
199	0x3fa11456cf19ae27	0.0333583
200	0xbfc7b6ed6777079e	-0.18527
201	0xbfe6aabcd78c4370	-0.708342
202	0x3fe1767d34df04de	0.545714
203	0x3fd95c5718eb8950	0.396261
204	0x3fc687a072d1aeb4	0.176014
205	0x3fbb748a159817b9	0.107247
206	0xbfeb7c7e6b3fe9fb	-0.858947
207	0xbfcb2d6ece13f4aa	-0.212324
208	0xbfd502eec7c957cd	-0.328304
209	0xc001a786c226809d	-2.2068
210	0xbfca2645e4e69f06	-0.204293
211	0x3fc26fc58ab92c06	0.144036
212	0x3f9214a68031e987	0.0176569
213	0x3fdab9a5a89b951c	0.417581
214	0x3fd876d117b5286b	0.382252
215	0x3fdb9fe86833c600	0.431635
216	0x3fbab7baecd07853	0.104366
217	0x3fdd37b8d3f1843c	0.456526
218	0x3fb625006a890ad6	0.0865021
219	0x3fe0f0739b024f66	0.529352
220	0xbfefc55219a847b2	-0.992837
221	0xbfb20bca389dd63f	-0.0704924
222	0xbf91cb5adcc56854	-0.0173773
223	0xbfd80ff540895d0b	-0.375974
224	0xbfe7cc5974e65bea	-0.743695
225	0x3f954b92a58991e5	0.0207961
226	0x3fc52dba4d6e47dc	0.165458
227	0xbfcac386d2ed783e	-0.209092
228	0xbfbf141205bc01a3	-0.1214
229	0x3fffbadc0980b242	1.98312
230	0xbfd140fecdd0d8cb	-0.269592
231	0xbfcd1958969a0ad9	-0.227336
232	0x3fd2b441bb8c32a9	0.292252
233	0xbfe8fa7eb6bf444e	-0.780578
234	0xbff02454de7ea5f8	-1.00887
235	0xbfd42788db0574b4	-0.314913
236	0x3fd2966be7afa722	0.290431
237	0x3fcc321a2e7f6f4c	0.220279
238	0x3fdc434e3369b9d8	0.441608
239	0xbfcd60f1b25f633d	-0.229521
240	0xbfce61cffeb074a7	-0.23736
241	0xbfcf34d6a161e4f7	-0.2438
242	0x3fd35ad96a6a0126	0.30242
243	0x3fdb3482be8bc16a	0.42508
244	0x3fdaaa7589efd86b	0.416654
245	0x3feda8d8665e02eb	0.926861
246	0xbfcbafc8b0079a28	-0.216302
247	0xbfba2ccb3a2595bc	-0.102246
248	0x3fc9e28aa433508f	0.202226
249	0xbfc5094a2b9d3cbc	-0.164346
250	0x3f5c65c70435efa6	0.00173325
251	0xbfe460f7fcfc3f81	-0.636837
252	0x3fce785b5b70691f	0.238048
253	0xbfc016f0068db8bb	-0.1257
254	0x3fb16ff8b65fa2fe	0.0681148
255	0x3fdcb0bbf50e3476	0.448287

FC3_bias f8 [50]
0	0xbf975a4c7cb054c7	-0.0228054
1	0x3fe1691212513b5c	0.544076
2	0x3ff073c0c1fc8f32	1.02826
3	0xbfdbac710cb295ea	-0.4324
4	0xbff3d681ecd4aa11	-1.23987
5	0x3fe091ea78af3e47	0.517812
6	0xc007af73c0c1fc8f	-2.96067
7	0xbfeae7fd3f5b5fa2	-0.840819
8	0xbfe1f5c28f5c28f6	-0.56125
9	0xc0033a3443d46b27	-2.40342
10	0x3f953ed527e52157	0.0207475
11	0xbff1a7674d163348	-1.10337
12	0x3fe9e7c49fd7a13c	0.809542
13	0xbfe7fd00713f077d	-0.749634
14	0xbfbe6aec0724b76f	-0.118819
15	0xbff559018e757929	-1.33423
16	0x3fc23a3a8e71476b	0.142402
17	0xbffeb19a415f45e1	-1.91836
18	0xbfd642d8c2a454de	-0.34783
19	0x3fd284be40420f6f	0.289352
20	0xbff690b630a91538	-1.41033
21	0x3fe1cb5568e820e6	0.556071
22	0xc0024ca2db61bb06	-2.28742
23	0x3ff2adb61bb05faf	1.16741
24	0x3fc3b5d894812be5	0.153987
25	0x3fe7d28ae74f2f12	0.744451
26	0xbfe8a9b6b2af1455	-0.770717
27	0xbfdc6f9fcb0c026d	-0.444313
28	0xbff1c0f66a550870	-1.10961
29	0x3fa333409f2c8092	0.0375004
30	0x3fdb67ad8e432442	0.428203
31	0xbff6cc25072085b2	-1.42484
32	0x3fb8546abb5fbcff	0.0950381
33	0x3ff0d8a32f44912a	1.05289
34	0x3fe57b8f57f737da	0.671333
35	0xbfee006290eed02d	-0.937547
36	0x3fe72719b4dcebff	0.723523
37	0x3ff6b94317acc4f0	1.42023
38	0x400013404ea4a8c1	2.0094
39	0xbfe764c729f59cd0	-0.731052
40	0x3fe1c6a1a500d5e9	0.555497
41	0xbff5f9bbadc0980b	-1.37347
42	0x3fc27bfe7e1fc090	0.144409
43	0xbfbc537e2c55c960	-0.110649
44	0xbfe913cee9dd7ecc	-0.783668
45	0x3ff263a7daa4fca4	1.14933
46	0xc013da3443d46b27	-4.96309
47	0xbfc3604189374bc7	-0.151375
48	0xbfd9db7f1737542a	-0.404022
49	0xbf92394c51e82a20	-0.0177967

FC3_weight f8 [50, 50]
0	0xbfa5dc79123a9527	-0.0426977
1	0x3fc1d6bebe1650a4	0.139366
2	0x3fd32af1455219a8	0.299496
3	0xbfd747496aad1d04	-0.363726
4	0x3fecc93a71151612	0.899564
5	0xbfa7af7b832e1d4a	-0.0462607
6	0x3fc7c9de05037500	0.185848
7	0x3fac9b0ee49f5169	0.0558705
8	0xbfc429f16b11c6d2	-0.15753
9	0xbfd67f1737542a24	-0.351507
10	0xbfc22a5e785b5b70	-0.141918
11	0xbfbb72f76e6106ab	-0.107223
12	0xbff084ff43419e30	-1.03247
13	0xbf8b67b51aff5fc7	-0.0133814
14	0xbfee30079a2834d2	-0.943363
15	0x3fe03313be22e5de	0.506235
16	0x3fc00f12c27a6373	0.12546
17	0xbfe25ddd2ae8e1d6	-0.573958
18	0xbfe6fcb923a29c78	-0.71835
19	0x3fda32fcac8e68e4	0.409362
20	0xbfec7c5ef62f9ca6	-0.890182
21	0x3fa5bdcd5588c891	0.0424637
22	0x3fd9cd67fd3f5b60	0.403162
23	0x3fd1656eefa1e3eb	0.271816
24	0xbfcbaa2e3c536d65	-0.216131
25	0xbfe75c39bcba3012	-0.730008
26	0x3fdd9bbadc0980b2	0.46263
27	0x3fc86f0cfe154435	0.190889
28	0x3fcdd29dc725c3df	0.23299
29	0x3fb3261466bf51ba	0.0747998
30	0x3f8df7da9790aade	0.0146329
31	0x3fd0acd184c27200	0.260548
32	0xbfe1b9d1b2e59afa	-0.553933
33	0xbfbe805a2d72ffd2	-0.119146
34	0x3fe277dd872f33ca	0.577132
35	0x3fc1fb71fbc5de9c	0.140486
36	0x3fb25791b74d08c7	0.0716487
37	0xbfc7f034b0e1b4bb	-0.187018
38	0x3ff462e09fe86834	1.27414
39	0x3fe57572de43ed96	0.670587
40	0x3fdc6cdf266ba494	0.444145
41	0xbfcebea4ebdd334c	-0.240193
42	0x3fb253f6f81981b1	0.0715937
43	0x3fd31d81f10667f9	0.298676
44	0xbff439cb6848beb6	-1.26411
45	0x3fc47fe4bcad9ad8	0.160153
46	0xbfda69a4df47f994	-0.412698
47	0x3fe42a6f3f52fc26	0.63018
48	0x3fd2188b11409a24	0.282748
49	0xbffb8ef34d6a161e	-1.7224
50	0xbf684a33d5c56ee0	-0.00296507
51	0x3fbb5e84f09528f2	0.106911
52	0x3fd7ec7c957cd467	0.373809
53	0x3fdf7e7c06e19b91	0.492095
54	0xc00336c8b4395810	-2.40175
55	0x3fb3e7fcd3fb9537	0.0777586
56	0x3fc4a25529fe004b	0.161204
57	0x3fe5cf1c3265adda	0.681532
58	0xbfb15f22a5467606	-0.0678579
59	0xbffcd33b10774688	-1.80157
60	0xbfd8c79b34a44c7b	-0.387183
61	0xbf8017c56e89a07d	-0.00785784
62	0xbfed709741d084e8	-0.919994
63	0xbfe5c5b8dc55000d	-0.680386
64	0x3fb83f08538b984f	0.0947118
65	0x3fce73ffac1d29dc	0.237915
66	0x3fc0ddd6e04c0592	0.13177
67	0xbffcb8bac710cb29	-1.7951
68	0xbfd4d6c2efd438d2	-0.325608
69	0x3fed607c4199fe43	0.918028
70	0xbfd7b645a1cac083	-0.3705
71	0x3fa2fa78d7823275	0.0370672
72	0x3fd1e4755ffe6d59	0.279569
73	0xbf60eb54f829f2c3	-0.00206534
74	0xbfda9702e6644d87	-0.415467
75	0x3fb421fafc8b007a	0.0786435
76	0xbf9de9185cee17a0	-0.0292095
77	0xbfbd972cd7cf5f4e	-0.115588
78	0xbff11f8a0902de01	-1.0702
79	0xbfe35fa43fe5c91d	-0.605425
80	0x3fe39afe1da7b0b4	0.61267
81	0xbfb59eb9940ae460	-0.0844532
82	0xbff604230fcf80dc	-1.37601
83	0x3fe064628027d88c	0.512254
84	0xbfc9b9e8c47a17f4	-0.200986
85	0x3fb9a682b6284599	0.100197
86	0x3fe17268d32830a1	0.545216
87	0x3fd00b242070b8d0	0.25068
88	0xbfec09efd86a8fc1	-0.876213
89	0xbfa25cd4ed2cbea5	-0.0358645
90	0x3fe1d6eefa1e3eaf	0.557487
91	0x3fb6cd29131ec0b5	0.089068
92	0xbfb0ffa1356f4d96	-0.0664006
93	0x3fb694bd91c66681	0.0882071
94	0xbf903452ede39dca	-0.0158246
95	0xbfe1252ac753e708	-0.535787
96	0xbfe60b8f14db5958	-0.688911
97	0xbfbf4384ba0e8427	-0.122124
98	0x3fd1065b63d3e4ef	0.266013
99	0x3fdafdeb52c9d170	0.421748
100	0x3f3a26988151e059	0.000399029
101	0xbfcffe7e1fc08fa8	-0.249954
102	0xbfc80cd855970b4a	-0.187892
103	0xbf7774200d669aea	-0.00572598
104	0xbfead3111f0c34c2	-0.838265
105	0xbf96ff8b65fa2fdc	-0.0224592
106	0x3fddb9f559b3d07d	0.464475
107	0x3fd3b9c304ccee5b	0.308213
108	0x3fd401eeed8904f7	0.312618
109	0x3fe6797891e21533	0.702328
110	0x3fcb620ee8d10f52	0.21393
111	0x3fc3377e1b8ed1bf	0.150131
112	0xbf8bee9b53adfcfe	-0.0136387
113	0xbfb0dabefdd730d4	-0.0658378
114	0x3fcf0941c8216c61	0.24247
115	0xbff281adea897636	-1.15666
116	0xbfdc5ae1cde5d181	-0.443047
117	0x3fd71a32b12d3416	0.360974
118	0xbfa9f38095bc9547	-0.0506859
119	0x3fd15e310dbf0564	0.271374
120	0x3feb08765ba6efc3	0.844783
121	0x3fe09d92b7fe08af	0.519235
122	0x3fb911de4ed55029	0.0979289
123	0x3fd42706d5065732	0.314882
124	0xbfb82e7f6f4be836	-0.0944595
125	0xbfa662fdfc19c172	-0.043724
126	0xbfc4c929aa1d755c	-0.162389
127	0x3fc46f9b994e1a3f	0.159656
128	0x3fe578f8a4c1ebc8	0.671017
129	0xbfd2aa53fc0096ff	-0.291646
130	0xbfd1710cb295e9e2	-0.272525
131	0x3fe3cd37c1376d55	0.618801
132	0x3fefb80a9de8b3b3	0.991216
133	0xbfbb5ac8a3726070	-0.106854
134	0x3fd2749adc8fb86f	0.288367
135	0xbfb86876e1deacc9	-0.095344
136	0xbfc9a658c4bd33d3	-0.200389
137	0x3fea82cf52b90a78	0.828468
138	0xbfe6e3c536d655e3	-0.715304
139	0xbfdcb039ef0f16f4	-0.448256
140	0xbfbcf5e41d4b6a62	-0.113127
141	0x3fe4ec3547e06962	0.653834
142	0xc00313c36113404f	-2.38465
143	0xbfd29f1ae2da554c	-0.290961
144	0xbfb482f944241c3f	-0.0801235
145	0x3fb369a4088864be	0.0758307
146	0xbfd72e770bd017db	-0.362211
147	0x3fabe77341403c30	0.0545002
148	0x3fe933bd9cae2110	0.787566
149	0xbffbfc1bda5119ce	-1.74905
150	0x3fa372423cbb7231	0.0379811
151	0x3fe367f90d9d7775	0.606442
152	0xc0042c27a63736ce	-2.52156
153	0x3fc20a63305100a4	0.140942
154	0xbffdd5bab21815a0	-1.86468
155	0x3fb9160b044000a1	0.0979926
156	0x3f9863893c544425	0.0238172
157	0x3fcb99567dbb16c2	0.215617
158	0xc009123a29c779a7	-3.1339
159	0x3fdac2374794ea07	0.418104
160	0xbfecbf01322f2735	-0.898316
161	0xbfb5d94b6050a2b0	-0.0853469
162	0xc000d83a53b8e4b8	-2.10558
163	0xc002545b6c3760bf	-2.29119
164	0xbff299ce075f6fd2	-1.16255
165	0x3fe67a15db3397dd	0.702403
166	0xbfe1a0c8cd63cb81	-0.550877
167	0xbfea0ae536501e26	-0.81383
168	0x3fda9acbc8c0ce92	0.415698
169	0x3ff3e631f8a0902e	1.2437
170	0xbfb6ff83027e5f81	-0.0898363
171	0x3fe6b28f9f44d445	0.709297
172	0x4003a708ede54b49	2.45656
173	0xbfc2d5b6805a2d73	-0.147147
174	0xbff65af8df7a4e7b	-1.39721
175	0xbfb8dff6753cc2ff	-0.0971674
176	0xbff6de9e1b089a02	-1.42935
177	0xbfd53c792d1287c2	-0.331816
178	0xbff6e63c74fb54a0	-1.43121
179	0x3fd4b1209edbf8ba	0.323311
180	0x3fde60a63305100a	0.474649
181	0x3feeda16616b54e3	0.964122
182	0x3fe22d948dc11e43	0.568064
183	0xbfc8b7fe08aefb2b	-0.193115
184	0x3faeb0714c737619	0.0599399
185	0x3fecce3150dae3e7	0.90017
186	0xc0047861a60d4563	-2.55878
187	0xbfb0911a6f170f10	-0.0647141
188	0xc00ff674d1633483	-3.99534
189	0xbfdaa4acf312b1b3	-0.416301
190	0xc000300bcbe61d00	-2.02346
191	0xbfecf4a558ea7ce1	-0.904864
192	0x3fe0dd8d79d0a676	0.527045
193	0xbfc6b1bbcf4e874d	-0.177299
194	0xc01a059210385c68	-6.50544
195	0xbffc0ba1f4b1ee24	-1.75284
196	0xbfe448fb86f47b67	-0.633909
197	0xbf782911464e6df7	-0.00589854
198	0x3fe2cdbbe0157eed	0.587614
199	0x3fd0ae4b018611fd	0.260638
200	0xbf7291b823c85c25	-0.0045335
201	0xbff0e04189374bc7	-1.05475
202	0xbfe08b04ab606b7b	-0.51697
203	0xbfd36a4ca4f440af	-0.303363
204	0xbfd9cd5f99c38b05	-0.40316
205	0xbfbe5f633ce63a5c	-0.118643
206	0x3fd425bfad299956	0.314804
207	0x3ff30870110a137f	1.18956
208	0xbffeb76b3bb83cf3	-1.91978
209	0xbff33020c49ba5e3	-1.19925
210	0x40027fdb4cc25072	2.31243
211	0xbff1075f6fd21ff3	-1.0643
212	0xbff92599ed7c6fbd	-1.57168
213	0x3fd55a1016ce789e	0.333622
214	0x3fb6b3b320535c9e	0.0886795
215	0xbff20e410b630a91	-1.12848
216	0x3fd90bdcad14a0a1	0.391349
217	0xbff5d77318fc5048	-1.3651
218	0x3fe12af1455219a8	0.536492
219	0x3fdac0a06e9ff0cc	0.418007
220	0x4001412599ed7c70	2.15681
221	0x3ff832f449129889	1.51244
222	0x3fdc3f78bbd38045	0.441374
223	0x3fd4a311e85fd04a	0.322453
224	0x3fc27aaef2c73259	0.144369
225	0x3fac9b2306954577	0.0558711
226	0xbfd78101f31f46ed	-0.367249
227	0xbfd4743632c1f42c	-0.319593
228	0x3fe0256bca5375c9	0.504568
229	0xbfcd04c48adeebb3	-0.226708
230	0xbfdb0010c6f7a0b6	-0.421879
231	0xbff96e4e26d4801f	-1.58943
232	0xbff27aebc408d8ed	-1.15501
233	0x3fd908a265f0f5a1	0.391152
234	0xbfc22e3c536d655e	-0.142036
235	0xbfbce3476295208e	-0.112843
236	0x3fab9f6d18314f2d	0.0539507
237	0x3fb7b5b0509543ca	0.0926161
238	0xbff6ac083126e979	-1.417
239	0xbff5a7fa1a0cf180	-1.35351
240	0xc005f8c0053e2d62	-2.74646
241	0xbfd9f727136a4010	-0.40571
242	0xbff13fa6defc7a3a	-1.07804
243	0x3fd646f587d6f976	0.348081
244	0x3fd42c5197a24895	0.315205
245	0xbfedca4b124d099e	-0.930944
246	0xbfd01bc126a65cf6	-0.251694
247	0xbfda16d6dc1a47aa	-0.407644
248	0xbfd9f54d1e96c3fc	-0.405597
249	0x3feb91c2a0232096	0.861543
250	0xbfaef9a572ebafe7	-0.0604984
251	0xbfdf9fcb0c026cc2	-0.494128
252	0xbfc803eea209aaa4	-0.18762
253	0xbfd52e87d2c7b891	-0.330965
254	0x3fca0767d34df04e	0.203351
255	0xbfce1f53825e13b2	-0.235331

FC4_bias f8 [50]
0	0x4005b04577d95571	2.71107
1	0x3fd7ebf65dbfceb8	0.373777
2	0x3fe2463ae2541d8f	0.571073
3	0x3fd54a2fcefaa476	0.332653
4	0xbff581adea897636	-1.34416
5	0xc00059a415f45e0b	-2.04377
6	0x3fd8c857f3061c7a	0.387228
7	0xc004f4927913e814	-2.61942
8	0x3ff168e60807357e	1.08811
9	0xbff0daa4fca42aed	-1.05338
10	0xbfd5a12b5e529bae	-0.337962
11	0x3fefa674080f98fa	0.989069
12	0x3ffbb573eab367a1	1.7318
13	0xc002be132b55ef20	-2.34281
14	0x3fe42f661f18c9fb	0.630786
15	0x3fd25d206c8711d8	0.286934
16	0x3ff2bef49cf56ead	1.17162
17	0xbff7404ea4a8c155	-1.4532
18	0x3ff26b702602c908	1.15123
19	0x3fd694dd72367e41	0.352836
20	0x3fe62ebc408d8ec9	0.693205
21	0x3fed4bee807bbb62	0.915519
22	0xbfb2e3fae6bb8b5c	-0.0737912
23	0xbfe67212d77318fc	-0.701425
24	0xbf8466d21c170ce2	-0.00996174
25	0x3fe5b178b3700475	0.677914
26	0xbfd803925bb7b6bb	-0.375218
27	0xc0084d5a5b9628cc	-3.03777
28	0xbff6dc9c4da9003f	-1.42886
29	0xc00f6ad81adea897	-3.92717
30	0x3ffaa656abde3fbc	1.66561
31	0x3fecf251c193b3a7	0.90458
32	0x3fd23bf2f5558213	0.284909
33	0x3fa1d392b9ab87d9	0.0348173
34	0x3ff2fe32a0663c75	1.18706
35	0xc000a584f4c6e6da	-2.08082
36	0x3fc5ddd2ae8e1d65	0.170832
37	0x4000287d2c7b890d	2.01977
38	0xbffe4f8b588e368f	-1.89442
39	0xbfa719fb53c8d4f1	-0.0451201
40	0x3ff6d95feda66128	1.42807
41	0x3fe7e05681ecd4aa	0.746135
42	0xbff1827525460aa6	-1.09435
43	0xbfee8b8cfbfc6541	-0.954535
44	0x3fd1e92923e5b856	0.279856
45	0xbff2482be8bc169c	-1.14262
46	0x3fd5d6e47dc37a3e	0.341241
47	0xbff7ac9081c2e33f	-1.47963
48	0xbfcb003eea209aaa	-0.210945
49	0xbff19ceaf251c194	-1.10081

FC4_weight f8 [50, 50]
0	0xbf806ac4191f0add	-0.00801614
1	0xbf8fc96bef3c635e	-0.0155209
2	0xbf9c75cb5e37c3bc	-0.0277931
3	0xbfa1e7e3a9882426	-0.0349723
4	0xbf1fd65f1cc60964	-0.00012145
5	0xbf9af1cb89d6adf7	-0.026313
6	0xbf9f6c4827b6fe2e	-0.0306865
7	0x3f9d6154aeadfdd5	0.0286916
8	0xbf52fbd07070557e	-0.00115867
9	0x3fa5805b043294a8	0.0419949
10	0x3f59f8cf8a166ed7	0.0015852
11	0xbf477050056225cb	-0.000715293
12	0xbf9a37ac3eb7cbb4	-0.025603
13	0xbf90df6ce28169f8	-0.0164773
14	0xbf96fa5aa4914461	-0.0224394
15	0xbfa66faab2c69149	-0.0438207
16	0xbfa0f8b22de51599	-0.0331474
17	0x3fa732774b90f80a	0.0453069
18	0x3f98be5e75005d1d	0.0241637
19	0x3f950389217c518a	0.0205213
20	0xbf937a7363a4eb06	-0.0190218
21	0x3fa728e5d2575049	0.0452339
22	0x3fa07a6f31e702d9	0.0321841
23	0xbf91c4f567f6895f	-0.0173529
24	0xbf89ffa05eafb8c0	-0.0126946
25	0x3fa0615f96688cb1	0.0319929
26	0x3fa183af4c89458e	0.0342078
27	0xbf823cca35c3b145	-0.00890501
28	0xbf889af40cacb6ad	-0.0120143
29	0xbf79a4aef67816e8	-0.00626057
30	0xbf97092395307e4d	-0.0224958
31	0x3f8ead8508e8dcce	0.0149794
32	0xbf94e83f191a8339	-0.0204172
33	0xbfa7b84a5ec8e333	-0.0463279
34	0x3f814fc50f3e3672	0.00845293
35	0xbf915e75d71cb1e7	-0.0169619
36	0xbf4e71f2adff4ea2	-0.000929111
37	0xbfa3d8ea118131c4	-0.0387643
38	0x3f85e77849bdb934	0.0106954
39	0x3f8edbc309d56bd8	0.0150676
40	0xbf6628d68debbb7a	-0.00270502
41	0x3f9eb822f19c8fee	0.0299993
42	0x3fa528720f1114fb	0.0413242
43	0x3f9e4cc327319d31	0.0295897
44	0x3f8ccacec5cb50cc	0.0140587
45	0x3f8fc2b5f295b432	0.0155081
46	0x3f7fad4c7edead4a	0.00773363
47	0xbf75181fdc694cf6	-0.00514996
48	0x3f81d45353e5047c	0.00870576
49	0xbfa4452aac7bf46d	-0.0395902
50	0xbffc8b19a415f45e	-1.78396
51	0x3fd27ff583a53b8e	0.28906
52	0x3fd2affb04ee7c4a	0.291991
53	0xbf92884182814f20	-0.0180979
54	0xbfad888c2b1c0d7d	-0.0576824
55	0xc0017b5f1bef49cf	-2.18524
56	0xbfa62b719dd20d7e	-0.0433002
57	0xbfd11e5c0b999136	-0.267478
58	0x3fcb5b899392189c	0.213731
59	0xbfa58b2b41cd29ea	-0.0420774
60	0x3fdd9085f4a1272d	0.461946
61	0xbfa868702be2061a	-0.0476718
62	0x3fcfb4f61672324d	0.24771
63	0xbfc1831f03d145d8	-0.136814
64	0x3fd8409e55c0fcb5	0.378944
65	0x3fd324e9c4545847	0.299128
66	0x3fc4e7e62dc6e2a8	0.163327
67	0xbfbbc6a7ef9db22d	-0.1085
68	0xbfc45d63886594af	-0.1591
69	0xbfa7e5753a3ec02f	-0.0466725
70	0xbfe2f11d798d8a98	-0.591933
71	0xbfe3afcce1c58256	-0.61521
72	0xbf909ec120c71fe5	-0.0162306
73	0x3fbd525cc426351e	0.114538
74	0xbf7b220a40f69548	-0.00662426
75	0xbfe55d462c343b71	-0.667636
76	0x3fc7a9e2bcf91a33	0.184872
77	0x3fc59c27e9531551	0.168828
78	0xbf9bc3174165251e	-0.0271114
79	0x3fdb967caea747d8	0.43106
80	0x3fb4077da2c30e07	0.0782393
81	0xbfc034c1a8ac5c14	-0.12661
82	0x3fd00e453d20f2bf	0.250871
83	0x3fd81eeed8904f6e	0.376888
84	0xbf69b410e9315c6e	-0.00313762
85	0x3fbec61522a6f3f5	0.12021
86	0x3f866f1a6a0e9193	0.0109541
87	0xbfbe09bb6aa4b988	-0.117336
88	0xbfeb859641f64495	-0.860057
89	0xbfab9ccaa681df69	-0.0539306
90	0x3f7e1d6ca26aa38d	0.00735228
91	0xbfd2d97b30f8c650	-0.294524
92	0x3fd9244a6223e187	0.39284
93	0x3fdc750c1b97353b	0.444644
94	0x3fc1680e06530058	0.135988
95	0x3fde80ecfa69be0a	0.476619
96	0x3fa9a719b4dcebff	0.050103
97	0xbfda8fde2ef4e011	-0.415031
98	0x3fe1fb6fe2e6ea85	0.561943
99	0x3fbf3a365cb35f3d	0.121982
100	0xbfef23161a1db878	-0.973033
101	0xbfd1d8904f6dfc5d	-0.278843
102	0x3fca40639d5e4a38	0.20509
103	0x3fc3199bb2788db0	0.149219
104	0xbfc3660e51d25aab	-0.151552
105	0x3fc35019f3c70c99	0.150882
106	0x3fa792626db361c2	0.0460387
107	0x3fe218b502ababeb	0.565516
108	0x3fd399c38b04ab60	0.30626
109	0x3fe06d9be4cd7492	0.51338
110	0xbfd9d1bb4916ca47	-0.403426
111	0xbfbec3a860dcb9aa	-0.120173
112	0xbfd86fb09203a323	-0.381817
113	0xbfe185f28848387e	-0.547601
114	0xbfc07dd441355476	-0.12884
115	0x3fd4b93037d63023	0.323803
116	0x3f873a28f0ba11df	0.0113414
117	0xbfe63862b27cbf6e	-0.694383
118	0xbfd9e86c6583e857	-0.404811
119	0x3febb1ca7d6733ec	0.865453
120	0x3fef26fe718a86d7	0.97351
121	0xbfda3a604e1e7104	-0.409813
122	0xbf921412dc7b9679	-0.0176547
123	0xbfd009c3ce2089e3	-0.250596
124	0xbfa132e0fddc3951	-0.0335913
125	0xbff1b26bf8769ec3	-1.10606
126	0xbfd087a072d1aeb4	-0.258278
127	0x3fd120afa2f05a71	0.26762
128	0xbfc5a272862f598a	-0.16902
129	0x3fe9eef5ec80c73b	0.81042
130	0x3fbfc558644523f6	0.124105
131	0x3febfe175d13d74d	0.874767
132	0xbfc1fbdf090f733b	-0.140499
133	0x3facaa9061e27327	0.0559888
134	0x3f81c164b9bdfc4f	0.00866965
135	0x3fd346ae3a3a8e71	0.301189
136	0x3fce9e0a41a261bf	0.239198
137	0xbfce7ee0b0af5fd4	-0.238247
138	0x3fb6e3d5fdcdf698	0.089414
139	0xbf95a98676a7264a	-0.0211545
140	0x3fd6acc0bdcad14a	0.354294
141	0x3fdc198288051c9f	0.439057
142	0x3fe6c09c3ce2089e	0.711012
143	0xbfd7c9de05037500	-0.371696
144	0x3fde3504c48adeec	0.471986
145	0x3fcbafd976ff3ade	0.216304
146	0x3f943f3e0370cdc8	0.0197725
147	0x3fe692bc2fc69729	0.705412
148	0x3fe9b9e8c47a17f4	0.803944
149	0x3fb2dcd481ccf43a	0.0736821
150	0x3ff11758e219652c	1.0682
151	0xbfd2fbc5de9c022a	-0.296617
152	0xbfbbe004b7f5a533	-0.108887
153	0xbfcc65a57646ae3a	-0.221852
154	0x3fbec3547e06961c	0.120168
155	0x3fc68c9320d9945b	0.176165
156	0xbfc5c48f10a99b6f	-0.170061
157	0xbfe74db7ae5796c0	-0.728237
158	0xbfc3b0142f61ed5b	-0.153811
159	0x3fc0afe60c38f367	0.130368
160	0x3f9c566a6fe062ac	0.0276734
161	0xbfbb2f87ad080b67	-0.106194
162	0xbfb079306d861558	-0.0643492
163	0xbfd4394b7b28954a	-0.315997
164	0xbfc0b2314013ec46	-0.130438
165	0x3fb1dccb47918f09	0.0697753
166	0xbfe43167ec7863bf	-0.631031
167	0xbfda13f8db489093	-0.407469
168	0x3fe463fbbd7b2032	0.637205
169	0xbffbbc9eecbfb15b	-1.73355
170	0x3fcf83cf2cf95d4f	0.24621
171	0xbfe2944241c3efae	-0.580598
172	0xbfcf42d490e66cb1	-0.244227
173	0xbfd36f694467381d	-0.303675
174	0x3f30c165b2d9a8f6	0.000255668
175	0x3ff570995aaf78ff	1.33999
176	0x3f922baaa8b5964f	0.0177447
177	0x3f9bf748a159817c	0.0273105
178	0xbfaca59f6159b72b	-0.0559511
179	0x3fdc187e7c06e19c	0.438995
180	0xbfd44d983947496b	-0.317236
181	0xbfbbfe9fadafd114	-0.109354
182	0xbfe044934267839d	-0.508371
183	0x3f9a19e4ad942261	0.0254894
184	0x3fa06e9284d26238	0.0320936
185	0xbfd2c7da1ec4e725	-0.293448
186	0x3fc9214f0520d131	0.196329
187	0xbfb400812f3f88ac	-0.0781327
188	0x3fea036c9c0a8d22	0.812918
189	0xbfadace82af7248f	-0.0579598
190	0xbfe6d78c436fc159	-0.713812
191	0x3fd18943e1006078	0.274003
192	0xbfed9d9f4d37c137	-0.925491
193	0xbfd2bdf8f4730404	-0.292845
194	0xbfcfcf893faf4278	-0.248521
195	0xbfeeb31c219eb639	-0.959364
196	0xbfc36fe2e6ea8544	-0.151852
197	0xbfc29ef5232d2bb2	-0.145476
198	0xbff750092ccf6be3	-1.45704
199	0x3fb06ea34bca02ee	0.0641882
200	0xbfcd2e8c0485a0be	-0.227983
201	0xbfc449cb252ce033	-0.158502
202	0x3fc3899bf5946c33	0.152637
203	0xbfb4f5b1c8648840	-0.081874
204	0x3fc8a9a3d2d87f88	0.192677
205	0x3fb60713f077ccc0	0.0860455
206	0xbfd5db1209edbf8c	-0.341496
207	0xc025fe425aee6320	-10.9966
208	0xbfb9fddebd9018e7	-0.10153
209	0xbf93af74cd31769b	-0.019224
210	0x3f9416088001421f	0.0196153
211	0xbff25ad96a6a0126	-1.14718
212	0xbf94ecd580d074f8	-0.0204347
213	0x3fa8cea945df0762	0.0484517
214	0xbfdb5cb790fb6567	-0.427534
215	0x3fb708b9e2e53d06	0.0899769
216	0xbfd5bd1aa821f299	-0.339667
217	0xbfa723897204295a	-0.045193
218	0x3fb143236b3f133b	0.0674307
219	0xbfaa44559a664833	-0.0513026
220	0x3fc97db6e503fb37	0.199149
221	0xbfe55fd47bedb728	-0.667948
222	0xbfa59992e39cf2ea	-0.0421873
223	0xbfaa7ddca4b124d1	-0.0517415
224	0x3fa650d3572a8941	0.0435854
225	0x3fd7b912dba4d6e4	0.370671
226	0xbfd5ce3150dae3e7	-0.34071
227	0x3f7eb28d8665e02f	0.0074945
228	0x3fc44f11b60ae968	0.158663
229	0x3f7bb46e871c3e7a	0.00676387
230	0x3f941d0198867423	0.0196419
231	0xbfd11d2178f68be3	-0.267403
232	0xbfcb1233df2a9d62	-0.211493
233	0xbf8c2aa341b907f4	-0.0137532
234	0xbf7a12eb950ef05e	-0.0063657
235	0x3f40d92313cdb4a1	0.000514166
236	0x3fbc40af1cb89d6b	0.110362
237	0x3fa256a528431529	0.0358173
238	0x3fd4b58d1526d8b2	0.323581
239	0xbfa63018cc7f9ff3	-0.0433357
240	0xbfdd44284dfce315	-0.457285
241	0xbfd953da72a7bd49	-0.395743
242	0x3fb0c6533607f9ca	0.0655262
243	0xbfe8ff540895d0b7	-0.781168
244	0xbfb193f00c6cf5cd	-0.0686636
245	0x3fc1dfe32a0663c7	0.139645
246	0x3fc0358afc47e49b	0.126634
247	0xc002b23cc8de2ac3	-2.33703
248	0x3fce1d323fee2c99	0.235266
249	0x3fc2794ea077036d	0.144327
250	0xc009fc3b4f616723	-3.24816
251	0x3fd8d7774aba3876	0.388151
252	0x400383ba3443d46b	2.43932
253	0xbfa9e8df520a8ecf	-0.0506048
254	0x3ff92a9930be0ded	1.5729
255	0x3ff720c49ba5e354	1.4455
