examples/submissions/2021_ATVA/acas_onnx/ACAS_XU_2_4.onnx (onnx, 108361 bytes, 14 tensors)

FC0_bias f8 [50]
-0.0193208 -0.108101 0.0166608 0.161545 -0.10693 0.289727 0.657122 -0.149265
-0.142849 -0.606041 -0.508617 -0.315387 0.0560998 -0.0207994 0.0495877 0.359228
-0.134949 -0.04803 0.113735 0.0552331 0.187557 -0.566893 0.0559717 -0.459244
0.145341 -0.0193138 0.0692732 0.0953057 0.101671 0.115879 -0.457239 -0.413837
-0.332726 -0.0529717 0.0608747 0.380637 0.239688 0.0313403 0.244431 0.168728
-0.127395 0.0472091 0.0933066 -0.205633 -0.0204511 -0.328547 0.0671233 -0.274268
-0.539354 -0.604291
00000000: f8bc 87f0 d4c8 93bf a036 aad3 81ac bbbf
00000010: 9733 805c 870f 913f 7689 eaad 81ad c43f
00000020: 7216 f6b4 c35f bbbf 0f2a 711d e38a d23f
00000030: 766d 6fb7 2407 e53f 09fe b792 1d1b c3bf
00000040: 4016 a243 e048 c2bf d61f 6118 b064 e3bf
00000050: 7711 a628 9746 e0bf ea58 a5f4 4c2f d4bf
00000060: ebd0 9fec 1cb9 ac3f 790e 1b1b 704c 95bf
00000070: fe55 911b 8f63 a93f e2ad f36f 97fd d63f
00000080: 295f d042 0246 c1bf 9e29 745e 6397 a8bf
00000090: 761a 69a9 bc1d bd3f ab3a 504c 8347 ac3f
000000a0: 4164 9126 de01 c83f 3d9a eac9 fc23 e2bf
000000b0: a6c7 009a 52a8 ac3f 2097 38f2 4064 ddbf
000000c0: ba4b e2ac 889a c23f 1229 722d ffc6 93bf
000000d0: 9d40 7d70 e3bb b13f c454 9f50 f465 b83f
000000e0: 1b9d f353 1c07 ba3f 1b0e 4b03 3faa bd3f
000000f0: e92a dd5d 6743 ddbf f0fb 372f 4e7c dabf
00000100: 6fd9 21fe 614b d5bf b61f 3a4e 1b1f abbf
00000110: 57c0 4efb f72a af3f 7e71 a94a 5b5c d83f
00000120: dc2f 9fac 18ae ce3f f2f9 17f7 d50b a03f
00000130: 2e75 90d7 8349 cf3f c8b1 f50c e198 c53f
00000140: 0343 56b7 7a4e c0bf 0fae 2589 ca2b a83f
00000150: 7f3e 80fb f0e2 b73f 2a3b fda0 2e52 cabf
00000160: 303d ab16 22f1 94bf f9ba 0cff e906 d5bf
00000170: 60b2 4c1a fe2e b13f 8db7 955e 9b8d d1bf
00000180: e5ef de51 6342 e1bf 618c 4814 5a56 e3bf

FC0_weight f8 [5, 50]
0.0138742 -0.0128134 -0.187531 0.0631706 -0.0105037 0.966597 0.0809889 -1.40647
0.018084 0.0185819 -0.0453303 0.0201614 -0.00784819 0.0100002 0.0421334 -0.0339627
-0.737324 -0.0904582 0.00184076 0.0138573 0.435759 0.000848856 -0.0818883 -0.00726888
-0.0867357 0.0162759 -0.0476219 -0.00450167 0.0823485 0.0166973 0.0544221 0.05852
-1.621 -0.0131042 0.0423074 -0.00654055 0.0177103 -0.898034 0.526628 0.0128558
-0.017457 -0.0190702 -0.252536 -0.095159 0.010219 -0.368926 0.0285209 -1.49515
-0.447274 -0.0508595 -0.00682284 -0.457407 0.41798 -1.29855 -0.162315 -0.00202221
-0.568449 -0.131127 -0.2026 0.388211 -0.159087 -0.171749 -0.0310592 0.00052551
-0.0355977 -0.702229 -0.0329698 0.634258 -0.246525 -0.463689 -0.721318 -0.0858098
-0.0872663 0.516589 0.475355 0.00357238 -0.177042 -0.0563832 2.86636 0.903909
0.334596 -1.3309 -0.133032 -2.01392 0.456853 -0.0560327 0.351615 -0.167991
-0.0441952 -0.831286 -0.226772 -0.110056 0.0386288 -2.4773 -4.1411e-05 -0.207022
0.824276 0.0913773 -0.177438 0.124583 -0.00178422 0.467988 0.307211 1.28493
0.166002 0.0111221 0.739176 -0.0156159 0.395621 -0.286756 0.173038 -0.415948
0.191744 -0.0004237 2.43499 0.751405 0.00891638 -0.647477 0.268677 -0.426741
-0.16029 0.261523 0.182711 -0.5547 -0.389466 0.000451968 0.492863 1.0925
-0.183685 -0.952239 -0.290298 0.820987 0.00458837 -0.0539096 0.490721 0.0660616
-0.280188 0.055034 -0.784238 -0.18875 0.181091 -0.768722 -0.0410115 1.85835
0.0134319 0.411609 0.784282 0.0549455 -0.017993 0.0395906 0.00606939 -1.00724
0.0873464 -0.0577826 -0.529267 0.00162402 0.140594 0.0695513 -1.25879 -1.76082
-1.06851 -0.962744 -0.203976 0.00387653 0.0639461 -0.148766 -0.189925 0.169714
1.39402 -0.762209 -0.26895 -0.594084 -0.980657 -0.899213 -0.393153 -0.000844468
-0.717979 0.0235239 0.0553719 -1.06632 -0.777372 0.0588364 -0.0259553 0.104994
-0.204347 0.731028 0.939619 -0.0721632 0.113325 -0.113197 -0.192491 -0.429233
0.0752111 -0.0623731 -0.000944004 -0.0647869 0.0773762 0.0136257 -0.232044 0.497295
-0.000771071 0.259735 -0.154665 -0.382623 -0.832398 -0.0576006 -0.327363 0.0483789
0.707417 0.700482 -0.919388 0.117384 0.129969 0.012864 -0.0315131 0.297653
-0.0381396 -0.768809 0.251191 0.428122 0.0567964 -1.23498 1.63376 1.55223
0.259866 0.002132 0.526293 -0.0162601 -0.0595861 0.536865 -0.601716 -0.0424522
0.00750848 -0.237506 0.0902211 -0.395497 -1.1511 -0.0342911 -0.061757 0.319988
-1.26278 0.239058 0.290827 -0.139755 -0.00425589 -0.802487 -0.0203018 -0.0693288
-0.999348 -2.01482
00000000: deb7 109a 136a 8c3f 8fc2 9a6f e93d 8abf
00000010: 043b fe0b 0401 c8bf 2a96 11cd f22b b03f
00000020: bd5d e5bf f682 85bf bf2c edd4 5cee ee3f
00000030: a6c9 d644 b0bb b43f c6e1 ccaf e680 f6bf
00000040: 03ce 52b2 9c84 923f f4ae 3033 2207 933f
00000050: 1926 0978 8835 a7bf e1f8 90a6 30a5 943f
00000060: 6df6 0f3b b612 80bf 38af a01f fc7a 843f
00000070: 8279 234e 8292 a53f fe55 911b 8f63 a1bf
00000080: f7c9 5180 2898 e7bf ddaf a7c2 4428 b7bf
00000090: 0f7a fcff b428 5e3f 96a4 7c52 3761 8c3f
000000a0: b002 7cb7 79e3 db3f ae59 2761 b8d0 4b3f
000000b0: 36cf 6cb2 a1f6 b4bf da88 0e1e f9c5 7dbf
000000c0: 724a e592 4f34 b6bf dd13 da28 a1aa 903f
000000d0: 6192 25ce e561 a8bf f190 d6d6 5770 72bf
000000e0: 75e9 5f92 ca14 b53f 59db b9d5 1819 913f
000000f0: fcf9 5ba7 36dd ab3f 2ee7 525c 55f6 ad3f
00000100: 560e 2db2 9def f9bf 3a9e 85f3 5fd6 8abf
00000110: d1f0 c1c6 50a9 a53f 19ce 9085 43ca 7abf
00000120: ec9a 351d a622 923f 2846 96cc b1bc ecbf
00000130: 6b0d a5f6 22da e03f d0e6 8244 2454 8a3f
00000140: b057 5870 3fe0 91bf 350e 5075 2387 93bf
00000150: 8e02 44c1 8c29 d0bf 5089 eb18 575c b8bf
00000160: 8df1 61f6 b2ed 843f de38 29cc 7b9c d7bf
00000170: cb8b 0233 9534 9d3f 95d4 0968 22ec f7bf
00000180: 7d78 9620 23a0 dcbf 38bf 61a2 410a aabf
00000190: 8448 a72a 44f2 7bbf c288 7d02 2846 ddbf
000001a0: 0074 982f 2fc0 da3f 6688 635d dcc6 f4bf
000001b0: 103b 53e8 bcc6 c4bf c8c1 19ba e190 60bf
000001c0: 7634 0ef5 bb30 e2bf 18b1 4f00 c5c8 c0bf
000001d0: 74b5 15fb cbee c9bf 1ea3 3cf3 72d8 d83f
000001e0: 1100 1c7b f65c c4bf 3b73 0f09 dffb c5bf
000001f0: 6dae f5a0 fbcd 9fbf c19b c121 4c38 413f
00000200: d729 a09a dc39 a2bf 68b0 a9f3 a878 e6bf
00000210: f9e5 82e9 6ae1 a0bf 683e e76e d74b e43f
00000220: 3cbd 5296 218e cfbf d8f4 a0a0 14ad ddbf
00000230: 1f84 807c 0915 e7bf 0d22 ad8c a1f7 b5bf
00000240: 1ffd 8a90 1557 b6bf a225 8fa7 e587 e03f
00000250: 795d bf60 376c de3f a0b3 9ae8 d243 6d3f
00000260: fb5b 02f0 4fa9 c6bf 8570 1640 42de acbf
00000270: 1f80 d426 4eee 0640 0bec 3191 d2ec ec3f
00000280: aad5 5757 056a d53f 41f1 63cc 5d4b f5bf
00000290: ff25 a94c 3107 c1bf 2315 c616 821c 00c0
000002a0: 5516 855d 143d dd3f 595e 036c 51b0 acbf
000002b0: 541d 7233 dc80 d63f e8db 82a5 ba80 c5bf
000002c0: 91c5 47d5 c0a0 a6bf ccec f318 e599 eabf
000002d0: 7102 d369 dd06 cdbf f583 ba48 a12c bcbf
000002e0: 2d11 5e71 27c7 a33f e10b 93a9 82d1 03c0
000002f0: 1285 2420 17b6 05bf b7b8 c667 b27f cabf
00000300: 1616 dc0f 7860 ea3f a0c6 18b3 8064 b73f
00000310: b1a8 88d3 49b6 c6bf a837 a3e6 abe4 bf3f
00000320: f2ab 20a3 8f3b 5dbf 9fe8 baf0 83f3 dd3f
00000330: 562c 7e53 58a9 d33f 7363 7ac2 128f f43f
00000340: 2909 89b4 8d3f c53f b24c 1afe 2ec7 863f
00000350: 7c9e 3f6d 54a7 e73f 777f 619e 3afb 8fbf
00000360: 9c17 27be da51 d93f 38a2 7bd6 355a d2bf
00000370: 3f8d 7bf3 1b26 c63f fc8a 355c e49e dabf
00000380: 0324 9a40 118b c83f 114e b0a4 81c4 3bbf
00000390: 42b2 8009 dc7a 0340 cfa0 a17f 820b e83f
000003a0: df5a fd43 c042 823f ad30 7daf 21b8 e4bf
000003b0: 3bfe 0b04 0132 d13f 8330 b77b b94f dbbf
000003c0: 861b f0f9 6184 c4bf 39b7 09f7 cabc d03f
000003d0: 564a cff4 1263 c73f 1ceb e236 1ac0 e1bf
000003e0: 16da 39cd 02ed d8bf 37f6 61c7 c39e 3d3f
000003f0: 0324 9a40 118b df3f 7b14 ae47 e17a f13f
00000400: 6c04 e275 fd82 c7bf 4b39 5fec bd78 eebf
00000410: 8107 0610 3e94 d2bf eb1d 6e87 8645 ea3f
00000420: f69d 7831 41cb 723f 9081 e101 0a9a abbf
00000430: 7577 9d0d f967 df3f ac7c 85bb 69e9 b03f
00000440: 52d3 2ea6 99ee d1bf 7c0c 569c 6a2d ac3f
00000450: 6ef9 484a 7a18 e9bf 295c 8fc2 f528 c8bf
00000460: b4ca 4c69 fd2d c73f 1de7 36e1 5e99 e8bf
00000470: 2312 8596 75ff a4bf 7958 a835 cdbb fd3f
00000480: e2fe c819 2f82 8b3f 1a50 6f46 cd57 da3f
00000490: 57ed 9a90 d618 e93f b3ee 1f0b d121 ac3f
000004a0: 554b 3aca c16c 92bf cb41 7518 3845 a43f
000004b0: 371e e878 37dc 783f 9291 b3b0 a71d f0bf
000004c0: a55f 6c6b 555c b63f 4e42 8e52 ae95 adbf
000004d0: d943 fb58 c1ef e0bf ef68 6f32 a29b 5a3f
000004e0: fcc4 01f4 fbfe c13f d9ef e42e 1dce b13f
000004f0: 6b82 a8fb 0024 f4bf 9548 a297 512c fcbf
00000500: f12e 17f1 9d18 f1bf 7a72 4d81 ccce eebf
00000510: 629e 95b4 e21b cabf 1985 4d32 acc1 6f3f
00000520: 48ed 3488 c55e b03f badc 60a8 c30a c3bf
00000530: acad d85f 764f c8bf 2330 d637 30b9 c53f
00000540: cb84 5fea e74d f63f 8df0 f620 0464 e8bf
00000550: bc96 900f 7a36 d1bf ab75 e272 bc02 e3bf
00000560: b9fd f2c9 8a61 efbf e46a 6457 5ac6 ecbf
00000570: 22c1 5433 6b29 d9bf 7772 a438 e9ab 4bbf
00000580: 83df 8618 aff9 e6bf 348f b234 a616 983f
00000590: 8c19 3ca7 b459 ac3f ab21 718f a50f f1bf
000005a0: 826f 9a3e 3be0 e8bf aef5 a0fb cd1f ae3f
000005b0: 5ca8 a1b2 0694 9abf 9eb6 4604 e3e0 ba3f
000005c0: 3692 04e1 0a28 cabf aeba 0ed5 9464 e73f
000005d0: 3c68 76dd 5b11 ee3f 6986 f997 4979 b2bf
000005e0: 17b7 d100 de02 bd3f 215c 0185 7afa bcbf
000005f0: 711d e38a 8ba3 c8bf 404b 57b0 8d78 dbbf
00000600: d2d2 cbde 0841 b33f d6de 4cf1 5def afbf
00000610: 1062 5527 e1ee 4ebf 998f b5d0 df95 b0bf
00000620: 101f 7d38 edce b33f 15b3 147f cae7 8b3f
00000630: bbd3 9d27 9eb3 cdbf 6bb7 5d68 aed3 df3f
00000640: 91a1 2b5d 3644 49bf 8f19 a88c 7f9f d03f
00000650: cefc 6a0e 10cc c3bf 55a2 ec2d e57c d8bf
00000660: 942f 6821 01a3 eabf a0bf 756a d37d adbf
00000670: 9fe8 baf0 83f3 d4bf 5006 a282 1ec5 a83f
00000680: 444d f4f9 28a3 e63f 38f9 2d3a 596a e63f
00000690: 13b7 0a62 a06b edbf a5db 12b9 e00c be3f
000006a0: a035 3ffe d2a2 c03f 08af 5dda 7058 8a3f
000006b0: 2689 ca2b 7c22 a0bf 399a 232b bf0c d33f
000006c0: 7973 5d9d 0887 a3bf d7da fb54 159a e8bf
000006d0: 992b 836a 8313 d03f dead 2cd1 5966 db3f
000006e0: 34a2 0ff1 6a14 ad3f df6c 7363 7ac2 f3bf
000006f0: 1635 9886 e123 fa3f d9eb dd1f efd5 f83f
00000700: d5e8 d500 a5a1 d03f cc63 cdc8 2077 613f
00000710: a9a3 e36a 64d7 e03f c033 ebd6 7ca6 90bf
00000720: a4a5 97bd 1182 aebf cbbe 2b82 ff2d e13f
00000730: a35b afe9 4141 e3bf 3958 4975 4bbc a5bf
00000740: d2c6 ae40 36c1 7e3f 8848 4dbb 9866 cebf
00000750: c4bd e8e1 ba18 b73f 94a1 2aa6 d24f d9bf
00000760: 42cf 66d5 e76a f2bf 8d75 1662 9a8e a1bf
00000770: f71f 990e 9d9e afbf 5932 c7f2 ae7a d43f
00000780: a3af 20cd 5834 f4bf 0070 ecd9 7399 ce3f
00000790: 7dcd 72d9 e89c d23f ddea 39e9 7de3 c1bf
000007a0: d291 d8c5 9f6e 71bf 86e2 8e37 f9ad e9bf
000007b0: 9521 33bc fec9 94bf bac1 ab40 88bf b1bf
000007c0: 1556 2aa8 a8fa efbf 1f9d baf2 591e 00c0

FC1_bias f8 [50]
-0.800762 -0.857583 0.659175 0.0808773 -0.177807 -0.00639029 -0.00580666 0.104383
-0.0055095 -0.83149 -0.865463 -0.271255 -0.281195 0.26359 -0.0317728 0.576041
-0.022572 0.128143 -0.161534 -0.118344 0.831492 0.716363 -0.0194863 -0.135067
-0.0435421 -0.208693 -0.0118736 0.0604152 -0.00902783 -0.120389 0.00356153 0.775518
0.74551 -0.450915 -0.727351 -0.886083 0.19704 -0.408814 -0.048922 -0.0607556
0.215647 -0.0175498 -0.328616 0.612467 -0.582593 -0.0145021 -0.404487 -1.07466
-0.62506 -0.186043
00000000: 4a25 3ca1 d79f e9bf d060 53e7 5171 ebbf
00000010: d5e7 6a2b f617 e53f bd20 7dee 5fb4 b43f
00000020: cefb ff38 61c2 c6bf 68c5 fd68 b42c 7abf
00000030: 2aab c86c b9c8 77bf 6824 4223 d8b8 ba3f
00000040: bfb5 1325 2191 76bf eb6e 9eea 909b eabf
00000050: cfbc 1c76 dfb1 ebbf 4018 78ee 3d5c d1bf
00000060: 3a1e 3350 19ff d1bf 745e 6397 a8de d03f
00000070: a900 ce41 8644 a0bf e0f6 0489 ed6e e23f
00000080: b5a3 3847 1d1d 97bf cc0c 1b65 fd66 c03f
00000090: 8e95 9867 25ad c4bf e085 add9 ca4b bebf
000000a0: 1957 5c1c 959b ea3f f50f 2219 72ec e63f
000000b0: 6d53 e174 37f4 93bf 1669 e21d e049 c1bf
000000c0: 1c92 ff6e 264b a6bf 77ba f3c4 73b6 cabf
000000d0: 297d 7c9d 2f51 88bf 40d3 5cb8 bdee ae3f
000000e0: 18ae d4d4 2e7d 82bf 2a53 cc41 d0d1 bebf
000000f0: af89 f5db 112d 6d3f d1b2 ee1f 0bd1 e83f
00000100: 25e9 9ac9 37db e73f 5da7 9196 cadb dcbf
00000110: 0bd0 b69a 7546 e7bf 8654 51bc ca5a ecbf
00000120: d47d 0052 9b38 c93f 8867 0932 022a dabf
00000130: 6d1d 1cec 4d0c a9bf dd03 19a6 5b1b afbf
00000140: 6b81 3d26 529a cb3f af92 3424 93f8 91bf
00000150: 3c4f 3c67 0b08 d5bf ab22 dc64 5499 e33f
00000160: e71c 3c13 9aa4 e2bf d65c c9e9 46b3 8dbf
00000170: c70e 2a71 1de3 d9bf 191c 25af ce31 f1bf
00000180: 5435 41d4 7d00 e4bf 492a 53cc 41d0 c7bf

FC1_weight f8 [50, 50]
0.0380392 -0.0174811 -0.03296 -0.0112252 -0.0269562 0.0170177 0.0287005 -0.0119203
-0.0149906 0.00254232 -0.022533 0.0235709 -0.0481645 -0.0221181 -0.0542273 -0.0257354
-0.0157921 -0.0249917 0.00873351 0.0149886 -0.0351137 0.00217555 0.0148748 0.0260502
-0.0426297 0.0144588 0.0409284 0.0195263 -0.0159103 0.0111132 -0.0356999 0.039954
-0.039849 -0.0284179 0.0281722 0.0609298 -0.0442837 -0.031882 0.0340767 0.00968191
-0.0453909 -0.0345086 -0.0123449 0.0209324 -0.0427961 0.00272534 0.0156785 0.00140172
0.00393088 0.0428815 0.610242 -0.575329 -1.05687 0.580763 -1.37866 0.00578237
-0.0467999 -0.736744 -0.318285 0.139637 0.348795 0.00976309 0.718992 -0.880004
-0.527174 0.284341 -0.0135321 0.183848 0.318865 0.561322 0.115917 -0.101705
0.00919099 -2.8521 -0.0341969 -1.58716 -0.0166956 0.0545799 0.0314455 -0.732055
-0.56877 -0.0383538 -0.567912 1.00943 0.687422 0.821731 -0.132977 0.496582
-1.09409 0.171694 1.68882 0.00296733 -0.0440195 -0.0307274 0.337067 -0.0547202
1.0105 -0.893391 0.245156 -0.363528 0.200225 -0.212953 0.284889 -0.165473
-0.375639 -0.00960766 -0.0260264 -0.742947 -1.15872 0.600455 0.00635928 0.604827
0.143277 -0.0474227 -0.482964 0.247952 0.0185863 -0.548408 -0.120709 0.207587
0.406985 0.206773 0.0154261 -0.0153541 0.0600199 0.670194 0.040991 0.0983011
0.0201237 -0.220138 0.73173 0.145243 0.413719 -0.302906 0.352688 -0.416872
-0.172138 -0.00452293 -0.441205 -0.634844 -0.317881 0.0181451 -0.00139215 0.201645
-1.03885 -0.0142087 -0.0383267 0.798174 0.267088 0.321254 0.146577 0.0563835
1.25415 -0.192808 1.93277 -0.00503124 0.0242143 -0.0802311 -0.164124 -0.161296
0.298164 0.212719 -0.00179323 0.653976 -0.0496065 -1.36612 -0.0140477 0.413571
-0.0687085 0.949995 -0.997631 0.308492 -0.0527527 0.0513341 0.0778861 0.605438
0.00435171 -0.402817 -0.0249178 0.912229 0.0568739 0.0176555 0.0176236 -0.24403
0.606048 -0.366436 -0.158856 -0.362116 0.27619 0.464766 -1.30979 -0.0329782
-0.165226 0.111725 0.432948 0.0248734 -0.407508 0.726127 0.0833046 0.245431
0.535609 -0.106873 -0.0894522 0.552947 -0.534947 -0.0182188 -0.00372303 -0.384676
0.554226 1.07647 0.0352393 -0.465317 0.653658 0.137891 -0.217753 0.702423
-0.0131249 0.0824986 -0.0534286 -0.188906 1.26932 0.541059 -0.00710332 0.112828
0.0484444 0.433953 -0.0333275 -0.0132249 -0.0427166 0.527669 -0.030864 -0.0272602
0.200155 0.0946358 0.459416 0.757507 -1.04424 -0.0521558 0.975092 0.534453
-0.396497 -0.0437994 0.205147 0.660364 -1.43156 0.0265499 0.342617 0.122813
0.287875 -0.315242 -0.987662 -0.277211 -0.106402 -0.0967602 0.165646 0.0299721
00000000: f997 eebf df79 a33f 9842 31c3 90e6 91bf
00000010: 72fe 2614 22e0 a0bf a5e3 20d7 3cfd 86bf
00000020: 249f b2f5 679a 9bbf b903 d083 166d 913f
00000030: bbf0 83f3 a963 9d3f 43a0 4495 ab69 88bf
00000040: 14b6 fa45 64b3 8ebf 1ee1 30a8 a1d3 643f
00000050: d9b4 5208 e412 97bf ce94 8c52 f822 983f
00000060: c808 a870 04a9 a8bf d83f 9990 20a6 96bf
00000070: 83cb 1940 aec3 abbf aadd 6575 615a 9abf
00000080: 6701 24e4 cd2b 90bf ce8e af98 6c97 99bf
00000090: 4062 a2de dfe2 813f b5aa 80d6 57b2 8e3f
000000a0: ec79 4842 6cfa a1bf c4db 3983 75d2 613f
000000b0: 54bd 46dc ad76 8e3f b98f 3754 e7ac 9a3f
000000c0: 8134 ad5e 8fd3 a5bf 4480 1d49 939c 8d3f
000000d0: d388 f436 91f4 a43f 21c5 a5cf b3fe 933f
000000e0: 339e ad28 ca4a 90bf e666 6e74 84c2 863f
000000f0: 7fe1 f0dd 4147 a2bf 1a53 b0c6 d974 a43f
00000100: dd7d 8e8f 1667 a4bf 01e7 7bfc 9419 9dbf
00000110: c61f a056 2cd9 9c3f db21 b4d4 3032 af3f
00000120: 5be3 7d66 5aac a6bf 4582 a966 d652 a0bf
00000130: 0678 1c50 8072 a13f 57a5 80f6 1bd4 833f
00000140: 6e6f 12de 793d a7bf b08a dc78 1cab a1bf
00000150: 05db 2d6e 4848 89bf 8b08 b595 4d6f 953f
00000160: cfed cad3 5ee9 a5bf d193 74c5 7353 663f
00000170: 1558 0053 060e 903f 16b7 b863 3df7 563f
00000180: 2346 b690 d319 703f fef3 3460 90f4 a53f
00000190: 04a9 143b 1a87 e33f a017 ee5c 1869 e2bf
000001a0: f0f9 6184 f0e8 f0bf 5742 7749 9c95 e23f
000001b0: 90da c4c9 fd0e f6bf 56a6 b120 41af 773f
000001c0: 0f82 e90f 28f6 a7bf 71c6 3027 6893 e7bf
000001d0: c9ab 730c c85e d4bf f0e0 270e a0df c13f
000001e0: 5188 8043 a852 d63f 4f30 10c2 abfe 833f
000001f0: 7fbd c282 fb01 e73f 842c 0b26 fe28 ecbf
00000200: eca5 2902 9cde e0bf 295d fa97 a432 d23f
00000210: 25d2 91b7 b7b6 8bbf 58ae b7cd 5488 c73f
00000220: d5b2 b5be 4868 d43f 5bcf 108e 59f6 e13f
00000230: 1de9 0c8c bcac bd3f 45f5 d6c0 5609 babf
00000240: fa2e becb b9d2 823f 705f 07ce 19d1 06c0
00000250: 44c9 3f8e 4182 a1bf 4c4f 58e2 0165 f9bf
00000260: b7c9 f2bf a618 91bf deb3 098b e5f1 ab3f
00000270: de75 36e4 9f19 a03f e9f1 7b9b fe6c e7bf
00000280: fa44 9e24 5d33 e2bf 51ca 5af9 1ba3 a3bf
00000290: c230 60c9 552c e2bf d89e 5912 a026 f03f
000002a0: 12a1 116c 5cff e53f 0280 63cf 9e4b ea3f
000002b0: 7462 0fed 6305 c1bf bf10 72de ffc7 df3f
000002c0: 1a17 0e84 6481 f1bf b0af 75a9 11fa c53f
000002d0: a14a cd1e 6805 fb3f 965a ce29 f14e 683f
000002e0: 72c5 c551 b989 a6bf 0b4c 5de8 0077 9fbf
000002f0: ace4 6377 8192 d53f e074 dc3a 4904 acbf
00000300: 5eba 490c 022b f03f b64d f1b8 a896 ecbf
00000310: cb86 3595 4561 cf3f d789 cbf1 0a44 d7bf
00000320: 8cb9 6b09 f9a0 c93f 2ae4 4a3d 0b42 cbbf
00000330: 855e 7f12 9f3b d23f 317d af21 382e c5bf
00000340: 8789 0629 780a d8bf 36bf ed4b 2ead 83bf
00000350: df98 5423 aaa6 9abf 7829 75c9 38c6 e7bf
00000360: b589 93fb 1d8a f2bf 9e07 7767 ed36 e33f
00000370: a688 043a 300c 7a3f fe9b 1727 be5a e33f
00000380: 546e a296 e656 c23f da10 2dc3 c947 a8bf
00000390: 514d 49d6 e1e8 debf 4a28 7d21 e4bc cf3f
000003a0: 1055 9d7a 4908 933f 2eac 1bef 8e8c e1bf
000003b0: 9336 55f7 c8e6 bebf 7991 09f8 3592 ca3f
000003c0: 959a 3dd0 0a0c da3f 3d10 59a4 8977 ca3f
000003d0: 01e2 0918 b897 8f3f ab48 e06a f871 8fbf
000003e0: cee7 37a7 edba ae3f ac36 ffaf 3a72 e53f
000003f0: 0055 dcb8 c5fc a43f de2b a9c9 422a b93f
00000400: ea80 7fa5 4e9b 943f 32ad 4d63 7b2d ccbf
00000410: 0a11 7008 556a e73f e888 7c97 5297 c23f
00000420: f9f6 ae41 5f7a da3f 7ec7 f0d8 cf62 d3bf
00000430: f643 6cb0 7092 d63f 268f a7e5 07ae dabf
00000440: 740d 3334 9e08 c6bf d6de e9c6 a286 72bf
00000450: 3f3a 75e5 b33c dcbf 76fa 415d a450 e4bf
00000460: 0344 c18c 2958 d4bf 19a2 540c a194 923f
00000470: 58ef 26ae 19cf 56bf 1d72 33dc 80cf c93f
00000480: 9031 772d 219f f0bf 95a5 8c6e 7319 8dbf
00000490: 9990 20a6 8e9f a3bf 658f 5033 a48a e93f
000004a0: ecdb 4944 f817 d13f 4563 edef 6c8f d43f
000004b0: ea42 acfe 08c3 c23f 8c6a 1151 4cde ac3f
000004c0: 5474 2497 ff10 f43f 151e 34bb eead c8bf
000004d0: ea09 4b3c a0ec fe3f 891b 2234 a39b 74bf
000004e0: 5ad3 612a a2cb 983f 5042 9f7e 068a b4bf
000004f0: da8d 3ee6 0302 c5bf fce0 7cea 58a5 c4bf
00000500: 020d 3675 1e15 d33f 0471 1e4e 603a cb3f
00000510: 61b6 110d 5a61 5dbf ffcd 8b13 5fed e43f
00000520: 508a 56ee 0566 a9bf 9695 26a5 a0db f5bf
00000530: 4212 ac60 0ac5 8cbf aebc e47f f277 da3f
00000540: 1c0c 7558 e196 b1bf f5a1 0bea 5b66 ee3f
00000550: 8f39 cfd8 97ec efbf ecf7 c43a 55be d33f
00000560: 7228 8de2 6602 abbf f9d4 5691 7648 aa3f
00000570: d31f 50ec 57f0 b33f 452e 3883 bf5f e33f
00000580: 7658 1b42 19d3 713f 1476 51f4 c0c7 d9bf
00000590: 2363 5a40 0d84 99bf 20cf 2edf fa30 ed3f
000005a0: 5bf0 fd68 931e ad3f f3cb 608c 4814 923f
000005b0: ab17 8dc6 eb0b 923f b116 9f02 603c cfbf
000005c0: 75cc 79c6 be64 e33f 7cee 04fb af73 d7bf
000005d0: fcfd 62b6 6455 c4bf faee 5696 e82c d7bf
000005e0: 05dd 5ed2 18ad d13f 30bc 92e4 b9be dd3f
000005f0: a20b ea5b e6f4 f4bf b63e f6c4 84e2 a0bf
00000600: 6d75 3925 2026 c5bf 0b46 2575 029a bc3f
00000610: 4697 3787 6bb5 db3f 534b 299e 6978 993f
00000620: 80ef 366f 9c14 dabf 50c3 b7b0 6e3c e73f
00000630: 843a 9b44 7353 b53f 8258 3673 486a cf3f
00000640: 382f 4e7c b523 e13f f04d d367 075c bbbf
00000650: f124 8ee1 56e6 b6bf 637b 2de8 bdb1 e13f
00000660: 69fc c22b 491e e1bf 6680 b0f8 f2a7 92bf
00000670: 5be2 f182 c27f 6ebf 1497 e315 889e d8bf
00000680: 01f9 122a 38bc e13f 7e00 529b 3839 f13f
00000690: a45f 11b2 e20a a23f 1476 51f4 c0c7 ddbf
000006a0: bf99 982e c4ea e43f 89d4 b48b 69a6 c13f
000006b0: bd8d cd8e 54df cbbf a4a9 9ecc 3f7a e63f
000006c0: 832d 1b42 3ae1 8abf ba3d f7d4 a01e b53f
000006d0: e995 5753 fe5a abbf 9753 0262 122e c8bf
000006e0: 1e8a 027d 224f f43f 5a9b c6f6 5a50 e13f
000006f0: 6405 7df1 5e18 7dbf e5b5 12ba 4be2 bc3f
00000700: 6843 5953 b4cd a83f d311 c0cd e2c5 db3f
00000710: c768 1d55 4d10 a1bf 0966 f107 a815 8bbf
00000720: d11c fe3f f3de a5bf e59d 4319 aae2 e03f
00000730: bfb6 7efa cf9a 9fbf 4cff ed0d 19ea 9bbf
00000740: adc0 90d5 ad9e c93f 4de2 0742 0d3a b83f
00000750: af95 d05d 1267 dd3f ddb6 ef51 7f3d e83f
00000760: f7cc 9200 35b5 f0bf 44eb 973e 2ab4 aabf
00000770: 5feb 5223 f433 ef3f 87f8 872d 3d1a e13f
00000780: 3e93 fdf3 3460 d9bf 6a39 2bfd df6c a6bf
00000790: 79ae efc3 4142 ca3f 7495 eeae b321 e53f
000007a0: 2b30 6475 abe7 f6bf fc28 d9a0 e52f 9b3f
000007b0: b56e 83da 6fed d53f cc0d 863a ac70 bf3f
000007c0: 0681 9543 8b6c d23f 28d7 14c8 ec2c d4bf
000007d0: fe0f b056 ed9a efbf 6ada c534 d3bd d1bf
000007e0: 389f 3a56 293d bbbf 6bee 8dc6 46c5 b8bf
000007f0: a94a 5b5c e333 c53f d075 2b95 01b1 9e3f

FC2_bias f8 [50]
-0.565798 0.686399 0.321735 0.0786226 -0.196241 0.122257 -1.18903 -0.860009
-1.40829 -2.09454 -1.00807 -0.34262 -0.280521 0.162604 -1.04299 0.628734
0.501529 -0.607309 -3.88682 -0.365017 -0.251825 0.210726 -0.992128 -0.297251
0.380685 -0.820355 -0.034086 -0.931036 -1.34695 1.17358 0.559954 -0.110818
1.50555 -0.246102 -0.729381 -1.30218 -0.243331 0.790511 1.19928 -0.637417
-0.0165499 -0.604099 -0.460649 1.17162 0.701376 -0.187021 -0.0209538 -0.885157
0.501261 -1.27254
00000000: f88c 4468 041b e2bf 323a 2009 fbf6 e53f
00000010: baa0 be65 4e97 d43f 39fb b957 9c20 b43f
00000020: ec31 91d2 6c1e c9bf ac02 b518 3c4c bf3f
00000030: f567 3f52 4406 f3bf 5280 2898 3185 ebbf
00000040: 9c8a 5418 5b88 f6bf 8b4f 0130 9ec1 00c0
00000050: 7042 2102 0e21 f0bf 3d27 bd6f 7ced d5bf
00000060: 7cd6 355a 0ef4 d1bf c171 1937 35d0 c43f
00000070: 72e1 4048 16b0 f0bf b343 fcc3 961e e43f
00000080: d3db 9f8b 860c e03f 7920 b248 136f e3bf
00000090: 8082 8b15 3518 0fc0 61fa 5e43 705c d7bf
000000a0: 3d2c d49a e61d d0bf d95c 35cf 11f9 ca3f
000000b0: b744 2e38 83bf efbf cd02 ed0e 2906 d3bf
000000c0: 05fa 449e 245d d83f c685 0321 5940 eabf
000000d0: d7be 805e b873 a1bf cac1 6c02 0ccb edbf
000000e0: 228e 7571 1b8d f5bf bbd5 73d2 fbc6 f23f
000000f0: d575 a8a6 24eb e13f 7ae1 ce85 915e bcbf
00000100: 82e2 c798 bb16 f83f ee76 bd34 4580 cfbf
00000110: 5f5c aad2 1657 e7bf a015 18b2 bad5 f4bf
00000120: 512e 8d5f 7825 cfbf ac1a 84b9 dd4b e93f
00000130: 38f3 ab39 4030 f33f 0743 1d56 b865 e4bf
00000140: be1e 02fd 74f2 90bf 537b 116d c754 e3bf
00000150: bed8 7bf1 457b ddbf ad6e f59c f4be f23f
00000160: a260 c614 ac71 e63f cc25 55db 4df0 c7bf
00000170: fa5e e8b6 e974 95bf 446a dac5 3453 ecbf
00000180: 0454 3882 540a e03f 23a1 2de7 525c f4bf

FC2_weight f8 [50, 50]
0.214857 0.148205 -0.682384 -0.287364 0.491698 -0.111671 -0.26953 0.331974
0.211793 0.0182833 -0.232427 -0.108645 0.0140024 -0.0814506 8.87115e-05 0.559767
0.0761568 0.335592 -0.104184 0.698942 -2.03338 -0.0747881 0.21508 0.85994
-0.161419 0.911423 -0.02341 -0.100661 1.34538 0.680663 -2.058 0.21184
-0.309781 -0.612266 0.387639 -0.480984 0.82607 0.255421 0.209661 0.0967551
0.336503 0.156017 -0.242129 -0.189025 0.369391 0.0484228 -0.024957 0.864565
0.306536 -1.36445 0.977035 -0.175067 -0.0241051 0.940607 0.292536 -0.10188
-1.71049 0.0662303 0.599048 -0.444047 -0.0232917 -0.0188542 -1.00211 0.204549
1.30017 -0.743014 -0.559064 -0.312772 0.293797 0.103602 1.26755 -0.356855
-1.65769 -0.361769 -0.140236 0.193751 -0.0467013 0.586094 1.58427 0.896757
3.84277 -0.484581 -0.30964 -0.417597 0.284911 0.331252 0.386852 0.288471
-0.216851 1.41825 0.322137 0.275701 0.420221 0.188129 0.695822 -0.0554441
-0.0310591 0.669113 0.265611 -0.605554 -0.269825 -0.287809 -5.01231 -0.0991349
-0.461571 -0.486229 -1.54768 0.118797 0.00322421 0.697196 -0.97757 0.118711
0.475141 -0.569084 -0.412036 0.0392511 -0.926329 0.385983 0.51161 0.289312
-0.659035 -0.0463746 0.0716378 -0.383866 -0.674354 0.156714 0.0169471 -0.995488
0.0584144 -1.38828 -0.84739 -0.547906 -0.444297 -0.216338 0.400135 -0.222601
-0.707468 0.0149145 0.0970856 0.366319 0.807048 0.306506 -0.488564 -0.128821
-1.72295 0.137707 0.00257478 -0.161067 0.162045 0.117859 -0.0560542 -0.384149
0.150607 0.0121052 0.0453543 -0.228334 -0.600073 -0.135394 0.498036 0.388584
0.184342 0.0845431 0.122795 0.121952 0.0281969 0.0447598 0.381426 0.239973
-0.460622 -0.0901154 -1.28642 -0.0473191 0.233483 0.0356073 -0.0259853 -0.80081
0.0149739 0.231212 -0.30821 0.68229 -0.583696 -0.0323575 -2.80642 0.309196
-0.329881 -0.250672 0.248732 0.178131 -0.42958 0.554738 0.255124 0.619253
0.279967 -0.145541 -0.30311 -0.0720912 0.00945799 0.487763 0.593198 -0.0827106
0.632533 -1.62926 -0.0344745 0.170365 -0.145254 0.389656 -1.68945 -0.244119
0.205753 0.0611206 1.19034 0.0930303 -1.0331 0.665394 0.820179 1.18618
2.51211 -0.0758175 1.23987 0.23003 -0.0115187 0.276512 0.472697 0.459598
0.793468 1.15197 -0.051994 -0.00829391 0.264848 -4.31542 -1.12857 -0.00940554
-1.8721 -0.297576 0.0693154 0.408641 0.703768 -0.0572455 0.370954 0.387675
2.16788 -0.364763 0.786579 -1.54922 0.459481 -0.105236 -0.0364641 -0.0235455
-4.81019 0.260438 -0.0420178 -0.0235281 0.0308158 -0.0453717 -0.0198174 0.00575148
00000000: b588 2826 6f80 cb3f 6345 0da6 61f8 c23f
00000010: 8909 6af8 16d6 e5bf 3d0e 83f9 2b64 d2bf
00000020: 098d 60e3 fa77 df3f ab5f e97c 7896 bcbf
00000030: c79d d2c1 fa3f d1bf d4d3 47e0 0f3f d53f
00000040: fcc7 4274 081c cb3f bf77 407e dbb8 923f
00000050: d28b dafd 2ac0 cdbf 39b9 dfa1 28d0 bbbf
00000060: 512a 8650 4aad 8c3f f554 3d4f f2d9 b4bf
00000070: 94de 11f7 5341 173f 3929 cc7b 9ce9 e13f
00000080: 1636 5e15 037f b33f 9e26 33de 567a d53f
00000090: fc36 c478 cdab babf 6aa0 f99c bb5d e63f
000000a0: 4eb9 c2bb 5c44 00c0 3646 a11b 5025 b3bf
000000b0: f207 03cf bd87 cb3f 31b6 10e4 a084 eb3f
000000c0: b1fc f9b6 60a9 c4bf 874f 3a91 602a ed3f
000000d0: d4f1 9881 caf8 97bf 588f fb56 ebc4 b9bf
000000e0: 6614 cb2d ad86 f53f a81c 93c5 fdc7 e53f
000000f0: 1058 39b4 c876 00c0 af08 feb7 921d cb3f
00000100: ee04 fbaf 73d3 d3bf d07c cedd ae97 e3bf
00000110: 7fdd e9ce 13cf d83f 8b8d 791d 71c8 debf
00000120: 739d 465a 2a6f ea3f 1e8b 6d52 d158 d03f
00000130: 6c92 1ff1 2bd6 ca3f 31a1 3836 f1c4 b83f
00000140: 7860 00e1 4389 d53f 355d 4f74 5df8 c33f
00000150: 37e3 3444 15fe cebf e02d 90a0 f831 c8bf
00000160: 7cf3 1b26 1aa4 d73f 82f1 c28c dfca a83f
00000170: 5e9f 39eb 538e 99bf 0a85 0838 84aa eb3f
00000180: 69fc c22b 499e d33f 696f f085 c9d4 f5bf
00000190: f983 81e7 de43 ef3f 35ee cd6f 9868 c6bf
000001a0: 23d0 aae0 01af 98bf 0070 ecd9 7319 ee3f
000001b0: 1ec5 39ea e8b8 d23f a2d1 1dc4 ce14 babf
000001c0: 2029 22c3 2a5e fbbf c317 810c 78f4 b03f
000001d0: a27e 17b6 662b e33f 2bc3 b81b 446b dcbf
000001e0: 58ae 1287 c7d9 97bf 34a8 91f1 834e 93bf
000001f0: b8e9 cf7e a408 f0bf fdf9 b660 a92e ca3f
00000200: 5ad8 d30e 7fcd f43f 6b0b cf4b c5c6 e7bf
00000210: c6de 8b2f dae3 e1bf 53b0 c6d9 7404 d4bf
00000220: 266d aaee 91cd d23f 62d9 cc21 a985 ba3f
00000230: 80b7 4082 e247 f43f 4980 9a5a b6d6 d6bf
00000240: f67f 0ef3 e585 fabf 5439 ed29 3927 d7bf
00000250: c765 dcd4 40f3 c1bf 289d 4830 d5cc c83f
00000260: b882 5c98 3be9 a7bf e737 4c34 48c1 e23f
00000270: f08a e07f 2b59 f93f b8b0 6ebc 3bb2 ec3f
00000280: 3c66 a032 febd 0e40 99d4 d006 6003 dfbf
00000290: e223 624a 24d1 d3bf f417 7ac4 e8b9 dabf
000002a0: 6e52 d158 fb3b d23f 8e03 af96 3b33 d53f
000002b0: ac19 19e4 2ec2 d83f e90a b611 4f76 d23f
000002c0: 3b6d 8d08 c6c1 cbbf fed4 78e9 26b1 f63f
000002d0: 2638 f581 e49d d43f 245e 9ece 15a5 d13f
000002e0: 25ea 059f e6e4 da3f 80ef 366f 9c14 c83f
000002f0: 43cb ba7f 2c44 e63f 9126 8348 2b63 acbf
00000300: be07 f9ea f4cd 9fbf a582 8aaa 5f69 e53f
00000310: 834d 9d47 c5ff d03f 93c8 3ec8 b260 e3bf
00000320: 302a a913 d044 d1bf 4ca5 9f70 766b d2bf
00000330: b1a7 1dfe 9a0c 14c0 3669 64a1 e760 b9bf
00000340: 8d0c 7217 618a ddbf 6479 573d 601e dfbf
00000350: c1c5 8a1a 4cc3 f8bf cde7 dced 7a69 be3f
00000360: 7488 2c90 a869 6a3f 51dd 5cfc 6d4f e63f
00000370: 809f 71e1 4048 efbf afea ac16 d863 be3f
00000380: 7347 ffcb b568 de3f dfa8 15a6 ef35 e2bf
00000390: f793 313e cc5e dabf 42ff a95d b818 a43f
000003a0: a8c3 0ab7 7ca4 edbf 49f7 730a f2b3 d83f
000003b0: 57cf 49ef 1b5f e03f 54c8 957a 1684 d23f
000003c0: 666b 7d91 d016 e5bf faeb ba5c 69be a7bf
000003d0: a24a 28d8 da56 b23f 2bf7 02b3 4291 d8bf
000003e0: 37a8 fdd6 4e94 e5bf dfa4 6950 340f c43f
000003f0: a254 0ca1 945a 913f 31ef 71a6 09db efbf
00000400: e31d 3b03 7ee8 ad3f d80d db16 6536 f6bf
00000410: 59a3 1ea2 d11d ebbf 9607 e929 7288 e1bf
00000420: 957f 2daf 5c6f dcbf f3e6 70ad f6b0 cbbf
00000430: 9609 bfd4 cf9b d93f 5e48 8787 307e ccbf
00000440: cced 5eee 93a3 e6bf a2b8 e34d 7e8b 8e3f
00000450: 109c e914 9ada b83f b3d1 393f c571 d73f
00000460: b0ab c953 56d3 e93f 15c7 8157 cb9d d33f
00000470: 3c30 80f0 a144 dfbf b5dd 04df 347d c0bf
00000480: 8c4a ea04 3491 fbbf 2713 b70a 62a0 c13f
00000490: 03e2 9e7c b417 653f 9d7f bbec d79d c4bf
000004a0: 207b bdfb e3bd c43f 350d 8ae6 012c be3f
000004b0: e85c 9bd7 22b3 acbf 73a1 f2af e595 d8bf
000004c0: e23a c615 1747 c33f aa6e e470 9cca 883f
000004d0: 3648 77c6 ad38 a73f 774d 486b 0c3a cdbf
000004e0: afcd c64a cc33 e3bf 478d 0931 9754 c1bf
000004f0: 11c3 0e63 d2df df3f 63ed ef6c 8fde d83f
00000500: e0bd a3c6 8498 c73f a93a 9ad9 9da4 b53f
00000510: 01c1 1c3d 7e6f bf3f ec89 ae0b 3f38 bf3f
00000520: c9f2 64ed a5df 9c3f 3edb 59aa c1ea a63f
00000530: ab05 f698 4869 d83f 2025 766d 6fb7 ce3f
00000540: f25b 74b2 d47a ddbf 73af dd87 cd11 b7bf
00000550: a1b9 4e23 2d95 f4bf 68ca f385 353a a8bf
00000560: 0c03 965c c5e2 cd3f af6a ffb9 1e3b a23f
00000570: a3fd b4f6 e39b 9abf 8ee9 094b 3ca0 e9bf
00000580: 893d 59d6 a2aa 8e3f 19ac 38d5 5a98 cd3f
00000590: d235 936f b6b9 d3bf 2f69 8cd6 51d5 e53f
000005a0: e2ca d93b a3ad e2bf 1a86 8f88 2991 a0bf
000005b0: fab8 3654 8c73 06c0 0075 0305 dec9 d33f
000005c0: fa97 a432 c51c d5bf 6477 8192 020b d0bf
000005d0: 72fd bb3e 73d6 cf3f efae b321 ffcc c63f
000005e0: e700 c11c 3d7e dbbf 7c26 fbe7 69c0 e13f
000005f0: 5a2e 1b9d f353 d03f 7c65 deaa ebd0 e33f
00000600: 0f64 3db5 faea d13f cb12 9d65 16a1 c2bf
00000610: bccb 457c 2766 d3bf 3e53 54a2 9174 b2bf
00000620: f01c e3ed b55e 833f edb9 4c4d 8237 df3f
00000630: f7ae 415f 7afb e23f 6254 089a 852c b5bf
00000640: 2c81 94d8 b53d e43f 36e5 0aef 7211 fabf
00000650: 0587 1744 a4a6 a1bf 7407 b133 85ce c53f
00000660: d07c cedd ae97 c2bf d82b 2cb8 1ff0 d83f
00000670: 9ca2 23b9 fc07 fbbf 5186 aa98 4a3f cfbf
00000680: cde5 0643 1d56 ca3f a44a 3904 334b af3f
00000690: 24ee b1f4 a10b f33f 577d 0970 d5d0 b73f
000006a0: 2bf6 97dd 9387 f0bf 488c 9e5b e84a e53f
000006b0: 24b6 bb07 e83e ea3f 5fb5 32e1 97fa f23f
000006c0: f0a2 af20 cd18 0440 29e8 f692 c668 b3bf
000006d0: 11aa d4ec 81d6 f33f 1aa8 8c7f 9f71 cd3f
000006e0: 44e8 56be 1d97 87bf 3ae6 3c63 5fb2 d13f
000006f0: 3db5 faea aa40 de3f 05a6 d3ba 0d6a dd3f
00000700: 5985 cd00 1764 e93f e691 3f18 786e f23f
00000710: b22b 2d23 f59e aabf 37d2 a5c1 65fc 80bf
00000720: f44d 9a06 45f3 d03f 6c04 e275 fd42 11c0
00000730: 91f2 936a 9f0e f2bf 2619 9c35 3643 83bf
00000740: 3277 2d21 1ff4 fdbf 8bc4 0435 7c0b d3bf
00000750: cef1 1b70 a7be b13f cb80 b394 2c27 da3f
00000760: 1e15 ff77 4485 e63f b7b3 af3c 484f adbf
00000770: 2c81 94d8 b5bd d73f e483 9ecd aacf d83f
00000780: 4738 2d78 d157 0140 419d f2e8 4658 d7bf
00000790: 630d 17b9 a72b e93f 28f2 24e9 9ac9 f8bf
000007a0: 3b89 08ff 2268 dd3f 98a2 5c1a bff0 babf
000007b0: 10c6 f429 6cab a2bf 0133 dfc1 4f1c 98bf
000007c0: 5a2f 8672 a23d 13c0 75ae 2825 04ab d03f
000007d0: 0122 b369 5b83 a5bf f1e7 2510 c017 98bf
000007e0: efe0 cc54 2d8e 9f3f beed 539f f53a a7bf
000007f0: 0427 9133 034b 94bf dcbc 0e28 dd8e 773f

FC3_bias f8 [50]
-0.0139097 -0.0752888 2.07553 0.100026 -0.693448 -1.27075 -1.32052 -1.03554
-1.22031 -1.75459 -0.121183 -2.16261 -0.143069 -0.098963 0.619428 -2.32844
-0.935336 -0.563003 -3.33244 -1.34426 -0.0438336 0.545651 -1.44573 -0.284542
-0.569242 -0.527671 0.331887 -1.16724 0.599635 -1.15376 0.675129 0.0463154
-0.755164 0.904751 -1.09836 0.490709 -1.83034 -0.330212 -0.765664 1.3309
-0.0499607 -0.0330706 0.9438 -1.42062 1.15668 0.46953 -0.120938 -1.25748
0.265428 -1.13037
00000000: b201 c754 b07c 8cbf 3d4d c175 2046 b3bf
00000010: 5fef fe78 af9a 0040 14ec bfce 4d9b b93f
00000020: 5f40 2fdc b930 e6bf a245 b6f3 fd54 f4bf
00000030: 376c 5b94 d920 f5bf 8b32 1b64 9291 f0bf
00000040: 4ab5 4fc7 6386 f3bf df37 bef6 cc12 fcbf
00000050: 6dc7 d45d d905 bfbf 3e05 c078 064d 01c0
00000060: 6c24 09c2 1550 c2bf a698 83a0 a355 b9bf
00000070: 0741 47ab 5ad2 e33f ff95 9526 a5a0 02c0
00000080: c4af 58c3 45ee edbf af98 11de 1e04 e2bf
00000090: d40e 7f4d d6a8 0ac0 a722 15c6 1682 f5bf
000000a0: 6c90 ee8c 5b71 a6bf 45f3 0016 f975 e13f
000000b0: 8b89 cdc7 b521 f7bf dfa8 15a6 ef35 d2bf
000000c0: e84e b0ff 3a37 e2bf 1286 014b aee2 e0bf
000000d0: 5fec bdf8 a23d d53f 2254 a9d9 03ad f2bf
000000e0: c72e 51bd 3530 e33f 67ed b60b cd75 f2bf
000000f0: 0f99 f221 a89a e53f 6f31 9af0 a6b6 a73f
00000100: baba 63b1 4d2a e8bf d7be 805e b8f3 ec3f
00000110: c2c0 73ef e192 f1bf 5395 b6b8 c667 df3f
00000120: 62f8 8898 1249 fdbf c9ca 2f83 3122 d5bf
00000130: 772f f7c9 5180 e8bf 41f1 63cc 5d4b f53f
00000140: 24a8 2be9 7294 a9bf d70e eb32 a1ee a0bf
00000150: a4df be0e 9c33 ee3f 42b2 8009 dcba f6bf
00000160: 19ff 3ee3 c281 f23f 946a 9f8e c70c de3f
00000170: 51f9 d7f2 caf5 bebf 3bfc 3559 a31e f4bf
00000180: 0055 dcb8 c5fc d03f 8412 66da fe15 f2bf

FC3_weight f8 [50, 50]
0.00999619 0.000292866 0.0790146 0.0871571 -0.857478 -1.1677 0.0990164 0.19411
-0.866258 -0.857657 0.178653 0.0913848 -0.536676 -0.0055165 -0.102886 -0.63656
-0.30826 1.75046 -0.50969 -0.373696 1.11773 -0.0938676 -1.67456 0.434037
0.445639 -0.224384 -0.27661 -0.519488 0.125439 -0.496734 -0.00159373 0.328306
0.692017 -0.512932 -0.0835826 0.108872 -0.0388538 0.353628 0.0399288 -0.0726106
-0.586452 0.0370806 1.37647 -1.30144 0.0227431 -0.376441 0.0800532 0.3469
-0.412379 -0.869045 -0.00261205 -0.0150597 -0.0471986 -0.266354 -0.981046 -1.29672
0.72911 -0.0930008 0.00853065 0.100805 -0.413834 0.286278 0.984641 -0.0169251
-0.678122 0.593289 0.144966 -0.615594 0.737276 0.080309 0.415045 0.497052
-1.9202 -0.20353 -0.531332 0.292971 0.830858 -0.122349 -0.129908 0.416053
-0.712263 -0.54501 -0.23467 0.315312 0.499866 -0.218558 -0.166037 0.0567439
1.53613 0.314573 -0.766228 0.00635205 1.73476 -0.679178 0.127239 0.288247
-0.0500394 -0.308458 0.444344 -2.43179 -0.0516577 -0.0103319 0.0621996 -0.925938
0.870301 -1.03439 1.01386 0.462128 -0.308799 1.60024 -0.154793 -2.81419
0.899443 -0.029768 1.00973 0.10516 -0.139923 -0.206591 0.320199 -0.0124407
-1.62865 0.564745 0.047265 -1.00096 -0.27309 0.0229402 -0.842896 -0.311368
-0.433316 -0.49448 -0.821389 1.13439 -0.45704 -0.394354 -0.463076 0.122626
0.671962 -0.181852 -0.373572 -0.234189 -0.431714 -0.0170012 0.048259 -0.373752
0.477892 0.0179865 0.0485395 0.412317 -0.399889 -2.87603 0.0286741 -0.0425698
-0.0903424 0.0573467 -1.35997 0.492333 0.391039 -0.592795 -1.13052 0.750538
-0.658714 -0.396671 -0.870784 -0.0395679 0.468733 -0.438845 -0.280614 0.180224
0.0628842 -0.0178168 0.335823 -0.384305 -0.907876 0.241147 0.154343 -0.421595
-0.388121 -0.831273 0.454367 1.80758 -0.0159048 0.626078 -1.34887 -1.11443
0.281217 0.275477 0.197708 -0.13385 0.742245 -0.156709 -0.63783 0.0065948
0.784599 -0.363561 -0.615667 0.23612 -0.714612 0.335445 0.585263 -0.455084
-0.0433085 0.0381799 0.161013 -1.4252 -0.604589 -0.675935 0.92142 -0.0355567
-0.769568 -1.38331 0.55332 2.11511 0.343535 0.01314 -1.66783 2.41414
-0.135165 1.26235 -1.18445 -0.279444 -0.821582 0.105706 0.39531 -1.39727
-1.8778 -0.406642 -0.043088 -1.37335 0.419954 -0.0915749 -0.386791 -1.73528
0.235293 -1.14748 0.649774 0.158577 0.782252 0.454835 0.30876 -0.591539
0.42069 0.0269821 -0.189276 -4.42887 -1.00475 -0.19547 -0.306076 -0.843644
-0.976524 0.816362 -0.0200741 0.00757852 0.0599754 1.34796 -1.13946 -0.270971
00000000: 57aa 13e9 e178 843f ce57 61e4 7931 333f
00000010: cd11 e802 4d3a b43f 513c 1d7e ed4f b63f
00000020: 7c43 e1b3 7570 ebbf 90a0 f831 e6ae f2bf
00000030: 0085 c487 2359 b93f b8cc e9b2 98d8 c83f
00000040: 6ebf 7cb2 62b8 ebbf 63ef c517 ed71 ebbf
00000050: 6a88 2afc 19de c63f f5fb 5987 fe64 b73f
00000060: 018a 9125 732c e1bf 5705 6a31 7898 76bf
00000070: 8e5c 37a5 bc56 babf e622 be13 b35e e4bf
00000080: b48e aa26 88ba d3bf 6e4c 4f58 e201 fc3f
00000090: c824 2367 614f e0bf 5358 a9a0 a2ea d7bf
000000a0: 1821 3cda 38e2 f13f 2c6d 2700 b507 b8bf
000000b0: 4209 336d ffca fabf c040 1020 43c7 db3f
000000c0: 029e b470 5985 dc3f eb71 df6a 9db8 ccbf
000000d0: a4c7 ef6d fab3 d1bf 2843 554c a59f e0bf
000000e0: fd4b 5299 620e c03f c0eb 3367 7dca dfbf
000000f0: b944 a28e 961c 5abf 2828 452b f702 d53f
00000100: 41d5 e8d5 0025 e63f c74c a25e f069 e0bf
00000110: 14c0 8355 ab65 b5bf 8a3a 730f 09df bb3f
00000120: f990 a630 a5e4 a3bf f7ca bc55 d7a1 d63f
00000130: e248 5634 8c71 a43f c2ca 57b8 9b96 b2bf
00000140: b48f 15fc 36c4 e2bf 4dd2 a178 3afc a23f
00000150: 4bcd 1e68 0506 f63f c24c dbbf b2d2 f4bf
00000160: 7bb0 d69a f749 973f 04e8 f7fd 9b17 d8bf
00000170: 7dad f0d3 5d7e b43f a4df be0e 9c33 d63f
00000180: e7a8 a3e3 6a64 dabf 0113 b875 37cf ebbf
00000190: 35a2 6aaa dd65 65bf bb8b e6b7 9ed7 8ebf
000001a0: 237f d536 6a2a a8bf 8429 caa5 f10b d1bf
000001b0: 47e4 bb94 ba64 efbf 1e1b 8178 5dbf f4bf
000001c0: 4df8 a57e de54 e73f 6078 8082 e6ce b7bf
000001d0: 10e6 1b76 8478 813f aef5 4542 5bce b93f
000001e0: 6743 fe99 417c dabf 4b1d e4f5 6052 d23f
000001f0: a19f a9d7 2d82 ef3f 1816 ed3b d054 91bf
00000200: ef56 96e8 2cb3 e5bf 0c73 8236 39fc e23f
00000210: 7b16 84f2 3e8e c23f 72a4 3330 f2b2 e3bf
00000220: b405 84d6 c397 e73f 1310 9370 218f b43f
00000230: 8e92 57e7 1890 da3f 3f54 1a31 b3cf df3f
00000240: 9a77 9ca2 23b9 febf e89f e062 450d cabf
00000250: 492f 6af7 ab00 e1bf 664a eb6f 09c0 d23f
00000260: c7d6 3384 6396 ea3f 0dc4 b299 4352 bfbf
00000270: f38f be49 d3a0 c0bf a4c5 19c3 9ca0 da3f
00000280: bfd3 64c6 dbca e6bf 54c6 bfcf b870 e1bf
00000290: d218 ada3 aa09 cebf 9753 0262 122e d43f
000002a0: 3178 98f6 cdfd df3f c7bb 2363 b5f9 cbbf
000002b0: 9885 764e b340 c5bf 96b7 7e55 890d ad3f
000002c0: c078 060d fd93 f83f 4c18 cdca f621 d43f
000002d0: 91f1 2895 f084 e8bf c26e 3370 9b04 7a3f
000002e0: 1a8b a6b3 93c1 fb3f bd34 4580 d3bb e5bf
000002f0: 944b e317 5e49 c03f 1de3 8a8b a372 d23f
00000300: 66de 05a5 c39e a9bf e221 8c9f c6bd d3bf
00000310: ef1f 0bd1 2170 dc3f 31eb c550 4e74 03c0
00000320: 1c54 2cc8 e072 aabf 9d26 d824 e428 85bf
00000330: 3d08 a63f a0d8 af3f edf4 83ba 48a1 edbf
00000340: 94a2 957b 81d9 eb3f 77f3 5487 dc8c f0bf
00000350: 9b8f 6b43 c538 f03f 8237 a451 8193 dd3f
00000360: 7766 82e1 5cc3 d3bf 4304 1c42 959a f93f
00000370: 492a 53cc 41d0 c3bf 88d7 f50b 7683 06c0
00000380: 52b7 b3af 3cc8 ec3f 3b8b dea9 807b 9ebf
00000390: 2ba4 fca4 da27 f03f 96ec d808 c4eb ba3f
000003a0: 8fa6 7a32 ffe8 c1bf 91ef 52ea 9271 cabf
000003b0: d68f 4df2 237e d43f 1162 1d7d 827a 89bf
000003c0: 1e16 6a4d f30e fabf 6e8b 321b 6412 e23f
000003d0: 50aa 7d3a 1e33 a83f a4aa 09a2 ee03 f0bf
000003e0: 4356 b77a 4e7a d1bf 2a07 0ec3 a27d 973f
000003f0: 23bc 3d08 01f9 eabf e256 410c 74ed d3bf
00000400: a758 3508 73bb dbbf 4bab 2171 8fa5 dfbf
00000410: a169 8995 d148 eabf 118d ee20 7626 f23f
00000420: 8eaf 3db3 2440 ddbf 82fe 428f 183d d9bf
00000430: efff e384 09a3 ddbf e7a8 a3e3 6a64 bf3f
00000440: baf3 c473 b680 e53f 1c29 5b24 ed46 c7bf
00000450: 4ce2 ac88 9ae8 d7bf e99d 0ab8 e7f9 cdbf
00000460: 096c cec1 33a1 dbbf d294 f837 c368 91bf
00000470: 19af 7955 67b5 a83f 4622 3482 8deb d7bf
00000480: 3448 c153 c895 de3f dbf8 1395 0d6b 923f
00000490: c6dd 205a 2bda a83f e36d a5d7 6663 da3f
000004a0: e1ed 4108 c897 d9bf e084 4204 1c02 07c0
000004b0: 160c f846 be5c 9d3f 9132 9875 b5cb a5bf
000004c0: c530 71f5 ad20 b7bf f429 11f2 8b5c ad3f
000004d0: 6da8 18e7 6fc2 f5bf da75 6f45 6282 df3f
000004e0: 8e79 1d71 c806 d93f 2a6f 4738 2df8 e2bf
000004f0: 2d95 b723 9c16 f2bf cbf7 8c44 6804 e83f
00000500: e25a ed61 2f14 e5bf 2862 11c3 0e63 d9bf
00000510: 7c29 3c68 76dd ebbf 225b f168 3e42 a4bf
00000520: fb94 63b2 b8ff dd3f f5d6 c056 0916 dcbf
00000530: 012f 336c 94f5 d1bf a226 fa7c 9411 c73f
00000540: 3c64 6fce 2d19 b03f aa09 4735 913e 92bf
00000550: a8a7 8fc0 1f7e d53f 2a1d acff 7398 d8bf
00000560: 7158 1af8 510d edbf 48a6 43a7 e7dd ce3f
00000570: 64ea aeec 82c1 c33f 410e 4a98 69fb dabf
00000580: 2103 7976 f9d6 d8bf a587 a1d5 c999 eabf
00000590: a96c 5853 5914 dd3f 7975 8e01 d9eb fc3f
000005a0: 91ce 650f 5949 90bf c3d7 d7ba d408 e43f
000005b0: 69e3 88b5 f894 f5bf 86e6 3a8d b4d4 f1bf
000005c0: 2312 8596 75ff d13f 5936 7348 6aa1 d13f
000005d0: 302b 14e9 7e4e c93f a7e8 482e ff21 c1bf
000005e0: 1cd3 1396 78c0 e73f 1893 fe5e 0a0f c4bf
000005f0: b70b cd75 1a69 e4bf f2b6 2d25 2603 7b3f
00000600: 802d af5c 6f1b e93f b477 465b 9544 d7bf
00000610: ee3e c747 8bb3 e3bf 0c3c f71e 2e39 ce3f
00000620: 6a88 2afc 19de e6bf 80d4 264e ee77 d53f
00000630: 15e2 9178 79ba e23f 0bb4 3ba4 1820 ddbf
00000640: e412 471e 882c a6bf 5aa6 badb 508c a33f
00000650: 6d8c 9df0 129c c43f af25 e483 9ecd f6bf
00000660: daae d007 cb58 e3bf a818 e76f 42a1 e5bf
00000670: 952b bccb 457c ed3f 90af 4edf 7c34 a2bf
00000680: 448a 0112 4da0 e8bf 19ad a3aa 0922 f6bf
00000690: 8620 0725 ccb4 e13f 5d8a abca beeb 0040
000006a0: cd01 8239 7afc d53f 29d0 27f2 24e9 8a3f
000006b0: 569a 9482 6eaf fabf 39b9 dfa1 2850 0340
000006c0: e92b 4833 164d c1bf 8ab0 e1e9 9532 f43f
000006d0: 88f4 dbd7 81f3 f2bf 240f 4416 69e2 d1bf
000006e0: c66e 9f55 664a eabf 9ab0 fd64 8c0f bb3f
000006f0: 5b08 7250 c24c d93f 25e9 9ac9 375b f6bf
00000700: 5ddc 4603 780b febf a585 cb2a 6c06 dabf
00000710: 7e39 b35d a10f a6bf b762 7fd9 3df9 f5bf
00000720: b5c2 f4bd 86e0 da3f a76c a2e0 7371 b7bf
00000730: d6c6 d809 2fc1 d8bf 3272 16f6 b4c3 fbbf
00000740: 3126 fdbd 141e ce3f 7906 0dfd 135c f2bf
00000750: b950 f9d7 f2ca e43f d9ea 724a 404c c43f
00000760: 0261 a758 3508 e93f cedf 8442 041c dd3f
00000770: 8907 944d b9c2 d33f 98df 6932 e3ed e2bf
00000780: 7845 f0bf 95ec da3f 5d42 4f14 32a1 9b3f
00000790: 1077 f52a 323a c8bf 2cf1 80b2 29b7 11c0
000007a0: fa7e 6abc 7413 f0bf f7af ac34 2905 c9bf
000007b0: b0ca 85ca bf96 d3bf 95ee aeb3 21ff eabf
000007c0: 944a 7842 af3f efbf 124f 7633 a31f ea3f
000007d0: 858d fc0b 4e8e 94bf da53 d578 a70a 7f3f
000007e0: 8e08 217b 18b5 ae3f fe0e 4581 3e91 f53f
000007f0: 419a b168 3a3b f2bf cb85 cabf 9657 d1bf

FC4_bias f8 [50]
-0.10941 -4.41561 1.26658 -0.45734 2.18835 -0.366215 0.365192 -1.48285
0.178513 0.0940409 0.511476 -1.94127 -0.702298 -0.14127 1.06269 0.527619
0.781268 -1.95352 -2.39682 -0.789136 0.200721 -0.775956 0.71733 -1.66388
1.08101 -0.063854 1.56719 0.0410385 1.77398 -0.0660338 0.495254 -2.61919
1.66505 -0.676603 0.414891 -1.21676 1.11506 0.928331 0.2297 0.053062
2.12523 -1.03212 0.629189 -3.50732 -0.507355 0.372373 0.932018 -0.503402
-1.42554 0.883041
00000000: dff8 da33 4b02 bcbf ef8f f7aa 95a9 11c0
00000010: 6b48 dc63 e943 f43f dbc4 c9fd 0e45 ddbf
00000020: e09c 11a5 bd81 0140 397f 130a 1170 d7bf
00000030: 79b1 3044 4e5f d73f 44fa edeb c0b9 f7bf
00000040: ab96 7494 83d9 c63f 2185 fc7d 1013 b83f
00000050: 700b 96ea 025e e03f 734b ab21 710f ffbf
00000060: 897a c1a7 3979 e6bf 30f5 f3a6 2215 c2bf
00000070: 7094 bc3a c700 f13f 73f1 b73d 41e2 e03f
00000080: 9929 adbf 2500 e93f 8b4f 0130 9e41 ffbf
00000090: 9430 d3f6 af2c 03c0 8714 0324 9a40 e9bf
000000a0: cb69 4fc9 39b1 c93f b951 64ad a1d4 e8bf
000000b0: dc11 4e0b 5ef4 e63f e57e 87a2 409f fabf
000000c0: 2462 4a24 d14b f13f 3a02 b859 bc58 b0bf
000000d0: 50e4 49d2 3513 f93f 83f8 c08e ff02 a53f
000000e0: 1821 3cda 3862 fc3f 1e3c 6e53 97e7 b0bf
000000f0: cfa4 4dd5 3db2 df3f f914 00e3 19f4 04c0
00000100: dc46 0378 0ba4 fa3f ff03 ac55 bba6 e5bf
00000110: 32e7 19fb 928d da3f 9d4b 7155 d977 f3bf
00000120: 813e 9127 49d7 f13f 809d 9b36 e3b4 ed3f
00000130: d712 f241 cf66 cd3f a819 5245 f12a ab3f
00000140: 1cd3 1396 7800 0140 a4c2 d842 9083 f0bf
00000150: 1e18 40f8 5022 e43f 90da c4c9 fd0e 0cc0
00000160: 5cc9 8e8d 403c e0bf 4775 3a90 f5d4 d73f
00000170: 0611 a969 17d3 ed3f 35b6 d782 de1b e0bf
00000180: c93c f207 03cf f6bf 4cde 0033 df41 ec3f
