examples/submissions/2021_ATVA/acas_onnx/ACAS_XU_1_4.onnx (onnx, 108361 bytes, 14 tensors)

FC0_bias f8 [50]
000000 49 a0 c1 a6 ce a3 d7 bf 65 2f 80 95 e8 d1 69 3f
       -0.369373 0.00315185
000010 02 d7 f4 24 d9 b8 68 3f a9 f7 54 4e 7b 4a cc 3f
       0.00301783 0.221023
000020 c8 b1 9a 53 6e 47 b3 bf 32 d4 17 f8 40 e1 9a bf
       -0.0753087 -0.0262499
000030 62 49 b9 fb 1c 1f d6 bf cf d7 2c 97 8d ce c3 bf
       -0.345649 -0.154741
000040 c7 7f 81 20 40 86 d1 bf 20 0d a7 cc cd 37 c6 3f
       -0.273819 0.173578
000050 ef 38 45 47 72 f9 d0 bf a9 c9 ec 29 c2 18 44 3f
       -0.265225 0.000613303
000060 59 36 73 48 6a a1 d3 bf e9 9b 34 0d 8a e6 d1 bf
       -0.306727 -0.279696
000070 f8 37 68 af 3e 1e d0 3f bb 85 09 fe 12 4c b8 3f
       0.251846 0.0949108
000080 1b 87 55 17 4b ec b3 3f 34 66 12 f5 82 4f c5 bf
       0.0778243 -0.166489
000090 61 a8 c3 0a b7 7c d6 bf 67 20 9e 3e 65 a9 73 bf
       -0.351362 -0.00480022
0000a0 d4 0c a9 a2 78 95 bd 3f fb 23 0c 03 96 5c d0 bf
       0.115562 -0.255651
0000b0 af 5d da 70 58 1a bc bf 25 41 b8 02 0a f5 c4 bf
       -0.109777 -0.163728
0000c0 bc 24 ce 8a a8 89 c2 3f f1 83 f3 a9 63 95 c8 bf
       0.144826 -0.192059
0000d0 1c bd d0 12 1a 77 b5 3f 79 12 c7 70 2b 73 a5 3f
       0.0838486 0.0418943
0000e0 9f 01 f5 66 d4 7c cb bf 39 2b a2 26 fa 7c b2 3f
       -0.214747 0.0722195
0000f0 23 82 71 70 e9 98 ab 3f b2 08 ac b9 2f a9 52 3f
       0.053901 0.00113897
000100 b4 5a 60 8f 89 94 c6 bf b3 89 82 cf c5 95 99 bf
       -0.176408 -0.0249854
000110 d9 b2 7c 5d 86 ff d1 bf 63 5f b2 f1 60 8b bd 3f
       -0.281221 0.115408
000120 3a 6f 08 fa b0 83 9f 3f 8e 35 e9 d7 52 17 4b 3f
       0.0307758 0.000826755
000130 8b 85 c6 b8 87 29 b8 bf 98 f7 38 d3 84 6d e0 bf
       -0.0943837 -0.513369
000140 34 bf 9a 03 04 73 ce bf f5 0c 86 df f2 fd b3 3f
       -0.237885 0.0780937
000150 d6 1c 20 98 a3 c7 d3 bf 41 44 6a da c5 34 c7 bf
       -0.30906 -0.181298
000160 dc 64 54 19 c6 dd c4 3f fb 21 36 58 38 49 c1 bf
       0.163018 -0.135047
000170 56 68 7b 4f 40 6e b8 3f c5 4f 88 25 8a 35 b5 bf
       0.0954323 -0.0828482
000180 35 25 59 87 a3 ab c0 bf dc 9b df 30 d1 20 c5 3f
       -0.130238 0.165064

FC0_weight f8 [5, 50]
000000 fb 29 44 76 94 39 a4 bf 94 c6 c3 d6 c7 9e 88 3f
       -0.0395018 0.0120216
000010 08 1f 4a b4 e4 f1 ac 3f 3a 96 77 d5 03 e6 e5 3f
       0.056533 0.684328
000020 2c 2a e2 74 92 ad df bf 8f de 70 1f b9 35 81 bf
       -0.494969 -0.00840325
000030 14 26 e7 1f d8 4c a1 3f df a4 69 50 34 0f e9 bf
       0.0337894 -0.783106
000040 39 fd ea bb 6c 85 92 3f cf d9 02 42 eb 61 e0 3f
       0.0180871 0.511953
000050 2f 14 55 64 19 87 b1 3f ba be 0f 07 09 51 cc bf
       0.0684677 -0.221223
000060 07 b0 6d f6 ac 10 af 3f 62 6a 4b 1d e4 75 e8 bf
       0.0606741 -0.764391
000070 f5 be f1 b5 67 96 e8 3f 37 16 14 06 65 1a cb 3f
       0.76836 0.211743
000080 a1 f5 f0 65 a2 08 c3 bf 04 fd 2a 65 be 28 86 bf
       -0.148701 -0.0108199
000090 c0 9a 5e bd e5 45 99 3f f1 f2 74 ae 28 25 c0 bf
       0.0246807 -0.126134
0000a0 db 6e 82 6f 9a 3e df 3f e1 26 a3 ca 30 ee da bf
       0.488196 -0.420788
0000b0 56 7d ae b6 62 ff f0 bf e7 a6 72 7f 9a ff a8 bf
       -1.06235 -0.0488251
0000c0 8f 6c ae 9a e7 88 da 3f aa 99 b5 14 90 76 e6 bf
       0.414606 -0.701973
0000d0 a6 95 e7 66 24 e7 89 bf de 96 23 bf d9 41 b0 bf
       -0.0126479 -0.0635048
0000e0 ac 29 7f ad 01 00 b0 3f 8b e5 f1 0f b6 33 a7 bf
       0.0625001 -0.0453164
0000f0 1a ae c4 f2 9d 4e a0 bf 14 5e 82 53 1f 48 c6 3f
       -0.0318498 0.174076
000100 96 2c 82 5a 67 d7 b0 3f 1a b9 b8 d7 93 0a b6 bf
       0.0657868 -0.0860989
000110 c3 47 c4 94 48 22 f0 bf 88 9f ff 1e bc 76 bd 3f
       -1.00837 0.115093
000120 59 69 f7 50 47 6c a4 3f 65 1d 8e ae d2 dd cd 3f
       0.0398886 0.233332
000130 dd 22 30 d6 37 30 d6 bf 3e 6f 74 df 7b c9 b0 3f
       -0.346693 0.0655744
000140 64 20 cf 2e df fa e4 bf d6 8f 4d f2 23 7e bd bf
       -0.655624 -0.115206
000150 1c 08 c9 02 26 70 bf 3f 87 db a1 61 31 ea ec bf
       0.122805 -0.903588
000160 32 3d 61 89 07 94 db 3f 05 d2 0f 34 b0 9f b7 3f
       0.43091 0.0922804
000170 c0 c2 93 27 5a 03 b9 3f 6c 5d 6a 84 7e a6 d9 3f
       0.0977074 0.400787
000180 e5 b6 7d 8f fa eb b9 bf 8e 92 57 e7 18 10 e8 3f
       -0.101257 0.751965
000190 c3 b6 45 99 0d b2 f6 bf 52 98 f7 38 d3 84 c9 3f
       -1.41847 0.199366
0001a0 17 2e ab b0 19 e0 cc bf 15 27 ce bc e2 ca 55 bf
       -0.225589 -0.00133011
0001b0 46 26 e0 d7 48 12 c8 bf e0 f6 04 89 ed ee da bf
       -0.188058 -0.420833
0001c0 db dd 03 74 5f ce ed bf 8c 67 d0 d0 3f c1 b9 3f
       -0.931442 0.100605
0001d0 46 0a 65 e1 eb eb ec 3f 3d ee 5b ad 13 97 c3 3f
       0.903799 0.153048
0001e0 db a5 0d 87 a5 81 d4 bf 02 d9 eb dd 1f ef c3 bf
       -0.320413 -0.155735
0001f0 dc 14 ea 44 dd 62 a5 3f 76 42 ad 3e 5e 15 36 3f
       0.0417699 0.000336967
000200 55 51 bc ca da a6 78 bf de 54 a4 c2 d8 42 f8 bf
       -0.0060185 -1.51632
000210 52 0e 66 13 60 58 be bf 0a 65 e1 eb 6b 5d ec 3f
       -0.118536 0.886404
000220 4a 08 56 d5 cb ef ed 3f 3f 5f 69 cf 1b dd a7 3f
       0.935522 0.0466088
000230 b7 61 14 04 8f 6f d0 3f db 17 d0 0b 77 2e a8 3f
       0.256809 0.0472295
000240 b6 aa fc 9d b3 26 62 3f e2 ac 88 9a e8 f3 ee bf
       0.00221572 -0.967274
000250 c4 e8 b9 85 ae 44 a8 bf e1 8a 7a 77 1a 1f 8c 3f
       -0.047399 0.0137312
000260 c6 dc b5 84 7c d0 93 3f 60 02 b7 ee e6 a9 c0 bf
       0.01935 -0.130185
000270 5e 48 87 87 30 fe e4 3f 1d 90 84 7d 3b 09 e1 3f
       0.656029 0.532377
000280 be 38 4c 8f 01 34 a5 bf d8 2e 6d 38 2c 8d e4 bf
       -0.0414124 -0.642233
000290 89 08 ff 22 68 4c ec 3f 67 07 01 9e 59 b7 b4 3f
       0.884327 0.0809227
0002a0 f6 bf 54 1a ce 88 54 3f 37 e0 f3 c3 08 61 ef bf
       0.00125332 -0.980595
0002b0 ce 8d e9 09 4b bc f7 3f 59 a4 89 77 80 27 e2 bf
       1.48347 -0.567322
0002c0 53 7a a6 97 18 cb e2 3f 99 18 81 67 31 67 94 3f
       0.587292 0.0199249
0002d0 e7 38 b7 09 f7 ca d2 3f dc 7c 0a 1d c7 51 71 bf
       0.293638 -0.00422838
0002e0 5a 2f e1 2b 15 af a9 bf 99 9f 1b 9a b2 d3 bf bf
       -0.0501639 -0.124324
0002f0 a6 52 1e a3 5d 01 7c 3f 26 36 1f d7 86 8a f8 bf
       0.00683724 -1.53382
000300 42 96 05 13 7f 94 e0 3f 0e 55 e7 07 64 65 9a 3f
       0.518127 0.0257774
000310 50 8d 97 6e 12 03 f0 3f c9 e6 aa 79 8e c8 cd bf
       1.00075 -0.232683
000320 27 a5 a0 db 4b 9a f7 3f 7c 7b d7 a0 2f bd cb bf
       1.47517 -0.216711
000330 c4 ea 8f 30 0c 58 d8 3f f5 df bd 82 b8 9b 65 3f
       0.380374 0.00263773
000340 d8 bb 3f de ab 56 be bf d1 8a 14 6f 09 65 b6 bf
       -0.11851 -0.0874792
000350 3f e2 57 ac e1 a2 ed 3f 5a 4b 01 69 ff 03 d0 bf
       0.926133 -0.250244
000360 30 84 9c f7 ff 71 ec bf a2 96 e6 56 08 ab c9 3f
       -0.888916 0.200532
000370 46 25 75 02 9a 08 e4 bf f3 6c fb c3 3b 65 b4 3f
       -0.62605 0.0796697
000380 7c 2d 43 77 a4 55 88 bf 78 f0 13 07 d0 ef 8b 3f
       -0.0118821 0.013641
000390 51 6a 5f db 03 f6 36 3f d8 cc 6b 36 a0 ef ac 3f
       0.000350357 0.0565157
0003a0 16 c1 ff 56 b2 e3 f0 bf 60 78 25 c9 73 fd e8 bf
       -1.05559 -0.780939
0003b0 06 82 00 19 3a f6 ec bf 2b c1 e2 70 e6 57 f8 3f
       -0.905057 1.52146
0003c0 53 cf 82 50 de c7 da 3f 3f 3b e0 ba 62 46 c4 3f
       0.418449 0.158398
0003d0 be d4 d7 0c d3 6b 81 bf b1 fd 64 8c 0f b3 ec bf
       -0.00850644 -0.896858
0003e0 9e 29 74 5e 63 97 cc bf 2b 83 0f ca a0 7f a7 3f
       -0.22337 0.0458956
0003f0 0d 26 b4 9b cf 6f 8e 3f 74 6f 8f ef 9c 77 a9 bf
       0.0148617 -0.0497407
000400 31 99 2a 18 95 d4 ee bf 83 52 b4 72 2f 30 d0 3f
       -0.96345 0.252941
000410 ab 3e 57 5b b1 7f 00 c0 3b 3a ae 46 76 a5 b9 3f
       -2.06235 0.100181
000420 97 c5 c4 e6 e3 da f0 3f 82 d4 dc c0 d3 1a b1 bf
       1.05344 -0.0668156
000430 f5 65 18 60 e7 f2 4b bf 6e 6b 0b cf 4b c5 db bf
       -0.000852931 -0.433917
000440 9f 54 a0 bb c9 14 b2 3f 77 f0 b8 4d 5d 9e a7 bf
       0.0706297 -0.0461301
000450 e5 9c d8 43 fb d8 e3 3f 9a 6c f2 4a 48 5a a8 bf
       0.620237 -0.0475638
000460 98 31 05 6b 9c 4d d4 bf bc d7 ff ef 3e 7d b2 3f
       -0.317237 0.0722236
000470 60 5a d4 27 b9 c3 96 3f 6e a3 01 bc 05 12 c2 3f
       0.022231 0.141175
000480 c2 c8 0a ff 9b 77 39 bf e1 02 75 6f ea a8 97 3f
       -0.000388599 0.0231053
000490 0a 67 b7 96 c9 70 ca 3f b9 da 0e 36 0a 83 61 3f
       0.206567 0.00213768
0004a0 06 4a 0a 2c 80 29 e4 3f 9e f2 43 00 cb a5 a8 3f
       0.630066 0.0481399
0004b0 cd e6 71 18 cc 5f c1 3f ca 31 fe 22 0d 13 a2 bf
       0.135736 -0.0353016
0004c0 99 ef 85 6e 9b 4e a3 bf 87 bb 1f 5c a6 cb 87 3f
       -0.0377091 0.0116189
0004d0 19 8e c6 25 b7 bb 81 bf 8c d8 27 80 62 64 d6 bf
       -0.00865882 -0.349877
0004e0 9e 09 4d 12 4b ca c1 3f 4d f5 64 fe d1 37 bd 3f
       0.138986 0.114133
0004f0 43 3c 12 2f 4f e7 c2 3f e5 7f f2 77 ef a8 c5 3f
       0.147684 0.169218
000500 8f ab 91 5d 69 19 d1 bf cd c8 20 77 11 a6 d6 3f
       -0.267176 0.353886
000510 10 5b 7a 34 d5 93 eb bf de e7 f8 68 71 c6 d0 bf
       -0.861796 -0.262112
000520 6e 0a 96 b0 57 d4 67 3f 70 b2 0d dc 81 3a b1 3f
       0.00290887 0.067299
000530 d0 88 88 51 c6 ae af 3f 86 be 05 23 40 97 b0 3f
       0.0618803 0.0648079
000540 08 75 91 42 59 f8 ba 3f 52 5f 96 76 6a 2e bf 3f
       0.105352 0.121802
000550 20 ef 55 2b 13 7e b3 bf f1 46 e6 91 3f 18 b8 3f
       -0.0761425 0.09412
000560 75 ac 52 7a a6 97 c6 3f d6 e4 29 ab e9 7a de 3f
       0.176503 0.476252
000570 67 65 fb 90 b7 5c cf 3f 01 a3 cb 9b c3 b5 d1 bf
       0.245017 -0.276719
000580 cb 65 a3 73 7e 8a da bf 17 2b 6a 30 0d c3 c3 3f
       -0.414703 0.15439
000590 44 35 25 59 87 a3 d0 3f 29 e9 61 68 75 72 d5 3f
       0.259981 0.335111
0005a0 dd d6 71 57 0a dc a5 3f da ad 65 32 1c cf cd 3f
       0.0426944 0.232883
0005b0 e6 40 0f b5 6d 98 e1 3f 8d cf 64 ff 3c 8d e1 bf
       0.549857 -0.548491
0005c0 cd ba 35 9f 29 2a 71 3f a5 86 36 00 1b 10 d7 3f
       0.0041906 0.360358
0005d0 7f 88 0d 16 4e d2 c6 3f c2 a2 22 4e 27 d9 d7 3f
       0.178293 0.372629
0005e0 8f 8e ab 91 5d 69 b7 3f 3c 17 46 7a 51 bb c5 bf
       0.0914515 -0.169779
0005f0 e9 49 99 d4 d0 06 c0 3f ab 05 f6 98 48 69 c6 bf
       0.125208 -0.175088
000600 25 07 ec 6a f2 14 eb bf cc 12 f8 1e 89 f2 98 3f
       -0.846307 0.0243627
000610 08 5a 81 21 ab 5b c5 3f 93 72 f7 39 3e 5a c8 3f
       0.16686 0.190254
000620 49 7e 69 f6 e5 71 ad 3f c9 c3 e7 f3 f6 8c a5 3f
       0.0575096 0.0420911
000630 94 f8 dc 09 f6 5f e5 3f 01 19 95 2f c3 da a7 bf
       0.667964 -0.0465909
000640 58 65 f0 41 19 f4 a3 3f d9 3e e4 2d 57 3f d4 3f
       0.0389717 0.316366
000650 5d e0 f2 58 33 32 dc 3f 61 bc 8b 9c 2a 84 8a bf
       0.440564 -0.0129474
000660 25 5d 33 f9 66 9b c7 3f 21 3e b0 e3 bf 40 df 3f
       0.18443 0.488327
000670 4c f4 9e 6f b0 dc 87 bf fe 7d c6 85 03 21 c1 bf
       -0.0116514 -0.13382
000680 e8 d1 9e dc 00 7d 94 bf 7a 8f 33 4d d8 7e d8 bf
       -0.0200081 -0.382742
000690 e0 bc 38 f1 d5 8e d5 bf 61 71 38 f3 ab 39 e0 bf
       -0.336843 -0.50704
0006a0 51 12 12 69 1b 7f c0 3f ba cb 34 50 cf 71 b4 3f
       0.128879 0.0798616
0006b0 73 35 89 ac fb e8 60 3f 41 7d cb 9c 2e 8b c5 bf
       0.00206422 -0.16831
0006c0 e0 f2 58 33 32 c8 d5 3f 01 57 0d 1d 96 61 87 3f
       0.340344 0.0114166
0006d0 e0 c0 60 0e ed 29 5a 3f 3d d5 21 37 c3 0d ac bf
       0.00159691 -0.0547925
0006e0 d3 0d 77 a2 e2 07 80 bf 6e 68 ca 4e 3f a8 e3 bf
       -0.00782754 -0.614288
0006f0 bd 72 bd 6d a6 42 ca 3f 8f 84 22 82 16 b7 86 bf
       0.205159 -0.0110914
000700 a0 e2 38 f0 6a b9 d5 bf d3 68 72 31 06 d6 a1 3f
       -0.339442 0.034836
000710 12 f3 51 eb a2 8d 90 3f 7b 88 46 77 10 3b c3 bf
       0.0161653 -0.15024
000720 dd 23 9b ab e6 39 e1 bf ef 86 7e b7 8a 0f 95 3f
       -0.538318 0.0205671
000730 5e 1d b6 e3 3c 52 93 bf af 9e ee 97 aa 0f 8f bf
       -0.0188684 -0.0151666
000740 2d e5 21 f8 84 91 b7 bf af 5e 45 46 07 a4 e3 3f
       -0.0920642 0.613773
000750 0a 28 bb 36 a7 d4 6d bf 39 70 f7 07 04 19 75 3f
       -0.00364144 0.00515081
000760 7c 99 28 42 ea 76 ca bf 11 1d 02 47 02 8d e4 bf
       -0.206754 -0.642213
000770 59 13 0b 7c 45 b7 cc 3f a8 35 cd 3b 4e 51 f3 bf
       0.224343 -1.20735
000780 c7 f5 ef fa cc 59 cb 3f 0a f4 89 3c 49 3a e0 3f
       0.213678 0.507115
000790 de af 02 7c b7 79 cd bf ca 67 1e 65 69 4c 8d 3f
       -0.230277 0.0143059
0007a0 61 c2 68 56 b6 0f c1 bf 33 a3 1f 0d a7 cc e0 bf
       -0.133292 -0.524982
0007b0 dc 87 f6 90 74 f6 73 3f 55 6d 37 c1 37 cd e8 bf
       0.00487371 -0.775051
0007c0 f5 02 fd cf ab 4b a7 3f 2c 20 fe ab d8 a9 9b 3f
       0.0454992 0.0270151

FC1_bias f8 [50]
000000 ac e1 22 f7 74 75 d8 3f 9c 7b bc 4e f2 3c 5b 3f
       0.382169 0.00166248
000010 8e ea 74 20 eb a9 c1 bf 7b bb 25 39 60 57 cf bf
       -0.137998 -0.244854
000020 33 f9 66 9b 1b d3 d4 bf 68 26 73 87 a8 1d 99 bf
       -0.325385 -0.0245272
000030 42 78 b4 71 c4 5a bc bf e3 1b 0a 9f ad 83 dc bf
       -0.11076 -0.445537
000040 42 ff 4e a4 45 c7 b5 bf ee b4 35 22 18 07 bb 3f
       -0.0850719 0.105577
000050 14 5a d6 fd 63 21 db bf 1c 5e 10 91 9a 76 bd 3f
       -0.423913 0.115091
000060 fe 86 e4 bf 9b c9 b0 3f 83 a0 48 9c ba 97 90 bf
       0.0655763 -0.0162038
000070 3a fb 60 9f 54 89 2f 3f 1a 32 1e a5 12 9e d1 3f
       0.000240604 0.275273
000080 5e 68 ae d3 48 4b d0 3f 4f f2 d9 f0 aa bd 96 bf
       0.254595 -0.0222079
000090 0f f8 57 ea b4 c9 8c bf d4 bc 3e ce 8f 1a 8e bf
       -0.0140566 -0.0146991
0000a0 b3 0a bc 0f 17 eb 81 bf f7 e8 0d f7 91 5b cb 3f
       -0.00874918 0.213732
0000b0 14 8c 94 77 1f 91 b0 3f 9f 17 93 a3 a5 97 a1 bf
       0.0647144 -0.0343601
0000c0 fa 9b 50 88 80 43 d2 3f e7 c5 89 af 76 14 d0 3f
       0.28537 0.251249
0000d0 7e fd 10 1b 2c 9c c2 3f 4d bd 6e 11 18 eb d0 bf
       0.145391 -0.264349
0000e0 d2 e3 f7 36 fd d9 d3 3f 42 e9 0b 21 e7 fd cb 3f
       0.31018 0.218686
0000f0 9d 9d 0c 8e 92 57 c9 bf 6a 68 03 b0 01 11 ca 3f
       -0.197985 0.203644
000100 86 65 7d 14 bf 73 79 3f 73 02 89 dc c2 a9 85 bf
       0.0062139 -0.0105777
000110 aa d2 16 d7 f8 4c d0 3f 43 28 a5 56 4e 31 95 bf
       0.254698 -0.0206959
000120 f9 d9 c8 75 53 ca c1 3f 28 99 9c da 19 a6 be 3f
       0.138987 0.119722
000130 5b 5c e3 33 d9 3f dd 3f 6f 4b e4 82 33 f8 bf 3f
       0.457022 0.124881
000140 87 34 6c 8c 84 53 72 bf f4 70 02 d3 69 dd cc bf
       -0.00447418 -0.225507
000150 1f a2 d1 1d c4 ce e3 3f 2e 3b c4 3f 6c e9 91 bf
       0.61899 -0.017492
000160 40 6a 13 27 f7 3b b6 bf c2 4f 1c 40 bf ef d0 3f
       -0.0868525 0.264633
000170 94 ef be cf 5d b7 a5 bf 34 48 c1 53 c8 95 c4 3f
       -0.0424146 0.160821
000180 f7 2d 29 2d 12 c9 a2 3f be f8 a2 3d 5e 48 af bf
       0.0366903 -0.061099

FC1_weight f8 [50, 50]
000000 9b ac 51 0f d1 28 00 c0 45 bc 75 fe ed b2 c7 3f
       -2.01993 0.185148
000010 b5 fd 2b 2b 4d 4a e5 3f ef 1f 0b d1 21 70 c4 3f
       0.66532 0.159672
000020 7b 66 49 80 9a 5a ea 3f 4b 92 e7 fa 3e 1c c2 bf
       0.82356 -0.141487
000030 1e fe 9a ac 51 0f f0 3f 0c 07 42 b2 80 09 d3 bf
       1.00374 -0.297455
000040 18 40 f8 50 a2 25 cf 3f 92 20 5c 01 85 7a ce bf
       0.243336 -0.238114
000050 ad 15 6d 8e 73 9b ce 3f ec 4e 77 9e 78 ce d2 bf
       0.239119 -0.293852
000060 3f c9 1d 36 91 19 e5 3f 90 c4 26 8d 2c f4 9c bf
       0.659371 -0.0282752
000070 eb 36 a8 fd d6 4e c2 3f 85 ed 27 63 7c 98 da bf
       0.143031 -0.415557
000080 60 04 8d 99 44 bd ed bf 09 8f 91 47 cb dc af bf
       -0.929354 -0.0622314
000090 c5 a3 9e 4f 2e d7 a4 3f ec f5 93 d6 84 59 95 bf
       0.0407042 -0.0208493
0000a0 1e 64 1f 85 67 19 14 bf 2d b5 de 6f b4 e3 dd 3f
       -7.66725e-05 0.467023
0000b0 9c 6e d9 21 fe 61 c7 3f 48 a4 6d fc 89 ca c4 3f
       0.182678 0.162431
0000c0 1b 9e 5e 29 cb 10 f1 bf aa d4 ec 81 56 60 ce 3f
       -1.0666 0.237315
0000d0 17 47 e5 26 6a 69 d6 3f c0 b4 a8 4f 72 87 cb bf
       0.350184 -0.215071
0000e0 59 34 9d 9d 0c 0e f2 bf 03 3f aa 61 bf 27 c2 3f
       -1.12843 0.141838
0000f0 f4 de 18 02 80 e3 ea 3f 7a c4 e8 b9 85 ae ca 3f
       0.840271 0.208451
000100 0c 76 c3 b6 45 99 c5 3f 2c bc 26 ff ee 78 a6 bf
       0.16874 -0.0438914
000110 7e c6 85 03 21 59 f2 bf 90 9c f1 22 b8 36 a1 3f
       -1.14676 0.0336206
000120 8c ac eb 06 c0 2e b1 3f d1 4d ee b9 44 dc 79 bf
       0.0671196 -0.00631358
000130 59 86 38 d6 c5 ed f7 bf 2e 75 90 d7 83 c9 e8 bf
       -1.49555 -0.774599
000140 0c 28 2f 8d ba 31 90 3f 59 a5 f4 4c 2f 31 db 3f
       0.0158147 0.424877
000150 71 92 e6 8f 69 6d e3 bf c4 86 5d ca af d5 9c bf
       -0.607106 -0.0281589
000160 65 1b b8 03 75 ca c7 bf 8d bf a3 7c f7 7d 8e bf
       -0.185866 -0.0148887
000170 2c ef aa 07 cc 43 be bf 91 2c 60 02 b7 ee e4 bf
       -0.118222 -0.65414
000180 cc d3 b9 a2 94 10 c0 3f 0e 11 37 a7 92 01 d0 3f
       0.125506 0.250096
000190 8f 1a 13 62 2e a9 ea bf 00 39 61 c2 68 56 e2 bf
       -0.833152 -0.573048
0001a0 9f 22 87 88 9b 53 d3 3f 8e 57 20 7a 52 26 e0 bf
       0.301978 -0.504678
0001b0 87 db a1 61 31 ea e0 bf 48 f9 49 b5 4f 47 e3 bf
       -0.528588 -0.602455
0001c0 95 ee ae b3 21 7f e4 3f 60 cd 01 82 39 7a d9 3f
       0.640519 0.398085
0001d0 78 60 00 e1 43 89 e1 bf 5f b2 f1 60 8b dd d1 3f
       -0.548006 0.279147
0001e0 b6 87 18 0a 33 c8 b6 bf 92 f3 b4 b2 33 3b a9 3f
       -0.0889923 0.0492798
0001f0 ba 9e e8 ba f0 03 e2 3f 03 37 9c 43 63 37 95 3f
       0.562981 0.0207191
000200 39 27 f6 d0 3e 56 d1 3f a8 a9 65 6b 7d 91 e6 bf
       0.270889 -0.70526
000210 98 a2 5c 1a bf f0 c4 bf 81 71 15 30 26 a2 94 3f
       -0.163597 0.0201498
000220 98 9d ea 35 e2 6e a1 3f 44 ae 8a 26 06 37 ac bf
       0.0340491 -0.0551073
000230 2b 26 80 ac f1 e3 91 bf bc af ca 85 ca bf ce bf
       -0.0174711 -0.240228
000240 d9 3d 79 58 a8 35 d8 3f 7e b0 e7 c6 4f 3e a0 3f
       0.378275 0.0317254
000250 1a 14 cd 03 58 e4 da bf 2e 8d 5f 78 25 c9 df 3f
       -0.420187 0.496652
000260 75 3d d1 75 e1 07 eb 3f 7b 34 30 4d 6c 99 87 3f
       0.844712 0.0115231
000270 cd 93 6b 0a 64 76 e4 bf 71 ad f6 b0 17 0a ce bf
       -0.639452 -0.234683
000280 8c 49 7f 2f 85 07 d0 3f fd f6 75 e0 9c 91 f2 3f
       0.250459 1.16055
000290 08 8e cb b8 a9 81 d1 bf 34 95 8f ee 31 a2 a6 3f
       -0.273539 0.0442062
0002a0 b7 0a 62 a0 6b 5f c6 bf 8c 48 4c 04 35 72 49 3f
       -0.174787 0.000776554
0002b0 63 43 37 fb 03 e5 d2 bf 2a a4 a1 eb 67 56 b7 3f
       -0.295228 0.0911622
0002c0 d9 eb dd 1f ef 55 d2 bf a7 20 3f 1b b9 6e ce bf
       -0.286495 -0.237754
0002d0 8d 7a 88 46 77 10 7b 3f 1f 47 73 64 e5 97 e4 bf
       0.0066075 -0.643542
0002e0 6a bd df 68 c7 0d af bf 96 a7 bd d2 43 7e a3 bf
       -0.060652 -0.0380727
0002f0 60 cb 2b d7 db 66 d5 bf d5 e7 6a 2b f6 17 f0 bf
       -0.334403 -1.00585
000300 cc 27 2b 86 ab 03 d6 bf 5e 0e bb ef 18 1e cf bf
       -0.343974 -0.243106
000310 27 6c 3f 19 e3 c3 ee 3f 2a 91 44 2f a3 d8 e4 3f
       0.961412 0.651445
000320 16 88 9e 94 49 8d e1 bf 2e 55 69 8b 6b 7c cc 3f
       -0.548497 0.222547
000330 b3 ef 8a e0 7f 2b f3 3f 1f a2 d1 1d c4 ce ea bf
       1.19812 -0.83774
000340 a4 6d fc 89 ca 86 cd bf e3 aa b2 ef 8a e0 c1 bf
       -0.230676 -0.139665
000350 97 3c 9e 96 1f b8 ea 3f 7d 5e f1 d4 23 0d e3 3f
       0.834976 0.595354
000360 d0 47 19 71 01 e8 e7 bf 89 ce 32 8b 50 ec ec 3f
       -0.747071 0.903847
000370 04 75 ca a3 1b 61 db 3f fc 7c 4a 84 fc 22 ab 3f
       0.427802 0.0530013
000380 01 4d 84 0d 4f af f0 3f 1c 84 14 97 3e cf 92 3f
       1.0428 0.0183687
000390 c2 4e b1 6a 10 e6 c8 3f 65 8b a4 dd e8 e3 e7 bf
       0.194521 -0.746571
0003a0 56 4a cf f4 12 63 c1 3f fa 6a fd e3 73 dd 92 3f
       0.135836 0.0184229
0003b0 3d 74 8b 0a e6 f9 a5 bf 40 5c 28 4f 0f c0 94 bf
       -0.0429222 -0.0202639
0003c0 4e fe 38 ab 4f 83 9b 3f 51 bc ca da a6 78 ce 3f
       0.0268681 0.238057
0003d0 1d 00 71 57 af a2 e9 bf 11 90 2f a1 82 c3 c9 bf
       -0.801109 -0.201279
0003e0 7e 55 2e 54 fe b5 c6 3f eb 01 f3 90 29 9f e1 bf
       0.177429 -0.550679
0003f0 ea 06 0a bc 93 4f cf 3f bb 09 be 69 fa ec d8 bf
       0.244616 -0.389464
000400 74 95 ee ae b3 21 e7 bf 2b 4e b5 16 66 21 e8 bf
       -0.722864 -0.754077
000410 d6 e5 94 80 98 84 d2 bf b9 c4 91 07 22 0b e5 3f
       -0.289343 0.657609
000420 5a 48 c0 e8 f2 e6 e3 bf 5d 3b ac cb 84 ba 93 bf
       -0.621942 -0.0192662
000430 69 01 da 56 b3 ce ec 3f 33 20 31 30 e1 86 8e 3f
       0.900232 0.0149057
000440 63 d2 df 4b e1 41 d1 3f 0a 1c bf a6 bd 77 a6 bf
       0.269646 -0.0438823
000450 f5 0f 22 19 72 ec e2 bf 1c 1d a1 b0 d5 2f b0 bf
       -0.591363 -0.0632299
000460 1d ee 7e 70 99 2e ab bf 31 7e 1a f7 e6 37 d8 bf
       -0.0530899 -0.378412
000470 4d 15 8c 4a ea 04 d6 bf 30 3a 0f dd a2 82 91 3f
       -0.34405 0.0170999
000480 7e fd 10 1b 2c 9c cc bf 82 90 2c 60 02 b7 c6 3f
       -0.223516 0.17746
000490 26 01 c5 23 4c ac a3 3f 23 ef c1 10 de c3 b4 3f
       0.0384239 0.0811137
0004a0 49 49 0f 43 ab 13 e0 bf b3 f0 f5 b5 2e 35 c6 bf
       -0.502401 -0.173498
0004b0 3c bd 52 96 21 8e d1 bf 8d 43 fd 2e 6c cd c2 3f
       -0.2743 0.146894
0004c0 56 48 f9 49 b5 4f bf 3f 8d 7b f3 1b 26 1a c4 3f
       0.12231 0.157048
0004d0 84 64 01 13 b8 75 d6 3f 00 73 2d 5a 80 b6 d3 bf
       0.350935 -0.308014
0004e0 b4 04 19 01 15 8e c0 bf 0d 19 8f 52 09 4f c6 3f
       -0.129336 0.174287
0004f0 d0 0d 4d d9 e9 07 e0 bf 75 02 9a 08 1b 1e ed bf
       -0.500966 -0.909925
000500 bd c8 04 fc 1a 49 ce bf ec d1 65 7b 3e 14 b4 bf
       -0.236606 -0.0784339
000510 40 dc d5 ab c8 e8 c6 3f 9b 2e d5 16 e8 24 a1 bf
       0.178979 -0.0334847
000520 e8 bb 5b 59 a2 b3 ed bf 54 e0 64 1b b8 03 cd 3f
       -0.928178 0.226676
000530 0c 03 96 5c c5 e2 d5 3f d3 a4 14 74 7b 49 93 3f
       0.341966 0.018835
000540 9f e6 e4 45 26 e0 af bf 92 1a 7f 47 f9 ee 93 bf
       -0.062257 -0.0194663
000550 dc 52 9c dd 39 18 6a bf 75 21 56 7f 84 61 c4 bf
       -0.00318538 -0.159226
000560 b6 47 6f b8 8f dc d1 3f ac 1d c5 39 ea 68 ec 3f
       0.279087 0.887807
000570 83 30 b7 7b b9 4f ca 3f 63 25 e6 59 49 2b d1 bf
       0.205558 -0.268267
000580 02 0c cb 9f 6f 0b c4 3f 8b 36 c7 b9 4d b8 c5 3f
       0.156599 0.169687
000590 f6 62 28 27 da 55 d9 3f 07 25 cc b4 fd 2b f4 bf
       0.395865 -1.26074
0005a0 8f c9 3d b8 96 24 7a bf f9 0b e2 a8 81 8b b6 3f
       -0.00638255 0.0880662
0005b0 ea 95 b2 0c 71 ac f4 3f 72 75 5b 7d d0 0e a7 bf
       1.2921 -0.0450349
0005c0 08 77 67 ed b6 0b d2 3f 22 62 94 b1 eb 28 a0 bf
       0.281965 -0.0315622
0005d0 4a d3 a0 68 1e c0 e6 bf 9c 16 bc e8 2b 48 fe 3f
       -0.710952 1.89262
0005e0 3a eb 53 8e c9 e2 d8 3f 8a 06 29 78 0a 39 e1 bf
       0.388842 -0.538213
0005f0 c1 4f c1 86 4c 9e 97 bf 12 17 80 46 e9 d2 bb 3f
       -0.0230648 0.108687
000600 92 5b 93 6e 4b e4 c0 3f 0a af 6e 06 c9 4c a7 bf
       0.131967 -0.0455077
000610 c7 ba b8 8d 06 70 f1 3f 4c 8a 8f 4f c8 ce d2 3f
       1.08985 0.293871
000620 eb 8b 84 b6 9c 4b f9 bf db c3 5e 28 60 3b d3 3f
       -1.58096 0.300499
000630 9e 61 6a 4b 1d e4 cf bf 4e 64 e6 02 97 c7 9a 3f
       -0.249149 0.026152
000640 d0 2a 33 a5 f5 b7 c2 3f 10 95 46 cc ec f3 ca bf
       0.146239 -0.210569
000650 75 b1 69 a5 10 c8 cf 3f 8a f5 57 d9 88 71 ac 3f
       0.248293 0.0555537
000660 96 40 4a ec da 5e e2 3f c3 9b 35 78 5f 95 d5 3f
       0.574079 0.337242
000670 da fe 95 95 26 a5 d4 3f 17 9f 02 60 3c 83 d4 3f
       0.32258 0.32051
000680 69 56 b6 0f 79 cb b9 bf fe 46 3b 6e f8 dd d3 bf
       -0.100761 -0.310423
000690 b2 12 f3 ac a4 95 e1 bf 30 aa fb b6 16 1c a0 bf
       -0.549517 -0.0314643
0006a0 a0 c6 bd f9 0d 93 e0 bf 0e 36 d0 d7 87 50 98 bf
       -0.517951 -0.0237447
0006b0 00 ad f9 f1 97 16 c9 bf d4 80 41 d2 a7 55 d7 3f
       -0.196002 0.364603
0006c0 2f 7a 5d 75 d3 1c 97 bf 4d c2 e0 f5 f4 6c 91 3f
       -0.0225709 0.0170172
0006d0 13 05 e6 60 b7 81 3b bf 1e 38 c2 fd db c0 a0 3f
       -0.000419719 0.0327214
0006e0 ab ef 57 5c 77 4e 8e 3f 14 07 d0 ef fb 37 d6 bf
       0.0147981 -0.347167
0006f0 6c 94 f5 9b 89 e9 be 3f 45 f3 00 16 f9 f5 cd 3f
       0.120751 0.234069
000700 e9 f2 e6 70 ad f6 c2 3f 6c 04 e2 75 fd 82 c1 3f
       0.148153 0.13681
000710 9b 01 2e c8 96 e5 e4 bf 55 bd fc 4e 93 19 c9 3f
       -0.653026 0.196093
000720 bc 77 d4 98 10 73 cb 3f d0 03 c4 c9 a2 55 b8 bf
       0.214449 -0.0950567
000730 52 7e 52 ed d3 f1 cc 3f d5 23 0d 6e 6b 0b c7 bf
       0.22613 -0.180036
000740 41 a4 3a 78 81 ed 8b bf 04 f1 70 f1 a6 11 89 3f
       -0.0136366 0.0122407
000750 e6 3b f8 89 03 e8 cd bf 7b 24 6f ca 26 0a 9e 3f
       -0.233643 0.0293356
000760 1e a3 3c f3 72 d8 cd 3f d6 11 d1 f9 3a ba a7 3f
       0.233168 0.0463427
000770 1d cd ec 4e d2 57 9b 3f 90 f5 d4 ea ab ab de bf
       0.0267022 -0.479228
000780 e9 ee 3a 1b f2 cf a0 3f c5 92 72 f7 39 3e c8 bf
       0.0328365 -0.189399
000790 4e 64 e6 02 97 c7 ca 3f c5 c5 51 b9 89 5a 92 3f
       0.209216 0.0179235
0007a0 d7 bd 15 89 09 6a d5 bf 8a 53 52 cc e6 16 a7 bf
       -0.334597 -0.0450966
0007b0 0e aa c3 c0 29 62 a7 bf 8a 89 72 0e 43 50 a2 3f
       -0.0456708 0.0357686
0007c0 3c fa 5f ae 45 0b d8 3f 5c 4f 19 a4 85 70 b5 bf
       0.375688 -0.0837482
0007d0 e8 6b 96 cb 46 67 e5 3f a3 94 10 ac aa 97 c7 3f
       0.668857 0.184316
0007e0 89 79 56 d2 8a 6f e1 bf 44 4d f4 f9 28 23 c6 3f
       -0.544866 0.172948
0007f0 a9 4e 07 b2 9e 5a 95 3f 4a 61 de e3 4c 13 d0 3f
       0.0208535 0.251178

FC2_bias f8 [50]
000000 04 ce 10 96 ca 3e 7c 3f ba 85 ae 44 a0 7a ee 3f
       0.00689582 0.952469
000010 de 71 8a 8e e4 f2 e0 3f c2 d9 ad 65 32 1c e4 bf
       0.52965 -0.628442
000020 c3 28 08 1e df de c9 bf 71 96 ed 9e 97 e5 aa bf
       -0.202114 -0.0525329
000030 3b 75 a3 97 6a c9 57 bf 50 8e 02 44 c1 8c c3 3f
       -0.00145183 0.152733
000040 d8 47 a7 ae 7c 96 bf 3f a4 4a de 4a c0 f9 8e 3f
       0.12339 0.0151248
000050 12 04 7e 43 97 26 93 bf 2c d5 05 bc cc b0 cf 3f
       -0.0187019 0.247583
000060 7c b0 31 54 6a 9b af 3f 11 aa d4 ec 81 56 b4 bf
       0.0617326 -0.079445
000070 02 93 65 d2 f0 77 91 bf d4 71 46 de 83 21 9c bf
       -0.0170591 -0.0274716
000080 10 21 ae 9c bd 33 df bf ab 6d d4 54 60 12 a4 bf
       -0.487533 -0.0392027
000090 83 51 49 9d 80 26 d6 3f af 43 35 25 59 07 ec 3f
       0.3461 0.875897
0000a0 59 a9 fb 5b 5d a9 9a bf 4d 60 df f3 68 4f b2 3f
       -0.0260367 0.0715242
0000b0 66 5a 51 39 dc fd 90 bf 24 44 f9 82 16 12 bc 3f
       -0.0165934 0.109651
0000c0 82 e1 01 0a 9a 3b b9 3f 17 63 60 1d c7 0f cb bf
       0.0985657 -0.211419
0000d0 4a d4 0b 3e cd c9 cb 3f 3c 5b 51 94 95 70 9a 3f
       0.217096 0.0258201
0000e0 4c dd 95 5d 30 b8 c4 3f 90 1b 76 c6 94 9b 7a bf
       0.161871 -0.00649603
0000f0 19 58 c7 f1 43 a5 d6 bf 4d 10 75 1f 80 d4 db 3f
       -0.353837 0.434845
000100 3d ca d2 98 5a 00 b4 3f f5 bb b0 35 5b 79 cf bf
       0.0781304 -0.245891
000110 57 b3 ce f8 be b8 d5 bf 3b fb ca 83 f4 14 d8 3f
       -0.339401 0.376279
000120 93 e2 e3 13 b2 f3 be bf 48 5e 8c 37 e8 01 b8 bf
       -0.120906 -0.0937791
000130 0b 5f 5f eb 52 23 de bf df e0 0b 93 a9 82 dd bf
       -0.470906 -0.4611
000140 3a 35 e1 a8 26 d2 b5 3f 39 60 57 93 a7 ac c2 bf
       0.0852379 -0.145894
000150 89 09 6a f8 16 d6 9d 3f e7 7b 1d a3 02 48 81 bf
       0.029137 -0.00843813
000160 94 89 5b 05 31 d0 bd bf 7d 5d 86 ff 74 03 c1 bf
       -0.116458 -0.132918
000170 4b 03 3f aa 61 3f ef bf df a3 a3 c1 12 b4 b0 bf
       -0.976487 -0.0652477
000180 15 8b df 14 56 2a bc bf 93 52 d0 ed 25 8d d3 bf
       -0.110021 -0.30549

FC2_weight f8 [50, 50]
000000 00 c9 74 e8 f4 bc c5 bf a2 0a 7f 86 37 6b de bf
       -0.169829 -0.475294
000010 68 9f 7d 9b b4 5f a1 bf f6 d0 3e 56 f0 db c2 3f
       -0.0339333 0.147337
000020 9c 30 61 34 2b db bf 3f 77 c1 3b 54 ae 4b a8 3f
       0.124438 0.0474524
000030 00 e2 ae 5e 45 46 c7 3f 4f 59 4d d7 13 5d c7 bf
       0.181832 -0.182528
000040 52 f8 c7 d6 8e 3d b0 bf a5 be 2c ed d4 5c c6 bf
       -0.0634393 -0.174708
000050 89 12 e3 eb 21 d0 a7 bf 94 11 17 80 46 e9 cc 3f
       -0.0465098 0.225869
000060 0c 05 6c 07 23 f6 c1 bf b1 b3 d7 71 b2 c3 b8 bf
       -0.140324 -0.0967361
000070 32 e8 84 d0 41 97 a0 bf d8 c7 f9 51 c3 6d 9b bf
       -0.032404 -0.0267859
000080 51 f5 2b 9d 0f cf ca 3f c9 8e 8d 40 bc ae cb 3f
       0.209444 0.21627
000090 fc 6f 25 3b 36 02 a1 3f 6e de 38 29 cc 7b c8 3f
       0.03322 0.191278
0000a0 08 55 6a f6 40 2b d3 bf dc 2d c9 01 bb 9a d3 3f
       -0.299515 0.306319
0000b0 e1 da e4 4b 03 9a 9b bf 50 56 0c 57 07 40 c6 3f
       -0.0269547 0.173829
0000c0 5e 82 53 1f 48 de e0 3f e3 1c 75 74 5c 0d e3 bf
       0.527134 -0.595381
0000d0 a9 f6 e9 78 cc 40 f3 3f 37 c3 0d f8 fc 30 d2 3f
       1.20332 0.28424
0000e0 59 38 c5 ba 23 29 7a 3f 3c de e4 b7 e8 64 d4 3f
       0.00638689 0.318659
0000f0 94 84 44 da c6 9f c2 3f 13 43 72 32 71 2b e5 3f
       0.145501 0.661553
000100 6d 59 be 2e c3 7f d5 bf 2e ff 21 fd f6 75 b2 3f
       -0.335923 0.0721125
000110 b1 6d 51 66 83 4c c2 bf 49 85 b1 85 20 07 f1 bf
       -0.14296 -1.06424
000120 58 e1 96 8f a4 24 e0 bf 48 1a dc d6 16 9e cf bf
       -0.504473 -0.247012
000130 cf bb b1 a0 30 28 d7 3f 64 ea ae ec 82 c1 d8 3f
       0.361828 0.386811
000140 68 79 1e dc 9d b5 bb 3f 51 4b 73 2b 84 d5 d5 bf
       0.10824 -0.341157
000150 3e 59 31 5c 1d 80 e0 3f 4e e5 66 18 74 cb 49 bf
       0.515639 -0.000787193
000160 8f 89 94 66 f3 38 e2 3f 41 0b 09 18 5d de a0 bf
       0.569452 -0.0329465
000170 6d 90 49 46 ce c2 d9 3f 92 95 5f 06 63 44 d9 3f
       0.402515 0.394799
000180 4e 15 42 bd cf a7 b8 3f 01 c0 b1 67 cf 65 c2 bf
       0.0963106 -0.143732
000190 57 3e cb f3 e0 ee d5 3f 62 6a 4b 1d e4 75 ea bf
       0.342705 -0.826891
0001a0 c4 01 99 42 8c 7c 93 bf bb 0c ff e9 06 0a d1 3f
       -0.0190298 0.266237
0001b0 db d0 20 47 6b f3 6c 3f 92 b3 b0 a7 1d fe ba bf
       0.00353404 -0.10544
0001c0 7c 9e 3f 6d 54 a7 c9 bf f9 df e7 4b b1 9b 70 3f
       -0.200419 0.00405473
0001d0 f7 75 e0 9c 11 a5 d4 3f c8 b5 a1 62 9c 3f f6 3f
       0.322575 1.39053
0001e0 fb 8d 1b 23 7e 6a a9 bf 76 d5 4d 73 3c b0 9d 3f
       -0.0496406 0.0289926
0001f0 b0 e4 2a 16 bf 29 ce 3f 64 96 3d 09 6c 4e e2 3f
       0.235649 0.572073
000200 80 56 aa 55 05 b4 96 3f 22 69 89 af dc ad 01 bf
       0.0221711 -3.37203e-05
000210 96 78 40 d9 94 ab f5 bf 85 0b 79 04 37 52 e3 bf
       -1.35439 -0.603786
000220 67 b9 6c 74 ce 4f e8 3f 7e 74 ea ca 67 f9 f3 bf
       0.759742 -1.24839
000230 e1 35 f9 77 c7 73 b3 bf 43 54 e1 cf f0 66 de bf
       -0.0759854 -0.475033
000240 14 a2 32 b4 f0 ab a0 3f ae 67 08 c7 2c 7b c2 bf
       0.0325618 -0.144384
000250 31 26 fd bd 14 1e ca 3f 2c 7f be 2d 58 aa d6 3f
       0.204043 0.354147
000260 c8 3f 33 88 0f ec d1 bf f0 69 4e 5e 64 82 ea bf
       -0.280033 -0.828417
000270 8c d6 51 d5 04 51 c5 bf 46 43 c6 a3 54 c2 dc bf
       -0.166535 -0.449361
000280 a7 49 df 5a dc 35 97 3f d4 9a e6 1d a7 68 f0 bf
       0.0226664 -1.02555
000290 86 e6 3a 8d b4 54 da 3f 96 76 6a 2e 37 18 d8 3f
       0.41142 0.376478
0002a0 9e 43 19 aa 62 2a cf 3f 9d d9 ae d0 07 4b e5 3f
       0.243481 0.665409
0002b0 87 dd 77 0c 8f fd e0 3f 96 b3 77 46 5b 95 de 3f
       0.530952 0.477866
0002c0 33 a4 8a e2 55 d6 ce bf f7 e8 0d f7 91 db e4 bf
       -0.240916 -0.651803
0002d0 59 51 83 69 18 3e c8 3f 8b 17 0b 43 e4 f4 c9 3f
       0.189395 0.202786
0002e0 b4 e8 9d 0a b8 e7 ea bf 4a 36 68 f9 cb 38 67 3f
       -0.840786 0.0028347
0002f0 95 7c ec 2e 50 52 e5 bf 9d de 20 b5 e4 4c 96 3f
       -0.666298 0.0217777
000300 ee d0 b0 18 75 ad e7 3f d9 83 ff 63 d7 ac b3 bf
       0.739924 -0.0768561
000310 85 3f c3 9b 35 78 db 3f 04 1e 18 40 f8 d0 e0 3f
       0.429212 0.525509
000320 d8 b3 ef a3 7d 20 67 bf 52 d4 99 7b 48 f8 d8 bf
       -0.00282311 -0.390154
000330 db f9 7e 6a bc 74 d8 3f 97 fe 25 a9 4c 31 d2 bf
       0.382125 -0.284259
000340 a1 bb 24 ce 8a a8 b9 bf 52 7d e7 17 25 e8 c3 3f
       -0.100228 0.155522
000350 c4 42 ad 69 de 71 cc bf 56 b9 50 f9 d7 f2 d8 3f
       -0.222225 0.389822
000360 0b 97 55 d8 0c 70 b1 3f 3b c2 69 c1 8b be d4 bf
       0.068116 -0.32413
000370 26 ec 91 bc 29 9b 88 bf 01 34 4a 97 fe 25 c7 bf
       -0.0120147 -0.180847
000380 86 24 0e 34 fa 2c ae bf 32 ff e8 9b 34 0d cc 3f
       -0.0589369 0.219153
000390 85 6d d5 bf 35 c1 99 3f ca 6c 90 49 46 ce dc 3f
       0.0251511 0.45009
0003a0 48 4f 91 43 c4 cd bd 3f 14 cb 2d ad 86 c4 d1 bf
       0.116421 -0.27762
0003b0 e9 61 68 75 72 86 b8 3f c9 91 ce c0 c8 4b e1 bf
       0.0958015 -0.540501
0003c0 71 20 24 0b 98 c0 a5 bf fb 3c 46 79 e6 e5 c8 bf
       -0.042485 -0.194516
0003d0 68 47 60 62 e2 45 85 3f da c6 9f a8 6c d8 e0 3f
       0.0103872 0.526419
0003e0 da 71 c3 ef a6 5b be bf 97 8f a4 a4 87 a1 d8 bf
       -0.118586 -0.384859
0003f0 2a 1d ac ff 73 98 f8 bf 78 e6 2f 3e 16 ec a0 3f
       -1.53722 0.0330512
000400 72 86 e2 8e 37 f9 e2 3f 62 15 6f 64 1e f9 cd 3f
       0.592922 0.234165
000410 fa 8b ea be ad 05 97 3f a2 f1 44 10 e7 e1 de 3f
       0.0224826 0.482538
000420 8b 17 0b 43 e4 f4 bd bf db 6a d6 19 df 17 d2 bf
       -0.117018 -0.282707
000430 7a 8a 1c 22 6e 4e cd 3f 15 e3 fc 4d 28 44 cc 3f
       0.228956 0.22083
000440 d0 ed 25 8d d1 3a c8 3f 3c 4a 25 3c a1 d7 da 3f
       0.189295 0.419411
000450 f6 b6 99 0a f1 48 d5 3f b6 bc 72 bd 6d a6 d2 3f
       0.332577 0.291408
000460 60 ac 6f 60 72 a3 d5 3f c4 ce 14 3a af b1 d5 3f
       0.338101 0.33897
000470 b2 62 b8 3a 00 e2 c2 bf 8c 13 5f ed 28 ce a1 3f
       -0.147522 0.034776
000480 38 da 71 c3 ef a6 d9 bf 3c 52 d8 a0 8a 76 b4 bf
       -0.400814 -0.0799338
000490 de cb 7d 72 14 20 de 3f 4b 93 52 d0 ed 25 df bf
       0.470708 -0.48669
0004a0 f6 5c a6 26 c1 9b e8 bf 1f f2 96 ab 1f 9b c4 bf
       -0.769013 -0.160984
0004b0 9d 42 53 1b 41 cf 93 bf 3c f4 82 f4 b9 7f 91 bf
       -0.0193453 -0.0170888
0004c0 e3 34 44 15 fe 0c de bf 75 77 9d 0d f9 67 e5 3f
       -0.469543 0.668942
0004d0 af 44 a0 fa 07 91 d3 3f 9d d6 6d 50 fb ad c1 bf
       0.305727 -0.138122
0004e0 76 8d 96 03 3d d4 d5 bf b9 16 2d 40 db 6a c8 bf
       -0.341079 -0.190761
0004f0 02 28 46 96 cc b1 a0 bf 89 44 a1 65 dd 3f c8 3f
       -0.0326065 0.189449
000500 03 fa d0 47 11 00 79 bf 1c 7e 37 dd b2 43 c2 bf
       -0.00610358 -0.142691
000510 89 67 bf a4 e7 cc 8c bf 52 63 42 cc 25 55 db 3f
       -0.0140627 0.427072
000520 e4 1d 96 bc f0 39 a2 bf 19 cb f4 4b c4 5b b5 3f
       -0.0355983 0.0834315
000530 e0 13 eb 54 f9 9e b7 bf b5 ca a7 22 70 7f 91 bf
       -0.0922695 -0.0170877
000540 e5 47 fc 8a 35 5c bc 3f 09 c4 eb fa 05 bb df 3f
       0.110782 0.49579
000550 25 04 ab ea e5 77 c4 3f f7 76 4b 72 c0 ae de bf
       0.159909 -0.479416
000560 e0 05 5b 36 84 74 9a 3f ef c6 82 c2 a0 4c c5 3f
       0.0258351 0.166401
000570 30 11 6f 9d 7f bb d2 bf 07 60 03 22 c4 95 d0 3f
       -0.292694 0.259141
000580 3e 23 11 1a c1 c6 c7 bf 96 ce 87 67 09 32 c0 bf
       -0.185753 -0.126527
000590 e8 a1 b6 0d a3 a0 e2 3f fa 1e 3f 65 46 89 b7 3f
       0.582109 0.0919384
0005a0 e1 8b f4 77 f6 62 36 3f ec 12 d5 5b 03 db f8 3f
       0.000341592 1.55347
0005b0 d3 83 82 52 b4 f2 ea 3f 71 73 2a 19 00 aa c6 3f
       0.842127 0.177063
0005c0 ec 6d 33 15 e2 91 d7 bf 55 f7 c8 e6 aa 79 d8 bf
       -0.368279 -0.382426
0005d0 ae 28 25 04 ab ea cf 3f d3 bd 4e ea cb d2 d7 bf
       0.249349 -0.372241
0005e0 a1 67 b3 ea 73 b5 c5 bf a2 97 51 2c b7 b4 e5 bf
       -0.1696 -0.67831
0005f0 1e 37 fc 6e ba 65 c7 3f eb 37 13 d3 85 58 d4 3f
       0.182792 0.317903
000600 6a c1 8b be 82 34 e0 3f 66 3a 2a ed c3 30 86 bf
       0.50641 -0.0108352
000610 c6 16 82 1c 94 30 ef bf 20 10 43 06 4d a6 ad 3f
       -0.97468 0.0579094
000620 29 3c ad 01 1f 7a e1 be 27 c2 86 a7 57 4a f8 bf
       -8.3337e-06 -1.51815
000630 7f a5 f3 e1 59 82 b6 3f 18 7b 2f be 68 0f e4 bf
       0.0879265 -0.626881
000640 73 61 49 5e 42 aa b3 bf 5a 2e 1b 9d f3 53 bc 3f
       -0.0768167 0.110656
000650 90 bd de fd f1 5e d2 bf 02 4b ae 62 f1 9b b2 bf
       -0.287045 -0.072692
000660 17 45 0f 7c 0c 56 c6 bf 33 f6 ca 61 9c 64 b2 bf
       -0.174501 -0.0718477
000670 de cc e8 47 c3 29 d3 bf ab 9f ed 87 8e d3 86 3f
       -0.299424 0.0111457
000680 28 d6 a9 f2 3d 23 d4 bf 06 4a 0a 2c 80 29 ab bf
       -0.314651 -0.053051
000690 22 12 2a dd 02 ae a0 3f fc 1c 1f 2d ce 18 c2 bf
       0.0325776 -0.141382
0006a0 97 ff 90 7e fb 3a d8 3f 71 e7 c2 48 2f 6a bb bf
       0.3786 -0.107089
0006b0 c6 5a 32 7d 65 94 5d bf 0b 78 3e a8 30 5b a7 3f
       -0.0018054 0.0456176
0006c0 66 15 36 03 5c 90 d4 3f c4 a3 22 88 d2 62 79 3f
       0.321311 0.00619776
0006d0 99 11 de 1e 84 00 e1 bf 85 bb 69 e9 c0 28 97 bf
       -0.531313 -0.0226164
0006e0 7a c7 29 3a 92 cb d0 3f c0 cd e2 c5 c2 10 e1 bf
       0.262425 -0.533296
0006f0 d0 8d fa 35 a3 30 a9 bf 4b c4 00 2e 6d dd b0 3f
       -0.0491992 0.0658787
000700 c8 78 94 4a 78 42 e6 bf c7 f4 84 25 1e 50 c6 3f
       -0.695614 0.17432
000710 f8 35 92 04 e1 8a ef bf 8c a2 07 3e 06 2b d9 bf
       -0.985703 -0.393251
000720 73 7f f5 b8 6f 35 e0 3f 6e f2 00 bb 3f 83 ae 3f
       0.506523 0.0595951
000730 bd ff 8f 13 26 8c c8 bf ed 9a 90 d6 18 74 c0 3f
       -0.191777 0.128543
000740 db 00 09 16 c9 4f 81 3f e3 34 44 15 fe 0c c5 bf
       0.00845296 -0.164459
000750 4f 22 c2 bf 08 1a d2 bf 8b e2 55 d6 36 c5 df bf
       -0.282839 -0.496412
000760 8d 46 3e af 78 ea d5 3f bc 04 a7 3e 90 bc dc bf
       0.342436 -0.449009
000770 99 28 e7 30 04 a5 b7 bf db 59 aa c1 ea 7e a0 bf
       -0.0923617 -0.0322183
000780 37 ff af 3a 72 a4 d3 3f 2b d9 b1 11 88 d7 d6 3f
       0.306912 0.356905
000790 89 2a 57 d3 50 fe a1 3f 29 f9 22 eb ba 01 98 3f
       0.0351434 0.0234441
0007a0 ac e8 6a 86 af 0a b7 bf 0b d5 cd c5 df f6 bc bf
       -0.0900068 -0.113142
0007b0 bb f2 59 9e 07 77 ed bf 06 63 44 a2 d0 b2 e4 bf
       -0.92078 -0.646828
0007c0 30 f6 1c 60 ff d8 68 bf df fe 5c 34 64 3c de bf
       -0.00303316 -0.472436
0007d0 9e 08 e2 3c 9c c0 bc bf 25 3b 36 02 f1 ba f9 bf
       -0.112314 -1.60814
0007e0 45 7a f6 01 ed b3 a7 3f 0d c2 dc ee e5 3e e8 3f
       0.0462946 0.757678
0007f0 22 8a c9 1b 60 e6 d8 bf ea d0 e9 79 37 16 db 3f
       -0.389061 0.423231

FC3_bias f8 [50]
000000 39 18 a0 23 a8 d0 8f 3f 7a 6f 0c 01 c0 31 e4 bf
       0.0155347 -0.631073
000010 55 88 47 e2 e5 e9 a8 bf 6f 63 b3 23 d5 77 d5 3f
       -0.0486595 0.335439
000020 19 90 bd de fd 71 ec bf 8e 4f 12 5c f6 35 8c bf
       -0.888915 -0.0137748
000030 56 d4 60 1a 86 0f fb bf 06 49 9f 56 d1 1f 8a bf
       -1.69129 -0.012756
000040 c2 55 6b 4f 33 1e 41 bf d4 49 b6 ba 9c 12 90 bf
       -0.000522399 -0.015696
000050 05 19 01 15 8e 20 d0 bf fe 29 55 a2 ec 2d c9 bf
       -0.251987 -0.196714
000060 70 7b 82 c4 76 f7 e0 bf ac 6f 60 72 a3 c8 d2 bf
       -0.530208 -0.293496
000070 eb 71 df 6a 9d b8 e1 bf 91 2a 8a 57 59 db c2 bf
       -0.553786 -0.147319
000080 17 62 f5 47 18 06 c4 3f 30 b1 43 46 51 b1 93 bf
       0.156436 -0.0192311
000090 46 28 b6 82 a6 25 ba bf 4c dd 95 5d 30 38 e1 bf
       -0.102137 -0.538109
0000a0 71 91 7b ba ba 63 df 3f d5 3e 1d 8f 19 28 f4 3f
       0.490462 1.25979
0000b0 13 0f 28 9b 72 85 f0 bf 9a 09 86 73 0d b3 e5 bf
       -1.03258 -0.678107
0000c0 21 e6 92 aa ed 26 da 3f f9 24 c1 65 5f c3 b1 3f
       0.408626 0.0693874
0000d0 c7 0d bf 9b 6e d9 d4 bf 03 24 9a 40 11 0b ed bf
       -0.325771 -0.907601
0000e0 a0 33 69 53 75 0f e8 3f ee 94 0e d6 ff 39 c2 bf
       0.751887 -0.142395
0000f0 94 4e 24 98 6a 66 cf 3f 70 27 11 e1 5f 04 e1 3f
       0.245313 0.531784
000100 e5 f0 49 27 12 4c c7 bf d1 93 32 a9 a1 0d c8 3f
       -0.182009 0.187916
000110 8b fc fa 21 36 58 da bf c0 25 00 ff 94 aa e6 bf
       -0.411634 -0.708323
000120 a3 95 7b 81 59 a1 d3 bf 3a 77 bb 5e 9a 22 d0 bf
       -0.306723 -0.252112
000130 29 b4 ac fb c7 42 e1 bf ba a1 29 3b fd 20 e0 bf
       -0.539402 -0.504027
000140 39 34 1b 1a 05 77 86 bf 3d 0a d7 a3 70 3d cc bf
       -0.0109692 -0.220625
000150 a6 ef 35 04 c7 65 d5 3f 7e ba cb 8f 09 42 9b bf
       0.334337 -0.0266191
000160 a6 ee ca 2e 18 5c d8 bf cd 3a e3 fb e2 52 ed bf
       -0.380621 -0.916368
000170 7e c5 1a 2e 72 4f cb bf b6 bc 72 bd 6d a6 d0 3f
       -0.213362 0.260158
000180 78 0b 24 28 7e 8c b1 3f b9 68 2b a3 4f b3 59 bf
       0.06855 -0.00156863

FC3_weight f8 [50, 50]
000000 02 62 12 2e e4 11 d1 3f 6e 57 43 3d d8 bd 80 3f
       0.266717 0.0081746
000010 fc 71 fb e5 93 15 cb bf 4d f9 6b 0d 00 b0 b3 bf
       -0.211596 -0.0769043
000020 4e b4 ab 90 f2 93 be bf 66 b5 86 73 89 fa 7f bf
       -0.119445 -0.00780729
000030 7a c5 53 8f 34 b8 cd 3f d6 1d 8b 6d 52 d1 98 3f
       0.232184 0.024236
000040 bf 27 d6 a9 f2 3d d2 3f 57 72 ba d1 6c c3 8d bf
       0.285031 -0.0145329
000050 59 19 8d 7c 5e f1 d0 3f 4e a3 7f 38 fe fa 9f bf
       0.264732 -0.0312309
000060 72 4d 26 13 5c 51 af bf c2 51 f2 ea 1c 03 db 3f
       -0.0611676 0.422065
000070 1b a1 9f a9 d7 2d c6 bf 96 cf f2 3c b8 bb f0 3f
       -0.173274 1.04583
000080 0a 69 8d 41 27 84 d3 3f 24 7d 5a 45 7f 68 d8 bf
       0.304941 -0.381378
000090 87 33 bf 9a 03 04 c1 bf 81 69 07 12 ca b1 93 bf
       -0.132935 -0.0192329
0000a0 0d 36 75 1e 15 ff d1 3f 1a 79 0f 86 f0 1e b2 bf
       0.281194 -0.0707846
0000b0 ab eb 50 4d 49 d6 c1 bf 2f df fa b0 de a8 d9 bf
       -0.139352 -0.400932
0000c0 1a a6 b6 d4 41 5e d5 bf 7f f5 b8 6f b5 4e d2 bf
       -0.333878 -0.286054
0000d0 88 bc e5 ea c7 a6 e1 3f bd c6 2e 51 bd 35 ee 3f
       0.551609 0.94406
0000e0 0c 75 58 e1 96 8f d7 3f 2f 26 47 4b 2f 7b b1 3f
       0.368139 0.0682859
0000f0 a2 cf 47 19 71 01 d8 3f 72 c4 5a 7c 0a 80 cb bf
       0.375088 -0.214845
000100 9f 4c ed 56 e0 75 87 3f f9 2c cf 83 bb 33 f1 bf
       0.0114553 -1.07513
000110 b4 39 ce 6d c2 bd e1 3f 74 9a 05 da 1d 52 ac 3f
       0.554414 0.055314
000120 f3 54 87 dc 0c 37 b6 3f 13 47 1e 88 2c d2 ca bf
       0.0867775 -0.209539
000130 e0 67 5c 38 10 92 f0 3f 57 7b d8 0b 05 6c df 3f
       1.03566 0.490968
000140 bb 40 ee c7 92 de a0 bf c4 d2 c0 8f 6a d8 d8 bf
       -0.0329481 -0.388209
000150 5c c6 4d 0d 34 9f dd 3f 7d e7 17 25 e8 2f df 3f
       0.462842 0.487299
000160 f4 6d c1 52 5d c0 dd 3f 0f d4 29 8f 6e 84 db 3f
       0.464866 0.429958
000170 3d 29 93 1a da 80 ea 3f 6c e9 d1 54 4f 66 e9 3f
       0.828229 0.793739
000180 97 01 67 29 59 4e d9 3f 30 4c a6 0a 46 25 c9 bf
       0.395407 -0.19645
000190 72 b4 99 f9 c4 f0 ab 3f 1d 19 50 14 8d 5a aa 3f
       0.0545713 0.0514721
0001a0 eb ac 16 d8 63 22 d2 3f c8 01 05 28 57 c2 94 3f
       0.283349 0.0202726
0001b0 92 96 ca db 11 4e cf 3f 18 64 b4 56 00 c8 33 3f
       0.24457 0.000301838
0001c0 83 18 e8 da 17 d0 bf bf e0 e7 09 95 c9 ba 99 3f
       -0.124269 0.0251266
0001d0 4f 6d ba af 14 13 a5 bf 64 5e a2 d5 24 d3 a8 bf
       -0.0411612 -0.0484859
0001e0 ac e4 63 77 81 92 a2 bf 59 8b 4f 01 30 9e dd 3f
       -0.036274 0.46278
0001f0 b5 fb 55 80 ef 36 af bf 7a 8b 87 f7 1c 58 c6 bf
       -0.060966 -0.174564
000200 12 da 72 2e c5 55 d7 3f 77 85 3e 58 c6 86 8e 3f
       0.36461 0.0149055
000210 25 21 91 b6 f1 27 c4 bf 8d 80 0a 47 90 4a dc bf
       -0.157469 -0.442051
000220 00 d2 ed db ff b6 b7 3f 25 3c a1 d7 9f c4 d6 3f
       0.0926361 0.355751
000230 4e 65 ac 91 b8 22 b8 3f e2 06 7c 7e 18 21 e9 3f
       0.0942798 0.78529
000240 76 a7 3b 4f 3c 67 d6 3f c8 96 e5 eb 32 fc d6 bf
       0.350051 -0.359143
000250 39 1d 12 08 85 52 95 bf 12 c2 a3 8d 23 56 f1 3f
       -0.0208226 1.08353
000260 36 3e 93 fd f3 34 c8 3f c8 ef 6d fa b3 9f e2 bf
       0.189116 -0.581995
000270 1a 6c ea 3c 2a fe d5 3f 42 3e e8 d9 ac fa bc bf
       0.343638 -0.1132
000280 78 e8 60 a2 e6 50 af bf d3 f6 af ac 34 a9 e9 3f
       -0.0611641 0.801905
000290 a8 00 18 cf a0 a1 d7 3f 55 2f bf d3 64 c6 c3 3f
       0.36924 0.154492
0002a0 b2 30 9f 07 d2 20 a0 bf 78 7d e6 ac 4f 39 be 3f
       -0.0315004 0.118062
0002b0 ee d0 b0 18 75 ad d2 3f 61 1c 5c 3a e6 3c c7 bf
       0.291837 -0.181546
0002c0 6f 62 48 4e 26 6e cd bf 98 63 a2 d6 6e 9a 72 bf
       -0.229924 -0.00454181
0002d0 9c 10 df 2e a0 bc 84 3f a4 53 57 3e cb f3 70 3f
       0.0101254 0.00413875
0002e0 49 9e eb fb 70 90 dc 3f 26 b1 ff 95 f0 df b1 bf
       0.446316 -0.0698233
0002f0 17 4a 26 a7 76 86 c5 bf 48 32 ab 77 b8 1d df 3f
       -0.168166 0.486189
000300 5b d2 51 0e 66 13 d9 3f d0 9c f5 29 c7 64 d3 bf
       0.391809 -0.303026
000310 20 61 18 b0 e4 2a cc 3f 03 ee 79 fe b4 51 b1 3f
       0.220059 0.067653
000320 e9 26 31 08 ac 1c ca bf 2c f2 eb 87 d8 60 c5 3f
       -0.204 0.167018
000330 48 38 88 31 44 a9 b4 bf c7 b0 d4 c4 4c ec a7 bf
       -0.0807078 -0.0467247
000340 4d 9e b2 9a ae 27 e5 bf eb 13 8a be cc c1 95 3f
       -0.661094 0.0212471
000350 ae 9d 28 09 89 b4 d3 3f 3b 03 5d da f4 90 6e bf
       0.307894 -0.00373123
000360 60 b1 e1 44 4f 25 b0 bf b6 6a 32 3e 27 18 a1 bf
       -0.0630693 -0.0333874
000370 30 bc 92 e4 b9 be bf 3f 71 3c 9f 01 f5 66 db bf
       0.124004 -0.428159
000380 61 18 b0 e4 2a 16 d1 bf e7 35 76 89 ea ad d8 3f
       -0.266978 0.385615
000390 1f 80 79 6d db 9c b5 bf 27 10 97 98 3e a6 7b bf
       -0.0844247 -0.00675034
0003a0 27 14 22 e0 10 aa b6 3f 46 06 b9 8b 30 45 c9 3f
       0.0885325 0.197424
0003b0 ab cc 94 d6 df 12 c4 3f 46 b1 dc d2 6a c8 e8 3f
       0.156826 0.774465
0003c0 90 66 2c 9a ce 4e db bf 3a b0 1c 21 03 79 d9 3f
       -0.426685 0.398011
0003d0 6c 5c ff ae cf 9c b7 bf 03 26 70 eb 6e 9e c0 3f
       -0.0922365 0.129835
0003e0 18 cc 5f 21 73 65 c0 3f 77 e6 d4 84 a3 9a 88 3f
       0.128096 0.0120137
0003f0 4a b7 25 72 c1 19 ce 3f af eb 17 ec 86 6d e9 3f
       0.235161 0.79462
000400 1a 6b 7f 67 7b f4 ca bf 95 0d 6b 2a 8b c2 a6 bf
       -0.210586 -0.044453
000410 b1 4f 00 c5 c8 92 d2 3f 95 d4 09 68 22 6c d4 3f
       0.290209 0.3191
000420 d4 82 17 7d 05 69 ce 3f cc 5e b6 9d b6 46 e4 bf
       0.23758 -0.633632
000430 5a d6 fd 63 21 3a bc 3f 08 c9 02 26 70 6b e4 3f
       0.110262 0.638115
000440 a2 26 fa 7c 94 11 bb bf 49 11 19 56 f1 46 c2 bf
       -0.105737 -0.14279
000450 a2 d3 f3 6e 2c 28 d7 3f d9 7b f1 45 7b bc c4 3f
       0.361827 0.162002
000460 3b 3f bd 00 98 be 59 3f c7 62 9b 54 34 56 e2 bf
       0.00157132 -0.573023
000470 80 80 b5 6a d7 84 d2 bf dd ea 39 e9 7d e3 d8 bf
       -0.289358 -0.388885
000480 a4 d8 76 7f 61 9e ae 3f e5 7c b1 f7 e2 8b ba 3f
       0.0598021 0.103697
000490 4b 02 d4 d4 b2 b5 f9 3f fa 43 33 4f ae 29 ce 3f
       1.60686 0.235647
0004a0 0b 1f b6 99 af 37 a6 3f d9 fb 9e a2 34 e5 a0 bf
       0.0433936 -0.0329987
0004b0 c9 57 02 29 b1 6b da bf db 6d 17 9a eb 34 d4 3f
       -0.412823 0.31573
0004c0 bb 45 60 ac 6f 60 e3 bf 2c f5 2c 08 e5 7d d2 3f
       -0.605522 0.288934
0004d0 43 3c 12 2f 4f e7 c2 bf 31 db 04 ce 08 25 9a 3f
       -0.147684 0.0255319
0004e0 91 ed 7c 3f 35 de e6 bf 25 15 d7 42 da 10 a5 3f
       -0.714625 0.0411442
0004f0 2c 39 dd 68 b6 e1 86 bf fc 99 30 50 08 d3 96 3f
       -0.0111727 0.0222894
000500 f5 ba 45 60 ac 6f c8 bf 83 2f 4c a6 0a c6 e7 3f
       -0.190908 0.742925
000510 67 29 59 4e 42 e9 cd 3f e2 cd 1a bc af ca cd 3f
       0.233681 0.232748
000520 16 13 9b 8f 6b c3 e0 bf d6 36 c5 e3 a2 5a bc 3f
       -0.523855 0.110758
000530 29 15 43 28 a5 56 aa bf 61 de e3 4c 13 b6 cf 3f
       -0.0514423 0.247744
000540 59 6f 71 e0 17 8f 79 bf 46 b2 47 a8 19 52 d3 3f
       -0.00623998 0.301886
000550 c8 69 3e 9d e1 bc b0 bf 42 21 02 0e a1 4a d7 bf
       -0.0653821 -0.36393
000560 f9 bd 4d 7f f6 a3 e3 bf 1c d1 3d eb 1a 2d bb 3f
       -0.613765 0.106157
000570 4f f7 f0 1b 15 ee 9b bf e8 88 7c 97 52 97 c0 bf
       -0.0272754 -0.129618
000580 6e fa b3 1f 29 22 c5 bf 5f 5f eb 52 23 f4 bf bf
       -0.165105 -0.124819
000590 6e c1 52 5d c0 cb d5 bf ee 93 a3 00 51 30 bb bf
       -0.340561 -0.106206
0005a0 19 f5 5a 1a 09 7e b7 bf e9 b5 d9 58 89 79 e1 bf
       -0.0917669 -0.546086
0005b0 10 16 5f fe 54 26 86 3f 4d c0 af 91 24 88 e0 3f
       0.0108153 0.516619
0005c0 92 58 52 ee 3e c7 dc bf 9a ef e0 27 0e 20 e5 bf
       -0.449661 -0.660163
0005d0 d1 5c a7 91 96 ca 8b 3f d0 80 7a 33 6a be d4 bf
       0.01357 -0.324122
0005e0 03 22 c4 95 b3 77 d5 bf 36 1e 6c b1 db 67 d3 bf
       -0.335431 -0.303214
0005f0 65 04 af f1 f4 a5 a2 bf 57 ec 2f bb 27 0f de 3f
       -0.0364224 0.469675
000600 f3 1f d2 6f 5f 87 f4 bf ad a3 aa 09 a2 ee 9b bf
       -1.28305 -0.0272775
000610 bf ee 74 e7 89 67 e8 bf 4c fc 51 d4 99 7b d8 bf
       -0.762639 -0.382544
000620 70 32 86 46 6b 9d 3c bf c5 71 e0 d5 72 67 ea 3f
       -0.000436629 0.825128
000630 ee 5b ad 13 97 e3 c9 3f 13 9e d0 eb 4f e2 d4 3f
       0.202258 0.326313
000640 81 5f 23 49 10 ae da 3f ed a8 20 f5 8d 9e 99 bf
       0.416874 -0.0250189
000650 b6 9e 21 1c b3 ec e4 3f 3d cf 44 7d 37 82 b1 3f
       0.653894 0.0683932
000660 08 3e 06 2b 4e b5 d1 bf 42 fd 57 eb fe 90 72 bf
       -0.276691 -0.00453281
000670 94 83 d9 04 18 96 db bf 98 36 77 4f 79 cf 8c bf
       -0.431036 -0.0140676
000680 a9 96 be 21 9e 36 b4 bf f5 55 a8 24 a1 e3 89 bf
       -0.0789584 -0.0126412
000690 31 5b b2 2a c2 4d c4 3f b3 41 26 19 39 0b d7 bf
       0.158623 -0.36006
0006a0 18 7c 9a 93 17 99 c8 bf 52 0a ba bd a4 b1 e5 bf
       -0.192172 -0.677935
0006b0 0d 37 e0 f3 c3 08 c7 3f 26 3b 91 bb 63 0c b3 3f
       0.179955 0.0744078
0006c0 7b 10 02 f2 25 54 cc bf 17 d7 f8 4c f6 cf eb bf
       -0.221318 -0.869136
0006d0 23 e2 9c c7 17 a3 a8 bf d8 47 a7 ae 7c 96 cd bf
       -0.0481193 -0.231155
0006e0 b7 9b e0 9b a6 cf da 3f 46 b9 4d 1b 82 a1 56 bf
       0.418924 -0.00138128
0006f0 22 6e 4e 25 03 40 e0 bf 03 79 76 f9 d6 87 c5 bf
       -0.507814 -0.168208
000700 e3 33 d9 3f 4f 83 eb bf 5f b3 5c 36 3a e7 ec bf
       -0.859779 -0.903226
000710 b2 85 20 07 25 cc c8 bf b9 50 f9 d7 f2 ca d0 3f
       -0.19373 0.262387
000720 28 f0 4e 3e 3d b6 d7 bf 40 bf ef df bc 38 c1 bf
       -0.370498 -0.134544
000730 4a 27 12 4c 35 b3 da 3f eb 4c eb 80 35 18 ac bf
       0.417188 -0.0548722
000740 ab b1 84 b5 31 76 e2 bf 06 f3 57 c8 5c 19 c2 3f
       -0.576928 0.141399
000750 61 84 95 af 70 37 b7 3f 88 46 77 10 3b 53 db bf
       0.0906897 -0.426955
000760 d6 57 57 05 6a 31 d6 bf 38 f5 81 e4 9d 43 e9 3f
       -0.346766 0.789504
000770 4f af 94 65 88 63 cd bf 9a 05 da 1d 52 0c bc 3f
       -0.2296 0.109563
000780 8b fb 8f 4c 87 4e a7 bf 33 c5 1c 04 1d ad c0 bf
       -0.045521 -0.130283
000790 70 9a 3e 3b e0 ba ae bf d4 d2 dc 0a 61 35 d0 3f
       -0.0600195 0.253258
0007a0 87 e1 23 62 4a 24 d3 3f 47 77 10 3b 53 68 e5 3f
       0.29909 0.668985
0007b0 0e 6b 2a 8b c2 2e cc bf 36 94 da 8b 68 3b d3 3f
       -0.220177 0.300501
0007c0 6d e1 79 a9 d8 18 e1 3f 38 08 84 e7 ef ef b7 3f
       0.534283 0.0935049
0007d0 a9 86 fd 9e 58 a7 be bf f5 2e de 8f db af e6 3f
       -0.119741 0.708967
0007e0 93 ff c9 df bd a3 df bf a2 e0 18 b8 f2 48 b6 bf
       -0.494369 -0.0870506
0007f0 6a 31 78 98 f6 4d e3 3f 11 22 f0 f2 3a 03 6f 3f
       0.603267 0.00378572
