examples/submissions/2021_ATVA/acas_onnx/ACAS_XU_5_8.onnx (onnx, 108361 bytes, 14 tensors)

FC0_bias f8 [50]
0	0xbfd4740c4156e265	-0.319583
1	0xbfd42a305532617c	-0.315075
2	0xbfb868b8503e05f5	-0.0953479
3	0xbfc3d8f92af9a8ce	-0.155059
4	0x3fa194b2aa0bd7a5	0.0343376
5	0xbfdafa1e3eaf6838	-0.421516
6	0x3fb5f1843c3a42f2	0.0857165
7	0xbfdd8c1db0142f62	-0.461677
8	0xbfc698c3b0c4588a	-0.176537
9	0xbfad9e83e425aee6	-0.05785
10	0xbf9624d6791df90f	-0.0216249
11	0x3fd314db59578a2b	0.298148
12	0xbfca434e3369b9d8	-0.205179
13	0xbfd16e9ff0cbaf96	-0.272377
14	0xbfa9c3f66475cb5e	-0.0503232
15	0x3fbb37867f0aa21a	0.106316
16	0xbfc289b951c5c572	-0.144828
17	0xbfd5a979e16d6dc2	-0.338469
18	0xbfae3a76f4532394	-0.0590398
19	0x3f7fdccc9f2a7d2c	0.00777893
20	0xbfcb64f97edc7ef1	-0.214019
21	0xbfdb0f01fb82c2bd	-0.422791
22	0x3fceb7995ee136e7	0.239978
23	0xbfc3dfdac68a936c	-0.155269
24	0xbfbe7e9531550ca2	-0.119119
25	0xbfdf4f8b588e368f	-0.48923
26	0xbf92c357d904e974	-0.0183233
27	0xbfa288b6f346b419	-0.0361993
28	0xbfdb1187e7c06e1a	-0.422945
29	0xbfe3ee2435696e59	-0.62282
30	0xbfadfc63934d4f3e	-0.0585662
31	0x3fc1ce28ed5f138c	0.139104
32	0xbfd3e1c15097c808	-0.310654
33	0x3f9d3c940505227f	0.0285514
34	0xbfd5d944aa53fc01	-0.341386
35	0xbfa3c3504c48adef	-0.0385995
36	0x3fbd0f94c87980f5	0.113519
37	0xbfd593bc0a06e9ff	-0.337142
38	0xbfd8bd017dae8188	-0.386536
39	0xbfd50364388ebcc7	-0.328332
40	0xbfc9992c8c5004fb	-0.199987
41	0xbfba39c51dabe271	-0.102444
42	0x3fc751159c497742	0.182162
43	0xbfd039cd8127b2cc	-0.253528
44	0xbfa70b3fcf22e862	-0.0450077
45	0xbfb40332ba676f7b	-0.0781738
46	0xbfd5f93bc0a06ea0	-0.343337
47	0x3fbd700cd855970b	0.114991
48	0x3fd83465625a682b	0.378198
49	0xbfc99ce8d972cd7d	-0.200101

FC0_weight f8 [5, 50]
0	0xbff3940789613d32	-1.22364
1	0xbfd4c4b4d056c509	-0.324506
2	0xbfc682f944241c3f	-0.175872
3	0xbfbc450268900c52	-0.110428
4	0xbfa62e1e207c774a	-0.0433206
5	0x3fa4ab48ee865af8	0.0403693
6	0xbfc5526527a20579	-0.166577
7	0xbf4981be2810b7ab	-0.000778406
8	0x3fb847a17f4128bf	0.094843
9	0x3fb163be1579e4c8	0.0679282
10	0xbf10627fa54764d3	-6.25029e-05
11	0x3ff157342edbb59e	1.08379
12	0xbfb0e5b276e0312e	-0.0660049
13	0x3f96039911b45d6a	0.0214981
14	0xbfbdd1a21ea35936	-0.11648
15	0xbf71ce3e66edf5bc	-0.00434708
16	0xbfc193bc0a06e9ff	-0.137321
17	0xbfb568e31868ac92	-0.0836317
18	0x3fa49415cc1a1f66	0.0401923
19	0xbf9cf5a45c6b3ae1	-0.0282808
20	0xbff22c669057d178	-1.13584
21	0x3fbf785729b280f1	0.12293
22	0x3fa4f751db94e6ac	0.0409494
23	0x3fbefac6045baf53	0.121014
24	0x3fd41d4b6a619daa	0.314288
25	0xbfa5d1f95c77d01b	-0.0426176
26	0x3f6c85d7c5cf2ca3	0.00348179
27	0x3f9ab3892ee84ad8	0.0260755
28	0xbfa84629affcb26e	-0.0474103
29	0xbf8525cc426351df	-0.010326
30	0xbfb034315ff45c5e	-0.0632964
31	0xbfad45231fbfb8e8	-0.0571681
32	0xbfb48be4a530a691	-0.0802596
33	0xbf96e7f399c03006	-0.0223692
34	0x3f9314d1485c9024	0.0186341
35	0xbfb73a2fa6b6b88e	-0.0907316
36	0x3fc5a0620ab71327	0.168957
37	0x3fb78a0fb8daa781	0.0919504
38	0xc00233eff1950332	-2.27536
39	0xbf7e3666c45a3784	-0.0073761
40	0xbfaa0ae60d0fb2fb	-0.0508644
41	0xbfea77e5eaab0425	-0.827136
42	0x3f8f086e638ae9d3	0.0151528
43	0xbfc251b93037d630	-0.143119
44	0x3f8a82cda539e0cc	0.0129448
45	0xbfbc9ca18bd66278	-0.111765
46	0xc000941743e963dc	-2.07231
47	0xbfa2d1f52ab9e7ee	-0.0367581
48	0x3fda64f11b60ae97	0.412411
49	0x3fb6be48a58b3f64	0.088841
50	0xbf8355f07776d9fc	-0.00944126
51	0x400414a4d2b2bfdb	2.51008
52	0x3ff9db4245f5ad97	1.61603
53	0x3ff140f66a550870	1.07836
54	0x3fe18c6d612c6ac2	0.548392
55	0x3fe21d2178f68be3	0.566056
56	0x3fd3cc9ea9a3d2d8	0.309364
57	0x3ff496fa82e87d2c	1.28686
58	0xbff24c63f141205c	-1.14365
59	0xbfad0a3f1e2300b6	-0.0567188
60	0x3f23db6de92b6c03	0.000151498
61	0x3f89bfd21286eb41	0.0125729
62	0x3ff16e58a32f4491	1.08944
63	0xbff579db22d0e560	-1.34225
64	0xbfe3a53fc0096feb	-0.613922
65	0xbfe1e20ccff21b3b	-0.558844
66	0xbff9aa1b5c7cd899	-1.60403
67	0xc003793dd97f62b7	-2.4342
68	0xbfde6672fba01eef	-0.475003
69	0x3fa9ea75543ff335	0.0506169
70	0xbfcafd7e45803cd1	-0.210861
71	0xbff3f43419e30015	-1.24712
72	0x3fe76fa615a8deb1	0.732379
73	0x3ff8b7f38c5436b9	1.54491
74	0x3fdb4c6a3bddfca0	0.426539
75	0xbff6cd7f0ed3d85a	-1.42517
76	0x3fe23384fd2a62aa	0.568789
77	0x4000f87bdcf0307f	2.12133
78	0xbfee2cf312b1b36c	-0.942987
79	0xbfa5da81c135bfd5	-0.0426827
80	0xbffc2d96a6a0125a	-1.76113
81	0xbfe223443d46b26c	-0.566805
82	0x3ff55aaf78feef5f	1.33464
83	0xbfddabb8800eae19	-0.463606
84	0x3fe3a682b6284599	0.614076
85	0xbfccff08893b7d85	-0.226533
86	0x3ff30a2877ee4e27	1.18998
87	0x3fe91843c3a42f1f	0.784212
88	0x3fbfae147ae147ae	0.12375
89	0x3ff3dce5b4245f5b	1.24143
90	0x3ffd23e186983516	1.82126
91	0x3fc7b07075b3e143	0.185072
92	0x3fdb23465625a683	0.424028
93	0xbff505a708ede54b	-1.31388
94	0xbfd3563ed0f62739	-0.302139
95	0x3fea8f53c579f234	0.829996
96	0xbfbeb68cef672b88	-0.119973
97	0x3fa68d7243ea3a9c	0.0440479
98	0xbfd0c25d074213a1	-0.261863
99	0x3fcad0d49949e881	0.209498
100	0xbfe9eeb91b3f20a7	-0.810391
101	0xc00a1b280f12c27a	-3.26326
102	0xbffaf4d1633482bf	-1.68477
103	0x3ff39d3458cd20b0	1.22588
104	0x3ff7d590c0ad03da	1.48964
105	0xbfe121e603d57796	-0.535388
106	0x3fbeb3cc4ac6cdaf	0.119931
107	0xbff988ce703afb7f	-1.5959
108	0x3fae5e1dc288a62c	0.0593118
109	0x3f9e82de6c318182	0.0297961
110	0x3f99ff568cd48f39	0.0253881
111	0xbf809c44ef9e3306	-0.00811056
112	0x3fb945d851654d62	0.098722
113	0xbff34f765fd8adac	-1.2069
114	0x3fe5d79af1886df8	0.682569
115	0xbfb27a4037fe740f	-0.0721779
116	0xbfd413b18dac258d	-0.313702
117	0x3ffbdff822bbecab	1.74218
118	0xbfebeeb2d0a24463	-0.872888
119	0x3fd06c11a11233df	0.256596
120	0x3fb73f5ebaa07a5e	0.0908107
121	0x3ff0cbfb15b573eb	1.0498
122	0xbff520d9945b6c37	-1.32052
123	0xbfc1912556d19ded	-0.137242
124	0x3fd794141e9af5ba	0.368413
125	0x3ffad51d68c692f7	1.67703
126	0xbff2f0f7b9e060fe	-1.18383
127	0xbfc476e1deacc921	-0.159878
128	0x3ff178df7a4e7ab7	1.09201
129	0x3fa539e7825ab8b3	0.0414574
130	0xbfa211e5db918bae	-0.0352928
131	0xbfe01ae2da554b8c	-0.503282
132	0xbffb70110a137f39	-1.71486
133	0xbff604230fcf80dc	-1.37601
134	0xbfe94069e7fb267c	-0.789113
135	0xbf8c2e0bac05ace8	-0.0137597
136	0x3fca1e2584f4c6e7	0.204045
137	0xbff3d7fb69984a0e	-1.24023
138	0xbfc0aed99cbee808	-0.130336
139	0xbfeb94d0dcfcc5b9	-0.861916
140	0x3fbf6b1a2a4db164	0.122728
141	0x3fa52cf7afcf6604	0.0413587
142	0xbfd862cba732df50	-0.38103
143	0x3ff8ceaf251c193b	1.55046
144	0x3f9f444757ad65ff	0.0305339
145	0x3fce025bfad29995	0.234447
146	0x3fc0fbb9496249a1	0.132682
147	0xbff44d0bb6ed6777	-1.26881
148	0x3feb674f2f123c43	0.856361
149	0x3fd398cc144028e5	0.306201
150	0x3fb1453a9cb4004d	0.0674626
151	0xbf912803544856b1	-0.0167542
152	0xbf948c210b1282ba	-0.0200658
153	0x3fe01c475e6362a6	0.503452
154	0xbfc33c3e74afd545	-0.150276
155	0x3f9578b015062182	0.0209682
156	0xbfd5fe64f54d1e97	-0.343652
157	0xbfa33fd27de6b5ac	-0.0375963
158	0x3fd3cbf6e3f78bbd	0.309324
159	0xbfd4beb18116ebd5	-0.324139
160	0xbf8d4bfe0553fcd7	-0.0143051
161	0x3fb484a515ce9e5e	0.080149
162	0x3fc6463065f9591d	0.174017
163	0x3fe26edcc20d562a	0.576033
164	0xbf67ffe67fa65366	-0.00292964
165	0x3fca20f6f08cc576	0.204131
166	0xbfcd2c16df3f9618	-0.227908
167	0x3faa0465c04e3949	0.0508148
168	0x3fd73c46d82ba5a0	0.363054
169	0xbfea5c7cd898b2ea	-0.82379
170	0xbfd2d06bbdbe3c10	-0.293971
171	0x3fc5300de4c51117	0.165529
172	0xbfd890d5a5b9628d	-0.38384
173	0x3fd65bab21815a08	0.349345
174	0xbf92ee3adb9e20e8	-0.0184869
175	0xbfa0d1a2f562ee0c	-0.0328494
176	0x3fdac8754f3775b8	0.418485
177	0x3fdef77292c49342	0.483853
178	0xbfa8de4c51116a8c	-0.048571
179	0xbf87dc527bcdd6b8	-0.0116507
180	0x3fd5e4fb97bb7308	0.342101
181	0xbfd3e8ff327aa68f	-0.311096
182	0xbfae0370cdc8754f	-0.05862
183	0xbfbd02363b256ffc	-0.113315
184	0xbfc3b25f633ce63a	-0.153881
185	0x3fdc0fecdd0d8cb0	0.438472
186	0x3fe05759ee88df37	0.510663
187	0xbf344f131ed1e373	-0.000309889
188	0x3fad2527d7b55e1b	0.0569241
189	0xbf80aa6f7fbfa8cd	-0.00813758
190	0xbf7cdd8907a611a2	-0.00704721
191	0x3fb79806f262888b	0.0921635
192	0x3ff12d57bc7f77af	1.07357
193	0xbfa92740b6a974d9	-0.0491276
194	0x3fdb20535c9e6688	0.423848
195	0x3fe93178b3700475	0.787289
196	0x3faeb606b7aa25d9	0.0599825
197	0x3fb36a35febf8e20	0.0758394
198	0x3feeafd113836a83	0.958962
199	0x3fcdde15ca6ca03c	0.23334
200	0x3fa0f2cc3ad695a3	0.0331024
201	0x3fe1d870da5daf08	0.557671
202	0xbfe43c9cd3e0bd45	-0.632399
203	0xbfc79b1b79d909f2	-0.184421
204	0x3fc2c8366516db0e	0.146735
205	0xbff2d3f7ced91687	-1.17675
206	0x3fda7685985ad539	0.413484
207	0x3fdeb5393250b524	0.479811
208	0xbfdeeb52c9d16fca	-0.483113
209	0xbfc7d4306e5cd4ed	-0.186163
210	0x3f618b481d2529db	0.00214161
211	0x3fac35371971c10d	0.0550935
212	0x3fcf220791c4b902	0.243226
213	0xbfcc8ba83f4eca68	-0.223012
214	0xbfca3e39f77292c5	-0.205024
215	0xbf8a4f00ef1348b2	-0.012846
216	0x3fde520d130df9be	0.473758
217	0xbfd7b606b7aa25d9	-0.370485
218	0xbfd9152f3c2dadb8	-0.391918
219	0x3fea6a012599ed7c	0.82544
220	0x3fae0dc189a2ab91	0.0586987
221	0xbfc67807789a4591	-0.175538
222	0x3fcc1b97353b4b30	0.219592
223	0xbfe045f394b7b289	-0.508539
224	0x3fb0b6bf444e0daa	0.0652885
225	0x3fe09220ff540896	0.517838
226	0xbfd9e0370cdc8755	-0.40431
227	0xbfe417ebaf102364	-0.62792
228	0x3fcab47c73eee526	0.208633
229	0xbffb0a67620ee8d1	-1.69004
230	0xbfe10deb0fadf2ed	-0.532949
231	0x3fc89f94855da273	0.19237
232	0x3fdec6a7ef9db22d	0.480875
233	0x3fc12c386d2ed784	0.134162
234	0x3fd331f03d145d85	0.299923
235	0xbfe06c3116228134	-0.513207
236	0xbfa5ce0e156c78cf	-0.0425877
237	0xbfb8689a1d4d17e1	-0.0953461
238	0xbf48b8ba017f423c	-0.000754443
239	0x3fc20be5109070fc	0.140988
240	0xbfd4b167ec7863bf	-0.323328
241	0xbfc81fe21d96e9bc	-0.188473
242	0xbff3dcb1465e8922	-1.24138
243	0x3fe052a411c2a023	0.510088
244	0x3fc367caea747d80	0.151605
245	0xbfea9d2178f68be3	-0.831681
246	0x3f1939cc7a4d9639	9.62287e-05
247	0x3fc0fb86f47b677f	0.132676
248	0xbff2a2a6f3f52fc2	-1.16471
249	0x3fe3dd93c46d82ba	0.620798

FC1_bias f8 [50]
0	0x3fea8a0902de00d2	0.82935
1	0xbfa322e1ac57e23f	-0.0373755
2	0xbfff93e81450efdd	-1.97361
3	0xbff19a60d4562e0a	-1.10019
4	0xbff8670e2c12ad82	-1.52516
5	0xbfeda2749f0e4da1	-0.926081
6	0xc0040b923a29c77a	-2.50565
7	0xbf9892329d0b3e22	-0.0239952
8	0x3fccb955f78359bc	0.224406
9	0x3fcc59f2ba9d1f60	0.221495
10	0x3fcf5b573eab367a	0.244975
11	0x3fe5f1b691212514	0.685756
12	0xbfc33c4f3ba775fb	-0.150278
13	0x3fe95109070fbeba	0.791142
14	0xbff74a8198f1d3ed	-1.45569
15	0xbfe80270f3882279	-0.750298
16	0xbf88773fd27de6b6	-0.0119462
17	0xbfede338b47c73ef	-0.933987
18	0x3fd55ec80c73abc9	0.33391
19	0xbf76a7cf675bd9c6	-0.00553113
20	0x3fe17be33acd5b68	0.546373
21	0xbf862c19637e549a	-0.0108263
22	0x3ff25273d5bab218	1.14513
23	0x3ff2b1465e892253	1.16828
24	0x3ff77640639d5e4a	1.46637
25	0xbf883a6124de05da	-0.0118301
26	0x3fdcc7368ad68837	0.449659
27	0x3fea6fa82e87d2c8	0.82613
28	0x3fa146c9e8ecbe04	0.0337432
29	0xbfcc30c23fab10ba	-0.220238
30	0xbfe336ae7d566cf4	-0.600425
31	0xbfe866ab9b23dd55	-0.762533
32	0xbfbd9d0203e63e8e	-0.115677
33	0x3fb386db50f40e5a	0.0762765
34	0x3fe185143bf72713	0.547495
35	0xbff722877ee4e26d	-1.44593
36	0xbfdc0678c0053e2d	-0.437895
37	0x3fc687a8d64d7f0f	0.176015
38	0xbfd9ac0c62e4d1a6	-0.401126
39	0xbf84d0643102008b	-0.0101631
40	0x3fa6b37bc2eefd79	0.0443381
41	0xbf7563642873919d	-0.00522174
42	0x3ff8c7991bc55864	1.54873
43	0xbff4cee392e1ef74	-1.30051
44	0xbfee3400b88ca3e8	-0.943848
45	0xbfeb6277c45cbbc3	-0.85577
46	0xbf9ee39997ec1a70	-0.0301651
47	0xbfd2834d26fa3fcd	-0.289264
48	0xbf83e72411015a1d	-0.00971821
49	0x3fda6ec17ebaf102	0.41301

FC1_weight f8 [50, 50]
0	0x3fd1e7967caea748	0.27976
1	0x3f881d125f7e14d9	0.0117742
2	0x3fe06d117b5286b6	0.513314
3	0x3fe8c7e6b3fe9fae	0.774402
4	0xbff8475a31a4bdba	-1.51742
5	0xbfc69e98dcdb37ca	-0.176715
6	0x3fd1af89c5e6ff7e	0.276339
7	0x3f646fb3c20ed8b6	0.00249467
8	0xbfc66aa8eb463498	-0.17513
9	0xbfe72c929aa1d756	-0.724191
10	0xbfe8608f21709310	-0.761787
11	0x3fd01b823c85c24c	0.251679
12	0x3f566648df41ef64	0.00136716
13	0xbfe3baf102363b25	-0.61657
14	0xbfff5aaf78feef5f	-1.95964
15	0xbfe30726d04e618d	-0.594623
16	0xbfa664b58c3e6744	-0.0437371
17	0x3fc000e27e0ef998	0.125027
18	0xbfecee807bbb6241	-0.904114
19	0x3f89f8a7462a86bc	0.0126813
20	0xbfe3af6837f7be12	-0.615162
21	0xbf9afc2656abde40	-0.0263525
22	0xbfe13c87db2b3461	-0.538639
23	0xbfecfa02fb5d0310	-0.905519
24	0xc00a32031ceaf252	-3.27442
25	0x3f8ef1bac2df0d41	0.0151095
26	0xbfd269014b599aa6	-0.287659
27	0xbff3f0995aaf78ff	-1.24624
28	0xc00550624dd2f1aa	-2.66425
29	0xbf9c589770ca6d77	-0.0276817
30	0xbfe513a92a305532	-0.65865
31	0x3fe66b1a2a4db164	0.700574
32	0xbf9bde3fbbd7b203	-0.027215
33	0xbfc1aa1511dffc54	-0.138003
34	0xbfe47255f3519bd4	-0.638957
35	0xc00ada8ac5c13fd1	-3.35671
36	0xbfd1ddc6195464dc	-0.279161
37	0x3f5fd63ee66fb61b	0.00194317
38	0x3fccd9620685553f	0.225384
39	0xbf912f5a609ea649	-0.0167822
40	0xbfde504c48adeebb	-0.473651
41	0xbf96bc9e815fe6f0	-0.0222039
42	0xbfd446ae3a3a8e71	-0.316814
43	0x3fe6ba16e7a311e8	0.710216
44	0xbff292e1ef73c0c2	-1.16086
45	0x3ff3be1869835159	1.23391
46	0x3fdf30f49491f2dc	0.487363
47	0xbfc665bea0ba1f4b	-0.17498
48	0xbfa536354632ea38	-0.0414292
49	0xbfdbf23465625a68	-0.436658
50	0xbfed3764f11b60af	-0.913012
51	0xbfaf1dcf1ddfe4d8	-0.0607743
52	0xbfbc0e5a35d67ba2	-0.109594
53	0x3faf52a4e88234f9	0.0611774
54	0x3fe5aff8ec0f8833	0.677731
55	0xbfd0d4280ae10492	-0.262949
56	0x3fb9c486ad2dcb14	0.100655
57	0x3f923882fe4ca199	0.0177937
58	0x3fb3b4e3a1fb67eb	0.0769789
59	0xbfc4606fac6045bb	-0.159193
60	0xbfd169a0ad8a1166	-0.272072
61	0xbf8d6ee8ebe74447	-0.0143717
62	0xbfd6b2c40d0aaa7e	-0.354661
63	0xbf8bfdc2381e547f	-0.0136676
64	0xbfc7460242d05f29	-0.181824
65	0x3fcc98c3b0c4588a	0.223412
66	0xbf9bff97fb33e865	-0.0273422
67	0x3fcd9274e22a2c23	0.231032
68	0x3fb954ff35d5a4e3	0.0989532
69	0xbfa770d7d970493e	-0.0457828
70	0x3fb65bde4d27d0ff	0.0873393
71	0xbfa24e5fdf63a846	-0.0357542
72	0x3fb1f6fecf7e57f5	0.0701751
73	0x3fe3436544fe36d2	0.601977
74	0xbfdf1a21ea359360	-0.48597
75	0x3f9fe8759fbf4d88	0.0311602
76	0x3fd9c532a497fa5d	0.402661
77	0xbfea5d590c0ad03e	-0.823895
78	0xbfa2dfdd4ac951ee	-0.0368642
79	0xbfe10ebaade657b8	-0.533048
80	0xbfdc5b9e8c47a17f	-0.443092
81	0xbf92099d37b3cb74	-0.0176148
82	0xbfe17de939eadd59	-0.54662
83	0x3fe31c842fa50939	0.597231
84	0xbf86cfc829cfdd23	-0.0111385
85	0xbfe4601bc98a222d	-0.636732
86	0x3fdbaf251c193b3a	0.432565
87	0x3fc3a21ea35935fc	0.153385
88	0x3fa93c89f40a2878	0.04929
89	0x3f936c30aac2b6c9	0.0189674
90	0x3fc3762d83c6c97e	0.152044
91	0x3fa1f71143f52256	0.0350881
92	0xbfe0bebbfd71b047	-0.523283
93	0xbfd6c61d8622c450	-0.355842
94	0x3fdb873ffac1d29e	0.43013
95	0x3fd1bd76ee73e682	0.277189
96	0xbfd2caff6d330942	-0.29364
97	0x3fd03b320535c9e6	0.253613
98	0xbfa78f620832d469	-0.0460158
99	0x3fe95faebc408d8f	0.79293
100	0xbfdcb33daf8df7a5	-0.44844
101	0xbf5235c259ac43c0	-0.00111145
102	0x3fd6b62c77574f72	0.354869
103	0xbfd8836a832b990b	-0.383021
104	0x3ff34ce1c58255b0	1.20627
105	0xbfe737d41743e964	-0.725565
106	0x3fe194940bbb1f25	0.549387
107	0xbf90bf6ae47a687c	-0.0163552
108	0x3fa228a0323a0ef0	0.0354662
109	0xbfe11ae4f3343fa3	-0.534533
110	0xbfdfb8561d4306e6	-0.495626
111	0x3fe0fe3f359ff4fd	0.531036
112	0x3fe0778140dd3fe2	0.514588
113	0x3fcbd5b24e9c4546	0.217459
114	0x3fe7e54b48d3ae68	0.74674
115	0x3fc5e468cac4b4d0	0.171033
116	0xbfa1df2fa5dff8f9	-0.0349059
117	0x3fe6be89a88ace25	0.710759
118	0xbff132aae297396d	-1.07487
119	0x3f9bab5de73be3dc	0.0270209
120	0xbfd3ff21b3aeee95	-0.312447
121	0xbf824343cc888448	-0.00891736
122	0xbfcbd9dba908a266	-0.217586
123	0x3fdab90a7829068a	0.417544
124	0xbff74c8366516db1	-1.45618
125	0x3f99e1bdf59974b1	0.0252752
126	0x3fe1ff7164c729f6	0.562432
127	0xbffa2ea747d805e6	-1.63639
128	0x3fedb313be22e5de	0.92811
129	0x3fb7ee6c59c56e34	0.0934818
130	0x3fe6c6aa087ca644	0.711751
131	0x3fe34573a797891e	0.602228
132	0x3fd53a81dc0db270	0.331696
133	0x3fa99db7358bd307	0.0500314
134	0x3fd642070b8cfbfc	0.34778
135	0x3fe9ec0724b76f6d	0.810062
136	0xbfb10fa58f7121ab	-0.066645
137	0x3fd7f4b1ee243569	0.37431
138	0xbfea5785f8d2e515	-0.823184
139	0x3fa268bbab3c594d	0.0359553
140	0xbff8155714b9cb68	-1.50521
141	0xbfa45c24c404a72f	-0.0397655
142	0xbff2ea9e6eeb7026	-1.18228
143	0x3fd44e054690de09	0.317262
144	0x3fe577dfa00e27e1	0.670883
145	0xbfbb2cb641700cd8	-0.106151
146	0x3fe5b5bf6a0dbad4	0.678436
147	0x3fe3044ae85b9e8c	0.594274
148	0xbfa94378fb946075	-0.0493429
149	0xbfb7935257bba8b8	-0.0920917
150	0x3fb9aee631f8a090	0.100325
151	0xbf9eace3f9393c62	-0.0299564
152	0x3ff10b8cfbfc6541	1.06532
153	0x3ff1732df505d0fa	1.09062
154	0xbff42b367a0f9097	-1.26055
155	0xbfe1eb0b7c3504c5	-0.559942
156	0x3fe6fb784662bae0	0.718197
157	0xbf9afbad8ae825ef	-0.0263507
158	0x3fdc388a8b08dd1e	0.440951
159	0x3fa5b6de4dfe9094	0.0424108
160	0xbfe2e935b91f70df	-0.590968
161	0x3fef7a43fe5c91d1	0.983675
162	0x3fe7824b33daf8df	0.734655
163	0x3fd476102795703f	0.319706
164	0x3fefb4c1a8ac5c14	0.990815
165	0x3fc5d84901d19158	0.170663
166	0x3f94aecf8bc3ee01	0.0201981
167	0xbfc42b8c75c4a83b	-0.157579
168	0xbfdfbefd00713f07	-0.496032
169	0xbf9991f8bb68207b	-0.0249709
170	0xbfa4ffe4514dd06d	-0.0410148
171	0x3f8355f07776d9fc	0.00944126
172	0x3f8e41ac72ba31c0	0.0147737
173	0x3fc9fd2e94680171	0.203039
174	0x3ff61fbe76c8b439	1.38275
175	0xbf8eb4f6ed31c722	-0.0149936
176	0xbfdd1ec4e7253da7	-0.455003
177	0x3ff2d4f3775b8130	1.17699
178	0x3fe3a5072085b185	0.613895
179	0x3f873797460242d0	0.0113365
180	0x3fad2674080f98fa	0.056934
181	0xbfd955193708aac9	-0.395819
182	0xbf76eacdbeba3a79	-0.00559502
183	0xbfb7d1ac2f9e533d	-0.0930431
184	0x3fd0ff25e56cd6c3	0.265573
185	0xbfe9c21187e7c06e	-0.80494
186	0x3ff18a86d71f3626	1.09632
187	0x3fe847f13059641f	0.758782
188	0xbfc213b9f127f5e8	-0.141227
189	0xbf758cd4ba2c0b4c	-0.00526126
190	0xbff0134acaff6d33	-1.00471
191	0x3f9afeaa956a5ff0	0.0263621
192	0xbfe3fd1bb4916ca4	-0.624647
193	0xbfd2096bb98c7e28	-0.281825
194	0xbfe7f9873ffac1d3	-0.74921
195	0x3fdb9c0229a5ebb7	0.431397
196	0x3fcb5dbb9cf9a06a	0.213798
197	0xbfcb16ebd4cfd08d	-0.211637
198	0xbf9a38ab423889b4	-0.0256068
199	0x3f96711871100d94	0.0219158
200	0x3fce66c2acb85a4f	0.237511
201	0xbfa4aaa483d86735	-0.0403644
202	0x3ff343c9eecbfb16	1.20405
203	0x3fdd777d0f1f57b4	0.460418
204	0xbffcd330941c8217	-1.80156
205	0xbfe17620ee8d10f5	-0.54567
206	0x3ffafa0f9096bb99	1.68605
207	0xbfa146009551357d	-0.0337372
208	0xbfe5cd594f26aec0	-0.681317
209	0x3fd5dee34fc610f1	0.341729
210	0xbfb0cd169ea7f654	-0.0656294
211	0x4002ca5ce5b4245f	2.34881
212	0x3fc72778140dd3fe	0.180892
213	0x3f8e7a08da9a14ea	0.0148812
214	0x3ffdaeb1c432ca58	1.85515
215	0x3fdb24463065f959	0.424089
216	0xbfaca4dcc3bad554	-0.0559453
217	0x3fd5904f6dfc5cdd	0.336933
218	0x3fe17eb4a66559f7	0.546717
219	0xbf920c8620401168	-0.0176259
220	0x3fe0c4c165907d91	0.524018
221	0x3f80f6273929ed39	0.008282
222	0x3fbd78b3700474da	0.115123
223	0xbfd1bb23571d1d47	-0.277047
224	0x3fb9124653a167c4	0.0979351
225	0xbfabfd9d4f30bfbb	-0.0546693
226	0xbfa1033f4fa12803	-0.0332279
227	0x3ffc39628cbd1245	1.76401
228	0x3fd6a365cb35f3d8	0.353723
229	0xbfd10817fc7607c4	-0.266119
230	0xbf8b98f0266e28d3	-0.0134753
231	0xbfd8caea747d805e	-0.387385
232	0xbfa8e4fef2b9c660	-0.0486221
233	0xbfd2f8ceb356da01	-0.296436
234	0x3fbb8aa00192a737	0.107584
235	0xbfd34f440af1cb8a	-0.301713
236	0x3fea9dbca9691a76	0.831755
237	0xbff02c12ad81adeb	-1.01076
238	0x3fc53a3ec02f2f98	0.16584
239	0xbf9b4b28f33e509e	-0.0266539
240	0xbfe02ff08893b7d8	-0.505852
241	0xbf5e70029c677f40	-0.00185776
242	0xbfdeb9628cbd1245	-0.480065
243	0x3fd6b9ae0c176577	0.355083
244	0xbff0c6e6d9be4cd7	-1.04856
245	0x3fc1ef49cf56eac8	0.140115
246	0x3fec97204295a6c6	0.893448
247	0x3fdb4aba38759253	0.426436
248	0xbf9fc3f811f4f50a	-0.031021
249	0x3fe0f646ae3a3a8e	0.530063
250	0x3fff4467381d7dbf	1.9542
251	0x3f879900ed65c988	0.0115223
252	0x3ff688ce703afb7f	1.4084
253	0x3fe33cc07aaef2c7	0.601166
254	0xbff63eea209aaa3b	-1.39036
255	0x3fd3d5410f94c87a	0.309891

FC2_bias f8 [50]
0	0x3fe3a9b499d0203e	0.614466
1	0xbff2692f6e82949a	-1.15068
2	0x3ff818f1d3ed527e	1.50609
3	0xbf965d546eed1da5	-0.0218404
4	0x3ff1974e65bea0ba	1.09944
5	0x3fe4e6256366d7a5	0.653094
6	0xbfe5bc87db2b3461	-0.679264
7	0xbfe2c13fd0d0678c	-0.58609
8	0x3fd39496249a133c	0.305944
9	0xbfeff3e89a88ace2	-0.998524
10	0xbff4dbd512ec6bcf	-1.30367
11	0x3ff37fc115df6556	1.21869
12	0xbff3b24c8366516e	-1.23103
13	0xbfd1379314445aa3	-0.269017
14	0xbfc0ecfa69be09bb	-0.132232
15	0xbfe4b35b0bbf50e3	-0.646894
16	0xbfffe1b089a02752	-1.9926
17	0xbfedf25e56cd6c2f	-0.935836
18	0xc0055c486ad2dcb1	-2.67006
19	0x3fe5fa02fb5d0310	0.686769
20	0xbffd90b630a91538	-1.84783
21	0xbfec2009f623076c	-0.878911
22	0xbff251d68c692f6f	-1.14498
23	0xbfe49db22d0e5604	-0.64425
24	0xbfe1d3804534bd77	-0.557068
25	0xbfc2ae07e5a78f26	-0.145936
26	0xc002992641b328b7	-2.32478
27	0x3ffb2df505d0fa59	1.69872
28	0xbfa10fb2fb6a6f0a	-0.0333229
29	0x3fed35f5f0b28523	0.912837
30	0xbfc31fff79c842fa	-0.149414
31	0xc0052012599ed7c7	-2.64066
32	0xbf99959d8b96a198	-0.0249848
33	0xbfe89351159c4977	-0.767983
34	0x3ff4ea400fba8827	1.30719
35	0xbff6cdfce3150dae	-1.42529
36	0xbfbf547e06961c37	-0.122383
37	0xbf8c047834c503ab	-0.0136804
38	0xbfe898a86d71f362	-0.768635
39	0xbfc23400b88ca3e8	-0.142212
40	0xbfc68d9f90539fba	-0.176197
41	0xbff0f0f7b9e060fe	-1.05883
42	0xbff87aa25d8d79d1	-1.52994
43	0xbfe790ff97247454	-0.73645
44	0xbfeaeea209aaa3ad	-0.84163
45	0xbfa63a373372f413	-0.0434129
46	0xbff52d4d4024b33e	-1.32356
47	0x3ff4584f4c6e6d9c	1.27156
48	0xbff260e94ee392e2	-1.14866
49	0xbffaaa454de7ea60	-1.66657

FC2_weight f8 [50, 50]
0	0xbfb9ff3f0fe047d4	-0.101551
1	0x3fce7bbb62413db8	0.238151
2	0x3fb1443690b5c549	0.0674471
3	0xbf9788db0574b407	-0.022983
4	0xbfba40e9d51b4fe8	-0.102553
5	0xbfdc9085f4a1272d	-0.446321
6	0x3fb4a15e89f912a6	0.0805873
7	0x3fcfe80bed740c41	0.249269
8	0x3fc17acc4ef88b97	0.13656
9	0x3fe304662bae03b4	0.594287
10	0xbfe546cdaf4adbc6	-0.664893
11	0xbfca8deb0fadf2ed	-0.207456
12	0xbfc4c679cc74b839	-0.162307
13	0xbfe732df505d0fa6	-0.72496
14	0xbfb7aaa3ad18d25f	-0.0924475
15	0x3fe2cf54d1e96c40	0.587809
16	0x3fe5fa7008a697af	0.686821
17	0xbfb3434a01abd1ab	-0.0752455
18	0xbfc41ce6c093d966	-0.157132
19	0x3fe377ccc0379314	0.608374
20	0x3fcfe215336deb96	0.249087
21	0x3fd7ce24bba12b5e	0.371957
22	0x3fa652e22523a5f7	0.0436011
23	0xbfd20c5eb313be23	-0.282005
24	0x3fde397dd00f776c	0.472259
25	0x3fde28d002e23290	0.471241
26	0x3fc2025bfad29995	0.140697
27	0xbfd603eea209aaa4	-0.34399
28	0x3f7e3a2a73461dc7	0.00737969
29	0x3ff42ebc408d8ec9	1.26141
30	0x3fc8f5903a7546d4	0.194994
31	0x3fb6177b46c83b6e	0.0862958
32	0x3f9eb2e4c43a5714	0.0299793
33	0xbfcd2becedd48451	-0.227903
34	0xbfcf73215fcc1872	-0.245701
35	0xbfd069c66d373b00	-0.256456
36	0x3fc2f284167a95c8	0.148026
37	0x3f762b907c8f72a4	0.00541264
38	0xbf877135cd4166d3	-0.0114464
39	0xbfe93fa2ad3e920c	-0.789018
40	0x3fb3c5d63886594b	0.0772375
41	0x3f760916542a4eb3	0.00537976
42	0x3fee86b7aa25d8d8	0.953945
43	0xbfb46824ac87b2e7	-0.0797141
44	0x3fc618a43bb40b35	0.172627
45	0xbfa7a60186e8bced	-0.0461884
46	0x3fd89b77c02afddb	0.384489
47	0xbfd3b413986338b4	-0.307866
48	0x3fe26ec7c957cd46	0.576023
49	0x3fb348cea5eae0b4	0.0753297
50	0x3fab19b181edab6a	0.0529304
51	0xbf9dd3996fa82e88	-0.0291275
52	0xbfa0ba8aaae94d36	-0.0326732
53	0x3f7b8faddd736324	0.00672882
54	0xbf9af7ede2c70a15	-0.0263364
55	0xbf94e5ad6e62b42a	-0.0204074
56	0x3f8b59d055ee491e	0.0133549
57	0xbfa03d7c62512df0	-0.0317191
58	0xbf637242e887e943	-0.00237382
59	0x3f94835f9b710a2e	0.0200324
60	0xbf76e795a5ef1272	-0.00559195
61	0xbf96637011e0d314	-0.0218637
62	0xbf6abe16fc70d453	-0.00326447
63	0xbf91b1f403727b48	-0.0172804
64	0x3fa91ec5bde4d27d	0.0490629
65	0x3f8dcac3de10c1ef	0.0145469
66	0x3f82b7e9e6b9071d	0.00913985
67	0xbf910b0516c035e6	-0.0166436
68	0xbf9856a37ac3eb7d	-0.023768
69	0x3f9857448a738be9	0.0237704
70	0x3f8040532c4ce50b	0.00793519
71	0x3f81f01e35a01ff1	0.00875877
72	0xbf7b6fc55fc60e42	-0.00669839
73	0xbf9c3bfddd1010ef	-0.0275726
74	0x3f853b0813cab820	0.0103665
75	0xbf567ff42c0c4d6b	-0.00137328
76	0x3fa72e1693c03bc5	0.0452735
77	0xbfa54e27ab3fb44b	-0.0416119
78	0xbfa36b8c4014c306	-0.0379299
79	0x3f9a719497d2193d	0.0258239
80	0x3fa65f0bff11c377	0.0436939
81	0xbf76d42f979d4017	-0.00557345
82	0xbfa039bcba301217	-0.0316905
83	0xbf9b043294a7c251	-0.0263832
84	0xbf958bf49568b271	-0.0210417
85	0x3fa42b3d9b6c01b1	0.0393924
86	0x3f975bf9fbda0092	0.0228118
87	0xbfa521c97e63b32e	-0.0412734
88	0xbf9846ce1aaaa631	-0.0237076
89	0xbf300c3ca44b236a	-0.00024487
90	0xbfa4ee21b12aafd7	-0.0408793
91	0xbf907dc01f3f6068	-0.0161047
92	0xbfa102404c206a03	-0.0332203
93	0xbf9a1aa74b330439	-0.0254923
94	0x3f90cd0c8dacfc4d	0.0164072
95	0xbf988843300078cc	-0.0239573
96	0x3f83f66b2bc804e7	0.00974735
97	0x3f8bb7f9d6f112fd	0.0135345
98	0xbf949c75ecec2705	-0.0201281
99	0xbfa19f5092bf8ac5	-0.0344186
100	0x3fe16f0ae536501e	0.544805
101	0xbff0c779a6b50b0f	-1.0487
102	0x3fb2f207efb88a20	0.0740056
103	0xbf90665096f148ad	-0.0160153
104	0x3fdf4d099e0e7360	0.489077
105	0x3fd1ee1bd1ed9dfe	0.280158
106	0x3fd1deca25529fe0	0.279223
107	0x3ff7af1a9fbe76c9	1.48025
108	0x3fe3797891e21533	0.608578
109	0x3fe99f77292c4934	0.800716
110	0x3fe5c47a17f4128c	0.680234
111	0x3fc0c55c96030c24	0.131023
112	0x3fdfe264e48626f6	0.498193
113	0xbfee45974e65bea1	-0.945995
114	0xc00edb9b66f9335d	-3.85723
115	0x3fddd0dcfcc5b8dc	0.465873
116	0xc001ace9a2c66905	-2.20943
117	0x3ff1b7414a4d2b2c	1.10724
118	0xbfa5efce5994c6cc	-0.0428452
119	0x3fe5988f42fe8251	0.674873
120	0xbff622c669057d18	-1.38349
121	0xc00a0f80dc33721d	-3.25757
122	0xbfe7036c9c0a8d22	-0.719168
123	0x3ff735bd512ec6bd	1.45062
124	0x3fdab43526527a20	0.417249
125	0x3fec4d0bb6ed6777	0.884405
126	0xbfc4aac96cc5fbf8	-0.161462
127	0x3fd44855da272863	0.316915
128	0xbf964f0b000e42b9	-0.0217859
129	0x3ff5c7c30d306a2b	1.36127
130	0x3fe77b480a5accd5	0.733799
131	0xc00d8fca42aed139	-3.69521
132	0xbfa9f6e900093a3b	-0.0507119
133	0x3ffb5306a2b17050	1.70777
134	0x3ffce61cffeb074a	1.80618
135	0xbfe508c1db0142f6	-0.657319
136	0x3fe82e5ffa3b9ae1	0.755661
137	0xbfa9e59875ad2b47	-0.0505798
138	0xc001fc3b4f616723	-2.24816
139	0xbfe16edaa92e6213	-0.544782
140	0x3fb4e91fe9aa5325	0.0816822
141	0x3f5eb2074ea8da7f	0.0018735
142	0xbfd982278d0cc35d	-0.398569
143	0xbfd70f88333fc86d	-0.360323
144	0xbfe113b7d84901d2	-0.533657
145	0x3f9e94467381d7dc	0.0298625
146	0x3fc6455eaee2003b	0.173992
147	0xbfc024e592967019	-0.126126
148	0x3ff5474538ef34d7	1.3299
149	0xc000365a9a804966	-2.02654
150	0x3fef4f00ef1348b2	0.978394
151	0x3f929b9a24d9d41c	0.0181717
152	0xbfcb01f31f46ed24	-0.210997
153	0x3f8c43b2dd377e1c	0.013801
154	0xbfd67a28bb0a2caa	-0.351206
155	0xbfe5b07d0aed99cc	-0.677794
156	0x3fe41780baa582dc	0.627869
157	0x3fd147991bc55864	0.269995
158	0x3ffbfa786c22680a	1.74865
159	0x40082acd9e83e426	3.0209
160	0x3feb92f2b66b6178	0.861688
161	0x3fd4379314445aa3	0.315892
162	0x3fe5f7574f722e1b	0.686443
163	0xc0135e060fe47992	-4.84182
164	0xbffa38ef34d6a162	-1.6389
165	0x3fe29351159c4977	0.580483
166	0xbfff3cbe61cffeb0	-1.95233
167	0x3fbaf1348b220792	0.105243
168	0xbfc602afdda8bd23	-0.171957
169	0xbfb056baf7b832e2	-0.0638234
170	0xbffe9e6eeb702603	-1.91368
171	0xc0097d46b26bf877	-3.18617
172	0xbfe7128bf3bea91e	-0.721014
173	0xbff8d83a53b8e4b8	-1.55279
174	0x3fef2dfd694ccab4	0.974364
175	0x3feaf2d1aeb3dd12	0.842141
176	0x3fca82491afc04c9	0.207101
177	0x3fd7b86b15f88fc9	0.370631
178	0x3f93e4910eb09ceb	0.0194266
179	0x3ff6c8e8a71de69b	1.42405
180	0x3fe007357e670e2c	0.50088
181	0x3fee5f7a4e7ab756	0.949155
182	0x3f71b83ea04ebf81	0.0043261
183	0xc0052fbd273d5bab	-2.64831
184	0x3fdd23854046412d	0.455293
185	0x3ff12c710cb295ea	1.07335
186	0x3ff204ab606b7aa2	1.12614
187	0x3f9df43c7d5ed070	0.029252
188	0xc007e8e0c9d9d346	-2.98871
189	0xbff5b2bfdb4cc250	-1.35614
190	0xbfe14a4d2b2bfdb5	-0.54032
191	0xbfedf525460aa64c	-0.936175
192	0xbff2a62cba732df5	-1.16557
193	0x3fd17b5aea3161a2	0.273154
194	0x3ff2d2a843808851	1.17643
195	0xbf9b131d13363daa	-0.0264401
196	0x40037bfc6540cc79	2.43554
197	0xbfe4acd9e83e425b	-0.6461
198	0x3fd68e432441fea8	0.352433
199	0xc015cceee0f3cb3e	-5.45013
200	0xbfe0b29802c0a4a0	-0.521801
201	0xbfc429ae4f3343fa	-0.157522
202	0x3fdc2a0232096788	0.440064
203	0x3f92d7b634dad320	0.018401
204	0xbfd0d234eb9a176e	-0.26283
205	0x3ff518201cd5f99c	1.31839
206	0x3ff188a47ecfe9b8	1.09586
207	0x3fe3965f5275ee9a	0.612106
208	0xbfe15eb52c9d16fd	-0.542811
209	0x3fec5b9a5a89b952	0.886182
210	0x3fe76aec0724b76f	0.731802
211	0x3f81ac2389f2dd83	0.00862911
212	0xbff25d6e04c05921	-1.14781
213	0x3fc87fc32ebe596d	0.191399
214	0x3ff670f7b9e060fe	1.40258
215	0x3fdc182a9930be0e	0.438975
216	0x3ff4e0956c0d6f54	1.30483
217	0x3fd772cd7cf5f4e4	0.366382
218	0x3ff5c486ad2dcb14	1.36048
219	0x3ff431ceaf251c19	1.26216
220	0x3feaab606b7aa25e	0.83342
221	0x3fa7e4a1d5a83da1	0.0466662
222	0x3fdb87d2c7b890d6	0.430165
223	0x3f9a96985d59776b	0.0259651
224	0xbfe310c9107faa04	-0.595799
225	0xbfe1f368ad688377	-0.560963
226	0x3fe1b7b8d3f1843c	0.553677
227	0x3fccd73860999dcb	0.225318
228	0xbf558acbf6631e32	-0.00131483
229	0x40040801f75104d5	2.50391
230	0x3fb6cd5d1584cc83	0.0890711
231	0x3fe7f5c8d9f9053a	0.748753
232	0x3f9ef73556232244	0.0302399
233	0xc0100b50b0f27bb3	-4.01105
234	0x3fe078af3e468cac	0.514732
235	0x3fc315bdd76683c3	0.149101
236	0xbfe0da554b8bef8d	-0.526652
237	0xbfa5ddf43c7d5ed0	-0.042709
238	0x3fe333397dd00f77	0.600003
239	0x3fc88dfbd6a593a3	0.191833
240	0x3fb4a93bce0c67ed	0.0807073
241	0xbfd0e3369b9d7fd8	-0.263868
242	0xbfedf7b9e060fe48	-0.93649
243	0xbff92f6e82949a56	-1.57408
244	0x3fd96f8f041461b7	0.397434
245	0x3f62dc2b0ea18373	0.00230225
246	0x3ff132a0663c74fb	1.07486
247	0x3ff11c6d1e108c3f	1.06944
248	0x3ff421ff2e48e8a7	1.2583
249	0x3fe68a41a261bf38	0.704377
250	0xbfe283dff3f0fe04	-0.578598
251	0xbfc5e5b8561d4307	-0.171073
252	0x3fc2a9691a75cd0c	0.145795
253	0xbfa53c28a53ab78c	-0.0414746
254	0x3fb72ced9ed46bfd	0.0905293
255	0xbfb5726a80a75a4c	-0.0837771

FC3_bias f8 [50]
0	0x3fe67b56b8737974	0.702556
1	0x3ff634e11dbca969	1.38791
2	0x3fd5a9478c868ba0	0.338457
3	0x3ffd39d5e4a38327	1.82662
4	0x3fece52bd3c36113	0.902975
5	0xbff90ce703afb7e9	-1.56565
6	0x4005ec8605681ecd	2.74049
7	0xc004402f2f987400	-2.53134
8	0xbff03d512ec6bce8	-1.01497
9	0xbfdacffeb074a772	-0.418945
10	0x3ff49fddebd9018e	1.28903
11	0xbff072da122fad6d	-1.02804
12	0x4013fde3fbbd7b20	4.99794
13	0x3fe9f92d1287c201	0.811667
14	0xbffd599ed7c6fbd2	-1.83438
15	0x4002a86d71f36263	2.33224
16	0x3fbfaf20ea5b530d	0.123766
17	0xbfc9ebe9c886162f	-0.202512
18	0x3ff31ecd4aa10e02	1.19502
19	0x3fead4bad7d7c2ca	0.838468
20	0x3fe48a5482385404	0.641886
21	0x3f7f50651d3b2443	0.00764503
22	0xc002069d7342edbb	-2.25323
23	0x3fe6b320535c9e67	0.709366
24	0xbfa45f17bd8be729	-0.039788
25	0x3fe899d883ba3444	0.76878
26	0xbfef4914b167ec78	-0.977671
27	0x3fcb06d506573216	0.211146
28	0xbfeacc1a8ac5c140	-0.837415
29	0xbffc0e60807357e6	-1.75351
30	0x3fd971c10d7be985	0.397568
31	0xbfdabddfc9ff92f3	-0.417839
32	0x3ff3baf102363b25	1.23314
33	0x3ffaf7ced916872b	1.6855
34	0x3fb142c06ef078a3	0.0674248
35	0x400336fd21ff2e49	2.40185
36	0xbf9b516cda1dee28	-0.0266778
37	0xc003860fe47991bc	-2.44046
38	0x3fd0e675147f1306	0.264066
39	0xbfe48ef34d6a161e	-0.64245
40	0x3ff078ab0c88a47f	1.02946
41	0x3feb2dafd113836b	0.849327
42	0x3fee08bda9435ac9	0.938567
43	0x3ff51bbadc0980b2	1.31927
44	0xbff921ff2e48e8a7	-1.5708
45	0x3feae1565c2d2780	0.840007
46	0x3febf6683c297bfa	0.873829
47	0xbfc54b1ee2435697	-0.166355
48	0x3ff7bb83cf2cf95d	1.48328
49	0x3fef9fd9ba1b1961	0.988263

FC3_weight f8 [50, 50]
0	0xbfff8ca8198f1d3f	-1.97184
1	0xc02082be8bc169c2	-8.25536
2	0xbff30dd82fd75e20	-1.19088
3	0x3fff6f49cf56eac8	1.96467
4	0x402362bbecaab8a6	9.69284
5	0x3ffc583a53b8e4b8	1.77154
6	0xc00bebe37de939eb	-3.49018
7	0xbfde42070b8cfbfc	-0.47278
8	0xbffd1b280f12c27a	-1.81913
9	0xc014b4d4024b33db	-5.17659
10	0xc0071ad96a6a0126	-2.88811
11	0x3ff1b05faebc408e	1.10556
12	0xc00912c7b890d5a6	-3.13417
13	0xc027bc36113404ea	-11.8676
14	0xc0232b313be22e5e	-9.58436
15	0xbffae1cffeb074a7	-1.68013
16	0xc00133a68b19a416	-2.15022
17	0xbfd94299d883ba34	-0.39469
18	0xc0132d2b2bfdb4cc	-4.79411
19	0xbffe1a95421c0443	-1.88149
20	0xc0158331e3a7daa5	-5.37812
21	0x3ff28e4b87bdcf03	1.15974
22	0xc02a55cfaacd9e84	-13.1676
23	0xc0112e19b90ea9e7	-4.29502
24	0xbf6ef3cb943d8f2d	-0.00377836
25	0xc0103fb9389b5200	-4.06223
26	0xc01c6a67620ee8d1	-7.10391
27	0xc02da6f694467382	-14.8261
28	0xc0036b020c49ba5e	-2.42725
29	0xbffa83d9a95421c0	-1.65719
30	0xbff9e1869835158c	-1.61756
31	0xc0166c61522a6f3f	-5.60584
32	0xc01d796d0917d6b6	-7.36858
33	0x3fb6e58021f94f0c	0.0894394
34	0xbff5632a0663c750	-1.33671
35	0xc014fbcfd4bf0996	-5.24591
36	0xbfa0224320e70055	-0.0315114
37	0xc03163eab367a0f9	-17.3903
38	0xbfeefecdd0d8cb08	-0.968604
39	0xc02a7ae147ae147b	-13.24
40	0xc00febb98c7e2824	-3.9901
41	0xc02b4b295e9e1b09	-13.6468
42	0xc01bc3c4b09e98dd	-6.94118
43	0x4001d2f1a9fbe76d	2.228
44	0x3f7ffe553008307b	0.00781091
45	0xc007c61a60d4562e	-2.97173
46	0xbff05072085b1855	-1.01964
47	0xc004df601797cc3a	-2.60907
48	0xc007cccccccccccd	-2.975
49	0xbff5001f75104d55	-1.31253
50	0x400586d1e108c3f4	2.69083
51	0x3ff2dd2f1a9fbe77	1.179
52	0xbfec94ec204f2ae0	-0.893179
53	0xbfc7c558644523f6	-0.18571
54	0x3fd93d3e4ef0281c	0.394363
55	0xbfdf30b178b37004	-0.487347
56	0x3ff495b573eab368	1.28655
57	0xbff017c1bda5119d	-1.0058
58	0xbfc4b81733226c3c	-0.161868
59	0x3ffc64b87bdcf030	1.77459
60	0xbff3e646f1561911	-1.24372
61	0x400e51fb3fa6defc	3.79003
62	0xbf9669e2f2a8ff68	-0.0218883
63	0x40015782d38476f3	2.16773
64	0xbff249cf56eac860	-1.14302
65	0x3fd421ccd9620685	0.314563
66	0x401123886594af4f	4.2847
67	0x3fd8954eb13dfb0d	0.384113
68	0xbffa30be0ded288d	-1.6369
69	0x3fc609cc319c5a3e	0.172174
70	0xc0031172ef0ae536	-2.38352
71	0xbf7dd3a8333a6a09	-0.00728193
72	0xc00a7e86833c6003	-3.31178
73	0x3ff8f71c970f7b9e	1.56033
74	0xbf95967e5c267184	-0.0210819
75	0x3ff73ba3443d46b2	1.45206
76	0xbffd7a63736cdf26	-1.84238
77	0x400b259f2ba9d1f6	3.39337
78	0xbfd7ae70c1333b97	-0.370022
79	0xbff8736262cba733	-1.52817
80	0x4003a8db8bac710d	2.45745
81	0x4009407dd4413554	3.15649
82	0x3fcf63886594af4f	0.245225
83	0x40143b0b39192642	5.05766
84	0x3fdd70eb24a6a876	0.460017
85	0x3ff60f1d3ed527e5	1.37869
86	0xbf9284d91834aa2c	-0.0180849
87	0xbff3e4f765fd8adb	-1.2434
88	0x3ff116e58a32f449	1.06809
89	0x3ffc2b4b72c5197a	1.76057
90	0x3fefd082cf52b90a	0.994203
91	0xc01a2ac5c13fd0d0	-6.54177
92	0x3ffd6c41dd1a21ea	1.83893
93	0xbfe44ccab3edd8b6	-0.634374
94	0xbfc963779e9d0e99	-0.198348
95	0xbfe592513b5bf6a1	-0.674111
96	0x3ff97d028a1dfb94	1.59302
97	0x3fff0092ccf6be38	1.93764
98	0x3ff572324c836651	1.34038
99	0x3fd70fc2eba27aea	0.360337
100	0xbfe975cd0bb6ed67	-0.79563
101	0xc005b87bdcf0307f	-2.71508
102	0xbfd2e158750c1b97	-0.295004
103	0x3fdbd63022dd7a9a	0.434948
104	0x3fe919029ae4f334	0.784303
105	0xc003ee631f8a0903	-2.4914
106	0xbfb6c5c2ed4ffa13	-0.0889551
107	0x3f832faff0f3f382	0.0093683
108	0x3fe08cfbfc6540cc	0.51721
109	0x3fe00a65492ff4ba	0.501269
110	0xbf8ced2608a8452e	-0.0141242
111	0x3fd7265add9c27e9	0.361716
112	0x3feba0ee8d10f51b	0.863395
113	0x3fd5d2849cb252ce	0.340974
114	0xbffef2cf95d4e8fb	-1.93428
115	0x3fe7340d4dc65c70	0.725104
116	0x3fe9f572de43ed96	0.811212
117	0x3fd3031055b89939	0.297062
118	0x3fd9606b7aa25d8d	0.39651
119	0x3fa7f7ed0c07753f	0.0468134
120	0xbfcd021d10b1feeb	-0.226627
121	0x3fbf59ff4fd6d7e9	0.122467
122	0x3fd345dc8323358f	0.301139
123	0x3fd39888f861a60d	0.306185
124	0xbf9456ad8bbee583	-0.0198619
125	0x3fc1f92f2b66b617	0.140417
126	0xc000c216c61522a7	-2.09477
127	0x4006bf487fcb923a	2.8434
128	0x3fc041dd1a21ea36	0.12701
129	0xbf54f7c94fbfb0da	-0.00127978
130	0x40028644523f67f5	2.31556
131	0x3fdad30ad46f587d	0.419131
132	0x3fd6c94b380cb6c8	0.356036
133	0x3ffc4ccccccccccd	1.76875
134	0x3fe30a6dacabc515	0.595023
135	0x3fdc27bb2fec56d6	0.439925
136	0xbf8b3cfa5c52106e	-0.0132999
137	0x3fc3af965b20b806	0.153796
138	0x3fd196d8f4f93bc1	0.274832
139	0x3fd7b4e54f7a9197	0.370416
140	0x3fe20aac96cc5fc0	0.563803
141	0xbfe20bc59b8023a7	-0.563937
142	0x3ff5097635e7429a	1.31481
143	0x3fbcb0e1b4bb5e0f	0.112074
144	0xbff316e58a32f449	-1.19309
145	0x3fc7e7ea5f84cad5	0.186765
146	0x3fd88476f2a5a46a	0.383085
147	0x3fd02b94d9407896	0.25266
148	0xbff4ec6bce8533b1	-1.30772
149	0x3ff0f57928e0c9da	1.05993
150	0xbf943e74afd54541	-0.0197695
151	0x3fa5832914cc3fdf	0.0420163
152	0x3f9ee095d76d39bf	0.0301536
153	0x3f9d19299cb17c0e	0.0284163
154	0x3f67545516ddbd0a	0.00284783
155	0x3f84334b3100d3e5	0.00986346
156	0xbf9241f99f93ae9e	-0.0178298
157	0xbfa94f483cafb3b7	-0.049433
158	0xbf973519bd4067cf	-0.0226635
159	0xbfaa492bc2fc6973	-0.0513395
160	0xbfabb53c8d4f087c	-0.0541171
161	0x3f9472126c134e91	0.0199664
162	0x3f8377f1d418459c	0.00950612
163	0x3f76de12f047a632	0.00558288
164	0x3f953bd81d62e756	0.0207361
165	0xbf957bba8b81a8e2	-0.0209798
166	0xbf904d9eef43f01a	-0.0159211
167	0x3fa9e37c3bbac132	0.0505637
168	0x3fa2e1db51cacdef	0.0368794
169	0xbfa177c88e79aae7	-0.034117
170	0xbf975c00b1d6a741	-0.0228119
171	0xbf8e5cba153a23e8	-0.0148253
172	0x3fa49f2925933780	0.0402768
173	0x3fa39ab87d8a6f5a	0.0382898
174	0x3f92dc74e07cacfa	0.0184191
175	0xbf99c6957b26e7cb	-0.0251716
176	0x3f9e54f0f31cc2ae	0.0296209
177	0x3fa5e3eaf6837f7c	0.0427545
178	0xbf8b74ddf86e3b47	-0.0134065
179	0x3f85cf09bdeee378	0.0106488
180	0xbf802f7d7119f39c	-0.00790308
181	0xbf949cf56eac8605	-0.02013
182	0xbfa5b1ad8c95a518	-0.0423712
183	0xbf973365881a1555	-0.022657
184	0xbfa4df520a8ecf3b	-0.0407663
185	0xbfa247e2eda081eb	-0.0357047
186	0xbf73b754c076a828	-0.00481351
187	0xbf933a1173c5ca7a	-0.0187762
188	0x3f8a147e3c46016c	0.0127344
189	0x3fa7f0e32c8aa286	0.0467597
190	0xbfad3246a4293f94	-0.0570242
191	0xbfaae13a421b2d83	-0.0524996
192	0xbf8429855f7ae4ce	-0.00984482
193	0x3f9c5fda5b2ac901	0.0277094
194	0x3f8a7503b81b64e0	0.0129185
195	0xbf6c3423482e97ee	-0.00344283
196	0x3fa676a0704d6ff5	0.0438738
197	0xbf9e59443ef43196	-0.0296374
198	0x3f902b40f66a5508	0.01579
199	0x3f99b18f59a4b704	0.0250914
200	0xbfd92580c308feac	-0.392914
201	0x3fed3f8769ec2ce4	0.914005
202	0xbfe82474538ef34d	-0.75445
203	0x4001d3fd0d0678c0	2.22851
204	0xbfcbf141205bc01a	-0.2183
205	0x3fe0a28997c3d684	0.519841
206	0xbfd16da0168b5cc0	-0.272316
207	0x3ffcc7c30d306a2b	1.79877
208	0x3fd93a322af57710	0.394177
209	0xbfe1db6a1e81cb47	-0.558034
210	0xbff13b59ddc1e796	-1.07699
211	0x3fe74069e7fb267c	0.726613
212	0x40020068db8bac71	2.2502
213	0x4004455da272862f	2.53387
214	0xbff0037b4a2339c1	-1.00085
215	0xbfd3ee631f8a0903	-0.311425
216	0x3fe555ae1cde5d18	0.666709
217	0xbfaa03c4b09e98dd	-0.05081
218	0xbfd6767d34df04de	-0.350982
219	0xbfebd61f5be5d9e4	-0.869888
220	0x3fecb9c7368ad688	0.897678
221	0xbffe28438088509c	-1.88483
222	0x3fab7810b2d5aac2	0.0536504
223	0xbfeaf30e7ff583a5	-0.84217
224	0x3f5378379f28a4ba	0.00118833
225	0x3ff3fc504816f007	1.2491
226	0x3fb2f445b79a35a1	0.0740398
227	0x3fe0178f68be2f7b	0.502876
228	0xbfed1314445aa2e4	-0.908579
229	0xbfe2b00ffda4052d	-0.583992
230	0xbfe17023e9ea1405	-0.544939
231	0x3ff2a5b9628cbd12	1.16546
232	0x3ff667ab7564302b	1.40031
233	0xc007c2d38476f2a6	-2.97013
234	0xbfdded0f6273929f	-0.467594
235	0xbfb271a70c48e39f	-0.0720467
236	0x3f6624ca64bd99d4	0.00270309
237	0xc00934d6a161e4f7	-3.1508
238	0x3f8418e6abc616fb	0.00981312
239	0xbfd7705425f20210	-0.366231
240	0x3fe2d6366d7a56de	0.588649
241	0x3fd3a9c560c7c0f4	0.307237
242	0x400177d955714b9d	2.18352
243	0x3fa8147c8ec6d7c0	0.0470313
244	0xbfecc08fa7a85016	-0.898506
245	0x3fe74a46e08f2171	0.727817
246	0x3fecf75d9a0f0a5f	0.905196
247	0x3fd9e4f765fd8adb	0.4046
248	0xbfa4dfce3150dae4	-0.04077
249	0xbffb07fcb923a29c	-1.68945
250	0xbfda97fe8ee6b830	-0.415527
251	0xbfd31c75818c5c9a	-0.298612
252	0xbfcaf8c64fdb09a6	-0.210717
253	0xbfb63d7e0fd0579c	-0.0868758
254	0xbfe6b97fe8ee6b83	-0.710144
255	0xbfbface67d77fae3	-0.123732

FC4_bias f8 [50]
0	0xc00918b2e9ccb7d4	-3.13706
1	0xbffa54d4024b33db	-1.64571
2	0xbff934cc25072086	-1.57539
3	0xbfd16338b47c73ef	-0.271681
4	0x3fdf338f7985271c	0.487522
5	0x3ff8bbe22e5de15d	1.54587
6	0xbff164c2f837b4a2	-1.0871
7	0xbfb8bde9043af824	-0.0966478
8	0x3ff670995aaf78ff	1.40249
9	0x3feaf5f0b28522ea	0.842522
10	0x3fe54d4024b33db0	0.66568
11	0xbff04bdba0a52696	-1.01852
12	0x3ff21fe86833c600	1.13279
13	0x4003e3e186983516	2.48627
14	0x3fe4d4a3c64345d0	0.650957
15	0xbfa5f6deef0e4035	-0.0428991
16	0xbff375104d551d69	-1.21608
17	0xc007804ea4a8c155	-2.93765
18	0x3ffaaf6e82949a56	1.66783
19	0xc00d6baf102363b2	-3.67758
20	0x3fe437c3504c48ae	0.631807
21	0xbfdeb677f6b1a2a5	-0.479887
22	0x4004fabc947064ed	2.62243
23	0x40118113404ea4a9	4.37605
24	0x3fdf2584f4c6e6da	0.486665
25	0xc00783aa79bbadc1	-2.93929
26	0xbfdfc05d52c16df4	-0.496116
27	0x400249f94855da27	2.28612
28	0xbff95460aa64c2f8	-1.5831
29	0xbffa2b6ae7d566cf	-1.6356
30	0xc0034b87bdcf0308	-2.41188
31	0xbff31465e8922531	-1.19248
32	0xc005395810624dd3	-2.653
33	0x3fe5eb8305d95dd5	0.684999
34	0x3fee7c0096feb4a6	0.952637
35	0xbff3c1355475a31a	-1.23467
36	0x40018870110a137f	2.19162
37	0xc012d38476f2a5a4	-4.70656
38	0xbfde696e58a32f45	-0.475185
39	0x3fd4cad14a0a0f4d	0.324879
40	0x3ff263150dae3e6c	1.14919
41	0xbfe22c322291fb40	-0.567895
42	0xc00c5cffeb074a77	-3.54541
43	0x3fff665bea0ba1f5	1.96249
44	0xbfad5998f889e9f9	-0.0573242
45	0xbff75edd052934ad	-1.46066
46	0x3ffc6262cba732df	1.77402
47	0x3fbe65e02ea960b7	0.118742
48	0xbff89c0ebedfa440	-1.5381
49	0xc0114855da272863	-4.32064

FC4_weight f8 [50, 50]
0	0xc018fb0dd82fd75e	-6.24517
1	0xbfdc9c0ebedfa440	-0.447025
2	0xbfecc6a5d6bebe16	-0.899249
3	0x3fcaa1059ea57215	0.208039
4	0xbff8989df1172ef1	-1.53726
5	0xbfc2d97b30f8c650	-0.147262
6	0xbfc2a38b8ae31d71	-0.145616
7	0xc006f313be22e5de	-2.86869
8	0x3ff614d940789614	1.38009
9	0xbfecfee9142b302f	-0.906117
10	0x3fe8044284dfce31	0.75052
11	0x3fd0b0ab2e1693c0	0.260783
12	0xbfd6879c4113c686	-0.352027
13	0x3ff069595feda661	1.02572
14	0xbfe8801f75104d55	-0.76564
15	0xc003b9873ffac1d3	-2.46559
16	0x3fdd0c026cc1ca3a	0.453858
17	0xbfdfe4b44a1f0803	-0.498334
18	0x3fe3354c122749f1	0.600256
19	0x3fe55d00f776c482	0.667603
20	0x3fb27789a459103d	0.0721365
21	0xbfe896f21f6cacd2	-0.768426
22	0x3fd5c07aaef2c732	0.339873
23	0x3fed8f6ad70e6f2f	0.923757
24	0xc0052bd3c3611340	-2.6464
25	0x3faaff052e3d2a2d	0.0527269
26	0xc0058b295e9e1b09	-2.69295
27	0xbffa52bd3c361134	-1.6452
28	0xbfe6c024b33daf8e	-0.710955
29	0xbfc7eda661283904	-0.18694
30	0xbfd183dff3f0fe04	-0.273674
31	0x3ff146d1e108c3f4	1.07979
32	0xbfc923a29c779a6b	-0.1964
33	0x3ffc71758e219653	1.7777
34	0xbfc6c436fc158fb4	-0.177863
35	0xc0183b71758e2196	-6.05805
36	0xbfe8db20b8066c2b	-0.776749
37	0xbfe7efb8f57f737e	-0.748013
38	0x3fe1fe846a5d6bec	0.562319
39	0xbfc47ee0b0af5fd4	-0.160122
40	0xbff110624dd2f1aa	-1.0665
41	0xbff0d57bc7f77af6	-1.05212
42	0xc00500a2877ee4e2	-2.62531
43	0xc0032b851eb851ec	-2.39625
44	0x3fd4240314877681	0.314698
45	0x3f91a594799f284f	0.0172332
46	0x3fa42730c67168f9	0.0393615
47	0x3fd0a0168b5cbff4	0.259771
48	0x3fb635e3e79b852c	0.0867598
49	0xc002d9e83e425aee	-2.3564
50	0xc0014083126e978d	-2.1565
51	0x3fe5276965f5275f	0.661061
52	0xc00b6d6238da3c21	-3.42841
53	0x3fe2d655e28aa433	0.588664
54	0xbffc766a55087011	-1.77891
55	0x3feafbcc2938de6e	0.843237
56	0x3ff66d4801f75105	1.40168
57	0x400188461f9f01b8	2.19154
58	0xbfcea6c1a048e044	-0.239464
59	0xbfbb28522ea0fd3b	-0.106084
60	0x3fda6c93a7115161	0.412877
61	0x3fff852934acaff7	1.97001
62	0x3fe3fc9ff92f2b67	0.624588
63	0xbfecfa69be09bb6b	-0.905568
64	0x4009baf640639d5e	3.21629
65	0xbfba92d55a3a083a	-0.103803
66	0xbfddaa087ca643cc	-0.463503
67	0x3fe0c016052502ef	0.523448
68	0x3ffc8d306a2b1705	1.78447
69	0xc0115fc8f32378ab	-4.34354
70	0x3fe062dc6e2a8006	0.512068
71	0x3ff035e74299d884	1.01316
72	0x3febead2dcb1465f	0.872415
73	0x3ffd555c52e72da1	1.83334
74	0xbff2d2d234eb9a17	-1.17647
75	0x3fc712a94ff0025c	0.180257
76	0xbfeb8626f60e0eb6	-0.860126
77	0xbff770e2c12ad81b	-1.46506
78	0xc0022d6238da3c21	-2.27216
79	0xc0047cce1c58255b	-2.56094
80	0x4000c13a92a30553	2.09435
81	0xbffda8198f1d3ed5	-1.85354
82	0xc001d5182a9930be	-2.22905
83	0x4005e7525460aa65	2.73795
84	0xbff1d1cc100e6afd	-1.11372
85	0xc01f0d74927913e8	-7.76314
86	0xbff8bfd0d0678c00	-1.54683
87	0x3fec0b588e368f08	0.876385
88	0x3ff1264c2f837b4a	1.07185
89	0x3ff1d1c193b3a68b	1.11371
90	0xbff35696e58a32f4	-1.20864
91	0xbfdd9335d249e450	-0.46211
92	0x3fba7d45a5fc7e6b	0.103474
93	0xbff03cfd4bf0995b	-1.01489
94	0x3ff09ffd60e94ee4	1.03906
95	0x3fc4fcce1c58255b	0.163965
96	0xbfa2ccacec5cb50d	-0.0367178
97	0x3fe9f2d1aeb3dd12	0.810891
98	0x3ff37bf1e8e60807	1.21776
99	0xbff21b7bf1e8e608	-1.13171
100	0x3fd1acaff6d33094	0.276165
101	0x3fb0052a0b6c44cd	0.0625788
102	0xbff8d79d0a67620f	-1.55264
103	0x3fe45898b2e9ccb8	0.635815
104	0xbfd7b9a176ddacef	-0.370705
105	0x3fed2d3c792d1288	0.911772
106	0xbfbcc07aaef2c732	-0.112312
107	0xc001dcfaacd9e83e	-2.2329
108	0xbfb2bf4cb1897a68	-0.0732315
109	0xbfd8e14bdfd2630f	-0.388751
110	0x3fd942396073de1e	0.394667
111	0xbf931a0209c57ba0	-0.0186539
112	0xbfbdee02a77a2ced	-0.116913
113	0x3ff8e9ec2ce46499	1.55711
114	0xbfd324edf6124074	-0.299129
115	0xbfe4aa4b9884c6a4	-0.645788
116	0x3feb3341e14bdfd2	0.850007
117	0xbfe31bc98a222d51	-0.597142
118	0x3ff05b9628cbd124	1.02236
119	0x3ff006cca2db61bb	1.00166
120	0x3fd2aafbc1acde1a	0.291686
121	0xbfd4c881e4712e41	-0.324738
122	0x3fea4f7caa7589f0	0.822203
123	0x3fd082fd75e2046c	0.257995
124	0xbfb7ae3cbecd2fc9	-0.0925024
125	0xbfb626d4801f7510	-0.08653
126	0xc00ed01e2584f4c7	-3.85162
127	0x3fb63954b563fa7b	0.0868123
128	0x3fea70d62bf11f92	0.826274
129	0xbfd8843c3a42f1ed	-0.383071
130	0xbfe4d8a761027957	-0.651447
131	0x3fedb0af5fd47bee	0.927818
132	0xbfa5bd0ab7e9e6b9	-0.0424579
133	0x3fc852d666a98245	0.190028
134	0x3fccc692f6e8294a	0.22481
135	0xbff41db22d0e5604	-1.25725
136	0xbfe3808a697aeddd	-0.609441
137	0xbff1f4fb549f9485	-1.12231
138	0xbfe29cb252ce032e	-0.581628
139	0x3fdb1be6e6538690	0.423578
140	0x3fcf73e24febd09e	0.245724
141	0x3fcb188f42fe8251	0.211687
142	0xbfec34fe79ee02a7	-0.881469
143	0x3fd29e7b80a9de8b	0.290923
144	0xbfcddcb5781c7150	-0.233298
145	0xbfdf1e57d9dba909	-0.486227
146	0xbfb606367ae6502c	-0.0860323
147	0xbfe62e275ab7dc7b	-0.693134
148	0x3fc95f6fd21ff2e5	0.198225
149	0x3fb707b784662bae	0.0899615
150	0xc007e7525460aa65	-2.98795
151	0xbfe1ac258d5842b7	-0.552264
152	0xbfe9052b4d8ba40e	-0.781881
153	0x3fd5553ac4f7ec35	0.333327
154	0xbff79a75cd0bb6ed	-1.47521
155	0x3fdb34f3fd933e36	0.425107
156	0xbfad5966a3a307d7	-0.0573227
157	0xbfd1067cf1c3265b	-0.266021
158	0xbfc306cca2db61bb	-0.148645
159	0xbfe9ff04577d9557	-0.81238
160	0x3fe77f540895d0b7	0.734293
161	0xbfccb85a4f00ef13	-0.224376
162	0xbfc4e31d712a0ec7	-0.163181
163	0x3fd27518b0d0edc4	0.288397
164	0x3fbc32441fea8113	0.110142
165	0x3fd3fcac8e68e3ef	0.312297
166	0x3ff9eb7aa25d8d7a	1.61999
167	0xc003477ee4e26d48	-2.40991
168	0xbf8808d591976c99	-0.0117356
169	0x3fe0c528283d35eb	0.524067
170	0xbfa4ca1cef240faa	-0.0406045
171	0x3fde702602c9081c	0.475595
172	0x3fa480049d1db298	0.0400392
173	0xbfbdd7342edbb59e	-0.116565
174	0x3f9696a26e547171	0.022059
175	0x3fab23e765d546ef	0.0530083
176	0xc008ce8533b10774	-3.10084
177	0xbfebde892253111f	-0.870915
178	0xbfde5fb71fbc5dea	-0.474592
179	0xbfc0fe718a86d71f	-0.132765
180	0xbfe47dcdf6987831	-0.640357
181	0x3fc1a8826aa8eb46	0.137955
182	0x3fcc3c4b09e98dce	0.22059
183	0xbfc1e99e94ab1d50	-0.139942
184	0xbfe978a4c1ebc83b	-0.795977
185	0xc00e564840e1719f	-3.79213
186	0x3fee8705425f2021	0.953982
187	0xbfef68a50507a6bd	-0.981524
188	0x3fd0232096787ce9	0.252144
189	0x3fc710a137f38c54	0.180195
190	0xbfde344c37e6f71a	-0.471942
191	0x3fb47ad8e4324420	0.0799995
192	0xbfe7dd441355475a	-0.74576
193	0xbfed75e2046c764b	-0.92064
194	0x3fc0ccd530489d28	0.131251
195	0xbfcda49c2c1b10fd	-0.231586
196	0xbfa734cc9066eaf1	-0.0453247
197	0xbfe0963dc486ad2e	-0.51834
198	0xbfb0d936679b19cc	-0.0658144
199	0xbfe358e0008637bd	-0.604599
200	0x3ffc1522a6f3f530	1.75516
201	0x3fca4ccee5abc0e4	0.205469
202	0xc00b1c486ad2dcb1	-3.38881
203	0xbfd10d130df9bdc7	-0.266423
204	0xc005ff2e48e8a71e	-2.7496
205	0xbfe0b4677b395c42	-0.522022
206	0xbfe175a74c09c3ce	-0.545612
207	0x4002897635e7429a	2.31712
208	0xbff52324c8366517	-1.32108
209	0xbfe8cc0379314446	-0.774904
210	0xbff1848beb5b2d4d	-1.09486
211	0xbfb73e4331adf7f5	-0.0907938
212	0x3fc8cbb7f9d6f113	0.193717
213	0xbff21704ff43419e	-1.13062
214	0xbfec8e0eb67c2870	-0.892341
215	0xc0186d9e83e425af	-6.10705
216	0xc000a1815a07b353	-2.07886
217	0x3ff1e5753a3ec02f	1.11852
218	0x3fc0c069e7fb267c	0.130872
219	0xbff208ede54b48d4	-1.12718
220	0x3f68ec4a967c2dce	0.00304236
221	0x3fd247fdc5931ca8	0.285644
222	0xc008bcddd6e04c06	-3.09222
223	0x3fe4f52fc2656abe	0.65493
224	0xc00f50870110a138	-3.91432
225	0x3f8676cf6a35fec0	0.0109688
226	0x3fff89aaa3ad18d2	1.97111
227	0xbfdda54823854046	-0.463213
228	0xbffc8db8bac710cb	-1.7846
229	0xbfe7a3fcc9ea9a3d	-0.738768
230	0x3fe1e94ccab3edd9	0.559729
231	0xbfedca01abd1aa82	-0.930909
232	0xbfd4e27179bfdf7f	-0.326321
233	0x3f992472a60fc9a2	0.0245531
234	0xbfd5c254a3c64346	-0.339986
235	0xc003188e368f0846	-2.38699
236	0xbfd615df6555c52e	-0.345085
237	0xbff2eabde3fbbd7b	-1.18231
238	0xbfef9ecf63800219	-0.988136
239	0xbfd770c996b7670a	-0.366259
240	0xc01e23f3e0370cdd	-7.53511
241	0x3fda666a98244e94	0.412501
242	0x3ff83d512ec6bce8	1.51497
243	0xc0097f8769ec2ce4	-3.18727
244	0xbfc77f8ca8198f1d	-0.18358
245	0x3fce19f3c70c996b	0.235167
246	0x3fb6d34d198e467f	0.0891617
247	0xbff059e83e425aee	-1.02195
248	0xbff5ec56d5cfaace	-1.3702
249	0xbff653f7ced91687	-1.3955
250	0x3fd708a265f0f5a1	0.359902
251	0xbfbeb7aa25d8d79d	-0.11999
252	0xc00071fddebd9019	-2.05566
253	0xbff94a771c970f7c	-1.58068
254	0xbffa6e392e1ef73c	-1.65191
255	0xbfec2ed56b00ffda	-0.880717
